chainerrl/TicTacToe/result_50000/model.npz (npz, 56599 bytes, 8 tensors)

l3/W f4 [9, 81]
000000 07 cd da 3d ff 2b b7 bc 03 05 e9 be 22 54 81 3d
       0.10683637 -0.022359846 -0.45511636 0.06314875
000010 53 b3 b5 bd 80 26 33 be 70 90 14 3e 69 90 44 be
       -0.08872094 -0.17495155 0.14508224 -0.19195713
000020 86 0f 45 3e ea 18 87 bd 6e 6f 1d bf 64 be 88 bd
       0.19244203 -0.06596549 -0.61498153 -0.06676939
000030 64 86 cd be 4c b0 61 3d 99 13 bb 3d ab 87 93 3d
       -0.40141594 0.05509977 0.09134597 0.07203611
000040 06 76 85 3b 80 d2 13 3e 67 71 19 bf 9d 04 34 3e
       0.0040729074 0.14435768 -0.59938663 0.17579885
000050 cf cb 41 bd 33 48 15 3d a2 92 33 bd 48 ad 34 3e
       -0.047313508 0.036445808 -0.04384101 0.17644227
000060 34 39 0d bf f4 f8 47 bd fc 38 0c be 82 aa 77 3e
       -0.5516541 -0.048821405 -0.13693613 0.24186137
000070 d4 b2 6b be bf 6a ce 3d 5a f1 fe 3d d6 ef 49 3e
       -0.23017436 0.10078954 0.12448378 0.19720396
000080 53 8e 19 bd 94 57 1f 3e dc ca 79 be 05 df 80 3c
       -0.037489247 0.15560752 -0.24393791 0.015731344
000090 39 36 8f 3e 02 c8 b6 3e 4e 98 74 3d 9f 69 9f bd
       0.27971056 0.3569947 0.05971556 -0.077838175
0000a0 86 03 14 bb 8f 35 29 bf 8b cf bc be 4f 00 51 3e
       -0.0022585108 -0.6609735 -0.36877093 0.20410274
0000b0 2f 10 20 3e 8d 43 1b bf ec bb 1d 3e 5e 45 a3 3d
       0.15631174 -0.6064995 0.15403718 0.07972215
0000c0 92 9a 20 3e d4 c1 8d 3e 55 33 85 3e aa fb 68 be
       0.15683964 0.27686942 0.26015726 -0.22752252
0000d0 0f 6a 4f bd a9 fd 16 be f4 39 c9 3c 53 e0 c1 bd
       -0.050638255 -0.14745201 0.024563767 -0.094666146
0000e0 af e8 b9 bc ce 18 61 3e ec 74 ef 3d a8 6a 91 3d
       -0.02269396 0.21982118 0.11692223 0.07100421
0000f0 cb f7 75 be d0 0d b1 bd 8d 75 6a 3e 95 46 09 be
       -0.24020307 -0.08645213 0.22896405 -0.13405831
000100 82 6c 0f 3d 33 b5 d7 3d f2 cc c0 be 83 0b fe be
       0.03501559 0.10532608 -0.3765636 -0.49618158
000110 c8 8d 1b bd 83 e8 1c bd a1 53 1e be 30 6c 74 be
       -0.03797701 -0.038307678 -0.1546159 -0.23869395
000120 95 11 b0 bc de 05 72 3e ce b3 98 be 24 b6 f9 bd
       -0.021492759 0.2363505 -0.2982468 -0.12192944
000130 36 1e 4f bd 1b 09 90 3d 1a 75 b3 be 08 12 25 be
       -0.05056592 0.07032987 -0.3505028 -0.1612016
000140 24 fb c3 3c 1b 5a 25 3d eb 58 9c be 4b d1 a5 3d
       0.023923464 0.040369134 -0.3053659 0.0809656
000150 c8 52 d8 3e 5c 87 e4 3c 2a 5c 4d 3e 3d 30 bc bc
       0.42250657 0.027896576 0.20054689 -0.02297222
000160 03 59 6a be b0 d2 2f bf 20 09 ab 3d 60 28 60 3d
       -0.22885518 -0.6868086 0.0835135 0.054726005
000170 fd 58 bb bd 0f ce de bb d1 96 1d 3e 22 10 49 3e
       -0.091478325 -0.0067994664 0.15389563 0.1963506
000180 0d 6a 66 3e 01 ac 3f 3e 2b d3 88 3e c1 02 90 be
       0.22501393 0.18717958 0.26723608 -0.281271
000190 c7 0d 1c be c0 ed 8d bd 03 9d 58 3e 9b 7d 3c 3e
       -0.1523963 -0.06930113 0.21153645 0.1840729
0001a0 6b 98 29 be 10 23 76 3d a0 33 e7 be 87 d1 6a be
       -0.16562049 0.060092032 -0.45156574 -0.22931491
0001b0 f5 cd 69 3e 63 76 7f be db ce 80 3e 67 f7 84 3e
       0.22832473 -0.24947505 0.25157818 0.25970003
0001c0 78 7a 9c be d8 2b 3e be 74 ad 53 be 44 23 35 3e
       -0.30562186 -0.18571413 -0.20671636 0.17689234
0001d0 90 f4 de 3e 51 77 6e 3e 25 0e 41 be b6 7d 35 bd
       0.4354596 0.23287703 -0.18853052 -0.04430934
0001e0 7c 27 a5 be 02 4e 86 bc 11 6e 56 be 6b 33 2a be
       -0.32256687 -0.016394619 -0.20940425 -0.16621177
0001f0 ae 08 f7 3d 04 44 23 be d7 1c 89 3d 56 77 87 3e
       0.120622024 -0.15943915 0.06694954 0.26458234
000200 76 61 5f be 55 f3 f7 bd 35 d2 94 be 58 04 15 be
       -0.21814522 -0.12106959 -0.29066625 -0.14552438
000210 a7 ff 3f 3e 6e f7 09 3d c9 32 85 be 08 3f c0 3d
       0.18749867 0.033683233 -0.26015308 0.09387022
000220 33 07 35 be 55 24 64 bd 25 1b 99 bd f1 49 ba bd
       -0.17678528 -0.05569871 -0.074758805 -0.090961345
000230 37 22 18 3e 6c 6e 30 be 6b aa 0d 3e f5 c0 02 be
       0.14856802 -0.17229623 0.1383454 -0.1276892
000240 82 d1 9b bd f2 39 3c bc a1 1b a8 be 39 bf 89 bc
       -0.0760832 -0.011488425 -0.3283358 -0.016814815
000250 d8 e1 4a 3e 8a a4 3c 3e 5a 95 22 be d6 45 a9 bb
       0.19812715 0.18422142 -0.15877286 -0.005165796
000260 5b d5 0f bd ec 64 b0 be e3 47 4d bd 11 97 48 3e
       -0.03511558 -0.34451997 -0.050117385 0.19588877
000270 04 9b af be 5d bf e7 3c 57 41 d3 be bc b7 ce be
       -0.34297955 0.028289491 -0.41260788 -0.40374553
000280 ec 1c 41 bd b5 44 ec bd 83 ba 9e 3e 12 76 ff bd
       -0.047146723 -0.11536542 0.31001672 -0.12473692
000290 80 f1 03 bf 52 66 ac 3d ad 9d bf bb 1a ed 1a be
       -0.51540375 0.084179536 -0.005847654 -0.1512951
0002a0 d8 a8 2d 3e 5b cb c5 3c 39 87 e7 3d 82 d4 b1 3e
       0.1695894 0.024144819 0.113050885 0.34732443
0002b0 56 bc 37 3e 2e f2 b8 bc c0 be ee be fe 90 08 be
       0.17942938 -0.022576418 -0.46629906 -0.1333656
0002c0 6c 32 9e bb a7 b0 8c bc d4 78 24 3d fd a6 8f bd
       -0.004827788 -0.017174078 0.040154293 -0.07014272
0002d0 b3 0c 4a 3e 6e 18 49 be 6b 84 2b bf c9 cc cd bd
       0.19731407 -0.19638225 -0.6699893 -0.10048825
0002e0 d2 ee 2f 3d dd 47 68 bd 33 71 52 be 42 6a 0a 3b
       0.042952366 -0.05670916 -0.20550995 0.0021120463
0002f0 ba b6 a3 be 37 9a 3e 3e e6 09 ea be d9 30 fb be
       -0.31975347 0.18613516 -0.45710677 -0.49060705
000300 2f ef 29 be 57 f1 3d bd 31 d5 2a bd c6 95 fd 3e
       -0.16595148 -0.046372738 -0.04170722 0.4952833
000310 d4 28 d8 3e a2 f4 87 3e fb 3f dd be ba aa dc bd
       0.4221865 0.26553828 -0.43212876 -0.10774751
000320 f5 be af 3d be 4e c8 be 51 c6 16 3e 95 23 7f bd
       0.08581344 -0.39122576 0.14724089 -0.062289793
000330 43 65 81 bd 6f c9 a7 be 5f 33 74 bd ea 22 6d bc
       -0.06318142 -0.3277087 -0.059619304 -0.014473656
000340 13 95 8e bc 36 5a e0 3d 3d 0a 2c be fd a4 35 be
       -0.017405069 0.10954706 -0.1680078 -0.1773872
000350 34 b1 80 3e 25 c9 9d 3e ef a0 f6 bd 0a 40 2b be
       0.25135195 0.30817524 -0.120424144 -0.16723648
000360 8f 5a 12 3e fe 94 ba be b7 6c c2 3d 19 25 a2 3e
       0.14292358 -0.36441797 0.09493392 0.31668928
000370 af d7 69 be 58 06 87 bd 40 7c bc be 58 17 0d 3e
       -0.22836183 -0.06593007 -0.36813545 0.13778436
000380 da 2e 7e bc 4a ff a6 3d b3 ab 57 3e aa 5c 48 bc
       -0.0155141 0.08154161 0.21061592 -0.012229124
000390 30 64 2d be 1c 92 61 bd ea f5 c7 3d ec 58 24 be
       -0.1693275 -0.05507098 0.09763701 -0.16049546
0003a0 0c 29 8e bd 0d d6 0d be fb a2 0c bd d9 fc 70 be
       -0.06941423 -0.13851185 -0.034335118 -0.23533954
0003b0 3c 62 86 3d b2 58 50 bd a9 bc e2 bd 40 6d d8 3d
       0.065617055 -0.050865836 -0.1107114 0.10567713
0003c0 75 3e 0d 3e 37 c5 ae bd d0 6a 91 3e 01 19 ea 3d
       0.13793357 -0.085337095 0.28401804 0.1143055
0003d0 94 f9 9a 3c c9 70 d0 be dc 01 2b 3e b8 92 fc 3d
       0.018917836 -0.40711048 0.16699928 0.12332672
0003e0 f8 41 27 bd dd c6 b5 bd 77 a8 23 be 06 0a 44 3e
       -0.040834397 -0.08875821 -0.15982233 0.19144449
0003f0 32 8b 04 3d 5b bb a5 3d d6 74 e9 be 21 c6 55 3d
       0.03235931 0.08092376 -0.4559695 0.052190904

l3/b f4 [9]
000000 1a 20 17 be 62 3f 95 be cf 1c 57 be 79 94 97 bd
       -0.1475834 -0.2914992 -0.21007083 -0.07401366
000010 d8 e9 c9 3d 31 e0 b1 bb 2f 47 ee bc 81 ad 5b be
       0.09859055 -0.005428337 -0.029086677 -0.21452905
000020 10 a8 1d be
       -0.15396142

l0/b f4 [81]
000000 45 5a 86 3e 69 c1 91 be 55 86 79 be d2 1e 5d be
       0.26240745 -0.28467873 -0.2436765 -0.21593788
000010 23 d4 bd bd b1 bf bb be 87 b8 f5 be 47 12 08 be
       -0.092689775 -0.36669686 -0.47992346 -0.13288222
000020 51 45 6c bd e4 65 e1 bc 3e 97 c1 be b8 fe 4f be
       -0.057683293 -0.027514406 -0.378107 -0.20312011
000030 5c 8e 11 bd 2d b2 32 be 58 03 04 bf b5 ab 5c 3c
       -0.035536155 -0.17450781 -0.515676 0.0134686725
000040 46 75 91 3e 76 d3 93 be 9a fd 8e be 62 19 18 3c
       0.28409785 -0.2887227 -0.27927858 0.0092833955
000050 80 0e f1 3c 5c c8 c6 3e 0b e6 3b be b2 d1 c1 be
       0.02942586 0.38824737 -0.18349473 -0.37855297
000060 47 ad bf be 82 eb 69 be c5 ee 6e be f7 fe c9 bd
       -0.37436888 -0.22843745 -0.23333271 -0.09863084
000070 47 1a 23 be fa 0c a7 be 6b 33 7b be 3e e1 3b be
       -0.15927993 -0.32627088 -0.24531333 -0.18347642
000080 8b fb 4a be 7a 1c 16 be ff f3 8f be 94 10 c6 be
       -0.19822519 -0.146593 -0.28115842 -0.38684523
000090 44 ab a3 3d c3 6c 35 bf 27 a2 57 be b3 f2 0a be
       0.07991651 -0.7086908 -0.2105795 -0.13569145
0000a0 d9 1b 16 be 75 bb 94 3c 02 7a 0d be 54 82 57 be
       -0.1465906 0.018155793 -0.13816074 -0.2104581
0000b0 db 8d a5 be 87 4f 2f 3e fc 89 01 be 3b 9e da be
       -0.3233479 0.17120181 -0.12650293 -0.42698845
0000c0 12 1c ca be b9 6e 5b be 74 f9 fa bd 77 8c 67 be
       -0.3947454 -0.21428956 -0.12254611 -0.22612177
0000d0 fd 94 d0 be 14 77 d9 be 3c 2b ca be 35 36 b3 be
       -0.4073867 -0.42473662 -0.3948611 -0.35002294
0000e0 d6 e3 8b be d6 1f b9 be f6 1c fa 3c 2a fe db bc
       -0.27322263 -0.361571 0.030531388 -0.026854593
0000f0 a8 d6 2b be 5d d1 82 be 56 25 99 3d 6f 41 4a be
       -0.16781104 -0.25550357 0.074778244 -0.19751523
000100 b6 1c df be 02 d7 9c 3e e8 a9 18 be 0d df 6f be
       -0.43576592 0.30632788 -0.14908564 -0.23424931
000110 58 bf 7a be 5b 08 1c bf ee 95 9e bd 00 ec 94 be
       -0.24487054 -0.6095025 -0.077434406 -0.29086304
000120 0a 27 77 be 43 43 df bd c3 84 02 be 67 43 34 3c
       -0.24135986 -0.10901501 -0.12745957 0.011002398
000130 55 6c b5 be d7 b5 6d bd 30 7e b0 3c 3c 94 85 be
       -0.35434213 -0.058034744 0.021544546 -0.26089656
000140 ea 53 9d be
       -0.30728084

l1/W f4 [81, 81]
000000 3e dc 65 be 3e e5 47 be 59 f0 fa bd 0a f3 cb 3c
       -0.22447297 -0.19521043 -0.12252874 0.024896163
000010 58 99 36 3d 0e e0 20 3e 84 ca 20 3e 62 48 9d be
       0.044579834 0.1571047 0.15702254 -0.30719286
000020 c9 52 7d be 94 58 7a be 23 d6 1a be 65 d2 fe bc
       -0.24738611 -0.24447852 -0.15120749 -0.031106183
000030 c3 30 1f be 4a 6b 64 be 6e 54 2a be ef 8d 48 3e
       -0.15545945 -0.22306553 -0.1663377 0.19585393
000040 19 e8 7c 3d 2f e0 8c 3b c7 ed 6d bd f5 95 d3 3d
       0.061744783 0.0042991857 -0.05808809 0.103313364
000050 cb 8a a2 bd 12 fd ea bd cb 7a 6e bd 95 d5 90 3d
       -0.07936629 -0.114740506 -0.058222573 0.070719875
000060 5c 00 5a 3d 19 11 d4 bd 49 81 a9 3e c4 8c ab be
       0.053223 -0.103548236 0.3310645 -0.33505833
000070 0d 78 82 be c1 14 61 bd 23 0d 19 be 31 2e 02 bd
       -0.25482216 -0.054951433 -0.14946418 -0.031782333
000080 62 23 5a 3e 23 12 95 bb 64 7e f5 3d d3 67 ac be
       0.2130256 -0.004549281 0.11986998 -0.33672962
000090 73 de c5 bd 23 f6 b3 bc 02 07 5f be f0 05 97 bc
       -0.096615694 -0.021967953 -0.21780017 -0.018435448
0000a0 db e1 2e 3c 7a 12 0d 3e d7 4a 6c bd 6d 95 f8 3d
       0.010673965 0.1377658 -0.05768856 0.12137876
0000b0 8a 3f 37 3e 60 df c6 3c b4 3a 3f bd 3a 4a a4 bd
       0.17895332 0.024276435 -0.046686843 -0.0802197
0000c0 de 01 89 3e 34 69 bc bb bc 57 72 bd 57 00 bd bc
       0.26759237 -0.005749846 -0.0591657 -0.023071451
0000d0 54 f5 06 bc 80 83 e6 3d 81 ad 06 3d 5b 2a c1 bd
       -0.008237202 0.112555504 0.03288031 -0.09431907
0000e0 23 4b f3 3c ca 74 60 3e c5 3e cd 3d c5 fe 5e be
       0.029698914 0.21919551 0.10021738 -0.21776874
0000f0 9a 8c 2b 3e e3 25 4d be 5f cd 07 be 3b 42 85 bd
       0.16752854 -0.20033984 -0.13261937 -0.06506773
000100 21 a8 74 3e 3e 26 09 bd 5f 24 0c 3e b0 8a c8 3d
       0.23892261 -0.033483736 0.1368575 0.097920775
000110 54 b0 ff bd 9c 32 23 be 95 26 3d be a4 b4 03 3e
       -0.12484804 -0.15937275 -0.18471749 0.12861878
000120 b0 b9 37 be 0f 56 06 3c 4e 00 80 3d 1b da d2 be
       -0.17941928 0.008199229 0.06250058 -0.41182026
000130 21 e9 3a be c1 ce 2e bc 03 7a 7d 3d a7 8a 9f 3d
       -0.18252994 -0.010669411 0.061883938 0.07790118
000140 e5 de 31 be 6e 87 aa be fe fa 09 bf 91 50 08 be
       -0.17370184 -0.3330645 -0.5389861 -0.13311984
000150 d5 f0 a7 3d e8 75 be bd 0a b8 7f 3e 1f cb 29 3e
       0.08200232 -0.092998326 0.24972549 0.16581391
000160 51 62 6f 3e 6e 36 62 be e0 f9 c3 bc d4 19 6e 3e
       0.23377348 -0.22091076 -0.02392286 0.2325204
000170 45 14 75 3e 79 4c 9c 3e a7 29 32 3e 63 f7 a1 bc
       0.23933513 0.30527094 0.17398702 -0.019771283
000180 75 9d 8c bd b3 d6 43 3e 1b 2c 3c 3c 09 d1 46 3e
       -0.0686597 0.1912487 0.011485125 0.19415678
000190 0b 26 c2 bd 44 93 f1 3d 86 fe af be 47 dc 40 3e
       -0.09479912 0.11795667 -0.34373873 0.18834029
0001a0 fd 39 3b be 94 82 81 3d 3a bf d9 3d af ff f1 3d
       -0.1828384 0.06323734 0.10632177 0.11816346
0001b0 f3 19 91 bd 9f 9d 48 be bf 3a 6a bc 6f ed 3e 3d
       -0.070850275 -0.19591378 -0.014296233 0.046613153
0001c0 49 af 4b be 39 30 22 3d 01 02 2b 3e cf b4 ae bd
       -0.19891085 0.03959677 0.16699983 -0.0853058
0001d0 23 da bc bd 9b 60 85 be e3 6c c6 3e a5 4a e6 3d
       -0.09221294 -0.26050267 0.3875495 0.11244706
0001e0 2b dd 9c 3c 4d 8b cb 3b 39 d4 ac be 60 05 03 be
       0.01914843 0.0062116743 -0.33755663 -0.12795019
0001f0 4d 3b 16 3e 0c 52 1b be 14 74 a0 bd ea fe 41 bc
       0.14671059 -0.15168017 -0.0783464 -0.011840561
000200 b1 37 4c be 18 56 cf bd c8 e0 8c bd 5d cf 53 3e
       -0.1994312 -0.10123843 -0.06878811 0.20684572
000210 91 ff 6f be 7f 5b 02 3e 52 ec 85 be e9 ba db 3d
       -0.23437335 0.12730215 -0.2615686 0.1072901
000220 b7 07 ea bd 6c 33 07 3e 56 a6 59 3e 20 1b ff 3c
       -0.11427253 0.1320321 0.21254858 0.031140864
000230 df da d6 be 59 01 af be c2 14 2b 3e 60 2a 0c be
       -0.4196386 -0.34180716 0.16707137 -0.1368804
000240 ed ea 6a be f8 9f 11 3e 8b 2e 09 3e 35 24 e0 3c
       -0.2294118 0.1422118 0.13396661 0.027361015
000250 da 26 a9 be 26 67 2e 3e 8c 98 42 bc 84 5f 24 3e
       -0.33037454 0.17031536 -0.01187719 0.16052061
000260 a1 d3 dd 3d 08 68 65 3e 20 87 49 be 75 d6 a2 3b
       0.10831381 0.22402966 -0.19680452 0.004969413
000270 8c db 59 be b8 97 05 be 50 b3 51 3e de 14 db 3d
       -0.21275157 -0.13046157 0.20478559 0.106973395
000280 fc 8d b2 3d 17 be fa 3a d1 10 24 3e 24 98 a7 bd
       0.087184876 0.0019130138 0.1602204 -0.081833154
000290 98 81 23 3d c5 af db bd ee 75 d1 3e b8 52 56 3e
       0.039918512 -0.10726885 0.40910286 0.20929992
0002a0 38 1c 37 3e ef a8 0a 3e c0 3a 94 be 37 63 a2 3d
       0.17881858 0.13541006 -0.28951073 0.0792908
0002b0 9a 9d 83 be bc 62 0c 3c 3e da ad bd 92 c2 43 be
       -0.25706178 0.008568462 -0.08488892 -0.19117191
0002c0 43 e0 32 be 8d 7d 69 3e 9f 47 3a 3e f4 33 34 3e
       -0.17468362 0.228018 0.18191384 0.17597944
0002d0 4f 7b 04 bd 14 af 75 3d 75 1a 4a 3d c9 3a 70 be
       -0.03234416 0.05998142 0.049341638 -0.23459925
0002e0 92 eb 67 be fb 59 88 bd b1 21 de 3d 4e 35 66 be
       -0.22648457 -0.066577874 0.1084627 -0.22481272
0002f0 27 61 82 be 33 a7 b1 bd 60 2b 16 3e b4 d0 51 be
       -0.25464746 -0.08674469 0.14664984 -0.2048977
000300 34 e6 12 3e 5b de 3d bd f6 a9 4d bd b3 ac 0c bd
       0.14345628 -0.046354633 -0.050210916 -0.034344386
000310 0e 76 b0 3d 6d 78 93 3e a6 7c 71 bd 79 b9 5e 3e
       0.08616267 0.28802815 -0.058956765 0.2175044
000320 27 8c 12 be 21 42 70 3b 0e fe 15 be db 7c 44 3c
       -0.14311276 0.003666051 -0.14647695 0.0119926585
000330 3b 21 0a be 10 ba 22 be 1c 0d 6e 3e 43 06 56 be
       -0.13489239 -0.1589129 0.23247188 -0.20900826
000340 aa 2d 27 3e 70 a9 dc bd 1f fd 39 3e 22 b0 5e 3e
       0.16326013 -0.10774505 0.18162964 0.21746877
000350 8a 67 2b bd 7d 10 ae bd e8 e5 a0 3d 92 02 cc b9
       -0.04184679 -0.08499239 0.07856351 -0.00038911827
000360 4e 47 76 be f8 89 08 be 7a 48 4a 3c df 35 98 be
       -0.24050638 -0.13333881 0.012346381 -0.297286
000370 1e d1 c6 bd 14 4f 8d 3d c9 d9 fd 3c 88 f9 ba bc
       -0.09707855 0.068998486 0.030987637 -0.022824064
000380 e8 b2 08 be ef ea 5b bd 06 c2 a3 bd 36 6c 45 bd
       -0.13349497 -0.053690847 -0.079959914 -0.0481989
000390 ce f5 ff bc b8 22 3a be 6c 68 30 3e 19 ca 07 3b
       -0.031245138 -0.18177307 0.17227334 0.0020719825
0003a0 e8 7b 1e 3d f9 18 b4 3d 7e eb 23 bd 52 35 9d 3d
       0.038692385 0.08793826 -0.040019505 0.07676186
0003b0 27 b7 eb bc c4 2a bd be 08 29 96 bd f5 ac f6 39
       -0.028773857 -0.3694669 -0.07332045 0.0004704964
0003c0 b1 6e df 3c c4 0c 7d 3e ae 3f d5 3d 13 51 04 3e
       0.027274461 0.24711901 0.104125366 0.12921552
0003d0 eb 1a 3e be 30 18 1a 3e fa 8a e6 3d 0a c7 b1 3b
       -0.18564956 0.1504829 0.112569764 0.0054253386
0003e0 b3 a7 68 be f7 e2 c0 3e ae bc 8e be e4 f8 5f bd
       -0.22720222 0.3767316 -0.27878326 -0.05468072
0003f0 b2 6b ae 3e 1a a8 c5 bd 4a a6 72 3e 6a 0a ed 3c
       0.3406654 -0.096512035 0.23696247 0.02893563

l2/W f4 [81, 81]
000000 fc bc 98 bd b1 d1 66 bc 07 2e 83 3d f7 3b 80 3d
       -0.07457921 -0.01408808 0.064052634 0.062614374
000010 50 13 c1 be 18 41 90 3e 50 00 c5 3d 3e 9b 31 be
       -0.37710047 0.28174663 0.096192 -0.17344376
000020 7d d1 19 3b fc cb 24 3d db e0 85 3d 53 4b cc 3d
       0.0023470812 0.040233597 0.065370284 0.099753045
000030 2e f2 11 3d 3f 5e 5d bd 4e 39 43 bc ba aa 67 3d
       0.03563135 -0.05404496 -0.011915518 0.056559302
000040 b7 f4 ef bd 8b 22 a9 3d bb 1c f6 3d ea 42 c5 bd
       -0.117165975 0.08258542 0.12017199 -0.096319035
000050 19 d3 3d 3e 82 a7 55 bc 4d f6 62 3e 4e bf 08 be
       0.18537559 -0.013040425 0.22164269 -0.13354227
000060 46 24 15 3c 2e 16 a9 bd 5d ca ef be 1a 06 c1 3c
       0.009102887 -0.082561836 -0.46834078 0.02356248
000070 d9 98 8a 3d b1 13 fb bd cf 12 5c 3c 7e f0 16 be
       0.067674346 -0.12259615 0.013432219 -0.14740178
000080 ec 6f f5 bd 6d e1 88 3b b7 79 c3 3d ae c0 d7 be
       -0.11984238 0.0041772635 0.095447 -0.4213919
000090 49 e2 00 3e 8d e0 97 3d bc b1 a5 be 56 dd be 3e
       0.12586321 0.074158765 -0.32362163 0.3727824
0000a0 32 82 0a bd 52 3c 27 3e 46 cc 3c 3e d4 8e 5b bd
       -0.03381557 0.16331604 0.18437299 -0.05360301
0000b0 bb 92 4b be af ee 9b 3e 92 32 e8 3d 77 97 2e 3e
       -0.19880192 0.3045554 0.113377705 0.17049967
0000c0 33 65 86 bd 9e 9b ed bd 59 c2 7b 3e 06 e6 04 bd
       -0.06562271 -0.11601947 0.24585856 -0.03244593
0000d0 7f 65 72 bd 25 97 ba bd 07 fb 78 3c 6f f7 aa bd
       -0.059178825 -0.0911086 0.015196568 -0.083479755
0000e0 94 87 82 3e 81 3b 22 bf 56 69 71 3e f3 f6 a1 be
       0.25494063 -0.63372046 0.23575339 -0.3163372
0000f0 06 ec 4b be 64 ae 5a 3c a1 0c 86 bd 3d 74 68 bc
       -0.19914255 0.013347242 -0.065453775 -0.01418787
000100 0f e1 9c 3d d5 47 6c bd 3b db fe bd 6f 53 d2 be
       0.07660114 -0.057685692 -0.12444159 -0.4107928
000110 69 f5 55 3e 20 86 97 3d 7e a1 ea 3d 58 57 43 be
       0.20894398 0.07398629 0.114565834 -0.19076288
000120 c8 b9 51 bd 9c 4c 26 be a8 50 98 bb d4 4e 90 bd
       -0.051202565 -0.16240162 -0.004648287 -0.07046285
000130 a3 8f 56 be 46 96 6c bd 41 fd 06 be a1 2f ad be
       -0.2095323 -0.0577605 -0.13182546 -0.338254
000140 c8 e5 9a 3d 51 e2 f4 3d 67 85 c7 be 6c a3 b2 3d
       0.075633585 0.11957229 -0.38968965 0.087225765
000150 39 d1 03 3e f5 27 c2 3c ec 65 78 be a3 70 85 bd
       0.12872781 0.023700694 -0.2425763 -0.065156244
000160 48 6f 65 be f1 d7 a9 bd bb a6 5a 3d df 8a 0b bd
       -0.22405732 -0.08293141 0.053381663 -0.034067985
000170 65 d8 9d bc 2c ed bf 3d 21 df 3a be be e8 a9 3b
       -0.019268224 0.09371409 -0.1824918 0.0051852157
000180 6a 6a 37 be 1d 44 51 3d c2 00 8a 3c 97 4b 6a 3e
       -0.17911687 0.05109035 0.016846064 0.22880398
000190 77 38 a8 be 77 e5 4d 3e 3f 89 c7 3e b5 fe 59 3e
       -0.3285558 0.20107065 0.38971898 0.2128857
0001a0 5e b8 05 3d 56 3a b4 3d b7 02 2b be 44 e7 24 3e
       0.03264653 0.08800189 -0.16700254 0.16103846
0001b0 11 54 68 be 89 43 40 3c 2c 04 7a bd f9 db 09 be
       -0.22688319 0.011734852 -0.061039135 -0.13462819
0001c0 f3 5f 48 3d 78 37 35 3e 8f de c2 3d 1d 39 e7 3c
       0.04891963 0.17696941 0.09515106 0.028225476
0001d0 89 b8 92 be d4 58 72 3d 89 a2 4c 3e e9 5e 13 be
       -0.28656414 0.059166744 0.19983877 -0.14391674
0001e0 8f 89 40 bd 90 98 fd be 6f b2 23 be db d4 e8 be
       -0.047006186 -0.49530458 -0.15986036 -0.45474896
0001f0 59 03 28 3d 52 ba a9 bd 98 0b d0 bc ff 14 42 bd
       0.041018818 -0.08287491 -0.025396153 -0.047383305
000200 e9 b8 61 be 33 d7 b5 3c 21 60 08 3e 00 4c 76 be
       -0.22043194 0.022197342 0.1331792 -0.24052429
000210 14 00 34 bd 75 28 91 bd 46 b6 06 3e b6 eb 51 3e
       -0.043945387 -0.07087795 0.1315547 0.20500073
000220 31 ad 6f 3e e5 04 40 bd 2b f7 ad 3d 96 db 20 be
       0.23405911 -0.046879668 0.08494409 -0.15708765
000230 9c 29 24 3e a3 b7 c8 bd 9e 8d 03 be f2 89 6d 3e
       0.16031498 -0.09800651 -0.12846991 0.23197153
000240 de 92 4e be 33 53 06 be e3 09 2e bd 20 42 8a 3d
       -0.20173213 -0.13117675 -0.042489897 0.067508936
000250 95 8b 92 3e c2 6b e0 bc 83 66 55 be f4 a9 3e bd
       0.28622118 -0.027395133 -0.20839886 -0.0465488
000260 79 6a a0 bd 14 04 d9 3c a5 b0 3a be c2 e4 f8 bd
       -0.07832808 0.026491202 -0.18231447 -0.12153007
000270 c0 8f e8 3d 53 d3 24 bb d7 fc 34 be 81 80 3b bb
       0.11355543 -0.0025150373 -0.17674576 -0.002861053
000280 fa 39 88 3e ee b7 5c 3e 47 65 e3 bd c0 f9 c4 bc
       0.26606733 0.21554539 -0.111033015 -0.024044871
000290 bd 90 1a 3e 99 a6 79 bd 43 da 02 3e fb c3 bc 3c
       0.15094276 -0.060949896 0.12778573 0.02304267
0002a0 18 2b 51 be d3 83 50 be 6d 4a 09 be 2b 6c 5a 3d
       -0.20426595 -0.20362787 -0.13407297 0.053325813
0002b0 47 e0 01 3e bf 3d 7b be 1c ab 95 bd 07 1a b5 bd
       0.12683211 -0.24535273 -0.07308027 -0.08842855
0002c0 8c 42 48 3b 93 ab 9c be fe f4 db bc 98 cb 07 be
       0.0030557243 -0.3059965 -0.02685022 -0.13261259
0002d0 8b c2 fe 3d 74 c5 28 be ef f5 9b bd 4d 9c cb be
       0.1243945 -0.16481572 -0.076152675 -0.39767686
0002e0 9d f4 8d 3d c3 61 42 3c b4 0a 7b be b8 54 e4 ba
       0.06931422 0.0118641285 -0.24515802 -0.0017420268
0002f0 64 5d e7 bd 2e 20 af bd d8 70 e6 3c 93 ec 12 3e
       -0.1129711 -0.0855106 0.02812998 0.14348058
000300 9f 75 82 3e d9 79 d8 bd eb 28 a7 3d 6e 6b 25 3c
       0.25480363 -0.105701156 0.08162101 0.010096414
000310 3b 92 a0 bd 31 89 bb 3e 1d e8 d0 be 55 e9 3f 3e
       -0.07840391 0.36628106 -0.40802088 0.18741353
000320 f2 1c e4 3d 57 20 96 be 12 b8 0c be ee 7f 45 be
       0.111383334 -0.29321548 -0.13742092 -0.19287083
000330 e8 ca 1c be 2e 77 51 3e 16 1a 56 be af 93 b5 bd
       -0.15311778 0.2045562 -0.20908388 -0.08866059
000340 48 44 71 3e ca 8f 8e be c3 40 10 bc b4 de 70 bd
       0.23561203 -0.27844077 -0.008804503 -0.058806136
000350 95 f9 a7 3c aa 0a b0 bb 0e 63 c7 be 58 9e c5 be
       0.020504752 -0.005372365 -0.3894276 -0.3859737
000360 3c 52 f4 bd 53 e1 03 be 52 1a 5b 3e 74 56 77 be
       -0.119297475 -0.12878923 0.21396759 -0.24154073
000370 a4 f3 b4 be 6b ca 4f be 5b 95 16 3e 49 dc 76 be
       -0.35342133 -0.2029206 0.14705412 -0.2410747
000380 d7 93 cd be 3b 90 cb bd 3e b1 39 be 9f 21 99 be
       -0.40151855 -0.09939619 -0.18134019 -0.29908463
000390 82 28 47 be e0 ed 8e be e2 af 53 be b1 3d 94 bd
       -0.19449046 -0.2791586 -0.20672563 -0.07238329
0003a0 6e b3 74 be 3a a1 e5 bc 45 84 2f be 5f 39 30 3d
       -0.23896572 -0.02803098 -0.171403 0.043023463
0003b0 83 67 d5 be 12 89 c4 3d 97 f3 eb bc ac 96 ab 3d
       -0.41680536 0.095964566 -0.028802676 0.08378348
0003c0 be ce 98 bd 76 78 4c be 49 06 8b 3d a1 1b 12 3e
       -0.07461308 -0.19967827 0.06788308 0.14268352
0003d0 f2 42 44 be 7a 62 d9 bc 0e ef 00 be 56 8e 44 be
       -0.19166163 -0.026536215 -0.12591192 -0.19194922
0003e0 ef a0 b9 3c 07 8e b6 3d 36 bc 28 bc 46 45 91 be
       0.022659747 0.08913808 -0.010298779 -0.28373164
0003f0 59 44 db bd 12 38 3d bd b5 e0 0e bc 5c 05 54 bd
       -0.10706396 -0.04619605 -0.0087205665 -0.051762924

l1/b f4 [81]
000000 21 1f 65 bd 0c b9 67 be 20 11 80 be 1e 72 47 be
       -0.05593789 -0.22629184 -0.25013065 -0.19477126
000010 7d 0e bb be 87 24 29 be b6 b0 32 be 20 32 33 be
       -0.3653449 -0.1651784 -0.17450222 -0.1749959
000020 62 9b a5 be 1b bc 4e 3d a1 e4 63 be fe b3 b7 bc
       -0.3234511 0.05047236 -0.22255184 -0.022424694
000030 de 33 02 be e8 75 0d bc 1e 03 0a be 34 c1 ad 3d
       -0.12715098 -0.008634068 -0.13477752 0.08484116
000040 c9 c0 f9 be ec 19 38 bc f9 21 43 3c df 95 d6 bd
       -0.48779896 -0.011236649 0.011909955 -0.104778044
000050 16 16 67 be 7d 5e e5 bd be fb 8f be bb 43 9a be
       -0.22567019 -0.11199663 -0.28121752 -0.301298
000060 7e bd 9e be a8 36 d0 be 62 a0 46 3d 70 36 6e be
       -0.31003946 -0.406667 0.048492797 -0.23262954
000070 a1 db 3c bc e4 98 fb bc 88 2c a1 be f9 75 d3 bd
       -0.011526973 -0.030712552 -0.31479287 -0.10325236
000080 d9 56 b0 3d 61 be 80 be 47 c1 75 bd 4b 00 ec 3d
       0.08610315 -0.25145248 -0.059998777 0.115234934
000090 28 2c ed bd 1f 2c 6c be ed 07 2e bf 07 5e 74 be
       -0.11580688 -0.23063706 -0.67980844 -0.23863994
0000a0 81 c7 1b 3e 41 2a ad bd 45 1e 6b be b1 88 2c bd
       0.15212823 -0.08455325 -0.22960766 -0.042122547
0000b0 55 bf 86 be 66 dc a3 3e 76 db 37 be c5 f9 3e be
       -0.2631785 0.32004088 -0.17954811 -0.18649967
0000c0 8f 13 43 be 03 9f c2 be 94 83 ec bd ed 37 6b be
       -0.1905043 -0.3801194 -0.11548534 -0.22970553
0000d0 79 11 24 be 99 e8 80 bd 1a 63 af be 65 74 9f bd
       -0.1602229 -0.062943645 -0.34255296 -0.07785872
0000e0 16 98 59 bd 91 6a 2e be 04 96 16 bd c5 62 db be
       -0.053123556 -0.1703284 -0.03676416 -0.42848793
0000f0 f6 f8 39 bd 6a d0 89 be d5 0b 4b be 4c 2a f4 be
       -0.045403443 -0.2691682 -0.19828732 -0.4768852
000100 16 ed f9 3c 64 d8 ba 3d 71 82 cf be 6f ff cc bd
       0.03050856 0.091233045 -0.40529206 -0.100096576
000110 9e 0f 3a bd 73 3f f4 bd ae 6e 6d bd fa 0f 7a 3d
       -0.04542505 -0.119261645 -0.05796688 0.061050393
000120 3c e5 cc 3e da 41 da bd 40 19 50 be 41 bd 84 be
       0.40018642 -0.106570914 -0.20322132 -0.2592564
000130 66 e0 a2 3d 45 ab af 3d cd 6a 44 3d ff 88 81 bd
       0.07952957 0.08577589 0.047953416 -0.06324958
000140 ba 5b b5 bd
       -0.08855386

l2/b f4 [81]
000000 53 35 db bb 09 01 7d bd 59 b8 3f be 06 17 6f 3d
       -0.0066897064 -0.061768565 -0.18722667 0.058371566
000010 43 01 c9 3c bb 95 9f be 4b 96 90 be d1 71 bb bd
       0.024536734 -0.31168923 -0.28239664 -0.09152568
000020 4a 75 1d be 0e 61 14 3e 23 f0 9b be 52 1e a1 3c
       -0.15376773 0.14490148 -0.30456647 0.019667778
000030 af a5 8b bd 00 58 38 bc 13 3f d6 3d c1 f2 6b 3e
       -0.06818711 -0.01125145 0.10461249 0.23041822
000040 ac 8f 34 3c df d6 74 be f2 66 3a be 24 99 a5 be
       0.011020582 -0.23910092 -0.18203333 -0.323434
000050 b5 f0 6a be e1 df 78 3d a2 22 d5 bd 53 52 90 be
       -0.22943385 0.060760383 -0.10406996 -0.28187808
000060 20 73 cf bd ff 86 89 bd 96 49 74 be 72 be fa bd
       -0.1012938 -0.067152016 -0.23856196 -0.12243356
000070 f7 68 16 be 4c 8e 3c be 42 dd 4c 3d ce 65 97 bd
       -0.14688478 -0.18413657 0.050015695 -0.073924646
000080 20 4b 3e be 9c 3e 4b be 66 7e df bc 55 2f 1d be
       -0.18583345 -0.19848102 -0.027281951 -0.15350087
000090 47 70 c9 bd 28 04 25 3e a7 a2 04 be de 1e 05 be
       -0.09835868 0.16114867 -0.12952672 -0.13000056
0000a0 5c 88 3a 3c d2 4d 24 be bb a9 85 be 03 20 09 bc
       0.01138505 -0.16045311 -0.26106057 -0.008369449
0000b0 94 25 56 bd d9 08 dc bd 04 32 09 be fc fc c6 bd
       -0.05228193 -0.10743875 -0.13397986 -0.09716222
0000c0 21 09 71 be 80 26 41 be 3e 9b 6a be 44 25 e6 bd
       -0.23538639 -0.18862343 -0.22910783 -0.112375766
0000d0 db 53 13 be 4d 45 4e be 72 48 7a 3d 33 f6 04 3e
       -0.14387457 -0.20143624 0.061104245 0.12984543
0000e0 34 b4 89 3d 7e 8f 59 3d e5 6b fa bb 98 d1 71 bd
       0.06723824 0.05311536 -0.0076422566 -0.059037775
0000f0 e6 fc 82 be 4a 2e a3 3b d1 09 80 be 41 d4 d4 bb
       -0.2558357 0.0049798833 -0.2500749 -0.006495029
000100 d2 a5 ad bc c2 00 12 be 2d 88 14 be aa ac 08 be
       -0.021197233 -0.14258102 -0.14505072 -0.13347116
000110 5d 20 6b be d6 96 20 be be f3 4f be 1a 44 7d be
       -0.22961564 -0.1568254 -0.20307824 -0.2473301
000120 b9 5f 8d bd 0c 28 c9 bd 19 25 09 be c6 9f de bd
       -0.06903023 -0.098220915 -0.13393058 -0.10870318
000130 fc fd 00 be 1f af 1a be c7 e9 d5 be b6 9b 67 bb
       -0.12596887 -0.15105866 -0.4177992 -0.0035340614
000140 d2 08 6f bd
       -0.05835802

l0/W f4 [81, 9]
000000 f2 da d7 3e 85 b7 ff bb 85 71 ae 3d 67 cb 68 3e
       0.4215923 -0.0078038597 0.08517746 0.22733842
000010 e6 3e 59 3b 2c 4a b6 3e f7 40 0c 3f ba 2e 52 bc
       0.0033149063 0.35603464 0.5478663 -0.012828523
000020 27 53 30 3f 15 9c a4 3b 84 f8 92 3f 10 c6 01 3d
       0.6887688 0.0050234892 1.1482091 0.031683028
000030 0a 4c 6d be 41 d6 18 3f cc da 6f be ba 08 08 bd
       -0.23173538 0.59701926 -0.23423308 -0.033211447
000040 09 2e 10 3f 7d e5 a4 3e f5 02 5b bd ec fc 7c 3e
       0.56320244 0.32206336 -0.053469617 0.24705857
000050 38 e6 55 3e 49 40 2a bf 8a 61 07 3e cd ef 03 3e
       0.20888603 -0.6650434 0.13220802 0.12884445
000060 05 cf 2c bf 12 46 a9 3d 79 68 8d be ec 42 06 3f
       -0.67503387 0.08265318 -0.2761877 0.52445865
000070 af 19 fe 3c 48 f8 f3 3d 73 64 08 be 8e 0b 65 3d
       0.031018106 0.1191259 -0.13319568 0.055919223
000080 74 92 a6 be b5 6e 57 be 70 b1 19 3d 83 a2 af be
       -0.3253361 -0.21038325 0.037522733 -0.34303674
000090 ee 89 05 3f ce 70 e2 3b bc 59 2f 3d 10 f3 2b bc
       0.5216359 0.00691042 0.042810187 -0.010494962
0000a0 96 95 0d bf f2 36 0c 3d 0a 1e d4 bb e1 66 15 be
       -0.55306375 0.034232087 -0.0064733075 -0.14590026
0000b0 c1 6b f5 be dd a2 8e be 53 12 f4 be 07 44 db 3e
       -0.47933772 -0.2785863 -0.4767023 0.42825338
0000c0 cf ca 27 3f 75 70 4c be 3c 87 8d 3d 7a 14 be be
       0.65543836 -0.19964774 0.069105595 -0.37124997
0000d0 c0 35 54 bf 2a 6f 7f 3d d6 16 88 bd ce cf 05 bf
       -0.82894516 0.062361874 -0.066449806 -0.5227021
0000e0 6e 17 fa be 26 61 65 3e 01 34 98 be fd b5 2b 3e
       -0.48846 0.2240034 -0.29727176 0.16768642
0000f0 66 32 2d 3f 40 88 6d be 87 3e 8f be 23 37 bf be
       0.67655027 -0.23196507 -0.27977392 -0.37346753
000100 21 84 a4 be 72 43 62 be 80 b5 d3 be 28 51 38 be
       -0.32132056 -0.22096041 -0.4134941 -0.17999709
000110 94 ab 84 bd 44 a8 b3 be 09 78 49 3f 03 20 d2 be
       -0.064780384 -0.35089314 0.78698784 -0.41040048
000120 c0 5c b9 3e 46 92 d4 3d 54 41 d9 3d 86 1e 4e be
       0.36203575 0.10379462 0.106081635 -0.20128831
000130 b7 82 9e bc 05 c3 2c 3d 93 fe 95 bd ab fb 81 bf
       -0.01934944 0.042178173 -0.07323947 -1.0154928
000140 c7 bc b5 3e ab 11 7c 3e 7c 79 01 be d3 39 3a 3e
       0.35495588 0.24616115 -0.12643999 0.1818612
000150 fe 98 0d 3f 91 74 c4 be 15 a7 31 be 31 32 1b 3c
       0.5531157 -0.38370183 -0.17348893 0.009472416
000160 50 7e ac 3c 3e 79 99 3e 0d 68 19 3e b8 8b e1 be
       0.021056324 0.29975313 0.14981098 -0.4405191
000170 e4 62 ff be a8 d6 ec bc 9b 41 ae 3d ea ab 9d bd
       -0.49880135 -0.02891095 0.08508607 -0.07698806
000180 b5 2a 50 bf a6 ad 03 bf 2d e0 17 bf 1e 8f e1 3e
       -0.81315166 -0.5143684 -0.5932644 0.44054502
000190 10 94 19 3e c0 7d f2 bd 43 eb b4 3c 0a c7 4b 3f
       0.14997888 -0.11840391 0.022084838 0.79600585
0001a0 23 fc 3f 3f 44 89 c7 3e fd 7c ba 3d 3c 07 89 bd
       0.74994105 0.38971913 0.09105871 -0.06690833
0001b0 d0 3d 0a 3f 16 a8 f6 3e 66 8f d5 3e 37 ce 23 3e
       0.5400057 0.48175114 0.41710967 0.15996633
0001c0 d7 10 12 3f 7d f7 09 be 83 22 75 be 14 e7 a6 3e
       0.57056946 -0.13473316 -0.23938946 0.32598174
0001d0 bc 13 68 3e c1 70 58 3f 68 86 f5 be 13 36 dd 3d
       0.22663778 0.8454705 -0.47954106 0.108013295
0001e0 19 d9 5a 3e 7d 3b ca 3e 0b 76 06 3f 63 08 66 bd
       0.21371879 0.3949851 0.5252387 -0.056160342
0001f0 dd 47 9e be 7d 55 31 3f 69 68 15 be c7 78 e6 3d
       -0.30914202 0.6927107 -0.1459061 0.11253505
000200 ec d2 71 bf 4a 10 05 3e 9c dd 22 bf f3 d9 ee 3d
       -0.94462466 0.12994495 -0.636194 0.11662664
000210 03 dd 45 bf ee 52 aa 3e f6 cc 08 3e 49 4b c0 3d
       -0.7729036 0.33266395 0.13359436 0.093893595
000220 b5 a9 03 3f ac 41 c6 3e 7d 90 d8 3e c6 ba b7 3e
       0.5143083 0.3872198 0.42297736 0.35884684
000230 5f a2 84 3d 69 8e e5 3d 10 07 61 be 53 b1 25 3e
       0.06476282 0.11208803 -0.2197535 0.16180925
000240 88 85 69 3f b8 93 e5 3d bf d1 c9 3e 80 12 8f 3e
       0.9121938 0.11209816 0.39417836 0.27943802
000250 5f 1b 9d 3e 77 ed 1f 3f a0 be c4 3e 93 79 7b 3e
       0.30684945 0.6247172 0.38426685 0.24558096
000260 71 be 27 3e e3 26 22 be d7 96 3d 3e f8 3a e2 be
       0.16381241 -0.15835147 0.18514572 -0.44185615
000270 63 2c 9f be 2d bc 1b bf e4 0f 0d bf 90 e3 7a 3e
       -0.31088552 -0.6083401 -0.5510237 0.2450087
000280 20 54 ba bd 1d 20 3c bd da 38 17 bd af 83 c4 be
       -0.09098077 -0.045929063 -0.036919452 -0.38381717
000290 a1 d9 a8 3c 22 ff 88 bd 0f 3c 6c be 4c 3d 6d 3f
       0.020611586 -0.06689288 -0.23069786 0.92671657
0002a0 86 3d b2 3d d0 4f c6 bd a9 fc e4 3d d7 17 af 3c
       0.08703141 -0.09683192 0.111810036 0.021373672
0002b0 6d 54 12 bc f1 8e f7 bd 60 62 42 3e 41 99 ba be
       -0.0089312615 -0.12087811 0.1898284 -0.36445048
0002c0 d6 75 97 3e c9 d7 6d be 05 db 55 be 2c f4 76 3e
       0.2958209 -0.23226847 -0.2088433 0.24116582
0002d0 34 48 dd bd 3c 3e 93 3d 6e e9 04 3f 83 9a 44 be
       -0.10804787 0.07189605 0.51918685 -0.19199567
0002e0 4f 1b 10 be da eb ae 3e ad f7 e3 3e 76 24 86 3e
       -0.14072917 0.34164315 0.445249 0.26199692
0002f0 44 7b 4c be f8 5e e6 3e f3 05 5f 3f 3d 37 cd 3e
       -0.19968897 0.4499433 0.8711845 0.40081206
000300 1c 1f cb 3e 5b 7e b2 3e 0b 50 4f 3f d1 e4 c8 3e
       0.39672172 0.34862027 0.8098151 0.39237073
000310 06 1b a7 3e 99 f6 f2 3e b7 7f 20 3c 98 bd c9 3e
       0.32637805 0.47453764 0.009796075 0.3940246
000320 29 04 eb be 66 44 93 be 0c ed 8e 3c e8 c7 7d 3e
       -0.4590161 -0.2876312 0.017447017 0.2478329
000330 cb e9 f8 3d bd 07 fa 3e 91 4e 3f 3e 35 b9 ba 3e
       0.121539675 0.4883403 0.18682314 0.36469427
000340 e9 4c 22 3e 92 08 fe bd c7 35 ae be 25 99 6b bf
       0.15849651 -0.124039784 -0.34025404 -0.92030555
000350 ac ae 9f be 15 e7 da bd 66 75 a0 3d 1c 89 04 3f
       -0.31187952 -0.10688607 0.07834892 0.5177171
000360 80 91 c5 bc 05 c3 68 be d9 38 b2 be 2a d5 89 3f
       -0.024117231 -0.22730644 -0.34808996 1.0768178
000370 56 37 fa be 87 9b 04 bf 00 78 8c be f6 1b 98 bc
       -0.48870343 -0.51799816 -0.27435303 -0.01856802
000380 50 72 fb be 45 a7 2d 3d 04 c2 68 bd 17 68 1c 3f
       -0.4911065 0.04239585 -0.056825653 0.6109633
000390 57 cc 85 bd 97 11 bc 3d ac 8a 1a bf 9e 4f 7e bd
       -0.06533115 0.091830425 -0.60367846 -0.062087648
0003a0 e6 3a 1e be 4d 41 3b 3f 3f 30 9d be 7e ee 51 3d
       -0.15452155 0.73146516 -0.3070087 0.051252834
0003b0 f8 2e 31 bd 37 2e 54 3e 5f 0f a9 3e 1c c4 9e 3e
       -0.043257684 0.20720755 0.3301954 0.31008995
0003c0 a5 9a e0 3e cd 6b 04 bf 3d 4b ab 3e 79 7b 03 3f
       0.43867984 -0.5172699 0.3345584 0.5136028
0003d0 fe 55 9d be a1 08 93 be 84 76 d0 3e 0c 6c d8 bd
       -0.3072967 -0.2871752 0.4071542 -0.10567483
0003e0 6a 5c db be 8e 8c 20 bd 38 62 1f 3d ca 3f ef 3d
       -0.42843944 -0.039196543 0.038912028 0.11682089
0003f0 cf 6b ed 3e 61 3e 52 3e 7f 77 8a 3c 8b bc 02 be
       0.46371314 0.20531608 0.016902683 -0.12767236
