chainerrl/TicTacToe/result_50000/target_model.npz (npz, 56598 bytes, 8 tensors)

l3/W f4 [9, 81]
0	0x3dda8a32	0.1067089
1	0xbcb1dc1e	-0.021711405
2	0xbee93381	-0.45547107
3	0x3d7fec0a	0.062480964
4	0xbdb4f443	-0.08835652
5	0xbe32d270	-0.17463088
6	0x3e1497ca	0.14511028
7	0xbe449549	-0.19197573
8	0x3e4628ea	0.19351545
9	0xbd890f4f	-0.06692373
10	0xbf1d8305	-0.61528045
11	0xbd88b979	-0.06676001
12	0xbeccf0c0	-0.40027428
13	0x3d5ceec6	0.05393865
14	0x3dbc46a2	0.0919316
15	0x3d939d3f	0.07207727
16	0x3ba5cf67	0.0050601247
17	0x3e1453d6	0.14485106
18	0xbf19669c	-0.59922194
19	0x3e3431be	0.175971
20	0xbd3f0c6e	-0.046642713
21	0x3d1baebe	0.038008444
22	0xbd306b61	-0.043071155
23	0x3e33d645	0.17562206
24	0xbf0d1d18	-0.5512252
25	0xbd4729cd	-0.04862385
26	0xbe0c3e02	-0.13695529
27	0x3e78deb0	0.24303699
28	0xbe6bb4fa	-0.23018256
29	0x3dcef8b8	0.10106033
30	0x3e0139d1	0.12619711
31	0x3e4abd37	0.19798742
32	0xbd17d536	-0.03706857
33	0x3e202a0d	0.15641041
34	0xbe7b19df	-0.24521588
35	0x3c80a15c	0.015701942
36	0x3e8f96de	0.2804479
37	0x3eb72cae	0.35776275
38	0x3d703682	0.058645733
39	0xbd9e6527	-0.07734137
40	0xbaf7fd1c	-0.0018920037
41	0xbf291e8c	-0.66062236
42	0xbebc653d	-0.3679599
43	0x3e50fc3c	0.2040872
44	0x3e2035e4	0.15645558
45	0xbf1b54a9	-0.60676056
46	0x3e1d8a19	0.15384711
47	0x3da28c70	0.079369426
48	0x3e20720d	0.15668507
49	0x3e8d8f8b	0.27648577
50	0x3e851d0d	0.25998726
51	0xbe693499	-0.2277397
52	0xbd49070c	-0.049078986
53	0xbe163d2a	-0.1467177
54	0x3cce6218	0.02519326
55	0xbdc0ee0d	-0.094204046
56	0xbcbaee5f	-0.022818742
57	0x3e61573c	0.22005934
58	0x3df0a664	0.117504865
59	0x3d929e46	0.071590945
60	0xbe75389a	-0.23947373
61	0xbdb25ae9	-0.08708746
62	0x3e6a7ef1	0.22899987
63	0xbe087e2d	-0.13329382
64	0x3d0e016c	0.034669325
65	0x3dd73eeb	0.105100475
66	0xbec0a5c3	-0.37626466
67	0xbefdee3f	-0.4959583
68	0xbd1dd134	-0.03852959
69	0xbd1d1354	-0.03834851
70	0xbe1e8085	-0.15478714
71	0xbe74a395	-0.23890527
72	0xbcb214a5	-0.02173836
73	0x3e712025	0.23547418
74	0xbe98e813	-0.2986456
75	0xbdf9cf39	-0.12197728
76	0xbd51ce49	-0.05122212
77	0x3d8f79b0	0.07005632
78	0xbeb42c38	-0.35189986
79	0xbe250576	-0.16115364
80	0x3cc0ebcc	0.023549937
81	0x3d215601	0.03938866
82	0xbe9c08d0	-0.30475473
83	0x3da68c7c	0.08132264
84	0x3ed84c74	0.4224583
85	0x3ce1c0bd	0.027557725
86	0x3e4e980f	0.20175193
87	0xbcb747b1	-0.022373052
88	0xbe6a8808	-0.22903454
89	0xbf2fc22d	-0.68655664
90	0x3dab1feb	0.08355697
91	0x3d625513	0.055256914
92	0xbdb9d479	-0.09073729
93	0xbbce0b49	-0.0062879664
94	0x3e1d35ce	0.15352556
95	0x3e497c56	0.19676337
96	0x3e6658d2	0.2249482
97	0x3e3e3a68	0.18576968
98	0x3e884eb9	0.2662256
99	0xbe8fe09d	-0.28101054
100	0xbe1c7dc2	-0.15282348
101	0xbd8e8025	-0.069580354
102	0x3e5973a7	0.21235524
103	0x3e3d4229	0.1848227
104	0xbe29a658	-0.16567361
105	0x3d77c2eb	0.060488623
106	0xbee6f30d	-0.45107308
107	0xbe6a1a7d	-0.22861667
108	0x3e6b31bb	0.2296819
109	0xbe800457	-0.2500331
110	0x3e80c239	0.2514818
111	0x3e8572b1	0.26064065
112	0xbe9c6470	-0.30545378
113	0xbe3ea171	-0.18616273
114	0xbe53551a	-0.20637932
115	0x3e34cc10	0.17655969
116	0x3edee6cb	0.43535456
117	0x3e6dacba	0.23210421
118	0xbe411563	-0.18855815
119	0xbd362184	-0.044465557
120	0xbea552b8	-0.32289672
121	0xbc70917c	-0.014683124
122	0xbe543886	-0.20724687
123	0xbe2a37a2	-0.16622785
124	0x3df2a599	0.118479915
125	0xbe2286e5	-0.1587177
126	0x3d895fbc	0.06707713
127	0x3e872397	0.2639434
128	0xbe5ec04e	-0.21753046
129	0xbdf91f12	-0.12164129
130	0xbe94df3b	-0.2907656
131	0xbe158190	-0.14600205
132	0x3e4078c6	0.18796071
133	0x3d14222b	0.036165398
134	0xbe85246c	-0.2600435
135	0x3dc15cfe	0.09441565
136	0xbe3491c0	-0.17633724
137	0xbd61d9d8	-0.055139393
138	0xbd9950e2	-0.0748613
139	0xbdb91a2a	-0.090381935
140	0x3e192b6f	0.14957975
141	0xbe30c030	-0.17260814
142	0x3e0d7ad3	0.13816385
143	0xbe029665	-0.12752683
144	0xbd983f9c	-0.074340075
145	0xbc395874	-0.011312593
146	0xbea82562	-0.3284102
147	0xbc8535d5	-0.01626102
148	0x3e4ad25a	0.19806805
149	0x3e3ba291	0.18323733
150	0xbe217d6a	-0.15770498
151	0xbba90cd9	-0.0051590023
152	0xbd13c0d7	-0.03607258
153	0xbeb0ded9	-0.3454502
154	0xbd4da35f	-0.05020463
155	0x3e4962bc	0.1966657
156	0xbeaf8802	-0.34283453
157	0x3cf677bb	0.030086389
158	0xbed3572e	-0.4127745
159	0xbecee113	-0.40406093
160	0xbd4308b6	-0.04761573
161	0xbdebfdaa	-0.11522992
162	0x3e9ea2fb	0.3098372
163	0xbe001708	-0.12508786
164	0xbf03e57a	-0.5152203
165	0x3daa6098	0.08319205
166	0xbbdcc212	-0.006737002
167	0xbe1a3add	-0.15061517
168	0x3e2de935	0.16983493
169	0x3cc13a92	0.023587499
170	0x3de9ac77	0.11409848
171	0x3eb18a6b	0.34675917
172	0x3e36953d	0.17830367
173	0xbcbea5fd	-0.023272509
174	0xbeee7a60	-0.4657774
175	0xbe0904d9	-0.13380755
176	0xbb7b7797	-0.0038370842
177	0xbc923260	-0.017846286
178	0x3d243c7e	0.040096752
179	0xbd8f86c3	-0.07008126
180	0x3e4a0fee	0.19732639
181	0xbe490d12	-0.19633892
182	0xbf2b8f3c	-0.67015433
183	0xbdce364b	-0.10068949
184	0x3d355f19	0.044280145
185	0xbd675410	-0.056476653
186	0xbe532a2b	-0.20621555
187	0x3b32d7c4	0.002728925
188	0xbea42d9a	-0.3206604
189	0x3e3f3cad	0.1867549
190	0xbee9eea2	-0.45689875
191	0xbefb36d5	-0.4906527
192	0xbe29f061	-0.16595604
193	0xbd3bcceb	-0.045849722
194	0xbd29fdd7	-0.041501846
195	0x3efdd6d5	0.49577966
196	0x3ed7d516	0.4215476
197	0x3e881647	0.26579496
198	0xbedcf717	-0.43157265
199	0xbddc7eff	-0.1076641
200	0x3dae650d	0.08515368
201	0xbec7eb3a	-0.3904665
202	0x3e17b064	0.14813381
203	0xbd7cb8f7	-0.061699834
204	0xbd817482	-0.0632105
205	0xbea837c0	-0.32855034
206	0xbd765d82	-0.06014777
207	0xbc826835	-0.01591883
208	0xbc914b61	-0.017736139
209	0x3de1fbd6	0.11034362
210	0xbe2c6cf2	-0.16838434
211	0xbe35b4b1	-0.1774471
212	0x3e80971c	0.25115287
213	0x3e9defd4	0.30847037
214	0xbdf8260c	-0.12116632
215	0xbe2a4cf0	-0.16630912
216	0x3e12ca8f	0.14335082
217	0xbeba9a6f	-0.36445948
218	0x3dc17712	0.09446539
219	0x3ea225b0	0.31669378
220	0xbe6a15ae	-0.22859833
221	0xbd853521	-0.06504274
222	0xbebc5486	-0.36783236
223	0x3e0cec4d	0.13762017
224	0xbc7b1c3f	-0.015326559
225	0x3da7cd74	0.08193484
226	0x3e56bb37	0.20969854
227	0xbc4b952f	-0.012425705
228	0xbe2cd519	-0.16878165
229	0xbd622dac	-0.055219337
230	0x3dc7935f	0.09744906
231	0xbe23e599	-0.16005553
232	0xbd8d0182	-0.06885053
233	0xbe0e782f	-0.13913034
234	0xbd0fe95c	-0.03513466
235	0xbe70bc43	-0.23509316
236	0x3d84bb75	0.06481067
237	0xbd4f947c	-0.050678715
238	0xbde3323e	-0.11093567
239	0x3dd85db7	0.1056475
240	0x3e0cd1e5	0.13751943
241	0xbdaff3fa	-0.08591457
242	0x3e91799d	0.28413096
243	0x3deb9e7c	0.11504838
244	0x3c9455ad	0.01810726
245	0xbed03ceb	-0.40671477
246	0x3e2bc9ec	0.16776246
247	0x3dfc4c4b	0.12319239
248	0xbd2af805	-0.041740436
249	0xbdb4f4e6	-0.08835773
250	0xbe247d23	-0.16063361
251	0x3e428d28	0.1899916
252	0x3d0739ce	0.03301411
253	0x3da5f573	0.08103456
254	0xbee9787b	-0.45599732
255	0x3d51be04	0.051206604

l3/b f4 [9]
0	0xbe161419	-0.14656104
1	0xbe949088	-0.2901652
2	0xbe57f83c	-0.21090788
3	0xbd983137	-0.07431262
4	0x3dc8db11	0.098074086
5	0xbbc86806	-0.006115916
6	0xbcf9fea5	-0.030516932
7	0xbe5abd2c	-0.21361226
8	0xbe1dc788	-0.15408146

l0/b f4 [81]
0	0x3e8696ed	0.26287022
1	0xbe926d88	-0.2859919
2	0xbe79a5ec	-0.243797
3	0xbe5cd52c	-0.21565694
4	0xbdbe1ad2	-0.09282459
5	0xbebb838e	-0.36623806
6	0xbef53e51	-0.47899106
7	0xbe08c191	-0.1335509
8	0xbd6feb54	-0.058574036
9	0xbce52e2c	-0.027976118
10	0xbec1a3dc	-0.37820327
11	0xbe4f76b7	-0.2026013
12	0xbd1283c3	-0.03577019
13	0xbe33732a	-0.175244
14	0xbf03c7ba	-0.51476634
15	0x3c5c3391	0.013440029
16	0x3e9194c1	0.28433803
17	0xbe940fd7	-0.28918335
18	0xbe8f6bae	-0.2801184
19	0x3c1daa66	0.009623146
20	0x3cead57b	0.028666249
21	0x3ec6a000	0.38793945
22	0xbe3ba209	-0.1832353
23	0xbec1a90c	-0.37824285
24	0xbebf76b0	-0.3739524
25	0xbe6aa726	-0.22915325
26	0xbe6e6678	-0.23281276
27	0xbdcaea93	-0.09908023
28	0xbe22390d	-0.15842076
29	0xbea702cc	-0.3261932
30	0xbe7b72cb	-0.24555509
31	0xbe3ca9d8	-0.18424165
32	0xbe4bc7c2	-0.1990042
33	0xbe159fd4	-0.14611751
34	0xbe8f528d	-0.2799267
35	0xbec5af94	-0.38610518
36	0x3da32229	0.079655
37	0xbf34f1b2	-0.706813
38	0xbe575123	-0.21027045
39	0xbe0b0558	-0.13576257
40	0xbe1683c7	-0.14698707
41	0x3c9a9be7	0.018873168
42	0xbe0d648c	-0.13807887
43	0xbe565ef3	-0.20934658
44	0xbea5075e	-0.32232183
45	0x3e2ed9b4	0.17075235
46	0xbe013b0e	-0.12620184
47	0xbedad5f4	-0.42741358
48	0xbec9e578	-0.39432883
49	0xbe5b672f	-0.2142608
50	0xbdfb8fe2	-0.12283303
51	0xbe691502	-0.2276192
52	0xbed03f2f	-0.40673205
53	0xbed955d2	-0.42448288
54	0xbeca48cb	-0.39508662
55	0xbeb35175	-0.35023084
56	0xbe8c9e09	-0.2746432
57	0xbeb96c68	-0.3621552
58	0x3cf2cfc7	0.029640092
59	0xbcd71e9e	-0.026259717
60	0xbe2c051b	-0.16798823
61	0xbe82affd	-0.25524893
62	0x3d9a1bcf	0.07524835
63	0xbe4a2736	-0.1974152
64	0xbedeeebd	-0.43541518
65	0x3e9cfbb8	0.30660796
66	0xbe186713	-0.1488307
67	0xbe6ef3f4	-0.23335248
68	0xbe7bc0e2	-0.24585298
69	0xbf1be7d1	-0.609006
70	0xbd9f1694	-0.07767978
71	0xbe946637	-0.28984234
72	0xbe76fbfa	-0.24119559
73	0xbdde6e53	-0.108608864
74	0xbe01ec18	-0.12687719
75	0x3c3af018	0.011409782
76	0xbeb599f9	-0.35469034
77	0xbd711e12	-0.058866568
78	0x3cba47a9	0.022739248
79	0xbe85e8ce	-0.26154178
80	0xbe9d7e8b	-0.30760607

l1/W f4 [81, 81]
0	0xbe65daf5	-0.22446807
1	0xbe47a078	-0.19494808
2	0xbdfa9ea9	-0.12237293
3	0x3ccc607d	0.024948353
4	0x3d36dd94	0.044644907
5	0x3e20fd8e	0.15721723
6	0x3e207b6f	0.15672086
7	0xbe9d59aa	-0.3073247
8	0xbe7d4130	-0.24731898
9	0xbe7a5505	-0.24446495
10	0xbe1aafd3	-0.15106134
11	0xbcfe4c3d	-0.031042213
12	0xbe1f29b9	-0.1554326
13	0xbe642cf0	-0.22282767
14	0xbe29f6a7	-0.16597997
15	0x3e488b01	0.19584276
16	0x3d7d474e	0.06183558
17	0x3b81aebd	0.003957598
18	0xbd6d14a9	-0.05788103
19	0x3dd3ec4e	0.10347806
20	0xbda2d2fb	-0.079503976
21	0xbdea9ba9	-0.11455471
22	0xbd6e158a	-0.05812601
23	0x3d90cdaf	0.07070481
24	0x3d5947da	0.05304704
25	0xbdd41fcb	-0.103576265
26	0x3ea983f6	0.3310849
27	0xbeab9327	-0.33510706
28	0xbe828a6b	-0.2549623
29	0xbd6167cf	-0.05503064
30	0xbe19050f	-0.14943336
31	0xbd003c8f	-0.031307753
32	0x3e5a4949	0.21317019
33	0xbb9a766f	-0.0047138254
34	0x3df60588	0.12012774
35	0xbeac5c82	-0.33664328
36	0xbdc5fb48	-0.09667069
37	0xbcb6e6be	-0.022326823
38	0xbe5f2c17	-0.21794163
39	0xbc9627c2	-0.018329505
40	0x3c2e7132	0.010647105
41	0x3e0d2f43	0.1378756
42	0xbd6c0256	-0.057619415
43	0x3df82267	0.12115937
44	0x3e36eb3d	0.17863174
45	0x3cc61b31	0.024182888
46	0xbd3f2d66	-0.046674155
47	0xbda43956	-0.080187485
48	0x3e89239f	0.2678499
49	0xbbb684c5	-0.0055700266
50	0xbd72806a	-0.059204496
51	0xbcbbbd5c	-0.022917442
52	0xbc053198	-0.0081295
53	0x3de6d94e	0.11271916
54	0x3d06eaef	0.032938894
55	0xbdc093dd	-0.09403203
56	0x3cf3f032	0.02977762
57	0x3e606a0e	0.21915457
58	0x3dcd148a	0.10013683
59	0xbe5e8729	-0.21731247
60	0x3e2bd5be	0.16780755
61	0xbe4d1b04	-0.20029837
62	0xbe07cf7d	-0.13262744
63	0xbd856ab9	-0.06514496
64	0x3e745a5a	0.23862591
65	0xbd092491	-0.033482138
66	0x3e0c35b9	0.13692369
67	0x3dc84e26	0.09780531
68	0xbdff66c3	-0.12470772
69	0xbe231b32	-0.15928343
70	0xbe3d2a9e	-0.18473288
71	0x3e0381d6	0.12842497
72	0xbe37772c	-0.17916554
73	0x3c09d0dc	0.008411612
74	0x3d7f4b84	0.062327877
75	0xbed2d5b4	-0.41178668
76	0xbe3af01a	-0.18255654
77	0xbc2da589	-0.010598549
78	0x3d7e66bb	0.06210969
79	0x3d9ee4f1	0.07758511
80	0xbe31c873	-0.17361622
81	0xbeaac020	-0.33349705
82	0xbf09daa8	-0.5384927
83	0xbe08986e	-0.13339397
84	0x3da7d531	0.0819496
85	0xbdbf3af4	-0.09337416
86	0x3e7f67aa	0.24941888
87	0x3e2989dd	0.16556497
88	0x3e6ebca6	0.23314151
89	0xbe624746	-0.22097501
90	0xbcc5d020	-0.024147093
91	0x3e6e09e9	0.23245968
92	0x3e74c853	0.23904543
93	0x3e9c56d7	0.30535004
94	0x3e31e272	0.17371538
95	0xbca1616c	-0.019699775
96	0xbd8c3f9e	-0.068480715
97	0x3e432dd2	0.19060448
98	0x3c420ec2	0.011844339
99	0x3e45c9f5	0.19315322
100	0xbdc2bcd2	-0.09508671
101	0x3defce0b	0.117092215
102	0xbeb00428	-0.3437817
103	0x3e411907	0.18857203
104	0xbe3b49b5	-0.18289836
105	0x3d824e48	0.06362587
106	0x3dd97c29	0.10619385
107	0x3df26fa0	0.11837697
108	0xbd90f01a	-0.07077046
109	0xbe489253	-0.19587068
110	0xbc6da598	-0.014504813
111	0x3d40227d	0.04690789
112	0xbe4b4e17	-0.19854008
113	0x3d223c36	0.039608203
114	0x3e2b5885	0.16732986
115	0xbdadfdbd	-0.08495662
116	0xbdbd05bb	-0.092296086
117	0xbe8588d7	-0.26080963
118	0x3ec64c9f	0.38730332
119	0x3de5f16b	0.112276874
120	0x3c9cbe7a	0.019133795
121	0x3bc726c5	0.0060776197
122	0xbead5558	-0.33854175
123	0xbe02f758	-0.12789667
124	0x3e160d01	0.14653398
125	0xbe1b9f4f	-0.1519749
126	0xbda181e9	-0.078861065
127	0xbc3a9f56	-0.011390528
128	0xbe4c5ad4	-0.19956523
129	0xbdd151c4	-0.10220674
130	0xbd8d4cac	-0.068993896
131	0x3e536ef6	0.20647797
132	0xbe7063e7	-0.2347561
133	0x3e0239f1	0.12717415
134	0xbe85e741	-0.26152995
135	0x3dda2589	0.106516905
136	0xbdea001f	-0.11425804
137	0x3e06c931	0.13162686
138	0x3e59910e	0.2124674
139	0x3cfaec60	0.03063029
140	0xbed726a4	-0.42021668
141	0xbeaef7a9	-0.34173325
142	0x3e2b2775	0.1671427
143	0xbe0c7fa9	-0.13720573
144	0xbe6a98e5	-0.22909887
145	0x3e11c0a9	0.1423365
146	0x3e08f6ec	0.13375443
147	0x3cdfd81c	0.027324729
148	0xbea8e408	-0.32986474
149	0x3e2ea192	0.17053822
150	0xbc4c72b6	-0.012478521
151	0x3e23c96d	0.15994807
152	0x3dde2674	0.10847178
153	0x3e64b61f	0.22335099
154	0xbe4a16f2	-0.19735315
155	0x3ba73701	0.0051029925
156	0xbe5a086b	-0.21292274
157	0xbe056515	-0.13026841
158	0x3e50dc16	0.20396456
159	0x3dd9e929	0.10640175
160	0x3db2a2cd	0.08722458
161	0x3aab730d	0.0013080552
162	0x3e24af25	0.16082437
163	0xbda6dc6a	-0.081475094
164	0x3d2425d7	0.04007515
165	0xbddbb8b0	-0.10728586
166	0x3ed197d3	0.40936145
167	0x3e559875	0.20858939
168	0x3e36fbc5	0.1786948
169	0x3e0a5c5c	0.13511795
170	0xbe93c95d	-0.28864565
171	0x3da206e5	0.07911471
172	0xbe83b8a1	-0.25726798
173	0x3c123c5c	0.008925524
174	0xbdae15b5	-0.08500234
175	0xbe43ebbc	-0.19132894
176	0xbe32a5ea	-0.17446104
177	0x3e698631	0.22805096
178	0x3e3a51c2	0.1819525
179	0x3e3533f7	0.17695604
180	0xbd055156	-0.03254827
181	0x3d7600e9	0.06005946
182	0x3d4a31c3	0.049363863
183	0xbe6f92ee	-0.23395893
184	0xbe6719d1	-0.22568442
185	0xbd86c824	-0.065811425
186	0x3ddcb29f	0.10776257
187	0xbe665220	-0.22492266
188	0xbe823b3b	-0.25435814
189	0xbdb20530	-0.08692396
190	0x3e173535	0.1476639
191	0xbe5212ed	-0.20515032
192	0x3e1326e6	0.14370307
193	0xbd3cf66f	-0.046133455
194	0xbd4e8c9b	-0.05042706
195	0xbd0a8fc6	-0.03382852
196	0x3db19bd5	0.08672301
197	0x3e939bd4	0.28829825
198	0xbd7358c5	-0.05941083
199	0x3e5e7a9b	0.21726458
200	0xbe12b025	-0.14325006
201	0x3b6a6d84	0.0035770843
202	0xbe16239a	-0.14662018
203	0x3c45a444	0.01206309
204	0xbe09f13a	-0.13470927
205	0xbe223d2f	-0.15843652
206	0x3e6e4066	0.23266754
207	0xbe55ff96	-0.2089828
208	0x3e27e24c	0.16394919
209	0xbddc00b8	-0.107423246
210	0x3e397595	0.1811126
211	0x3e5f3dff	0.21800993
212	0xbd280464	-0.041019812
213	0xbdaf5f1d	-0.08563063
214	0x3da0f87b	0.07859894
215	0xb9f4ac6c	-0.0004666777
216	0xbe770f4a	-0.24126926
217	0xbe085d08	-0.13316739
218	0x3c44946b	0.011998276
219	0xbe984d43	-0.29746446
220	0xbdc63350	-0.09677756
221	0x3d8cabcf	0.068687074
222	0x3cfc16aa	0.030772526
223	0xbcb874a8	-0.022516564
224	0xbe088d5b	-0.13335173
225	0xbd5b9317	-0.053607073
226	0xbda49662	-0.08036496
227	0xbd469fac	-0.04849212
228	0xbd017a00	-0.03161049
229	0xbe3a6b4d	-0.18204994
230	0x3e3163fe	0.173233
231	0x3b05cad7	0.0020415091
232	0x3d1f6cb9	0.038922045
233	0x3db31650	0.0874449
234	0xbd248bda	-0.040172435
235	0x3d9c902e	0.076446876
236	0xbcec8c2e	-0.028875437
237	0xbebcf1be	-0.36903185
238	0xbd951e4d	-0.0728117
239	0xb900657f	-0.00012244841
240	0x3ce0f826	0.027462076
241	0x3e7d7b50	0.24754071
242	0x3dd51417	0.104042225
243	0x3e04c1fa	0.12964621
244	0xbe3e98c4	-0.18612963
245	0x3e1a3159	0.15057887
246	0x3de674b6	0.112527296
247	0x3bbc3faa	0.005744894
248	0xbe67f55f	-0.22652195
249	0x3ec110ea	0.37708217
250	0xbe8ea4a8	-0.27859998
251	0xbd5faa40	-0.054605722
252	0x3eae6f8e	0.34069484
253	0xbdc589ef	-0.09645449
254	0x3e726f36	0.23675236
255	0x3cec08cc	0.028812788

l2/W f4 [81, 81]
0	0xbd986cda	-0.07442637
1	0xbc6973ab	-0.014248769
2	0x3d83571d	0.064131
3	0x3d80556d	0.06266294
4	0xbec0c6b2	-0.37651592
5	0x3e90449c	0.28177345
6	0x3dc55406	0.09635167
7	0xbe3211de	-0.17389628
8	0x3b2bde9f	0.0026225222
9	0x3d25c87c	0.0404744
10	0x3d862d87	0.065516524
11	0x3dcc9d0b	0.09990891
12	0x3d148f21	0.03626931
13	0xbd5d41ec	-0.054017946
14	0xbc3de232	-0.011589574
15	0x3d672604	0.05643274
16	0xbdef5802	-0.11686708
17	0x3da925e8	0.08259183
18	0x3df5662e	0.1198238
19	0xbdc558be	-0.09636067
20	0x3e3dd795	0.1853927
21	0xbc5872c6	-0.013210958
22	0x3e62e305	0.22156914
23	0xbe08b8fb	-0.13351814
24	0x3c1137ef	0.008863433
25	0xbda83251	-0.08212722
26	0xbeefeb51	-0.4685922
27	0x3cc13d31	0.023588749
28	0x3d89e7f0	0.06733692
29	0xbdfb8589	-0.12281329
30	0x3c5d4fef	0.013507827
31	0xbe16f8d9	-0.14743365
32	0xbdf58612	-0.119884625
33	0x3b838df0	0.004014723
34	0x3dc377f8	0.095443666
35	0xbed7ecee	-0.4217295
36	0x3e011c05	0.12608345
37	0x3d97aa1b	0.07405492
38	0xbea5af3b	-0.32360253
39	0x3ebef694	0.372975
40	0xbd0b9a9a	-0.034082986
41	0x3e274ec1	0.16338636
42	0x3e3cc34c	0.18433875
43	0xbd5e2788	-0.05423692
44	0xbe4b75d0	-0.1986916
45	0x3e9bd116	0.30432957
46	0x3de82853	0.11335816
47	0x3e2e2ae4	0.17008549
48	0xbd877c88	-0.06615549
49	0xbdee1037	-0.116241865
50	0x3e7b912b	0.24567096
51	0xbd04de2f	-0.032438453
52	0xbd72dd30	-0.059292972
53	0xbdbb0206	-0.09131245
54	0x3c76ee12	0.015071409
55	0xbda9f038	-0.08297771
56	0x3e82b1a1	0.25526145
57	0xbf224770	-0.63390255
58	0x3e71532a	0.23566881
59	0xbea1f6c2	-0.31633574
60	0xbe4c08a5	-0.19925173
61	0x3c611a87	0.013739235
62	0xbd85ff79	-0.06542868
63	0xbc699355	-0.014256318
64	0x3d9d5c8b	0.07683667
65	0xbd6d8dfe	-0.057996742
66	0xbdfeb888	-0.1243754
67	0xbed22e95	-0.41051164
68	0x3e562951	0.20914198
69	0x3d983644	0.07432225
70	0x3de9e37f	0.114203446
71	0xbe4370d5	-0.19086011
72	0xbd548a5e	-0.05188977
73	0xbe264d02	-0.16240314
74	0xbb9b533c	-0.004740147
75	0xbd90419f	-0.07043766
76	0xbe5667bb	-0.20938008
77	0xbd6cebe8	-0.057842165
78	0xbe06df03	-0.1317101
79	0xbead281c	-0.33819664
80	0x3d9af150	0.07565558
81	0x3df4e5e5	0.119579114
82	0xbec79135	-0.38977972
83	0x3db35d11	0.087579854
84	0x3e03fe85	0.1289006
85	0x3cbde739	0.023181545
86	0xbe78b5d1	-0.24288107
87	0xbd8665b5	-0.06562368
88	0xbe6539e5	-0.22385366
89	0xbdaa2d44	-0.08309415
90	0x3d59e000	0.05319214
91	0xbd0882c2	-0.033327825
92	0xbc9eb31e	-0.01937252
93	0x3dbf60fd	0.09344671
94	0xbe3aec72	-0.18254259
95	0x3ba42711	0.00500954
96	0xbe379108	-0.17926419
97	0x3d5226af	0.051306423
98	0x3c8cfac2	0.017209414
99	0x3e6afca6	0.2294794
100	0xbea84636	-0.32866067
101	0x3e4df8ba	0.20114413
102	0x3ec77d8e	0.38962978
103	0x3e5a67e0	0.21328688
104	0x3d05e9de	0.032693736
105	0x3db45da5	0.08806924
106	0xbe2b8d2f	-0.16753076
107	0x3e24f322	0.16108373
108	0xbe686514	-0.22694808
109	0x3c35630f	0.011070981
110	0xbd7a2769	-0.06107274
111	0xbe0a2de0	-0.13494062
112	0x3d478d1e	0.048718564
113	0x3e359540	0.17732716
114	0x3dc3901d	0.09548972
115	0x3ce40d04	0.027838238
116	0xbe92a13c	-0.28638637
117	0x3d72500a	0.059158362
118	0x3e4cc058	0.19995248
119	0xbe138f03	-0.14410023
120	0xbd41455d	-0.04718529
121	0xbefd85e3	-0.4951621
122	0xbe237db6	-0.15965924
123	0xbee8dae8	-0.45479512
124	0x3d287dd1	0.041135613
125	0xbda9933e	-0.08280037
126	0xbccf30d4	-0.025291838
127	0xbd412800	-0.047157288
128	0xbe619bb3	-0.22032051
129	0x3cb89f2f	0.022536842
130	0x3e08cd0e	0.13359472
131	0xbe76892c	-0.24075764
132	0xbd3253e7	-0.043537047
133	0xbd9084cb	-0.07056578
134	0x3e0694fe	0.13142774
135	0x3e52763b	0.20552914
136	0x3e6fbedb	0.2341265
137	0xbd3f641d	-0.046726335
138	0x3dae9eb0	0.08526361
139	0xbe208668	-0.15676272
140	0x3e23c4dd	0.15993066
141	0xbdc93329	-0.09824211
142	0xbe0363d5	-0.12831052
143	0x3e6cedb2	0.23137549
144	0xbe4ef366	-0.20210037
145	0xbe05a243	-0.13050179
146	0xbd2eb1a6	-0.042649888
147	0x3d89c8e0	0.06727767
148	0x3e926f8d	0.28600731
149	0xbcdb7230	-0.026787847
150	0xbe550537	-0.2080277
151	0xbd3f1cc8	-0.046658307
152	0xbda054b4	-0.07828656
153	0x3cd96bb8	0.026540622
154	0xbe3a7879	-0.18210019
155	0xbdf84a08	-0.12123495
156	0x3de87223	0.11349895
157	0xbb01e9e5	-0.001982325
158	0xbe34f66d	-0.17672129
159	0xbb671571	-0.0035260583
160	0x3e883be2	0.26608187
161	0x3e5cde27	0.2156912
162	0xbde361ee	-0.11102663
163	0xbcc6bda7	-0.024260355
164	0x3e1a6dab	0.15080898
165	0xbd791df1	-0.06081957
166	0x3e0270f1	0.12738396
167	0x3cb8d920	0.02256447
168	0xbe5142cc	-0.20435637
169	0xbe5065de	-0.20351359
170	0xbe096597	-0.1341766
171	0x3d589c56	0.05288347
172	0x3e021597	0.12703548
173	0xbe7b8139	-0.24561013
174	0xbd96883d	-0.07350204
175	0xbdb5111e	-0.088411555
176	0x3b4ac087	0.003093751
177	0xbe9cb329	-0.30605438
178	0xbcdd8d09	-0.02704479
179	0xbe07c2b4	-0.13257867
180	0x3dffc963	0.12489583
181	0xbe28c594	-0.1648162
182	0xbd9ba556	-0.07599895
183	0xbecb9968	-0.39765477
184	0x3d8e6914	0.06953636
185	0x3c454649	0.012040683
186	0xbe7ae856	-0.24502692
187	0xbae7c914	-0.0017683827
188	0xbde704fd	-0.11280248
189	0xbdaf5729	-0.08561546
190	0x3ce7ba8a	0.028287191
191	0x3e12c6f4	0.14333707
192	0x3e828706	0.2549364
193	0xbdd91fba	-0.106017545
194	0x3da6ed6a	0.08150752
195	0x3c2550e7	0.010090089
196	0xbda05ac1	-0.0782981
197	0x3ebb8a1d	0.3662881
198	0xbed0cef9	-0.40782908
199	0x3e4020e6	0.1876255
200	0x3de44a59	0.11146993
201	0xbe961e85	-0.2932016
202	0xbe0c5a77	-0.13706385
203	0xbe4563fe	-0.19276425
204	0xbe1c9161	-0.15289833
205	0x3e51b637	0.20479666
206	0xbe55e662	-0.20888665
207	0xbdb5b0d7	-0.0887162
208	0x3e711bf4	0.2354582
209	0xbe8e8120	-0.2783289
210	0xbc0c7cb6	-0.008574655
211	0xbd70ac0c	-0.058757827
212	0x3ca66d74	0.020315863
213	0xbba52b32	-0.0050405497
214	0xbec7794f	-0.3895974
215	0xbec5b023	-0.38610944
216	0xbdf3bc30	-0.11901128
217	0xbe0443be	-0.12916467
218	0x3e5afc9c	0.21385425
219	0xbe7763a1	-0.24159099
220	0xbeb4f78b	-0.3534511
221	0xbe4fec1b	-0.20304911
222	0x3e165f5c	0.14684814
223	0xbe772158	-0.24133813
224	0xbecda617	-0.4016578
225	0xbdcb95de	-0.09940694
226	0xbe39c42b	-0.18141238
227	0xbe990df4	-0.29893458
228	0xbe475d12	-0.19469097
229	0xbe8f015a	-0.2793072
230	0xbe53d818	-0.20687902
231	0xbd941561	-0.0723064
232	0xbe74e8e3	-0.23916964
233	0xbce523d0	-0.027971178
234	0xbe2f2113	-0.1710246
235	0x3d303f34	0.043029025
236	0xbed54bde	-0.41659445
237	0x3dc48e04	0.095974
238	0xbced41f4	-0.028962113
239	0x3dab0ad2	0.08351673
240	0xbd98b172	-0.0745572
241	0xbe4c9e90	-0.19982362
242	0x3d8b6a2b	0.06807359
243	0x3e122555	0.14272054
244	0xbe43d235	-0.19123156
245	0xbcd1d9e4	-0.025616594
246	0xbe01097e	-0.12601277
247	0xbe444b08	-0.19169247
248	0x3cc2b9c1	0.023770215
249	0x3db6f99d	0.08934329
250	0xbc2b81aa	-0.010467926
251	0xbe91b6bf	-0.28459737
252	0xbdda372e	-0.10655056
253	0xbd3cbcc5	-0.046078462
254	0xbc095616	-0.008382341
255	0xbd54bc27	-0.05193725

l1/b f4 [81]
0	0xbd6569ae	-0.056008987
1	0xbe688a75	-0.22709067
2	0xbe7ff863	-0.24997096
3	0xbe4720b9	-0.19446076
4	0xbebb2e98	-0.36558986
5	0xbe281970	-0.16415954
6	0xbe32e038	-0.17468345
7	0xbe340f13	-0.17583875
8	0xbea5cc5d	-0.3238248
9	0x3d5165e8	0.051122576
10	0xbe63585e	-0.22201678
11	0xbcb45df6	-0.02201746
12	0xbe010499	-0.1259941
13	0xbc24b52e	-0.010052962
14	0xbe0a60bb	-0.13513462
15	0x3dadfeac	0.084958404
16	0xbef9a877	-0.4876134
17	0xbc3ff6dc	-0.011716571
18	0x3c44d6a5	0.012014066
19	0xbdd7fb69	-0.105459996
20	0xbe668ca2	-0.22514585
21	0xbde4c35d	-0.11170075
22	0xbe900ef6	-0.28136414
23	0xbe9a7096	-0.3016402
24	0xbe9e66ad	-0.3093771
25	0xbed0359e	-0.40665907
26	0x3d487446	0.048939012
27	0xbe6e2b47	-0.23258696
28	0xbc464ab3	-0.012102771
29	0xbcfb18a4	-0.030651398
30	0xbea1c26e	-0.3159365
31	0xbdd49585	-0.10380081
32	0x3dafb9fe	0.08580397
33	0xbe80a4f1	-0.2512584
34	0xbd76155e	-0.06007897
35	0x3dead754	0.11466852
36	0xbdecd571	-0.11564148
37	0xbe6b819a	-0.22998658
38	0xbf2e8fa6	-0.6818794
39	0xbe746e8b	-0.23870294
40	0x3e1c21ca	0.15247265
41	0xbdaec497	-0.0853359
42	0xbe6b03ad	-0.22950621
43	0xbd2edee0	-0.04269302
44	0xbe86a3cf	-0.2629685
45	0x3ea36ea8	0.31920362
46	0xbe38c899	-0.18045272
47	0xbe3f44be	-0.18678567
48	0xbe430733	-0.19045715
49	0xbec2a81f	-0.3801889
50	0xbdec357f	-0.11533641
51	0xbe6b024b	-0.22950093
52	0xbe23a154	-0.1597951
53	0xbd80d3fd	-0.062904336
54	0xbeafacfd	-0.34311667
55	0xbd9da128	-0.07696754
56	0xbd584803	-0.05280305
57	0xbe2e9f71	-0.1705301
58	0xbd17ea33	-0.037088584
59	0xbedb7999	-0.4286621
60	0xbd372da4	-0.04472126
61	0xbe898d67	-0.26865694
62	0xbe4b2de9	-0.19841732
63	0xbef4130d	-0.47670785
64	0x3cfafa06	0.030636799
65	0x3dbcd3a5	0.092200555
66	0xbecfac04	-0.40560925
67	0xbdcce871	-0.10005272
68	0xbd397f5a	-0.045287468
69	0xbdf43b4a	-0.11925371
70	0xbd6e047b	-0.05810974
71	0x3d799825	0.060936112
72	0x3ecd3a14	0.40083373
73	0xbddacd6f	-0.106837146
74	0xbe504ec8	-0.20342553
75	0xbe84c967	-0.25934908
76	0x3da65ad5	0.081227936
77	0x3db308fa	0.087419465
78	0x3d3f1306	0.046649
79	0xbd824fe5	-0.06362895
80	0xbdb60e0b	-0.08889397

l2/b f4 [81]
0	0xbbec211e	-0.0072060963
1	0xbd7c24de	-0.061558597
2	0xbe3fbc6a	-0.18724218
3	0x3d71b7f0	0.059013307
4	0x3cc7881d	0.024356896
5	0xbe9f19b9	-0.31074312
6	0xbe910ae4	-0.2832862
7	0xbdbb6d41	-0.09151698
8	0xbe1dec83	-0.15422253
9	0x3e140f85	0.14459045
10	0xbe9c87ea	-0.30572444
11	0x3ca3e484	0.020006426
12	0xbd8c39f6	-0.06846993
13	0xbc377767	-0.011197901
14	0x3dd5c5ee	0.10438143
15	0x3e6b9acc	0.23008269
16	0x3c359adf	0.011084287
17	0xbe74a2dc	-0.23890251
18	0xbe3b429f	-0.18287133
19	0xbea543ea	-0.32278377
20	0xbe6a842f	-0.22901987
21	0x3d7ef334	0.062243655
22	0xbdd7c6fc	-0.10536
23	0xbe912f73	-0.28356513
24	0xbdd04e75	-0.101712145
25	0xbd8a74ba	-0.06760545
26	0xbe744c3c	-0.23857206
27	0xbdf83a68	-0.12120515
28	0xbe176035	-0.14782794
29	0xbe3b9964	-0.18320233
30	0x3d508e59	0.050917003
31	0xbd9878f6	-0.074449465
32	0xbe3e8bd7	-0.18608032
33	0xbe4ada66	-0.19809875
34	0xbce0d32a	-0.02744444
35	0xbe1d7db4	-0.15379983
36	0xbdc92fea	-0.09823592
37	0x3e24e1d9	0.16101779
38	0xbe04e1c8	-0.12976754
39	0xbe05ec56	-0.13078436
40	0x3c3933da	0.011303866
41	0xbe2580db	-0.16162436
42	0xbe85f020	-0.26159763
43	0xbbfcd2e7	-0.007715571
44	0xbd567c5e	-0.0523647
45	0xbddccc57	-0.10781162
46	0xbe08be41	-0.13353826
47	0xbdc53b79	-0.09630484
48	0xbe718dd8	-0.23589265
49	0xbe411be9	-0.18858303
50	0xbe6a4b6b	-0.22880332
51	0xbde66da8	-0.11251384
52	0xbe126439	-0.14296044
53	0xbe4ecad2	-0.20194557
54	0x3d7a699c	0.061135873
55	0x3e048970	0.12943053
56	0x3d89faea	0.06737311
57	0x3d57e263	0.052706134
58	0xbbd76cc0	-0.0065742433
59	0xbd6ad236	-0.05732938
60	0xbe83be4d	-0.25731125
61	0x3b9f6e40	0.0048654377
62	0xbe7fd527	-0.24983655
63	0xbbd3d1ac	-0.006464204
64	0xbcac087c	-0.02100014
65	0xbe11daa3	-0.1424356
66	0xbe14cab4	-0.1453045
67	0xbe08aeb6	-0.13347897
68	0xbe69979b	-0.22811739
69	0xbe200c2c	-0.15629643
70	0xbe4fceca	-0.20293728
71	0xbe7caf42	-0.2467623
72	0xbd8e3e9d	-0.06945536
73	0xbdcaa8f0	-0.098955035
74	0xbe083bf1	-0.13304116
75	0xbddfca1c	-0.10927221
76	0xbe001ecb	-0.12511747
77	0xbe1ab6a1	-0.1510873
78	0xbed60f9f	-0.41808793
79	0xbb79785e	-0.003806613
80	0xbd75b47c	-0.059986576

l0/W f4 [81, 9]
0	0x3ed848e1	0.42243102
1	0xbbf89271	-0.0075858166
2	0x3daf8b0f	0.08571445
3	0x3e67c2bc	0.22632879
4	0x3b2adb5f	0.0026070697
5	0x3eb6694b	0.35627207
6	0x3f0c5771	0.54820925
7	0xbc558e82	-0.013034465
8	0x3f3045b8	0.6885638
9	0x3bb84994	0.0056240056
10	0x3f92dcd3	1.147364
11	0x3d057756	0.03258451
12	0xbe6d03e4	-0.23146015
13	0x3f18b0e9	0.59644943
14	0xbe6f6f84	-0.23382384
15	0xbd0a03e7	-0.033695128
16	0x3f103ddd	0.56344396
17	0x3ea4f013	0.32214412
18	0xbd5a9f9f	-0.053374883
19	0x3e7d5df0	0.24742866
20	0x3e561e3d	0.20909972
21	0xbf2a41cd	-0.66506654
22	0x3e0685c1	0.1313696
23	0x3e046698	0.12929761
24	0xbf2cd372	-0.6751014
25	0x3da9fe64	0.08300474
26	0xbe8d9411	-0.27652028
27	0x3f0632bd	0.5242117
28	0x3cfe128a	0.0310147
29	0x3df3fbeb	0.11913284
30	0xbe08ed64	-0.13371807
31	0x3d64add6	0.055829845
32	0xbea69af8	-0.32540107
33	0xbe56c2c7	-0.20972739
34	0x3d19eed6	0.037581287
35	0xbeafa75e	-0.3430738
36	0x3f052a91	0.52018076
37	0x3c052d87	0.00812853
38	0x3d2fa1f5	0.042879064
39	0xbc2ce589	-0.010552772
40	0xbf0d9080	-0.55298615
41	0x3d0edd5a	0.034879066
42	0xbbce6051	-0.006298103
43	0xbe15dbb7	-0.14634596
44	0xbef57043	-0.4793721
45	0xbe8ebc6b	-0.27878127
46	0xbef3b42e	-0.47598404
47	0x3edaffbc	0.42773235
48	0x3f280d9f	0.65645784
49	0xbe4cd04f	-0.20001338
50	0x3d8d241b	0.06891652
51	0xbebe15ae	-0.37125915
52	0xbf5445ff	-0.82919306
53	0x3d806c59	0.06270666
54	0xbd8c7cc8	-0.06859738
55	0xbf05d67b	-0.52280396
56	0xbefa46ad	-0.48882046
57	0x3e658244	0.22412974
58	0xbe983de6	-0.29734725
59	0x3e2c876f	0.16848539
60	0x3f2d47a9	0.6768747
61	0xbe6cceb4	-0.23125726
62	0xbe8f4337	-0.27980968
63	0xbebef5ea	-0.37296993
64	0xbea46f15	-0.32116
65	0xbe625857	-0.22104011
66	0xbed3e2cf	-0.4138398
67	0xbe37f3dd	-0.1796412
68	0xbd884bc3	-0.066550754
69	0xbeb35c21	-0.35031226
70	0x3f498113	0.78712577
71	0xbed1decd	-0.40990296
72	0x3eb92048	0.3615744
73	0x3dd60ed7	0.10452049
74	0x3dd9e4c9	0.106393404
75	0xbe4e8846	-0.20169172
76	0xbc9df82c	-0.019283377
77	0x3d2c5901	0.04207707
78	0xbd95f556	-0.07322185
79	0xbf81ef0b	-1.0151075
80	0x3eb5f982	0.35541922
81	0x3e7becd7	0.24602066
82	0xbe00d678	-0.12581813
83	0x3e3a4796	0.1819137
84	0x3f0da328	0.5532708
85	0xbec495e5	-0.3839561
86	0xbe30efc0	-0.17278957
87	0x3c1d53d6	0.009602508
88	0x3cacd87c	0.021099322
89	0x3e999a99	0.3000076
90	0x3e18e63c	0.14931577
91	0xbee21eef	-0.44164225
92	0xbefedaf6	-0.4977643
93	0xbcecf87d	-0.028927082
94	0x3daed845	0.08537344
95	0xbd9e0674	-0.077160746
96	0xbf5035e1	-0.8133221
97	0xbf039bcf	-0.5140962
98	0xbf17df67	-0.5932526
99	0x3ee1d095	0.44104448
100	0x3e187a8b	0.14890496
101	0xbdf34ab6	-0.11879484
102	0x3cb21514	0.021738566
103	0x3f4bacf2	0.7956077
104	0x3f4011da	0.7502724
105	0x3ec7f41a	0.39053422
106	0x3dbbf799	0.09178085
107	0xbd898e3c	-0.06716582
108	0x3f0a6b0a	0.5406958
109	0x3ef688dd	0.48151293
110	0x3ed54907	0.41657278
111	0x3e23a5c1	0.15981199
112	0x3f11f999	0.5702148
113	0xbe09fab0	-0.13474536
114	0xbe7480e4	-0.23877293
115	0x3ea6a1f6	0.3254544
116	0x3e6855bd	0.22688957
117	0x3f589385	0.84600097
118	0xbef574b4	-0.479406
119	0x3ddd176d	0.10795484
120	0x3e5b2026	0.21398982
121	0x3eca90c4	0.39563572
122	0x3f0631a0	0.5241947
123	0xbd6a20c0	-0.05716014
124	0xbe9ddbc5	-0.30831733
125	0x3f31443c	0.6924474
126	0xbe162b73	-0.14665012
127	0x3de77cf3	0.11303129
128	0xbf71cf57	-0.94457
129	0x3e057833	0.13034134
130	0xbf22e4bd	-0.63630277
131	0x3deea6b2	0.11652888
132	0xbf463701	-0.7742768
133	0x3eaaa7eb	0.33331236
134	0x3e090b6f	0.13383268
135	0x3dc048eb	0.09388908
136	0x3f039d48	0.5141187
137	0x3ec68826	0.38775748
138	0x3ed83468	0.42227483
139	0x3eb77f6f	0.35839412
140	0x3d84e1e7	0.064884
141	0x3de614cc	0.112344354
142	0xbe611a9d	-0.21982808
143	0x3e26692b	0.16251056
144	0x3f69c18b	0.9131095
145	0x3de4afa5	0.11166314
146	0x3ec97739	0.39348772
147	0x3e8e9d5c	0.2785443
148	0x3e9d620c	0.30738866
149	0x3f1feb92	0.62468827
150	0x3ec4a72e	0.38408798
151	0x3e7c3566	0.24629745
152	0x3e272c3c	0.16325468
153	0xbe234e53	-0.15947847
154	0x3e3d3ad1	0.18479468
155	0xbee25157	-0.44202682
156	0xbe9ef583	-0.31046686
157	0xbf1b9f7e	-0.6079024
158	0xbf0d0a0e	-0.5509347
159	0x3e7ae84a	0.24502674
160	0xbdb906d7	-0.09034508
161	0xbd3ac9c5	-0.04560258
162	0xbd1cab0b	-0.038249057
163	0xbec481bf	-0.38380238
164	0x3cadc43c	0.021211736
165	0xbd855eb1	-0.065122016
166	0xbe6c1132	-0.23053434
167	0x3f6d26fe	0.9263762
168	0x3db01e6b	0.08599552
169	0xbdc46fd2	-0.095916405
170	0x3de5c786	0.11219697
171	0x3cabac29	0.020956116
172	0xbc073c82	-0.008254172
173	0xbdf77d33	-0.12084427
174	0x3e4294c6	0.19002065
175	0xbebac222	-0.36476237
176	0x3e97d373	0.2965351
177	0xbe6e200e	-0.23254415
178	0xbe559f1a	-0.20861474
179	0x3e76d8bd	0.24106117
180	0xbddc1170	-0.107455134
181	0x3d92c871	0.071671374
182	0x3f04d2df	0.51884264
183	0xbe442689	-0.19155325
184	0xbe0f9705	-0.14022453
185	0x3eaecaf4	0.34139216
186	0x3ee42030	0.44555807
187	0x3e86104b	0.26184306
188	0xbe4c7d61	-0.19969703
189	0x3ee769fd	0.4519805
190	0x3f5f144e	0.8714036
191	0x3ecd73dc	0.40127456
192	0x3eca77f6	0.39544648
193	0x3eb2b319	0.34902266
194	0x3f4f19d7	0.80898803
195	0x3ec98227	0.3935711
196	0x3ea669c8	0.3250258
197	0x3ef2634f	0.4734139
198	0x3c230fa2	0.009952458
199	0x3ec936a0	0.39299488
200	0xbeea96a7	-0.45818064
201	0xbe9366b9	-0.2878931
202	0x3c87fd49	0.016600268
203	0x3e7df521	0.2480054
204	0x3df8522c	0.12125048
205	0x3efa3a06	0.48872393
206	0x3e3fb51d	0.18721433
207	0x3eb9f9e0	0.36323452
208	0x3e22b30b	0.15888612
209	0xbdfde672	-0.123974696
210	0xbeadfed0	-0.3398347
211	0xbf6bae10	-0.92062473
212	0xbe9f6847	-0.31134245
213	0xbddc037e	-0.107428536
214	0x3da14fea	0.078765705
215	0x3f048d99	0.5177856
216	0xbcc39a0a	-0.023877162
217	0xbe68d2fc	-0.22736734
218	0xbeb257b0	-0.34832525
219	0x3f89dd7d	1.0770718
220	0xbefa28a1	-0.48859122
221	0xbf04a705	-0.5181735
222	0xbe8c8bb4	-0.27450335
223	0xbc9738ab	-0.018459639
224	0xbefb8ae6	-0.4912941
225	0x3d2d5838	0.04232046
226	0xbd657c20	-0.056026578
227	0x3f1c37c5	0.610226
228	0xbd83ece8	-0.06441671
229	0x3dbc0c7a	0.09182067
230	0xbf1a907e	-0.6037673
231	0xbd80786c	-0.06272969
232	0xbe1e3e24	-0.15453392
233	0x3f3b54b8	0.73176146
234	0xbe9d0aab	-0.30672202
235	0x3d51295d	0.051064838
236	0xbd35b924	-0.044366017
237	0x3e53eb47	0.2069522
238	0x3ea948c4	0.33063328
239	0x3e9ecc32	0.31015164
240	0x3ee0b8e4	0.4389106
241	0xbf047da3	-0.51754206
242	0x3eab8154	0.33497107
243	0x3f038b38	0.51384306
244	0xbe9d1e7d	-0.30687323
245	0xbe9322a4	-0.28737366
246	0x3ed02c2e	0.40658706
247	0xbdd8b6d3	-0.10581746
248	0xbedb00ca	-0.4277404
249	0xbd1edc05	-0.038784046
250	0x3d1fdef8	0.039031
251	0x3def137e	0.1167364
252	0x3eed37b1	0.46331552
253	0x3e51c0e5	0.2048374
254	0x3c8a6da3	0.016897982
255	0xbe031b74	-0.12803441
