chainerrl/TicTacToe/result_30000/model.npz (npz, 56591 bytes, 8 tensors)

l3/W f4 [9, 81]
00000000: ecd5 043e 1677 8bbd d4fb fbbe 4b72 8a3c
00000010: ba6f 36be ae7e 1cbe 453c 243e 10ab 96be
00000020: 92bd 023e 1b8b 39bd d554 0abf c28d 96bd
00000030: efd5 cdbe d4b2 773d 55c5 c73d 234d 1e3e
00000040: ebb1 303d 1183 333d b873 1cbf c554 2a3e
00000050: aa46 52ba 09f1 d83c 16be 1ebd 4140 783e
00000060: 4b5d 11bf 4405 16bc a180 abbd 6d0d 703e
00000070: e06a 9bbe 39ae 323d c3d7 f03d 9bc7 593e
00000080: 7c6d 98bd 3ed8 fb3d a6d7 3fbe 83a5 cf3c
00000090: 6d2e 693e 43b0 9f3e 3074 573d eb87 9ebd
000000a0: 8d60 bebc 2caa 2dbf 2ddd b8be 56ce 1f3e
000000b0: 5002 073e 3f26 0dbf 1b83 0d3e 6ce2 903d
000000c0: 3399 333e 7d3f 843e a0a9 683e d819 41be
000000d0: 4d4d b8bd 7275 21be 245d 2d3d c3f5 95bd
000000e0: 7118 ccbc 0f5f cc3d c8cf d73d 2149 823d
000000f0: 3629 86be 2012 4abd dd9f 333e 4e9a a2bd
00000100: b8cf d23c d14f 983d a333 d3be b0a7 febe
00000110: ef5e 4ebc 64dd 81bd 6931 21be 0fc8 86be
00000120: 4020 c33a 95d1 5e3e 6c98 bcbe 9f0b a3bd
00000130: cbe2 0bbd 3e34 cb3d 0214 93be 6327 11be
00000140: bad9 88bb 8330 de3c eb9b 89be 7a86 173e
00000150: 91e1 d43e cd79 15bb db23 473e f37a 6abd
00000160: 0e02 54be e9f2 22bf 564b 923d cc0f 1f3d
00000170: cb18 dbbd 023d 863c a390 633e 16c6 1f3e
00000180: a9f0 653e df65 553e b2cf 883e 6b05 7cbe
00000190: 2764 46be 6293 bdbc e2ea 3c3e 4f3e 003e
000001a0: a154 29be c7f7 8c3c ec78 e0be 80b5 81be
000001b0: 47e6 743e 1864 b2be bd7a 103e c43a 893e
000001c0: 46c6 8abe bcc6 3cbe 98c9 40be 8ced 243e
000001d0: ed07 d43e 981f 4f3e ab42 72be 60d4 c0bd
000001e0: 7e76 91be d6dc efbc b1ec 7cbe c7e3 39be
000001f0: 8cfa e83d 8b71 bebd 1c37 aebc 92b3 8e3e
00000200: f73b 88be 71c4 bbbd f8a6 5ebe 5dbb 48be
00000210: 212b 143e a680 613d bf7e 64be bf63 7c3c
00000220: 2b64 4bbe 9900 b9bd 3209 6bbd 8eda 2abe
00000230: 5c2d 483e 2e96 29be c391 e23d 0a43 d9bd
00000240: a816 fdbc a059 8a3c d097 afbe 593e f6b9
00000250: 87d7 4a3e c256 393e 529c 0dbe 4f0c 3f3d
00000260: a2f8 6ebc b0af 99be a79b 79bd 7796 5a3e
00000270: f6cd a5be 13e3 903d 87f8 bbbe 469d acbe
00000280: dc7a b0bc b959 98bd 256e 9a3e 0e27 0ebe
00000290: 537e efbe f181 893d dc6f efbc 72d4 05be
000002a0: 455f 4c3e 6dce 35bc 12db fa3d 7638 c63e
000002b0: 9279 453e 0760 ff3c ad9b c2be 0521 02be
000002c0: 0f26 34bd ef7e 00bd 0401 4e3d 9324 00be
000002d0: 6fae 4d3e 34e7 4bbe c901 25bf 58fa 0ebe
000002e0: 4893 833d 79e1 3dbd 2347 5ebe 1514 26bd
000002f0: e17c 8ebe e67c 353e 7444 03bf d325 0abf
00000300: 9b3f 13be f9a7 49bd 0d5f 3ebd 4894 f13e
00000310: 41b9 a23e 24a6 913e 66bf c2be 1ca2 63bd
00000320: 0253 703d e819 d5be ad15 e03d 3e61 b9bd
00000330: 5076 39bd c69d a8be 194e 8fbd df80 10bd
00000340: 56a3 42bb bb8d 023e d97f 07be 6c75 5dbe
00000350: dea2 823e 06eb 9e3e 360f 0ebe 63f1 28be
00000360: c20b ee3d 7f00 85be 62ef 503d 60bf b03e
00000370: 0724 80be e730 1abc ac7e b8be 4b0e 2c3e
00000380: fe5e 31bd dc30 b63d 82a4 573e 06a8 403d
00000390: 1675 58be 58d1 bdbd d338 093e 51c1 16be
000003a0: 88eb 90bc 8a57 0abe f00a 4cbd 4f56 57be
000003b0: aa3a ef3d ec97 0cbd 0bab f6bd 4faf e93d
000003c0: 8e8e 463e 9e3f 34bd f415 883e f497 3e3d
000003d0: 8705 5cbb eb2f cabe 33ef 2c3e 61dd 233e
000003e0: 9800 9abd dc32 d4bd 4c4b cbbd 4a0c 323e
000003f0: 9c29 103d 86a6 e93d 956b dcbe 013a b73d
0.1297223 -0.06809823 -0.49215567 0.016900202 -0.17816058 -0.152827 0.16038616 -0.29427385
0.12767628 -0.045298677 -0.54035693 -0.07351257 -0.4020228 0.06047328 0.09754435 0.15459113
0.043138426 0.043826167 -0.6111407 0.166339 -0.0008021394 0.026482122 -0.0387555 0.24243261
-0.5678298 -0.009156529 -0.083741434 0.23442622 -0.30354977 0.043623183 0.11759903 0.2126755
-0.074427575 0.12297104 -0.18734607 0.025347477 0.22771616 0.31189165 0.05260104 -0.07740768
-0.023239398 -0.67837787 -0.36106244 0.15606055 0.13184476 -0.55136484 0.13819544 0.070744365
0.1753891 0.25829688 0.22720957 -0.18857515 -0.08999119 -0.15767458 0.042325154 -0.07322266
-0.024913998 0.099790685 0.10537678 0.063616045 -0.26203316 -0.04933369 0.17541452 -0.079395875
0.025733814 0.07437099 -0.41250333 -0.4973731 -0.012595876 -0.06341055 -0.15741505 -0.26324508
0.0014886931 0.21759637 -0.3683504 -0.07961201 -0.034151834 0.09922074 -0.28726202 -0.14175181
-0.0041763457 0.027122742 -0.26876768 0.14797392 0.41578344 -0.0022808195 0.19447272 -0.05724616
-0.20703909 -0.636519 0.071432754 0.038833424 -0.10698088 0.016386513 0.22223143 0.15602908
0.22455086 0.20839642 0.2672096 -0.24611442 -0.19374143 -0.023141567 0.18448976 0.12523769
-0.1653619 0.017207993 -0.43842256 -0.25333786 0.23915969 -0.3484199 0.14109321 0.26802647
-0.27104396 -0.18435186 -0.18826902 0.16106242 0.41412297 0.20226896 -0.23658244 -0.09415507
-0.28410715 -0.029280107 -0.24699666 -0.18153296 0.11375913 -0.09299 -0.021266513 0.27871376
-0.2660825 -0.091683276 -0.21743381 -0.19602723 0.14469577 0.05505433 -0.22313975 0.015404641
-0.1986243 -0.09033317 -0.057381816 -0.16684934 0.19548553 -0.16561195 0.11062958 -0.1060849
-0.030894592 0.01688844 -0.3429551 -0.0004696723 0.1980878 0.18099502 -0.13829163 0.046642598
-0.014585646 -0.3001685 -0.060939457 0.2134646 -0.32383698 0.07074561 -0.3671305 -0.3371374
-0.021542959 -0.07438988 0.3016216 -0.13882086 -0.46776065 0.067142375 -0.029228143 -0.13069323
0.19958217 -0.011096579 0.122488156 0.3871495 0.19284657 0.03117372 -0.38009396 -0.12707908
-0.043981608 -0.031371053 0.050293937 -0.12513952 0.20086072 -0.19912416 -0.6445585 -0.13962686
0.06424576 -0.046357606 -0.21706824 -0.040546495 -0.2782965 0.17723426 -0.51276326 -0.53963965
-0.14379732 -0.049232457 -0.046477366 0.47183442 0.31781963 0.28447068 -0.3803665 -0.05557452
0.058672912 -0.41621327 0.10941634 -0.090517506 -0.045278847 -0.32932872 -0.06997318 -0.03527915
-0.0029699407 0.12749378 -0.13232364 -0.21626824 0.25514883 0.31038684 -0.1387299 -0.16498332
0.116233364 -0.2597694 0.051009543 0.34521008 -0.25027487 -0.009411073 -0.36034143 0.16802327
-0.043303482 0.08896038 0.21058849 0.04703524 -0.21138415 -0.09268445 0.13400583 -0.14722182
-0.017690435 -0.13509956 -0.04981512 -0.21029018 0.11681111 -0.03432457 -0.120443426 0.114103906
0.19390318 -0.044005983 0.2657925 0.046531633 -0.003357263 -0.39489684 0.16888122 0.16002418
-0.075196445 -0.10361263 -0.09926471 0.173875 0.03519593 0.11408715 -0.4305083 0.0894661

l3/b f4 [9]
00000000: 4b1f abbd 5a1f 79be 3b47 3abe 242f 56bd
00000010: 7309 0b3e 1e02 dfbc 8f02 44bc 312a 97bd
00000020: 0aa9 88bd
-0.08355578 -0.24328366 -0.18191235 -0.05229105 0.13577823 -0.02722269 -0.011963501 -0.07381094
-0.06672867

l0/b f4 [81]
00000000: 31e6 733e 7904 5ebe 5b48 52be a82a 27be
00000010: 9758 b8bd b0fc b8be d4b3 e8be 73ed 13be
00000020: b17d 053c 88de 04bd 7c05 a1be 3042 5fbe
00000030: 6b99 d4bc 3c43 ddbd bc42 e4be 8357 c03d
00000040: 3f46 8e3e e2e7 7dbe 799e 8fbe e458 a33d
00000050: 5818 133d 41c0 d83e 70a5 36be 69df bfbe
00000060: f1d7 c3be 772a 37be 0b7f 13be c88b 9ebd
00000070: cb48 10be c558 a1be 6540 58be 0525 29be
00000080: 1eac 2bbe 896f 3cbd 01d8 3cbe 511b d0be
00000090: 5de8 db3d 78af 1cbf 197a 35be 1f44 50bd
000000a0: aa5c e6bd 77d2 1c3d 1d6c debd b0c5 4fbe
000000b0: c32b 7fbe d013 663e a5b5 16be fe6b d2be
000000c0: 3d16 95be 658e 38be 49f7 e6bd cb01 51be
000000d0: 7964 cabe 4b53 b7be 1277 bbbe 364d 93be
000000e0: 691d 99be 8d48 8fbe 11f2 233d e158 5d3c
000000f0: 5f1e 1bbe b52f 88be 96a5 a13d 2b3b 14be
00000100: b2d2 d2be 5c21 a53e 5321 cdbd a546 4ebe
00000110: a3bb 65be 1b72 04bf bebd 80bd f0c7 7fbe
00000120: 0193 62be cc17 9ebd 3b71 98bd 070b a93d
00000130: c40f a1be b728 bb3a 57f5 a43c 98f4 83be
00000140: f08e 84be
0.2381828 -0.21681394 -0.20535414 -0.16324866 -0.09001272 -0.36130285 -0.45449698 -0.14446048
0.008147643 -0.032438785 -0.31449497 -0.21802592 -0.025952062 -0.108038396 -0.44582164 0.093916915
0.2778797 -0.24795488 -0.28050593 0.07975939 0.035911888 0.42334178 -0.17836547 -0.37475136
-0.38250688 -0.17887293 -0.14403932 -0.07741505 -0.14090268 -0.31513038 -0.21118315 -0.16518028
-0.16764876 -0.046004806 -0.18441774 -0.4064584 0.10737679 -0.61205244 -0.17722358 -0.050846215
-0.11248143 0.038286652 -0.10860465 -0.20290256 -0.24919038 0.22468495 -0.1471773 -0.41098017
-0.2911853 -0.18023069 -0.11277635 -0.2041084 -0.3952978 -0.35805735 -0.3661428 -0.28769845
-0.2990525 -0.2798504 0.040025774 0.01350996 -0.15148304 -0.26598898 0.07892911 -0.14475696
-0.41176373 0.32252014 -0.10016122 -0.20144136 -0.22434859 -0.5173661 -0.062861905 -0.24978614
-0.2212639 -0.07719383 -0.07443472 0.082540564 -0.3145734 0.0014279102 0.020136518 -0.25772548
-0.25890303

l1/W f4 [81, 81]
00000000: cbd3 3bbe 35bd f6bd 4382 bfbd a29d d63c
00000010: a1a0 3c3b 03fa f73d ef8f cc3d 30de 79be
00000020: 0be3 53be 577c 59be af3f 06be 9c2d ff3c
00000030: 5854 18be 7ef5 42be 44c3 04be f44e 0c3e
00000040: 7acb a93d c8a8 7b3d c15a b1bc 7e95 993d
00000050: 48e0 bdbd d0ce 7fbd 9b51 8fbc d3e5 933d
00000060: 56a0 b53d e93e ffbd 83fa ac3e 25e6 93be
00000070: 552c 6abe c790 1fbc bc72 43be 6031 2ebd
00000080: fa7c 183e 8003 af3c d6b1 ba3d f920 8cbe
00000090: fa6b d3bd 8b01 28bd 9bbd 6abe 0595 36bd
000000a0: a087 ef3c 2bb8 e63d 0bae 53bd d1a6 1c3e
000000b0: 4898 553e 6d6e cbbb 4dc4 7fbc 2248 de3a
000000c0: d1bb 823e e60b 70bc 0d81 b0bd efd6 8c3c
000000d0: add6 27bd 6a63 b43d 6e67 193d 5eca cdbd
000000e0: b185 c93a 9385 333e 6aff ae3d eaee 49be
000000f0: 1bc1 173e 948e 52be 9371 c7bd 1f26 93bc
00000100: 7471 533e 1b94 e2bc cbdb 8d3d a655 af3d
00000110: 97c5 2bbe 498c 07be d96f 70be 7547 2d3e
00000120: 9b5d 05be da41 5a3b f518 003d 70d7 c9be
00000130: b7c5 24be e4f0 073d 226a ef3c 77fe a93d
00000140: 2f97 3cbe 2405 a3be 685c e1be 8342 19be
00000150: 0b1d b33c 24cb 87bd d511 3d3e 0767 e03d
00000160: 6022 863e add8 28be f8a4 cfbc cac4 3b3e
00000170: 3e46 583e e595 8a3e 48df 183e 50f1 10bd
00000180: d281 33bd e269 2b3e 329e 18bd 6eb9 203e
00000190: b0a9 84bd a813 ab3d ef8f b9be a45d 333e
000001a0: bfba 1ebe 9e6e 2a3d 43ae ca3d 8f75 033e
000001b0: 3075 95bd 5018 30be 0ad7 1f3d b1f4 9e3d
000001c0: 54d1 6ebe 264c bd3c 4954 e53d 3879 02be
000001d0: ae28 c9bd e205 7cbe d9b8 b03e fb26 7d3d
000001e0: 729b bbbc cfce 093d b032 99be ec49 27be
000001f0: bda1 0e3e 724b 07be 338f 81bd ae19 40bd
00000200: 09f3 15be f4f6 02be 71d2 d6bd 2588 413e
00000210: fbb4 70be a437 553d aca6 5ebe a525 783d
00000220: a717 17be 7a39 063e 11a5 223e 7f85 ad3c
00000230: d513 d9be e9b6 78be a4d1 3c3e eb48 11be
00000240: c163 40be df48 2e3e 2517 1d3e e2e2 a4bc
00000250: e00b 95be 64b3 083e 282a 3e3d 404c ed3d
00000260: 4b36 7b3d 655f 653e 8697 2ebe 369d 143d
00000270: 62fa 66be c44f debd 912c 503e 7ccb 903d
00000280: d335 f83d e905 12bc 30bf ed3d 70ed eebd
00000290: 3ff2 a03c 9a1e 0abe 39cd e53e b4b3 3f3e
000002a0: 8183 6f3e 0a55 f03d 79a5 84be 6792 883d
000002b0: ee6f 74be 943b a03c f92c 86bd 95f0 50be
000002c0: 1e24 19be 6502 833e c021 253e 5f6b 293e
000002d0: da2a 1b3c 459a 5a3d 218d 673d 7f7f 50be
000002e0: 1834 7ebe 37ad 2ebc 41ba d03d b0af 75be
000002f0: 519f 6dbe 70c7 53bd d31c d83d b7f6 30be
00000300: 011d 163e 1f6a 98bd 44a0 1fbd 6fa4 a7bc
00000310: 3632 de3d 2842 ab3e b693 92bd 605b 3f3e
00000320: 454b 17be d2bd 16bd 97c5 15be 645f 1e3d
00000330: 6e28 19be 8cf8 05be cc0b 473e d067 3fbe
00000340: a88d eb3d 2557 cebd 3a1d 563e 2657 5c3e
00000350: 16e3 68bd 53fc d0bd 2784 e43d 3310 fabc
00000360: 0d0b 40be a3cb 18be d5b2 c83c 9f09 8abe
00000370: 0060 adbd 735d 5b3d 9b01 883d eb05 313d
00000380: ab09 28be 63bc 94bd 5338 babd 3959 16bd
00000390: dc18 d93c b974 35be 5869 4b3e 8523 373b
000003a0: 3fd1 1c3d 7928 283d f960 2e3c ec0b db3d
000003b0: 586a 0ebd a3b7 c1be 300d d2bd da61 36bc
000003c0: 7f48 743c 5c15 823e 51ba ea3d 9843 1c3e
000003d0: 0880 1bbe 350e 2f3e da28 0b3d f29b 4dbc
000003e0: ffb2 39be e26c ba3e 743e 7dbe 0e3e 65bc
000003f0: 32a3 b93e 8c0d e3bd b646 403e cd45 b53c
-0.18342511 -0.12047807 -0.09351017 0.026198212 0.0028782266 0.12108233 0.09988391 -0.24401164
-0.20692079 -0.21238838 -0.13110231 0.031149678 -0.14875925 -0.1903896 -0.12965113 0.13701993
0.08290763 0.06144026 -0.02164972 0.074992165 -0.09271294 -0.06245309 -0.017494967 0.0722157
0.08868472 -0.12463171 0.33784875 -0.28886524 -0.22868474 -0.009739107 -0.19086736 -0.042527556
0.14891425 0.021363974 0.09115951 -0.27368906 -0.10323329 -0.041017096 -0.22923891 -0.04457571
0.029239476 0.11265596 -0.051679652 0.1529801 0.20858872 -0.006208232 -0.015610767 0.0016958753
0.25533918 -0.014651274 -0.086183645 0.017192332 -0.040976215 0.08808024 0.037452154 -0.10048364
0.0015374926 0.17531423 0.0854481 -0.19720045 0.14819758 -0.20562202 -0.097384594 -0.017962513
0.20648748 -0.027658513 0.06926688 0.08561258 -0.16774593 -0.13237108 -0.23480166 0.1692179
-0.13023989 0.003330341 0.0312738 -0.39422178 -0.16091047 0.033188716 0.029225413 0.083004884
-0.18417047 -0.3183986 -0.44015813 -0.14966778 0.021864435 -0.06630543 0.18463834 0.10957151
0.261981 -0.16488905 -0.025347218 0.18336788 0.21120545 0.27067485 0.14928925 -0.035386384
-0.04382498 0.1673961 -0.03726024 0.15695736 -0.06477678 0.083533585 -0.36242625 0.1751619
-0.15500925 0.0416094 0.09896519 0.12837814 -0.07297742 -0.17196774 0.039023437 0.07761515
-0.2332204 0.0231076 0.11197717 -0.12741554 -0.09822212 -0.24611619 0.34516028 0.061804753
-0.02290127 0.033644494 -0.29921484 -0.16336793 0.13928886 -0.13212374 -0.06326141 -0.04689949
-0.14643492 -0.12789518 -0.10489357 0.18899591 -0.23506539 0.052055016 -0.21743268 0.060582776
-0.14755116 0.13107863 0.1588328 0.02118182 -0.42397943 -0.24288525 0.18439347 -0.14187972
-0.18788053 0.17019986 0.1534086 -0.020127717 -0.29110622 0.13349682 0.046426922 0.11586809
0.061331075 0.22399671 -0.17049989 0.03628274 -0.22556451 -0.10855058 0.203295 0.070700616
0.12119641 -0.008912542 0.11608732 -0.11666381 0.019646762 -0.13488236 0.44883135 0.18720895
0.23390009 0.1173497 -0.25907496 0.06668549 -0.23870823 0.019559659 -0.065515466 -0.20404275
-0.14955184 0.25587764 0.16126156 0.16544865 0.009470666 0.05336978 0.056531075 -0.20361136
-0.2482456 -0.010661415 0.10191775 -0.239928 -0.23205306 -0.05170387 0.10552373 -0.17281614
0.14659502 -0.07442116 -0.0389712 -0.02046415 0.10849421 0.3344891 -0.0715708 0.186872
-0.14774807 -0.03680212 -0.14626156 0.03866519 -0.14956829 -0.13083094 0.19438094 -0.18691945
0.11501628 -0.10075215 0.20909587 0.2151762 -0.05685719 -0.10204377 0.111580186 -0.030525303
-0.18754216 -0.14921431 0.024499336 -0.26960465 -0.08465576 0.053555917 0.06640931 0.043218534
-0.16409938 -0.072624944 -0.09092774 -0.036706183 0.026501112 -0.17720307 0.19864404 0.0027944755
0.03828549 0.041054223 0.010643237 0.10695633 -0.034769386 -0.37835416 -0.102564216 -0.011131728
0.014909863 0.2540692 0.11461318 0.1526016 -0.15185559 0.17095263 0.033974506 -0.012549387
-0.18134688 0.36411196 -0.24730855 -0.013991846 0.3625732 -0.11086568 0.18776974 0.02212801

l2/W f4 [81, 81]
00000000: 37d3 21bd 3e2d 913d 5e44 bb3d f752 d13c
00000010: 0bb7 b0be 1bfd a23e 4fd7 803d 79d3 1cbe
00000020: e219 d33b 94de f03b 1fea ae3d 4f1e af3d
00000030: 16f4 d03d b109 70bd ef99 5ebd 0609 523d
00000040: 557f 21be 7700 c03d bea4 c73d 6357 8fbd
00000050: 4002 103e 10f0 a8bd 0174 5f3e d374 2ebd
00000060: 5710 853d 5821 32bd 2f8f c1be 1c6b 2cbd
00000070: 0d72 143c 937e aebd 3c0d c6bc 07a4 31be
00000080: cab1 25bd 2693 6b3d 8d55 4f3d 201e c9be
00000090: 6f31 a73d 5d92 be3d b662 99be 052e e23e
000000a0: e468 84bd 79b8 2b3e 7621 3e3e 93d5 0a3d
000000b0: 3407 51be 7c2e a13e af71 e63d 2a95 3d3e
000000c0: 906a 09bd 2190 96bd 26ce 9a3e 6a46 cc3c
000000d0: f1ab 97bc 009c 0ebd dd91 db3d 7218 afbd
000000e0: 80f5 913e 710b 01bf 7420 3b3e 8f71 84be
000000f0: 0ccf 17be c061 783d 4583 0bbd fc3b c9bc
00000100: f6c9 ac3d f59e f7bd 3566 7cbd f600 aabe
00000110: dedc 303e 7c7a 373d ed53 893d a8ad 4bbe
00000120: 6de1 d9bc c9c6 65be 8f9b 5cbc 120d 2ebc
00000130: 315d e0bd 81b6 6cbd c47f 6cbe 9d05 98be
00000140: 76b0 683d 30d8 143e 16e4 a6be 9897 623d
00000150: d918 7b3d abb0 363d d3df 6dbe a1a1 19be
00000160: 679d f9bd 38ee 60bd 106e 4bbc eb08 c7bc
00000170: 5b88 d8bc b1ab ae3d 5dce 31be ea2c a3bc
00000180: 8bf6 33be 55c7 a73d 551e 2b3d b162 7f3e
00000190: 9803 8dbe 7c6a 493e c293 c43e fb9c 2a3e
000001a0: 9a9d c43c 9c42 9d3d 94f2 1cbe 3993 cf3d
000001b0: f535 58be 483b 1ebd 2c0a bcbd b6e8 35bd
000001c0: 7b5b 7b3d abde e33d 64e8 113d 025d 883c
000001d0: c699 adbe 3f6a 533d bff0 803e 1b06 2cbe
000001e0: fbbf 30b9 23d3 c8be 78db 85bd 5178 00bf
000001f0: b28c 8a3c c74c 90bd cf12 8b3c a304 b6bd
00000200: dc51 73be 9352 023e 80dd cf3d c8d6 3abe
00000210: 5905 db3c 8184 ffbc 7c8e 263e 3ed8 0e3e
00000220: e62c 5d3e ea39 6abd 3bd8 5c3d 470f 32be
00000230: 5867 f43d 8334 51bd a188 20be 6a8f 413e
00000240: ae7b 33be e097 2fbe f426 b1bd 9575 d93c
00000250: 6fda 8a3e cc1b 85bd 363a 20be 3d73 983c
00000260: 9280 dfbd 6f17 a83d ecd8 debd f2cb 83bd
00000270: d072 fe3d cf34 773d 2ee0 3fbe 8060 bc3a
00000280: 92da 613e e2ea 313e 1b1d 1fbd 8fd5 85bc
00000290: 03d2 c53d ed6a f7bd 6b3c ee3d 4f29 df3c
000002a0: d55f 01be 8b63 81be 6d00 0bbe 36d2 183d
000002b0: 0b7c f93d cb59 79be ca02 0abd 1b52 eebd
000002c0: 210c bcbc 67f0 8cbe 1bc3 13bd f707 b8bd
000002d0: 4ffb 043e 4fde 2cbe 4e1c d13c e7cb bebe
000002e0: d6a3 863d d840 5c3d 2930 62be b5ac 11bc
000002f0: 64b3 dbbd 1cee d2bd 2a50 863d 1538 223e
00000300: 0f95 763e 75cc c5bd f488 cc3d d872 483d
00000310: 9dc0 0ebe 91cc b93e bade 99be e531 183e
00000320: 5647 693d 0b9d 88be 3434 9ebd 1a68 6bbe
00000330: 5df0 29be 0a35 0a3e 6678 2cbe 4d4b 95bd
00000340: 2c5c 783e daf0 87be 18dd 83bd f9c6 953c
00000350: e283 9cbb e412 17bd c2c7 a3be e457 b5be
00000360: 36c9 f2bd 2780 00be 5d89 4e3e 779f 51be
00000370: b416 b9be d0d8 60be d3e2 003e 3686 2dbe
00000380: 2f86 b4be fb28 2bbe 219c 2bbe 0d8a 4fbe
00000390: 3e70 63be c32c 91be 93fb 78be 89d5 2fbd
000003a0: b5da 27be 254a 1ebd 3378 8fbd 9085 7f3d
000003b0: 8c6c cbbe 51d6 f43d bb97 dabc c94e 1c3d
000003c0: 6311 16bd bc79 47be 872c 653d 793a 2f3e
000003d0: f176 1dbe 2a5d 6bbc 1d5f 17be 9b72 3ebe
000003e0: 6c1f 573d bdb4 943d fa48 3a3d 5cdb 6ebe
000003f0: 4acd 0cbd fa52 d9bc 09bc ffbc c024 8fbd
-0.03950807 0.070887074 0.091438994 0.025552256 -0.3451465 0.3183373 0.06291067 -0.15315045
0.0064422945 0.007350752 0.08540749 0.08550703 0.10202806 -0.058602992 -0.05434602 0.051278137
-0.1577123 0.09375089 0.09748219 -0.069990896 0.14063358 -0.08248913 0.21821596 -0.04259188
0.06497257 -0.04348883 -0.37804553 -0.042094335 0.009060395 -0.08520236 -0.024176233 -0.17347728
-0.040452756 0.05751338 0.050618697 -0.39280796 0.081637256 0.0930526 -0.29958123 0.44175735
-0.06465319 0.1676959 0.18567452 0.033895086 -0.20412904 0.31480777 0.11252152 0.18513933
-0.03354889 -0.07351709 0.30235404 0.02493592 -0.018514605 -0.034816742 0.107211806 -0.085495844
0.28507614 -0.50408083 0.18274099 -0.25867888 -0.14825076 0.060640097 -0.034060735 -0.024564736
0.084369585 -0.120908655 -0.06162091 -0.33203858 0.17271754 0.044794545 0.06705461 -0.19890463
-0.02659675 -0.22439112 -0.013464822 -0.010623233 -0.10955275 -0.057791237 -0.23095614 -0.29691783
0.05680891 0.14535594 -0.3259589 0.055320352 0.061302993 0.044602077 -0.23229913 -0.15003063
-0.12188225 -0.054914683 -0.012416378 -0.024296245 -0.026432207 0.08528841 -0.17363878 -0.019918878
-0.17574517 0.081923164 0.041776974 0.24939992 -0.27541804 0.19669527 0.3839398 0.16661446
0.024000932 0.0767872 -0.15326911 0.10135502 -0.21114333 -0.038630754 -0.09181628 -0.044411384
0.06136654 0.11126455 0.035622016 0.016645912 -0.33906382 0.051614996 0.25183675 -0.16799204
-0.00016856186 -0.39223585 -0.06536001 -0.5018359 0.016912792 -0.07045894 0.016976742 -0.08887603
-0.23761696 0.12726812 0.1014967 -0.18245995 0.026735948 -0.031191112 0.16265291 0.13949677
0.21599159 -0.057184137 0.05391715 -0.1738864 0.11933774 -0.05107547 -0.1567712 0.18902364
-0.17527649 -0.1714778 -0.08650008 0.026545325 0.27119777 -0.064994425 -0.15647206 0.018609637
-0.10913195 0.082075946 -0.10881218 -0.06435384 0.124242425 0.060353097 -0.18737862 0.0014372021
0.22056034 0.17374757 -0.038846117 -0.016337184 0.09659197 -0.12080941 0.116326176 0.027241377
-0.12634213 -0.25271258 -0.13574381 0.037309848 0.121818624 -0.2435066 -0.033694066 -0.11636754
-0.022955002 -0.27527162 -0.03607474 -0.08985894 0.12986492 -0.16881679 0.025526192 -0.3726494
0.06574218 0.053772777 -0.22088684 -0.008891274 -0.107275754 -0.10299322 0.06558259 0.15841706
0.24080299 -0.09658138 0.09987059 0.04893765 -0.13940664 0.36288884 -0.3005274 0.14862783
0.056952797 -0.26682314 -0.07724801 -0.2298893 -0.16595598 0.13496795 -0.16842803 -0.07289753
0.24253911 -0.26550943 -0.06438655 0.018283354 -0.004776464 -0.03688325 -0.3198834 -0.35418618
-0.11854784 -0.12548886 0.20169587 -0.20470987 -0.36150134 -0.21957707 0.12586527 -0.16945729
-0.35258624 -0.16714852 -0.16758777 -0.20267506 -0.22210786 -0.28354463 -0.24314718 -0.042928252
-0.16392024 -0.03864493 -0.07005348 0.062383235 -0.39731252 0.1195494 -0.026683679 0.038161073
-0.036637675 -0.19480032 0.055950668 0.1711215 -0.15377404 -0.014365474 -0.14782377 -0.18598406
0.0525202 0.072610356 0.045479752 -0.23325866 -0.034375466 -0.026528824 -0.031217592 -0.069894314

l1/b f4 [81]
00000000: 1ed5 91bd 04b6 2fbe 8711 83be b42e 00be
00000010: 55f5 9dbe 4530 93bd 7421 02be 6244 55be
00000020: 2abf 9cbe 2626 313d 878d 77be b724 9ebc
00000030: 1b14 17be 255a 733d 154e cabd 64d7 1c3e
00000040: a54c dcbe 09fa 3d3c cf79 13bd d647 71bd
00000050: 8fbe 3fbe 2b7b ebbd 61e2 5cbe fd4b 73be
00000060: 703e 81be 1112 c2be fe4c bb3d 30ff 59be
00000070: c179 cc3c 56fd 67bd e2d4 96be 95e4 edbd
00000080: 9533 143d b152 60be 805e 05bd ade6 963d
00000090: 47f2 51bd 1faf 41be e173 1abf 6beb 4abe
000000a0: 53c1 373e df4f 6cbd b3a9 6dbe 7cb4 f2bc
000000b0: f8fa 49be 8e99 c73e 49db 56be c398 f1bd
000000c0: 75fe 8cbe ae1d b5be 5beb 62bd de09 78be
000000d0: 7194 f5bd 1e8d 5abd 53cc 8fbe 261d 03be
000000e0: 14cf 29bc 04b1 67be 9bec 33bc 6610 d7be
000000f0: 7ec5 1cbd 6758 9dbe c92e 53be 8d1e e3be
00000100: 63b1 dc3c 1fbc f33d b276 acbe 2af6 8abd
00000110: 6756 343d 229b 11be 54d9 1dbe eef5 d83d
00000120: bb60 eb3e 6df9 eabd 0f06 0cbe 7c06 74be
00000130: 174a 993d 8953 bb3d 1d71 7d3d eef2 b2bc
00000140: 29d9 b7bc
-0.07120727 -0.17159277 -0.2559931 -0.12517816 -0.30851236 -0.07186941 -0.12708074 -0.20826867
-0.30614597 0.04324927 -0.24175082 -0.019304616 -0.14753763 0.05941214 -0.09878174 0.1531654
-0.43027225 0.011595258 -0.036004838 -0.0589064 -0.18725036 -0.11498102 -0.21570732 -0.23759456
-0.2524295 -0.3790441 0.091455445 -0.21288753 0.0249604 -0.056638084 -0.29459292 -0.11615864
0.036182005 -0.21906544 -0.032560825 0.07368217 -0.051256444 -0.1891446 -0.6033307 -0.19816367
0.17944841 -0.05769336 -0.23209266 -0.029627077 -0.19724643 0.3898434 -0.20982088 -0.11796715
-0.27537885 -0.35374206 -0.055400234 -0.24222514 -0.119912036 -0.053357236 -0.28085575 -0.12804088
-0.010364313 -0.2262612 -0.010981704 -0.420047 -0.03827428 -0.30731508 -0.20623316 -0.44359246
0.026940053 0.119011156 -0.33684307 -0.06785233 0.044027712 -0.14219335 -0.15414935 0.10593782
0.45972237 -0.114733554 -0.13674186 -0.23830599 0.07484835 0.091467924 0.06187545 -0.021844354
-0.022442417

l2/b f4 [81]
00000000: f86d 6b3d 49b4 a8bd fa89 35be 5025 ae3d
00000010: 5557 c33c 336e 8ebe f04a 67be 1772 d4b8
00000020: e000 32be d66c 3c3e e092 69be 95dc 4d3b
00000030: b3ed c0bd 6bae 373d b614 cd3d 63db 3c3e
00000040: 5998 26bc 38a2 4fbe 4a7d 14be 7571 92be
00000050: 88e6 69be cc11 2a3d a3c1 a63b fc32 7bbe
00000060: d05a 94bd e594 96bd 0df0 7cbe 061e 6abd
00000070: e70a adbd a919 1ebe 8081 233d 7059 4bbd
00000080: 9f8b 2dbe 7597 14be 9a80 1e3c e27e 03be
00000090: 4973 86bd e536 113e ebbe cebd ff0b 3ebe
000000a0: e150 093b d287 0fbe d59d 68be d984 0bbd
000000b0: a1b3 b2bd 2d96 b7bd 7167 dcbd 2359 0bbe
000000c0: 2b70 7ebe a56f c1bd e9e8 0bbe 6ccd b9bd
000000d0: 53c2 cbbd 1183 2cbe 2769 cd3d 39d6 053e
000000e0: 6c2b e93c 452f 3a3d 598e b5bc a942 82bd
000000f0: 4025 2cbe d0c2 ad3c 5574 44be a7d0 e4bc
00000100: 486a aa3c ab95 15be 477a bcbd bab7 00be
00000110: ea28 38be 8a38 1cbe a21d 20be 4d45 33be
00000120: 1af7 07bd 90f8 95bd 117a d2bd 7aa1 c0bd
00000130: 833e 9bbd 9b86 ebbd e0ce b7be daa0 5c3d
00000140: 1f74 04bd
0.05747792 -0.08237512 -0.17728415 0.085032105 0.023845354 -0.2781845 -0.2258718 -0.00010130199
-0.17383146 0.18400893 -0.22809935 0.0031411995 -0.094203375 0.044844072 0.10013716 0.18443064
-0.010168158 -0.20276725 -0.14500919 -0.28602186 -0.22841847 0.04152088 0.0050890013 -0.24531168
-0.072438836 -0.07352618 -0.24700947 -0.05715754 -0.08449345 -0.15439476 0.039918423 -0.04964584
-0.16947792 -0.14510901 0.009674216 -0.1284137 -0.06564958 0.14181097 -0.100950085 -0.18559264
0.0020952749 -0.14016655 -0.22716458 -0.03406224 -0.08725668 -0.08964191 -0.107619174 -0.13608222
-0.24847476 -0.09445123 -0.13663067 -0.09072384 -0.09949174 -0.16846873 0.10029822 0.1307
0.028463088 0.045455236 -0.022162603 -0.06360371 -0.16811085 0.021211058 -0.19185002 -0.027931524
0.020802632 -0.14607875 -0.0920301 -0.12570086 -0.17984357 -0.15255943 -0.15636304 -0.17506905
-0.03319464 -0.073228 -0.102771886 -0.09405799 -0.075802825 -0.11500283 -0.3590002 0.053864338
-0.032337304

l0/W f4 [81, 9]
00000000: 3e01 c43e c758 36bd 30f6 993c ce9b 763e
00000010: 6eaa 8ebc 991f aa3e 31af fd3e 5a12 f3bc
00000020: 0cc0 313f 51c9 77bd 94b8 893f 6931 11bd
00000030: 430b 7cbe 9282 073f 6852 81be 0e0d 8bbd
00000040: 36e0 013f 78fa 913e c26c 15bd 9306 8e3e
00000050: 1178 733e ab0c 2bbf c286 223e e7aa 0f3e
00000060: 8246 2cbf ddd0 123e be0f 8cbe ecd3 073f
00000070: c2c3 013d d496 fe3c e4fc 17be c2d3 763c
00000080: 61f7 6ebe 7cf5 86be 277e 42bc c377 b1be
00000090: 808d 053f a117 13bc 7143 1d3d 6d8a 26bd
000000a0: 4d73 0dbf c18a 023c 9ac9 c3bc 848b 2abe
000000b0: 423f 0abf 7b66 93be 8675 d2be 562e c53e
000000c0: 660f 313f 4953 40be 2118 ac3b bf8d c4be
000000d0: 49ef 5ebf de9e 903d a0a1 1ebd 4ab5 01bf
000000e0: 38ae e9be 5216 3d3e 54d0 85be 2249 053e
000000f0: 6677 313f d5e7 3ebe 9d62 97be b1bc aabe
00000100: cf30 91be a26e 2ebe 4307 c0be 8d41 2bbe
00000110: abde 5dbd b700 9fbe 2e8d 583f dc5e b7be
00000120: 61d4 b13e 5094 bc3d bd41 8b3d 0937 41be
00000130: d0a2 7bba e161 723c cd35 dfbd 8a1a 8ebf
00000140: f3cf 873e 280d 7a3e 7988 d5bd f833 d73d
00000150: 68c9 0b3f 31cd cebe aed0 5bbe 53ba de3c
00000160: 86e3 323d 2298 9a3e a3ee 2b3e 11ce bcbe
00000170: 53fc 0dbf 9134 90bc 7e5f d43d 88bd 76ba
00000180: 52ab 47bf 4564 f0be 73fa 13bf 0469 ef3e
00000190: 627b d53d a57b f7bd 1c1d a83c c3c9 5d3f
000001a0: d082 3a3f 7e59 b63e 2d59 823d 1ec0 cbbd
000001b0: c18f 063f 51a8 fd3e f158 bb3e 00d3 253e
000001c0: f184 093f 560c d7bd f763 84be 972f 853e
000001d0: f082 523e 9bf5 563f 273b 06bf fd7c c43d
000001e0: 1710 743e fcb4 b03e 6dfc 033f d8da 96bd
000001f0: c14b 82be acc9 2a3f 84c8 8cbd 7d7c 343e
00000200: 7501 76bf a220 e53d 4a52 1fbf d653 cf3d
00000210: 6929 3dbf 796d 8d3e 1dd5 623e b177 b93c
00000220: 5c14 fe3e 8ba3 c73e 03e8 d33e 789a a83e
00000230: ba60 123e 6ed8 e53d f30a 58be 36d7 0c3e
00000240: 3a13 6d3f bf69 db3d acfd be3e a71c 8a3e
00000250: e604 903e 7b29 103f b225 ce3e a165 853e
00000260: b314 263e 946d d5bd 60fa 3f3e 3afe fbbe
00000270: 399e 9bbe 5a7f 2bbf 81a0 15bf bd2b 8e3e
00000280: 2161 c0bd 0f7d 2bbb 4205 8abd ce10 a5be
00000290: 0543 313d 44b0 8abd cc55 84be 0d8d 663f
000002a0: 7b79 703d c131 b1bd 6f82 4e3d 8960 493d
000002b0: e303 a93d 0494 8bbd 3ae0 4c3e 5350 b8be
000002c0: 8da8 993e ef50 56be 9005 1fbe 3c93 513e
000002d0: e272 1cbe 0f00 483d 36dd 1a3f d507 6ebe
000002e0: b054 3bbe fcb3 a53e 2b72 e23e ea03 6a3e
000002f0: 41ed 55be bd45 dc3e 3664 6d3f 3882 c53e
00000300: c9af b63e 074e a03e 1376 4a3f 0800 b13e
00000310: e2a5 803e 0d28 f13e 5362 82bd 3511 df3e
00000320: 3dd6 d9be 2d37 75be e7ad 7ebd 199b 8c3e
00000330: 1d0f b13d 9add 063f 5e18 5e3e b386 bd3e
00000340: 74ba 363e 7bc0 e2bd b7d5 a4be 99bf 77bf
00000350: 59cf 70be 78fb f7bd 8c11 9d3d 3c27 113f
00000360: 8025 dbbc 7c58 7abe 8929 a8be 713b 933f
00000370: 6215 06bf 673e 1bbf ea5e 8fbe 2ace cd3a
00000380: 428c 04bf 6e3b 6e3d 69eb abbd 30f6 263f
00000390: be1e 97bd d9e3 a23d 1774 20bf f062 77bd
000003a0: d5b3 0bbe c617 403f dc4d 9bbe 3ceb 843d
000003b0: 78f1 68bd 484a 483e ce04 a83e a6f7 ab3e
000003c0: 8fee c73e c3f3 01bf 2e4d a63e 7b8d 0b3f
000003d0: f715 d6be 3b3a 99be 7622 dc3e 0228 fdbd
000003e0: 745a e2be 84a9 a3bd e2e9 053c 0d45 113e
000003f0: e055 e43e 52f9 6d3e b673 f4bc f78d 0bbe
0.38282198 -0.04451826 0.01879415 0.24082872 -0.017415252 0.33227232 0.49547723 -0.029671837
0.69433665 -0.060494725 1.0759454 -0.03544751 -0.24613671 0.5293361 -0.25258183 -0.06789599
0.50732744 0.28511405 -0.036480673 0.2773939 0.2377627 -0.66816205 0.15871719 0.14030038
-0.67295086 0.14337488 -0.2735576 0.5305774 0.03168083 0.03107778 -0.14842564 0.015065135
-0.23336555 -0.26359165 -0.011870897 -0.34661683 0.52169037 -0.008977802 0.038394395 -0.040659357
-0.5525406 0.007967652 -0.023899842 -0.16654783 -0.54002774 -0.28789124 -0.41105288 0.38511914
0.6916412 -0.18781771 0.0052519 -0.38389394 -0.8708387 0.070615515 -0.038728356 -0.5066725
-0.4564073 0.18465546 -0.26135504 0.13016179 0.6932281 -0.18643124 -0.29567423 -0.33347085
-0.2835755 -0.1703439 -0.3750554 -0.16724224 -0.05416743 -0.31055233 0.84590423 -0.3581456
0.34732345 0.09207976 0.06799648 -0.1886865 -0.0009599151 0.014793844 -0.108989336 -1.1101849
0.2652584 0.24419081 -0.10426421 0.10507959 0.54604197 -0.40390924 -0.21466324 0.027188456
0.043674015 0.30194193 0.16790251 -0.36875966 -0.5546314 -0.01760319 0.10369776 -0.00094123976
-0.7799579 -0.469515 -0.5780403 0.46759808 0.10423924 -0.1208413 0.020521693 0.8663599
0.72855854 0.35615152 0.06364665 -0.09948753 0.525631 0.49542478 0.36591294 0.16193771
0.5371848 -0.105004 -0.25857517 0.2601287 0.20557761 0.83968514 -0.5243401 0.09594152
0.23834263 0.3451308 0.51557046 -0.0736596 -0.2544842 0.66713977 -0.06874183 0.17625614
-0.96095973 0.11187865 -0.6223494 0.10123412 -0.7389131 0.27622584 0.22151609 0.022640081
0.49624908 0.3899196 0.41387948 0.3293035 0.14294711 0.11222921 -0.21097927 0.13753971
0.9260746 0.10713529 0.3730291 0.26974985 0.28128737 0.56313294 0.40263134 0.260541
0.16218834 -0.10421291 0.18747854 -0.49217397 -0.30394152 -0.669912 -0.58448035 0.27767745
-0.09393526 -0.002616707 -0.06739284 -0.32239383 0.043276805 -0.06771901 -0.25846708 0.90058976
0.058709603 -0.08652068 0.05041736 0.04916433 0.082526945 -0.06815341 0.2000741 -0.35998783
0.30011407 -0.20929311 -0.15529466 0.20466322 -0.152782 0.04882818 0.6049379 -0.23245175
-0.18294024 0.3236388 0.44227728 0.22853056 -0.20891286 0.43021956 0.92731035 0.38575912
0.35680988 0.3130953 0.79086417 0.34570336 0.2512656 0.4710087 -0.0636641 0.43567815
-0.42546263 -0.23946829 -0.062177565 0.2746208 0.08645461 0.5268189 0.21688983 0.3701683
0.17844564 -0.11071869 -0.321943 -0.9677673 -0.23516597 -0.12108511 0.076693624 0.5670049
-0.02675128 -0.24447817 -0.3284419 1.1502515 -0.5237638 -0.60642093 -0.280021 0.00157017
-0.51776516 0.058162145 -0.0839451 0.652194 -0.073789105 0.07953615 -0.6267714 -0.06039709
-0.13642819 0.75036275 -0.3033284 0.0649018 -0.056870908 0.19559586 0.32816166 0.33587378
0.39049193 -0.50762576 0.32480758 0.5451276 -0.41813633 -0.2992724 0.42995042 -0.123611465
-0.44209635 -0.07991317 0.008173438 0.14186497 0.44596767 0.2323964 -0.029840332 -0.13628374
