chainerrl/TicTacToe/result_30000/target_model.npz (npz, 56597 bytes, 8 tensors)

l3/W f4 [9, 81]
0.13104862 -0.0677058 -0.49137816 0.018505182 -0.17860514 -0.15207522 0.16058014 -0.29478908
0.12809029 -0.04473019 -0.5400066 -0.07527629 -0.40221593 0.061995473 0.09819665 0.1553864
0.042789698 0.04426554 -0.6102291 0.16662022 -0.0015811794 0.026444077 -0.035848733 0.24124998
-0.56777686 -0.0074956818 -0.08536917 0.23573156 -0.3031912 0.042258136 0.11566548 0.21311067
-0.07366288 0.12589902 -0.18708906 0.025794934 0.22832271 0.31167328 0.05215495 -0.07797579
-0.02414516 -0.67857265 -0.36104906 0.15555246 0.12955582 -0.55150396 0.13842332 0.06961421
0.17571981 0.25881064 0.22724086 -0.18785869 -0.09113261 -0.15619901 0.043144614 -0.07303983
-0.024661357 0.1009207 0.10435715 0.062953964 -0.2629231 -0.04875839 0.17421848 -0.07941684
0.023586042 0.07257046 -0.41221824 -0.49847776 -0.012328235 -0.06253877 -0.15680772 -0.2632553
0.0028997574 0.21890414 -0.36763886 -0.08072732 -0.03573207 0.09824977 -0.2875253 -0.14263943
-0.007282744 0.028140374 -0.26777226 0.14805378 0.41512218 -0.00079015235 0.19414166 -0.057084262
-0.20645319 -0.6359865 0.07039882 0.039913964 -0.108294256 0.016621916 0.22468172 0.15555403
0.22487174 0.20906265 0.26726928 -0.24732141 -0.19328636 -0.022873146 0.1855207 0.12691778
-0.16654739 0.018673407 -0.43794587 -0.2546537 0.23800911 -0.34946153 0.13874592 0.26745477
-0.27134258 -0.18387064 -0.18755923 0.16102947 0.41373926 0.20228294 -0.23757453 -0.092236705
-0.2833854 -0.031311467 -0.24674752 -0.18247935 0.11603041 -0.09402038 -0.019740801 0.2789483
-0.2651149 -0.09102352 -0.21606505 -0.19529644 0.14491214 0.055140685 -0.22121328 0.014041492
-0.19917889 -0.08880935 -0.05843203 -0.16625227 0.1935785 -0.16531442 0.11102051 -0.106406696
-0.03092043 0.018091151 -0.3434657 -0.0021767574 0.1976436 0.18294625 -0.1389473 0.04567735
-0.013608342 -0.30073348 -0.06275449 0.21581234 -0.3242524 0.070175536 -0.36722818 -0.33872613
-0.02223776 -0.074064896 0.30327633 -0.13679413 -0.46701396 0.065350614 -0.0259306 -0.13036932
0.19893767 -0.010933258 0.122073375 0.38564163 0.19016892 0.027909817 -0.3800388 -0.1281093
-0.043553222 -0.03458567 0.050244123 -0.12326708 0.20115955 -0.19916482 -0.6444189 -0.13922016
0.06385823 -0.045228064 -0.21845762 -0.0396653 -0.28047848 0.17757984 -0.5098282 -0.5415948
-0.14462245 -0.049670126 -0.04582395 0.4710739 0.3182848 0.2838494 -0.38162032 -0.057852317
0.061105225 -0.4172152 0.10671921 -0.08922654 -0.04540303 -0.32786453 -0.06930092 -0.035945237
-0.0024683399 0.12652922 -0.13226804 -0.21671416 0.25550085 0.3132441 -0.14136255 -0.16515844
0.114795096 -0.2589937 0.052049942 0.3450162 -0.2508189 -0.011853775 -0.36096716 0.16948509
-0.043942723 0.08543464 0.20975693 0.04897921 -0.21086234 -0.09097902 0.13462041 -0.1482995
-0.016069194 -0.13329645 -0.051420387 -0.2104958 0.11761856 -0.036243904 -0.12052237 0.11372989
0.19686787 -0.044401105 0.26727366 0.04678359 -0.0041838475 -0.39498276 0.1701214 0.15956068
-0.07505442 -0.10460788 -0.100346714 0.1728629 0.034657456 0.11257532 -0.43046495 0.08783321
00000000: 9c31 063e 57a9 8abd eb95 fbbe 2e98 973c
00000010: 44e4 36be 9bb9 1bbe 1f6f 243e 98ee 96be
00000020: 1a2a 033e 0137 37bd df3d 0abf 752a 9abd
00000030: 3fef cdbe f7ee 7d3d 531b c93d 9d1d 1f3e
00000040: 4044 2f3d c84f 353d f937 1cbf 7e9e 2a3e
00000050: 943f cfba 40a1 d83c 1fd6 12bd 3c0a 773e
00000060: d359 11bf 569e f5bb 08d6 aebd 9d63 713e
00000070: e13b 9bbe de16 2d3d 06e2 ec3d af39 5a3e
00000080: 90dc 96bd aceb 003e 4694 3fbe e64f d33c
00000090: 6ecd 693e a493 9f3e 6ea0 553d c5b1 9fbd
000000a0: 12cc c5bc f0b6 2dbf 6cdb b8be 2549 1f3e
000000b0: 48aa 043e 5d2f 0dbf d8be 0d3e e591 8e3d
000000c0: e5ef 333e d482 843e d4b1 683e 075e 40be
000000d0: bca3 babd a2f2 1fbe 68b8 303d e895 95bd
000000e0: 9d06 cabc 83af ce3d 34b9 d53d 02ee 803d
000000f0: db9d 86be e1b6 47bd 5466 323e 4ca5 a2bd
00000100: 8437 c13c d29f 943d 450e d3be 7a38 ffbe
00000110: 5efc 49bc 5414 80bd 3492 20be 66c9 86be
00000120: db09 3e3b 6828 603e 293b bcbe 5d54 a5bd
00000130: cb5b 12bd 2d37 c93d 8436 93be 1210 12be
00000140: 16a4 eebb a486 e63c 7219 89be 699b 173e
00000150: e58a d43e 3a22 4fba 12cd 463e 30d1 69bd
00000160: 7768 53be 03d0 22bf 422d 903d d37c 233d
00000170: 61c9 ddbd af2a 883c f712 663e 8e49 1f3e
00000180: c744 663e 8514 563e 85d7 883e d341 7dbe
00000190: dcec 45be 7760 bbbc 23f9 3d3e bcf6 013e
000001a0: 668b 2abe f9f8 983c 713a e0be f861 82be
000001b0: a9b8 733e 9fec b2be 6913 0e3e d5ef 883e
000001c0: 6aed 8abe 9648 3cbe 870f 40be e9e4 243e
000001d0: a2d5 d33e 4223 4f3e bd46 73be 99e6 bcbd
000001e0: e417 91be 7440 00bd 62ab 7cbe dedb 3abe
000001f0: 5aa1 ed3d c28d c0bd 76b7 a1bc 50d2 8e3e
00000200: 24bd 87be 8a6a babd 2840 5dbe cafb 47be
00000210: d963 143e 33db 613d bc85 62be 490e 663c
00000220: 8df5 4bbe ade1 b5bd 6d56 6fbd 093e 2abe
00000230: 7139 463e 2f48 29be b95e e33d c1eb d9bd
00000240: d74c fdbc e533 943c bcda afbe eea7 0ebb
00000250: 1563 4a3e 4356 3b3e 3348 0ebe 2c18 3b3d
00000260: 86f5 5ebc bdf9 99be 6d85 80bd e9fd 5c3e
00000270: 6904 a6be 31b8 8f3d 5505 bcbe 836d adbe
00000280: f62b b6bc 56af 97bd 0947 9b3e c313 0cbe
00000290: 741c efbe 8bd6 853d 696c d4bc 897f 05be
000002a0: 51b6 4b3e 6821 33bc 9b01 fa3d d272 c53e
000002b0: a4bb 423e 21a3 e43c 7294 c2be 162f 03be
000002c0: dd64 32bd b4a9 0dbd c8cc 4d3d 7373 fcbd
000002d0: c5fc 4d3e ddf1 4bbe a3f8 24bf bb8f 0ebe
000002e0: 1bc8 823d 1041 39bd 5bb3 5fbe 1578 22bd
000002f0: e09a 8fbe 7dd7 353e 1a84 02bf f5a5 0abf
00000300: e817 14be e772 4bbd e5b1 3bbd 9930 f13e
00000310: 3af6 a23e b554 913e bd63 c3be 8df6 6cbd
00000320: 7949 7a3d 3b9d d5be 9a8f da3d 67bc b6bd
00000330: 87f8 39bd dcdd a7be a4ed 8dbd 503b 13bd
00000340: dfc3 21bb e090 013e 4671 07be 51ea 5dbe
00000350: 02d1 823e 8861 a03e 58c1 10be 4b1f 29be
00000360: b119 eb3d d29a 84be 5232 553d f7a5 b03e
00000370: 566b 80be 5636 42bc b0d0 b8be 808d 2d3e
00000380: 49fd 33bd 5bf8 ae3d 85ca 563e 6d9e 483d
00000390: 4cec 57be 3553 babd efd9 093e d3db 17be
000003a0: 8ba3 83bc dd7e 08be 2f9e 52bd 368c 57be
000003b0: 00e2 f03d 7d74 14bd 6fd4 f6bd 37eb e83d
000003c0: bb97 493e efdd 35bd 18d8 883e 26a0 3f3d
000003d0: a818 89bb 2e3b cabe 4e34 2e3e e063 233e
000003e0: 22b6 99bd a83c d6bd 9482 cdbd f902 313e
000003f0: faf4 0d3d e48d e63d e765 dcbe e6e1 b33d

l3/b f4 [9]
-0.08382701 -0.24238504 -0.18263383 -0.052850135 0.13378395 -0.026880452 -0.014711354 -0.0731366
-0.06646168
00000000: 7fad abbd c933 78be 5d04 3bbe 6279 58bd
00000010: a9fe 083e 6534 dcbc e407 71bc a4c8 95bd
00000020: 101d 88bd

l0/b f4 [81]
0.23563863 -0.21726833 -0.20554724 -0.16244183 -0.09004939 -0.3607747 -0.45270404 -0.1432761
0.009250316 -0.033612084 -0.31502315 -0.21777284 -0.024683801 -0.10626813 -0.44467154 0.09418648
0.27687764 -0.24843109 -0.2794156 0.07999916 0.035753176 0.42162162 -0.17797227 -0.37400427
-0.3828391 -0.17974833 -0.14378628 -0.07820855 -0.1388253 -0.3160821 -0.21035902 -0.164
-0.16681176 -0.045592353 -0.18373202 -0.40488726 0.10583483 -0.60781837 -0.17623353 -0.049380235
-0.11233421 0.037166327 -0.108972624 -0.2014281 -0.2489204 0.22410902 -0.14778665 -0.41152638
-0.2940228 -0.18052118 -0.11126926 -0.20379335 -0.39455378 -0.35666406 -0.3654656 -0.2888971
-0.29977423 -0.280327 0.039316382 0.012786128 -0.1528627 -0.26435205 0.07841499 -0.14533931
-0.41118947 0.3221056 -0.09965671 -0.20063938 -0.22444262 -0.5158194 -0.06423169 -0.25028944
-0.22025654 -0.07762744 -0.07351908 0.08439308 -0.31302178 0.0024488983 0.022625592 -0.25539866
-0.26067585
00000000: 414b 713e 977b 5ebe fa7a 52be 2757 26be
00000010: d16b b8bd 76b7 b8be d3c8 e7be f8b6 12be
00000020: a38e 173c d3ac 09bd b74a a1be d8ff 5ebe
00000030: af35 cabc 1ba3 d9bd fdab e3be d7e4 c03d
00000040: e8c2 8d3e b864 7ebe 900f 8fbe 99d6 a33d
00000050: ec71 123d cade d73e 5d3e 36be 7d7d bfbe
00000060: 7d03 c4be f20f 38be b63c 13be ce2b a0bd
00000070: 3828 0ebe 83d5 a1be 5b68 57be 9eef 27be
00000080: b4d0 2abe 0cbf 3abd 3f24 3cbe 624d cfbe
00000090: eebf d83d fc99 1bbf 9076 34be ee42 4abd
000000a0: 7a0f e6bd b83b 183d 0a2d dfbd 2b43 4ebe
000000b0: fde4 7ebe d67c 653e 6255 17be 96b3 d2be
000000c0: 288a 96be 8bda 38be 23e1 e3bd 34af 50be
000000d0: f402 cabe ac9c b6be 4f1e bbbe 52ea 93be
000000e0: 027c 99be 0587 8fbe 370a 213d e87c 513c
000000f0: 0a88 1cbe 2759 87be 0a98 a03d d4d3 14be
00000100: 6d87 d2be 06eb a43e d118 ccbd 6974 4dbe
00000110: 49d4 65be bd0c 04bf e78b 83bd f025 80be
00000120: ee8a 61be 23fb 9ebd 2c91 96bd 47d6 ac3d
00000130: 6444 a0be b27d 203b 4e59 b93c 9dc3 82be
00000140: 4e77 85be

l1/W f4 [81, 81]
-0.18354997 -0.12028156 -0.09377321 0.026428113 0.0031522624 0.121490255 0.09939474 -0.24472246
-0.20594259 -0.21223424 -0.13081957 0.03141987 -0.14837903 -0.18946888 -0.12900227 0.13729161
0.08318859 0.06101707 -0.022142122 0.075164035 -0.09454691 -0.062489063 -0.01751081 0.072339065
0.08846912 -0.12425842 0.33805525 -0.28837538 -0.22899136 -0.00966903 -0.19140522 -0.041669194
0.14969675 0.021409772 0.09164943 -0.27320468 -0.10348849 -0.041964214 -0.22980316 -0.044304665
0.029587246 0.111565955 -0.051187307 0.1522465 0.20747933 -0.006609815 -0.015378635 0.0016301646
0.25470367 -0.014089506 -0.087262 0.017333724 -0.040154334 0.08849477 0.03764729 -0.10071739
0.0011753663 0.17498782 0.084565274 -0.19677444 0.14880615 -0.20559898 -0.097416736 -0.018263318
0.20606343 -0.027829729 0.06933907 0.085639596 -0.16723323 -0.13284796 -0.23599061 0.16892853
-0.13039815 0.0036679702 0.030755043 -0.39364403 -0.16133372 0.033181775 0.02906887 0.08219786
-0.18424168 -0.31803572 -0.44014233 -0.14933322 0.021165276 -0.066757225 0.18524393 0.11040077
0.26304072 -0.16508211 -0.025607554 0.18253562 0.21099924 0.26963004 0.14798751 -0.03642134
-0.043649428 0.16688217 -0.03627539 0.15745798 -0.0650668 0.08674389 -0.3624259 0.17532983
-0.15543424 0.041016918 0.09939658 0.12860082 -0.074283466 -0.17127213 0.039743196 0.07835783
-0.23472631 0.022261696 0.11281801 -0.12776521 -0.09908356 -0.2453979 0.34736782 0.06268796
-0.02324386 0.033088125 -0.2968134 -0.16350457 0.14182188 -0.1295382 -0.063036636 -0.047126636
-0.14626855 -0.12679993 -0.105182976 0.19143043 -0.23493722 0.05026447 -0.21765606 0.059586424
-0.14553103 0.13215566 0.16026121 0.023614593 -0.42341405 -0.24327044 0.18404245 -0.14171907
-0.18749645 0.17048655 0.15330553 -0.01906955 -0.29171655 0.13283594 0.04814292 0.11899162
0.06115848 0.2240662 -0.17074136 0.03816049 -0.22560567 -0.10813105 0.20354743 0.07187685
0.12246346 -0.008970893 0.11544237 -0.116434924 0.020660978 -0.13459258 0.4487196 0.18821482
0.23250191 0.11572612 -0.2576461 0.06576868 -0.23884761 0.019014977 -0.06490217 -0.20421505
-0.15098488 0.2571735 0.16065776 0.16478114 0.008574273 0.05289466 0.057199344 -0.20345618
-0.24951623 -0.011196556 0.1007084 -0.23951212 -0.23202689 -0.052764013 0.10531506 -0.17168652
0.1464505 -0.074742205 -0.038370833 -0.022112263 0.10792089 0.3366712 -0.07155826 0.18710646
-0.14802763 -0.036578335 -0.14667861 0.038672768 -0.14915551 -0.12832206 0.194608 -0.18886366
0.11593123 -0.101329625 0.20947704 0.21489863 -0.055894684 -0.103326194 0.11155663 -0.030558936
-0.18968363 -0.14836854 0.025540132 -0.26830158 -0.08399757 0.053100165 0.06753081 0.043029208
-0.16359451 -0.07301374 -0.09162507 -0.03783323 0.028203944 -0.17804775 0.19751218 0.0037259085
0.03896812 0.040806726 0.010604091 0.1087183 -0.03366512 -0.3783204 -0.10236461 -0.011074665
0.016471516 0.2537211 0.113575734 0.1511632 -0.15164015 0.17114417 0.0347353 -0.013030704
-0.1818881 0.3632688 -0.24869296 -0.01405639 0.36115322 -0.11027022 0.18833263 0.022809885
00000000: 86f4 3bbe 2e56 f6bd 2b0c c0bd c57f d83c
00000010: 3096 4e3b e2cf f83d 788f cb3d 8698 7abe
00000020: 9de2 52be ef53 59be 91f5 05be 1fb2 003d
00000030: acf0 17be 2104 42be 2c19 04be 2c96 0c3e
00000040: c85e aa3d 09ed 793d 6563 b5bc 9aef 993d
00000050: cfa1 c1bd 88f4 7fbd d572 8fbc 8126 943d
00000060: 4c2f b53d 337b febd 9415 ad3e f0a5 93be
00000070: b67c 6abe da6a 1ebc bbff 43be 51ad 2abd
00000080: 1b4a 193e 8c63 af3c b2b2 bb3d 7ce1 8bbe
00000090: c6f1 d3bd abe2 2bbd 8551 6bbe cf78 35bd
000000a0: f460 f23c b17c e43d c8a9 51bd 82e6 1b3e
000000b0: 7675 543e 2697 d8bb acf6 7bbc 3fab d53a
000000c0: 8568 823e acd7 66bc 6bb6 b2bd 74ff 8d3c
000000d0: df78 24bd bf3c b53d 0b34 1a3d eb44 cebd
000000e0: c00e 9a3a 0230 333e 8f30 ad3d 3d7f 49be
000000f0: a460 183e 8a88 52be 6d82 c7bd f49c 95bc
00000100: 4b02 533e 2cfb e3bc a401 8e3d d063 af3d
00000110: 303f 2bbe 4c09 08be 86a7 71be 9afb 2c3e
00000120: 1887 05be 5462 703b 00f2 fb3c b68b c9be
00000130: ab34 25be 9de9 073d d721 ee3c 5a57 a83d
00000140: daa9 3cbe 94d5 a2be 565a e1be cfea 18be
00000150: cd62 ad3c 03b8 88bd 96b0 3d3e cd19 e23d
00000160: 46ad 863e 490b 29be efc6 d1bc 9eea 3a3e
00000170: 2f10 583e f30c 8a3e 0a8a 173e 8b2e 15bd
00000180: bec9 32bd 29e3 2a3e 8195 14bd aa3c 213e
00000190: be41 85bd c8a6 b13d e38f b9be aa89 333e
000001a0: 272a 1fbe 5b01 283d 6f90 cb3d efaf 033e
000001b0: ee21 98bd f661 2fbe c3c9 223d 127a a03d
000001c0: 185c 70be 295e b63c 210d e73d e2d4 02be
000001d0: 52ec cabd 9649 7bbe 32da b13e 8c62 803d
000001e0: e869 bebc 6a87 073d edf7 97be be6d 27be
000001f0: c139 113e a9a5 04be 5a19 81bd dc07 41bd
00000200: 6cc7 15be d7d7 01be 2c6a d7bd 5706 443e
00000210: 6293 70be 1ee2 4d3d 3be1 5ebe e510 743d
00000220: 1606 15be d053 073e 841b 243e 6473 c13c
00000230: bac9 d8be e31b 79be a075 3c3e ce1e 11be
00000240: 12ff 3fbe 0794 2e3e 20fc 1c3e bf37 9cbc
00000250: df5b 95be 2506 083e 8331 453d e1b1 f33d
00000260: 5081 7a3d 9c71 653e d3d6 2ebe 2d4e 1c3d
00000270: 2c05 67be d073 ddbd bd6e 503e 2c34 933d
00000280: 1fce fa3d a7fa 12bc 0d6d ec3d 6f75 eebd
00000290: 3641 a93c a3d2 09be 93be e53e 63bb 403e
000002a0: fb14 6e3e d101 ed3d 31ea 83be bbb1 863d
000002b0: 7894 74be 4cc5 9b3c 6eeb 84bd c01d 51be
000002c0: c89b 1abe 3fac 833e 7883 243e 63bc 283e
000002d0: 1c7b 0c3c 12a8 583d dc49 6a3d d156 50be
000002e0: 2f81 7fbe c271 37bc 3540 ce3d aa42 75be
000002f0: 7598 6dbe 141f 58bd 6caf d73d 97ce 2fbe
00000300: 1ff7 153e 7112 99bd bc2a 1dbd c724 b5bc
00000310: a105 dd3d 2b60 ac3e 238d 92bd d698 3f3e
00000320: 8e94 17be 2ad3 15bd eb32 16be 5667 1e3d
00000330: 39bc 18be dc66 03be 5247 473e 7a65 41be
00000340: 5a6d ed3d e885 cfbd 2681 563e 630e 5c3e
00000350: d3f1 64bd af9c d3bd cd77 e43d bc56 fabc
00000360: 6d3c 42be eced 17be 8a39 d13c d35e 89be
00000370: eb06 acbd 8f7f 593d 984d 8a3d 653f 303d
00000380: 5285 27be 3a88 95bd eda5 bbbd 04f7 1abd
00000390: f50b e73c 2652 36be a240 4a3e 5f2e 743b
000003a0: 099d 1f3d f424 273d c8bc 2d3c b3a7 de3d
000003b0: 70e4 09bd 36b3 c1be 89a4 d1bd 8372 35bc
000003c0: 46ef 863c bbe7 813e 659a e83d 87ca 1a3e
000003d0: 8e47 1bbe 6b40 2f3e 9a46 0e3d bc7e 55bc
000003e0: e040 3abe 5efe b93e 5ea9 7ebe c64c 66bc
000003f0: 13e9 b83e 5ad5 e1bd 45da 403e ccdb ba3c

l2/W f4 [81, 81]
-0.03963808 0.07096967 0.091888055 0.02540055 -0.34534514 0.3190785 0.06265752 -0.15438849
0.006690387 0.007238078 0.08552949 0.08542893 0.10174773 -0.05823327 -0.05454878 0.05073589
-0.1576123 0.0932314 0.09855856 -0.07087277 0.14102434 -0.083151 0.21834937 -0.042710066
0.06533905 -0.043523464 -0.37781227 -0.042616703 0.008795617 -0.084310666 -0.023973802 -0.17387517
-0.040517252 0.058294058 0.049530387 -0.3918231 0.08111306 0.093880616 -0.29966384 0.44134775
-0.06558327 0.16798373 0.18480338 0.034074057 -0.2046689 0.31376648 0.11283738 0.18467471
-0.03363801 -0.073947266 0.30245334 0.02529871 -0.018953716 -0.034844346 0.10737447 -0.085939765
0.28529626 -0.5038174 0.18251164 -0.2588944 -0.14808033 0.059794642 -0.035033565 -0.024016803
0.084466115 -0.1218048 -0.06181281 -0.3319169 0.17197475 0.044404656 0.06713874 -0.19990651
-0.026784938 -0.22461629 -0.012775522 -0.01095405 -0.110472225 -0.05807543 -0.23157077 -0.29698876
0.05727671 0.14526537 -0.32572484 0.054332655 0.061524536 0.044476725 -0.23239717 -0.14970665
-0.12123812 -0.054439172 -0.012329675 -0.024492195 -0.025988296 0.085183434 -0.17371732 -0.020831093
-0.17564929 0.08200525 0.04238334 0.24867778 -0.27495217 0.19594003 0.38401118 0.16661613
0.023123294 0.07658351 -0.15399548 0.10101845 -0.21143219 -0.039156105 -0.09103448 -0.044541925
0.06060945 0.11144993 0.03541657 0.01686544 -0.33827245 0.05246917 0.25164828 -0.16779338
-0.00063783687 -0.39154652 -0.06591255 -0.5016679 0.016252797 -0.070597515 0.016964113 -0.088944934
-0.2371566 0.12663141 0.10096868 -0.18218338 0.026166547 -0.031523317 0.1626446 0.1403145
0.21608238 -0.057284035 0.054159354 -0.17449641 0.11952136 -0.050543983 -0.15648577 0.1887599
-0.17502128 -0.17237204 -0.086171046 0.02687731 0.27050912 -0.06488701 -0.15656026 0.018288283
-0.10962696 0.081716746 -0.10897547 -0.06464833 0.123479135 0.05967713 -0.18720526 0.001268357
0.22085655 0.17301793 -0.038615897 -0.016566092 0.09471826 -0.1196675 0.11664694 0.025768597
-0.1268406 -0.25266364 -0.13481802 0.03783252 0.12170778 -0.2434824 -0.03288119 -0.11704359
-0.023527892 -0.27522588 -0.036096737 -0.08842425 0.12917942 -0.16774105 0.025701134 -0.37167305
0.06546885 0.053194936 -0.2215429 -0.009759493 -0.10791438 -0.102837704 0.06518557 0.1588739
0.24137439 -0.09709785 0.10113286 0.04914593 -0.13826898 0.3632663 -0.29983658 0.14823158
0.0571984 -0.2664486 -0.07583116 -0.23084491 -0.16551432 0.13377368 -0.16837485 -0.072178125
0.24226099 -0.26514772 -0.06439912 0.019261751 -0.0049611945 -0.037838995 -0.31984177 -0.35425398
-0.11749067 -0.124647185 0.20255883 -0.20537122 -0.3611856 -0.21950652 0.1269697 -0.16823561
-0.35219973 -0.16720316 -0.167455 -0.20271383 -0.22196431 -0.28262448 -0.2418922 -0.041261055
-0.16465765 -0.03821948 -0.07092258 0.06335617 -0.39884815 0.11954862 -0.02568884 0.038632035
-0.03575318 -0.19477892 0.055498444 0.17053857 -0.15387653 -0.015180709 -0.14766829 -0.18669996
0.051069316 0.07177805 0.045091234 -0.23294412 -0.035629284 -0.026519114 -0.03157058 -0.07003455
00000000: 8a5b 22bd 8c58 913d ce2f bc3d d014 d03c
00000010: 14d1 b0be 425e a33e 9652 803d 0418 1ebe
00000020: 093b db3b 662d ed3b 162a af3d 5df5 ae3d
00000030: 1d61 d03d 0286 6ebd 8b6e 5fbd 70d0 4f3d
00000040: 1e65 21be 1bf0 be3d 12d9 c93d be25 91bd
00000050: af68 103e 124b aabd fa96 5f3e c0f0 2ebd
00000060: 7bd0 853d a945 32bd 9c70 c1be da8e 2ebd
00000070: 7e1b 103c 12ab acbd b564 c4bc 550c 32be
00000080: 6bf5 25bd c0c5 6e3d 60e0 4a3d 0a9d c8be
00000090: 9b1e a63d 7b44 c03d 8a6d 99be 55f8 e13e
000000a0: 8550 86bd ed03 2c3e 193d 3d3e 3d91 0b3d
000000b0: b994 51be 00a6 a03e 4917 e73d 5e1b 3d3e
000000c0: 03c8 09bd aa71 97bd 2adb 9a3e 3e3f cf3c
000000d0: d344 9bbc f2b8 0ebd 25e7 db3d 3001 b0bd
000000e0: 5a12 923e 2dfa 00bf 55e4 3a3e cf8d 84be
000000f0: 5fa2 17be 3aeb 743d 5b7f 0fbd e3be c4bc
00000100: 92fc ac3d cc74 f9bd 6e2f 7dbd 03f1 a9be
00000110: 261a 303e a8e1 353d 0980 893d 4bb4 4cbe
00000120: 166c dbbc d001 66be 6c50 51bc 9e78 33bc
00000130: 433f e2bd 81e0 6dbd e320 6dbe e90e 98be
00000140: fc9a 6a3d 72c0 143e 68c5 a6be eb8b 5e3d
00000150: 2701 7c3d 3a2d 363d 86f9 6dbe b34c 19be
00000160: b14b f8bd 9cfb 5ebd 6802 4abc dba3 c8bc
00000170: 68e5 d4bc a774 ae3d f4e2 31be f8a5 aabc
00000180: 68dd 33be 5ef2 a73d 279a 2d3d 63a5 7e3e
00000190: 88c6 8cbe 81a4 483e 1d9d c43e 6b9d 2a3e
000001a0: 106d bd3c d1d7 9c3d feb0 1dbe c3e2 ce3d
000001b0: ae81 58be 2762 20bd 4970 babd 9871 36bd
000001c0: 9d41 783d dc3f e43d f710 113d 6429 8a3c
000001d0: 0c32 adbe eae9 563d 0bd8 803e 07d2 2bbe
000001e0: 8234 27ba c978 c8be 29fd 86bd 4f6d 00bf
000001f0: 9624 853c 6e95 90bd 53f8 8a3c c328 b6bd
00000200: 2ed9 72be aaab 013e abc8 ce3d 488e 3abe
00000210: 3a5b d63c 981e 01bd 4e8c 263e 9bae 0f3e
00000220: b344 5d3e aaa2 6abd 33d6 5d3d 30af 32be
00000230: 9dc7 f43d 3507 4fbd ce3d 20be 464a 413e
00000240: c738 33be 4c82 30be 727a b0bd ce2d dc3c
00000250: 2c80 8a3e 7be3 84bd 5551 20be 4fd1 953c
00000260: 1984 e0bd 1c5b a73d 882e dfbd 5866 84bd
00000270: a1e2 fc3d 0270 743d bcb2 3fbe 003f a63a
00000280: 3828 623e 9d2b 313e b42b 1ebd 9db5 87bc
00000290: a6fb c13d 3c14 f5bd 97e4 ee3d aa18 d33c
000002a0: 81e2 01be 215d 81be bc0d 0abe 46f6 1a3d
000002b0: ee41 f93d 7353 79be 6dae 06bd 8db4 efbd
000002c0: 91bd c0bc 68ea 8cbe 2cda 13bd c617 b5bd
000002d0: 9c47 043e 4fc4 2bbe 2f8b d23c ee4b bebe
000002e0: 8814 863d efe2 593d 24dc 62be 48e6 1fbc
000002f0: 3702 ddbd 939c d2bd 0380 853d d7af 223e
00000300: d92a 773e 3ddb c6bd bf1e cf3d 3e4d 493d
00000310: 6296 0dbe 0afe b93e 2e84 99be 05ca 173e
00000320: df48 6a3d f36b 88be 5e4d 9bbd 9c62 6cbe
00000330: 967c 29be f8fb 083e 756a 2cbe 20d2 93bd
00000340: 4413 783e 71c1 87be b0e3 83bd d2ca 9d3c
00000350: 8491 a2bb 10fd 1abd 4dc2 a3be c760 b5be
00000360: f39e f0bd 0647 ffbd 956b 4f3e d54c 52be
00000370: 52ed b8be 51c6 60be 5804 023e f545 2cbe
00000380: 8653 b4be 4e37 2bbe 5379 2bbe 3794 4fbe
00000390: 9d4a 63be 28b4 90be 97b2 77be 5a01 29bd
000003a0: 049c 28be 088c 1cbd dc3f 91bd e1c0 813d
000003b0: d335 ccbe e8d5 f43d 6771 d2bc a03c 1e3d
000003c0: ed71 12bd 2074 47be 5652 633d aaa1 2e3e
000003d0: cf91 1dbe 82b8 78bc 5b36 17be 462e 3fbe
000003e0: 0f2e 513d 5f00 933d 96b1 383d e788 6ebe
000003f0: 03f0 11bd 9d3e d9bc 2750 01bd 466e 8fbd

l1/b f4 [81]
-0.07174196 -0.1690743 -0.25585377 -0.12739515 -0.3070667 -0.07117288 -0.12804523 -0.20778556
-0.30715856 0.04276883 -0.24012999 -0.01896354 -0.14660144 0.058316678 -0.09834386 0.15269715
-0.4290482 0.010366805 -0.034483034 -0.059496336 -0.18711619 -0.11667862 -0.21551502 -0.23753592
-0.2514571 -0.3776691 0.08978974 -0.21335791 0.02454722 -0.057605635 -0.29388645 -0.115766324
0.034733854 -0.21906114 -0.032556355 0.074529074 -0.05268861 -0.18816249 -0.60482204 -0.19709231
0.17743103 -0.05615337 -0.23186544 -0.030769812 -0.19777627 0.3882391 -0.21051364 -0.11747648
-0.27437544 -0.35255697 -0.054639373 -0.24309896 -0.11847686 -0.053213958 -0.2818028 -0.12651238
-0.00956187 -0.22565827 -0.010503549 -0.41896722 -0.039993722 -0.30520606 -0.20653513 -0.44277114
0.026869712 0.118626416 -0.33618087 -0.069203556 0.04174189 -0.14202441 -0.15350053 0.10584677
0.45952633 -0.11479319 -0.13699831 -0.23785844 0.07636035 0.09008216 0.059510354 -0.020664219
-0.021753712
00000000: 73ed 92bd d021 2dbe 44ff 82be e073 02be
00000010: d937 9dbe 16c3 91bd 4a1e 03be bdc5 54be
00000020: e343 9dbe 5e2e 2f3d a3e4 75be 6d59 9bbc
00000030: b01e 16be 78dd 6e3d 8168 c9bd a45c 1c3e
00000040: 35ac dbbe 88d9 293c 153e 0dbd 6eb2 73bd
00000050: 639b 3fbe 33f5 eebd f8af 5cbe 9e3c 73be
00000060: fcbe 80be d85d c1be afe3 b73d 7f7a 5abe
00000070: 4017 c93c e3f3 6bbd 4978 96be e516 edbd
00000080: 1645 0e3d 9051 60be d059 05bd b3a2 983d
00000090: 03d0 57bd abad 40be 9ed5 1abf 91d2 49be
000000a0: 7bb0 353e 1301 66bd 226e 6dbe f910 fcbc
000000b0: dd85 4abe 46c7 c63e e390 57be 8297 f0bd
000000c0: f07a 8cbe 5982 b4be 89cd 5fbd efee 78be
000000d0: ffa3 f2bd e1f6 59bd 7548 90be 768c 01be
000000e0: 64a9 1cbc f612 67be 1417 2cbc df82 d6be
000000f0: 75d0 23bd f843 9cbe f27d 53be e6b2 e2be
00000100: df1d dc3c 68f2 f23d e61f acbe 98ba 8dbd
00000110: 8bf9 2a3d d96e 11be 3e2f 1dbe 31c6 d83d
00000120: 0947 eb3e b118 ebbd 4949 0cbe 2a91 73be
00000130: d162 9c3d ff7c b83d 21c1 733d 0248 a9bc
00000140: d734 b2bc

l2/b f4 [81]
0.056258406 -0.083062515 -0.17673749 0.08425113 0.023459552 -0.27711862 -0.22503859 0.0007763423
-0.17534271 0.1817748 -0.23057175 0.0036536485 -0.093704924 0.045052227 0.0994058 0.18321072
-0.010887782 -0.20232528 -0.14579913 -0.28477573 -0.2277122 0.04254149 0.0043001887 -0.24438384
-0.071907364 -0.07368144 -0.24500526 -0.05666665 -0.08624021 -0.15269423 0.040469088 -0.04989937
-0.16860889 -0.14538483 0.009171828 -0.12846906 -0.06491857 0.14247082 -0.09991979 -0.18511015
0.0032326858 -0.13998717 -0.22673234 -0.034473315 -0.08794247 -0.0886736 -0.10691101 -0.13655877
-0.24754357 -0.09415343 -0.13686883 -0.08997714 -0.09795253 -0.16822024 0.10063299 0.12956937
0.028976124 0.04566212 -0.021993253 -0.06374365 -0.16729772 0.021088311 -0.19154406 -0.027967729
0.02184287 -0.14611173 -0.09218701 -0.124396704 -0.18013982 -0.1522334 -0.15624677 -0.1738975
-0.03505079 -0.07269957 -0.100606054 -0.09379213 -0.07548643 -0.11666623 -0.35883933 0.055664778
-0.031954706
00000000: 376f 663d ae1c aabd acfa 34be db8b ac3d
00000010: 3f2e c03c 7ee2 8dbe 8470 66be 7383 4b3a
00000020: 0a8d 33be 2c23 3a3e 001b 6cbe 0d72 6f3b
00000030: 5ee8 bfbd af88 383d 4595 cb3d 979b 3b3e
00000040: ab62 32bc 5c2e 4fbe 5e4c 15be 20ce 91be
00000050: 632d 69be fc3f 2e3d 99e8 8c3b c23f 7abe
00000060: 2b44 93bd 4be6 96bd a9e2 7abe 4a1b 68bd
00000070: b59e b0bd e05b 1cbe eac2 253d 4863 4cbd
00000080: cfa7 2cbe c3df 14be 6f45 163c 658d 03be
00000090: 07f4 84bd dfe3 113e bfa2 ccbd 848d 3dbe
000000a0: 78db 533b cc58 0fbe 862c 68be e433 0dbd
000000b0: 2f1b b4bd 819a b5bd 29f4 dabd 10d6 0bbe
000000c0: 107c 7dbe 83d3 c0bd 5827 0cbe ef45 b8bd
000000d0: 569b c8bd ed41 2cbe ab18 ce3d d5ad 043e
000000e0: 565f ed3c 3408 3b3d 322b b4bc 088c 82bd
000000f0: 1850 2bbe 65c1 ac3c 2024 44be 941c e5bc
00000100: d2ef b23c 509e 15be 8bcc bcbd b3c3 febd
00000110: 9376 38be 13e3 1bbe 27ff 1fbe 3012 32be
00000120: 6b91 0fbd 83e3 94bd 8c0a cebd 1716 c0bd
00000130: a198 9abd b4ee eebd cab9 b7be c000 643d
00000140: f0e2 02bd

l0/W f4 [81, 9]
0.382976 -0.043596637 0.017868433 0.24290787 -0.014386904 0.33060855 0.49357042 -0.029582838
0.6939619 -0.059480824 1.0767056 -0.035155877 -0.24480762 0.527546 -0.25267953 -0.068115436
0.5063135 0.28725743 -0.038211036 0.27687153 0.23910871 -0.667185 0.15928145 0.14206755
-0.6741434 0.14348005 -0.2744105 0.5312993 0.029425947 0.031235173 -0.14841028 0.014335983
-0.23277825 -0.26467633 -0.012232226 -0.3454455 0.52028805 -0.009555694 0.039699107 -0.039307427
-0.5532688 0.007807138 -0.023919348 -0.16694333 -0.539615 -0.29102165 -0.41159326 0.38567168
0.6914302 -0.18786494 0.0046446463 -0.38144425 -0.8699812 0.07021918 -0.039559923 -0.5080352
-0.45518786 0.18488619 -0.26343477 0.13059507 0.6946019 -0.18600056 -0.2957686 -0.33478567
-0.28506583 -0.16990295 -0.3766766 -0.16799061 -0.053148005 -0.30862728 0.8472177 -0.35846362
0.34900862 0.09051276 0.066786066 -0.18905504 -0.0012038861 0.015147834 -0.10953844 -1.1102604
0.2664266 0.24389084 -0.1043774 0.10516805 0.54585797 -0.4031027 -0.21298452 0.02748612
0.042596202 0.3024006 0.16787855 -0.3702741 -0.55500686 -0.018588485 0.10340373 -0.0009215802
-0.77880967 -0.4675987 -0.5775785 0.46746552 0.10385243 -0.12022622 0.019507142 0.8666943
0.72856313 0.3568964 0.06340642 -0.099889964 0.5265777 0.49486813 0.36534432 0.16185062
0.5366559 -0.10523404 -0.26036194 0.26007113 0.20660812 0.8402363 -0.5264543 0.09421442
0.23927623 0.34343424 0.51529473 -0.0722745 -0.25263482 0.66741145 -0.06841916 0.17544179
-0.9620799 0.113131784 -0.6233759 0.10155625 -0.7390974 0.27730846 0.2216989 0.023388356
0.49595603 0.38925827 0.41513664 0.3303996 0.1432848 0.10992203 -0.21299039 0.13903636
0.9260784 0.107637614 0.37237218 0.27047488 0.2830519 0.5617671 0.40135047 0.26106715
0.1615853 -0.10606787 0.18863474 -0.49033746 -0.30510607 -0.66955465 -0.58340394 0.27955508
-0.09332542 -0.004464568 -0.06868866 -0.32389304 0.04292014 -0.068087295 -0.25931016 0.90092534
0.059645087 -0.08451341 0.050864276 0.050766736 0.08251847 -0.06963573 0.20150015 -0.35887828
0.2994018 -0.21088974 -0.15503727 0.20471545 -0.1518301 0.049161077 0.6040454 -0.23317464
-0.18503605 0.32328588 0.44341344 0.22989419 -0.20832586 0.43230614 0.929273 0.38336122
0.3579132 0.31398523 0.7901031 0.34458584 0.25090086 0.47016525 -0.06545299 0.43731353
-0.42609307 -0.24028897 -0.06111861 0.27587304 0.08785843 0.5282573 0.21409248 0.36961406
0.17771475 -0.109105535 -0.32223877 -0.9692501 -0.23569158 -0.12054414 0.076024756 0.5676862
-0.026970876 -0.24453539 -0.3288844 1.1503831 -0.52315575 -0.6043991 -0.2802591 0.0017412497
-0.518299 0.05755252 -0.08470787 0.6538016 -0.074252024 0.07751656 -0.6258016 -0.05740971
-0.13696757 0.7490641 -0.30287147 0.06481302 -0.056748796 0.19603948 0.32825473 0.33536452
0.3897557 -0.50898546 0.32600954 0.5462907 -0.41782624 -0.29798207 0.429956 -0.123893455
-0.4414697 -0.08020166 0.008020892 0.1405557 0.4453276 0.23348956 -0.03038934 -0.13802923
00000000: 6e15 c43e 6392 32bd d260 923c d7bc 783e
00000010: 0db7 6bbc 8645 a93e 43b5 fc3e b557 f2bc
00000020: 7da7 313f 2aa2 73bd 7dd1 893f 9cff 0fbd
00000030: d9ae 7abe 410d 073f 365f 81be 1b80 8bbd
00000040: c39d 013f 6813 933e 2d83 1cbd 1bc2 8d3e
00000050: ead8 743e a3cc 2abf ad1a 233e 287a 113e
00000060: a994 2cbf 6fec 123e 887f 8cbe 3b03 083f
00000070: af0e f13c e8e0 ff3c ddf8 17be 79e1 6a3c
00000080: 6c5d 6ebe a883 87be ad69 48bc 3cde b0be
00000090: 9931 053f 7c8f 1cbc 889b 223d d300 21bd
000000a0: 06a3 0dbf 05d3 ff3b 82f2 c3bc 31f3 2abe
000000b0: 3524 0abf ca00 95be 5abc d2be c276 c53e
000000c0: 9201 313f ab5f 40be 1e32 983b a94c c3be
000000d0: 17b7 5ebf 13cf 8f3d 9609 22bd 980e 02bf
000000e0: 620e e9be ce52 3d3e ece0 86be b7ba 053e
000000f0: 6ed1 313f ee76 3ebe fb6e 97be 0769 abbe
00000100: 26f4 91be 0afb 2dbe c1db c0be bb05 2cbe
00000110: b9b1 59bd 6504 9ebe 42e3 583f 8b88 b7be
00000120: 42b1 b23e c15e b93d 22c7 883d a597 41be
00000130: b7cb 9dba 9f2e 783c b155 e0bd 031d 8ebf
00000140: 1169 883e 85be 793e d1c3 d5bd 5962 d73d
00000150: 59bd 0b3f 7a63 cebe 9d18 5abe 922a e13c
00000160: 5b79 2e3d 40d4 9a3e 5be8 2b3e 9194 bdbe
00000170: ee14 0ebf e146 98bc 56c5 d33d 3396 71ba
00000180: 1260 47bf 1969 efbe 2fdc 13bf a457 ef3e
00000190: 95b0 d43d 2a39 f6bd 71cd 9f3c addf 5d3f
000001a0: 1d83 3a3f 20bb b63e 3adb 813d 1c93 ccbd
000001b0: cccd 063f 5b5f fd3e 690e bb3e 2bbc 253e
000001c0: 4862 093f f284 d7bd 294e 85be 0b28 853e
000001d0: 1491 533e ba19 573f b6c5 06bf 7df3 c03d
000001e0: d404 753e 9dd6 af3e 5bea 033f a704 94bd
000001f0: 5a59 81be 7adb 2a3f 581f 8cbd 03a7 333e
00000200: de4a 76bf a3b1 e73d 9095 1fbf b9fc cf3d
00000210: 7d35 3dbf 60fb 8d3e 0905 633e f098 bf3c
00000220: f3ed fd3e dc4c c73e ca8c d43e 232a a93e
00000230: 40b9 123e cd1e e13d 271a 5abe 8c5f 0e3e
00000240: 7913 6d3f 1c71 dc3d 91a7 be3e af7b 8a3e
00000250: 2eec 903e f8cf 0f3f cf7d cd3e 98aa 853e
00000260: 9e76 253e 1d3a d9bd 7729 413e 830d fbbe
00000270: dd36 9cbe ef67 2bbf f659 15bf d821 8f3e
00000280: 6621 bfbd 834b 92bb a4ac 8cbd 4fd5 a5be
00000290: 07cd 2f3d 5a71 8bbd 4dc4 84be 0ba3 663f
000002a0: 684e 743d 5e15 adbd 0f57 503d c8f0 4f3d
000002b0: 72ff a83d 2d9d 8ebd 0e56 4e3e e5be b7be
000002c0: 314b 993e 7bf3 57be 17c2 1ebe eda0 513e
000002d0: 5a79 1bbe 205d 493d b8a2 1a3f 55c5 6ebe
000002e0: 177a 3dbe ba85 a53e 1607 e33e 6269 6b3e
000002f0: 6053 55be 3b57 dd3e d6e4 6d3f ec47 c43e
00000300: 6640 b73e acc2 a03e 3244 4a3f 8e6d b03e
00000310: 1476 803e 80b9 f03e 380c 86bd 8fe7 df3e
00000320: df28 dabe 500e 76be 8257 7abd 3b3f 8d3e
00000330: 1fef b33d df3b 073f 0f3b 5b3e 0e3e bd3e
00000340: dbfa 353e b972 dfbd 7bfc a4be c620 78bf
00000350: 2259 71be d9df f6bd deb2 9b3d e253 113f
00000360: 07f2 dcbc 7c67 7abe 8963 a8be c13f 933f
00000370: 89ed 05bf e6b9 1abf 1f7e 8fbe a53a e43a
00000380: 3eaf 04bf 31bc 6b3d 527b adbd 8b5f 273f
00000390: 7211 98bd 01c1 9e3d 8934 20bf 7226 6bbd
000003a0: 3a41 0cbe aac2 3f3f f811 9bbe b0bc 843d
000003b0: 6d71 68bd 93be 483e 0111 a83e e6b4 ab3e
000003c0: 0f8e c73e df4c 02bf b9ea a63e b5d9 0b3f
000003d0: 52ed d5be 1b91 98be 3123 dc3e dabb fdbd
000003e0: 5108 e2be c540 a4bd 0f6a 033c d5ed 0f3e
000003f0: fb01 e43e e317 6f3e 11f3 f8bc 8957 0dbe
