chainerrl/TicTacToe/result_10000/model.npz (npz, 56656 bytes, 8 tensors)

l3/b f4 [9]
000000 e9 63 21 3d 1d a5 d7 3d ae ae 12 3e 80 39 f8 3d
       0.039401922 0.1052954 0.14324448 0.12120342
000010 28 71 ce 3d 81 bb ed bc 00 24 10 3e 15 a8 bd 3d
       0.100801766 -0.029020073 0.14076233 0.09260575
000020 bd 10 de 3d
       0.10843036

l0/b f4 [81]
000000 70 c8 63 3e 08 1a c9 3d 9f ee 83 be c0 e3 83 be
       0.2224443 0.09819418 -0.2576799 -0.25759697
000010 e2 1e 85 be f6 52 9e be e3 bc b4 bd b8 42 9b be
       -0.26000124 -0.3092267 -0.0882509 -0.3032434
000020 5a 91 64 bd cf 3d 03 3e 5a db ba bc ec e9 07 be
       -0.05580268 0.12816547 -0.022809673 -0.13272828
000030 22 5c fa 3c 76 c7 13 be df ea f1 bd b7 16 e9 bd
       0.03056151 -0.14431557 -0.11812376 -0.11381286
000040 0e 16 44 be e8 c1 0d be 3e f5 14 be 24 98 37 bd
       -0.19149038 -0.138435 -0.14546677 -0.044822827
000050 69 e5 8b bd c1 73 1e bd ec e3 ae be a1 50 05 be
       -0.06830866 -0.03868461 -0.34158266 -0.13019039
000060 00 fb 11 bd 34 e8 1c be 01 6d d9 bd c2 0b 3f be
       -0.035639763 -0.15322953 -0.10616494 -0.18656829
000070 72 86 58 3c a3 88 28 be df 77 a7 3e 26 eb 11 be
       0.013215648 -0.16458373 0.32708642 -0.14249858
000080 2c 33 08 bf 36 ee 63 3d b4 54 3f be c2 2a 19 be
       -0.5320308 0.055647098 -0.18684655 -0.14957717
000090 f9 77 d8 bd 7a 30 20 be 0e de 1a be 14 a1 37 be
       -0.10569758 -0.15643492 -0.1512377 -0.1793254
0000a0 b4 62 ae be 43 3f 66 be 87 33 65 be ef 33 8c bc
       -0.3405968 -0.2248507 -0.22382937 -0.017114608
0000b0 c7 6e 99 3d 75 d9 9d be 17 b4 75 be 86 a5 bf bb
       0.07491832 -0.3082997 -0.2399448 -0.0058485894
0000c0 2a 23 25 be eb 90 47 bd ff f6 ff 3a 0b c0 81 bd
       -0.16126695 -0.04872219 0.0019528567 -0.063354574
0000d0 db ad 83 be f2 92 af be b9 5e 9a be 3c 99 5c be
       -0.2571858 -0.34291798 -0.30150393 -0.2154283
0000e0 d0 e8 1b be f9 ae fa bd 7a 3e bb bd 5e 0e 2d be
       -0.1522553 -0.12240405 -0.09142776 -0.16900012
0000f0 85 01 08 3d aa 4b ff bd 7e 9c b5 bd 08 12 49 be
       0.033204574 -0.12465604 -0.08867739 -0.19635785
000100 5f 71 78 bd 10 a0 80 3d 90 d2 0b 3e 8c a7 a7 bd
       -0.060654994 0.062805295 0.13654542 -0.08186254
000110 c9 b4 26 3e 5e 40 da bd 69 ff ac bd 0c 16 55 3d
       0.16279902 -0.10656808 -0.08447153 0.05202298
000120 d1 3c 98 be 88 b8 9d be 00 47 ab bd f7 86 48 be
       -0.297339 -0.3080485 -0.083631516 -0.19582735
000130 d5 78 38 3c f4 63 61 be 09 af 33 3e 81 61 93 3d
       0.011259277 -0.22010785 0.1754724 0.07196332
000140 21 c8 1a be
       -0.15115406

l2/W f4 [81, 81]
000000 48 aa aa bd 61 bd 0b bd 41 1a 89 3e 03 ea 9a bd
       -0.0833326 -0.034116153 0.26777843 -0.075641654
000010 c1 3d 08 3d 46 34 2c be 73 19 25 bd 1b eb 95 3d
       0.033262018 -0.16816816 -0.040307473 0.073202334
000020 21 fb ed 3d d9 06 76 be c4 b5 9b 3d dc 65 a9 3c
       0.11620165 -0.2402605 0.076030284 0.020678453
000030 31 24 a7 bb da 4a 83 3e 98 cb 30 be 6c 1c a9 3e
       -0.00510075 0.25643045 -0.17265165 0.33029497
000040 0c 4e 6b be 8f 2e 08 bc c1 75 9c 3e 3a c5 09 be
       -0.22978991 -0.008311882 0.3055859 -0.13454142
000050 71 4b 17 3e 58 12 2d be 65 17 cb 3d 54 f5 53 3e
       0.14774872 -0.16901529 0.099165715 0.20699054
000060 3b 17 35 bd c8 b7 81 be e2 45 18 be d5 fa 12 be
       -0.044211607 -0.25335526 -0.14870408 -0.14353497
000070 9f 02 28 be 47 65 83 3d 5a bf 8d bd fe 25 6e 3e
       -0.1640725 0.064158015 -0.06921263 0.2325668
000080 88 21 5b 3e 27 af bd 3c 42 c8 43 3d a3 fb eb bc
       0.2139951 0.023154808 0.047798403 -0.028806513
000090 00 d7 a5 3c 92 68 c0 3c f5 ad 53 3e 8e eb b9 bb
       0.020244122 0.023487363 0.20671828 -0.0056738323
0000a0 ea 2c 7d bd b9 3c 87 3e e2 be 3c be 38 86 6a bb
       -0.06181041 0.26413515 -0.18432191 -0.0035785567
0000b0 40 53 95 bd 10 ce 91 bd bd d5 5b be b0 00 53 3d
       -0.07291269 -0.071193814 -0.21468253 0.051514328
0000c0 53 a0 cf bc eb 10 52 bd e5 a7 4f be 95 5d cb 3d
       -0.025345003 -0.051285665 -0.2027889 0.09929959
0000d0 79 8e 88 be 23 aa 27 be 26 f8 02 be bc 48 06 3e
       -0.26671198 -0.16373496 -0.12789974 0.13113683
0000e0 9f 2a bd 3c 55 cf 71 3d b9 dc a3 3e 3d 98 0f 3d
       0.023091612 0.059035618 0.32004336 0.035057295
0000f0 bc 88 aa be c5 1a 08 3e a0 9e b1 bd cf 89 ea be
       -0.33307445 0.13291462 -0.086728334 -0.45808265
000100 f7 0a 88 be 37 6a 72 3e 7a 1e 55 3e b5 3a 33 3e
       -0.26570866 0.2367333 0.20812407 0.17502864
000110 8e 73 d2 bb 89 38 e4 3d b3 dd 8a 3d 80 30 8e 3d
       -0.0064224666 0.11143596 0.06780567 0.069428444
000120 ed 38 5f bc c5 31 39 3d 03 7b 17 3e 31 a0 9a bd
       -0.013624412 0.04521348 0.14793019 -0.07550085
000130 8a 59 e9 3b aa 81 2e be d7 f5 8a bd 45 5a 9f 3e
       0.0071212696 -0.1704165 -0.067851715 0.31123558
000140 e4 17 32 bb c8 e6 38 3d a7 9e f8 bc 9e 68 86 bd
       -0.0027174884 0.045141965 -0.030349089 -0.06562923
000150 43 5c 86 3c cb b6 b2 bd c7 59 50 3c de 09 16 3d
       0.016401416 -0.08726271 0.012716717 0.036630504
000160 32 ef f4 bd ac 66 91 3d 80 69 a0 bd e3 01 a8 be
       -0.119596854 0.07099661 -0.078326225 -0.3281394
000170 d2 8d b3 3d 11 3b 4f 3d fd 1a 20 be 6b 8e 80 bd
       0.087672845 0.05059344 -0.15635295 -0.06277164
000180 f7 27 76 bd b5 7f 99 bd 63 b3 8c bd 53 49 01 be
       -0.060096707 -0.07495061 -0.06870153 -0.12625627
000190 f7 5d 1f be 25 91 21 be c8 24 7a 3d 0e 05 c0 bd
       -0.15563188 -0.15778024 0.061070234 -0.09375964
0001a0 b5 83 33 bd bf 1c 4a bd 45 f1 3e be 7d 5b 8b 3d
       -0.043826777 -0.04934382 -0.18646725 0.068045594
0001b0 2e 4b 00 be 3b 3f 48 bc 74 c1 40 3e b0 5c 28 bd
       -0.12528679 -0.012222107 0.18823797 -0.04110402
0001c0 ad 32 64 bd 70 ba 32 b9 e2 aa 65 be 87 6a 4c 3e
       -0.05571239 -0.00017044856 -0.22428468 0.19962512
0001d0 24 bf 09 3e 96 7c 70 3e 6a 68 51 be db 50 c3 bc
       0.1345182 0.23485026 -0.20449987 -0.023842266
0001e0 28 b0 a3 3c d2 e6 b4 bd 39 12 03 3e e7 a7 e1 3b
       0.019981459 -0.08833088 0.1279992 0.0068864706
0001f0 be 14 f1 bd 29 4a 42 bd 9c 24 04 3e 44 c5 22 3e
       -0.117715344 -0.047434006 0.1290459 0.15895563
000200 8a 84 1d 3d 4d 2f 28 be 3f 1c f4 3d d8 c1 7d bd
       0.038456477 -0.16424294 0.1191945 -0.061952442
000210 ea 7b a3 bd 2a cc 59 bd 73 34 db bd ed c9 c0 bd
       -0.07982619 -0.05317322 -0.10703363 -0.09413514
000220 41 ab cc 3c 3a 16 13 3e db 60 f4 bd bc 04 fa bc
       0.024984004 0.14363948 -0.11932536 -0.030519836
000230 07 49 28 39 21 c7 22 bc 2b 19 ff bd 0e ba 74 bd
       0.00016048933 -0.009935171 -0.12455972 -0.059747748
000240 e4 69 2a 3e 1c 8e 17 be 3a 6d ad bd e9 20 6a 3d
       0.16641957 -0.14800304 -0.08468099 0.05716029
000250 4a de c4 bd db 8a c0 bd f7 7c 82 bb d6 c2 d2 bd
       -0.09612711 -0.094014846 -0.003982182 -0.10291068
000260 ab f4 9a 3d 0d bb 3e be 13 50 ca be ea ac f9 3b
       0.07566198 -0.18626042 -0.39514217 0.00761949
000270 3a 34 1f 3d 9f 52 59 3c 81 d6 93 3e 08 cf 0c 3e
       0.038868167 0.013264327 0.2887459 0.13750851
000280 ac a9 6c 3d 11 8e 8d bd 6c 9a b8 bd f8 0d 03 3e
       0.057779 -0.06911863 -0.09013829 0.12798297
000290 b7 10 39 bd 90 a9 21 be 2b cb 8a be 10 6a 10 bd
       -0.045181956 -0.15787339 -0.2710813 -0.0352574
0002a0 87 5e 6c be bd c1 8d 3c e7 d4 80 be b4 78 ec bd
       -0.23082934 0.017304296 -0.25162432 -0.1154646
0002b0 12 53 ad 3c a1 19 13 3e 9b 45 5b be 38 a1 68 3d
       0.021157775 0.14365245 -0.21413271 0.056794375
0002c0 e3 af a8 bc 6c d8 be bd 9a 15 26 be c2 08 06 3d
       -0.020591682 -0.09318623 -0.16219178 0.032723196
0002d0 a2 a0 45 3d 70 6f 20 be 9e 70 c7 be e4 3e 22 be
       0.048248895 -0.1566751 -0.38953108 -0.15844303
0002e0 1e 05 54 be b6 2b c8 bd b9 d2 c0 3d 36 2b 63 bd
       -0.20705077 -0.09773962 0.09415192 -0.05546113
0002f0 24 25 3b be 2b dd 5d 3a a6 89 1d bd 3a b0 11 3d
       -0.18275887 0.00084634376 -0.03846135 0.035568453
000300 e9 c3 e0 3d 85 42 8f 3e 21 c7 ba bc 2a 19 58 3d
       0.10974867 0.27980438 -0.02280003 0.052758373
000310 6c 5f dc bb 51 ed af 3c 74 1a 56 3e cb 23 f1 bc
       -0.0067252424 0.021475466 0.20908529 -0.029436013
000320 a4 50 13 3e 16 ce ac bd a6 45 82 bc ab 8c 3d 3d
       0.1438623 -0.08437745 -0.015902352 0.04627673
000330 90 b0 6c be 96 0c f9 bc a5 52 49 bd d2 01 d5 bd
       -0.23114228 -0.03040151 -0.04915108 -0.10400738
000340 7c 0b 1c be ae 8e 17 be 6d d8 c6 bd 17 56 ae bd
       -0.15238756 -0.14800522 -0.09709249 -0.08512514
000350 f8 5e 18 3e 68 48 8e 3e a4 56 30 be 9c d1 98 be
       0.14879978 0.27789617 -0.17220551 -0.2984742
000360 5a 97 8d bd c7 65 d7 3e ca 56 4e bd 88 45 79 bd
       -0.06913634 0.42069837 -0.050375737 -0.060857326
000370 1e dc a5 bb 78 fc 09 3e ac 98 3d be 56 ee 3d 3e
       -0.0050616404 0.13475215 -0.18515271 0.18547949
000380 b0 d4 0f 3e f7 80 31 be 53 21 28 ba 7d 8d b2 3d
       0.14045978 -0.17334352 -0.0006413657 0.08718393
000390 3e b3 80 3c 67 f6 82 3d c8 46 de bd 7b a2 f4 3d
       0.01571047 0.06394654 -0.10853344 0.11945053
0003a0 df ba e2 bc 40 1a 09 be 98 af 26 3e 26 f1 97 3d
       -0.027676998 -0.1338892 0.16277921 0.07419042
0003b0 c5 d8 1b bd 4c a5 27 bd 12 91 3a bd 12 08 2b 3b
       -0.038048524 -0.040929124 -0.045548506 0.002609734
0003c0 17 60 c1 bd c2 5f 21 be 65 48 4a bd 1a ad 35 be
       -0.09442156 -0.15759185 -0.049385447 -0.17741814
0003d0 0f d4 1f 3e 90 e3 36 3e 35 17 7e 3b 77 9b f3 3c
       0.15608238 0.17860246 0.0038771157 0.029737217
0003e0 6f 2c f0 3a a0 dc 37 3d 2e 06 1a be 9c f7 81 3e
       0.0018323789 0.04488814 -0.1504142 0.25384223
0003f0 e2 a6 80 3e 5d 29 7e 3e 44 63 ae bd 9f 2a 13 3d
       0.2512732 0.24820466 -0.08515027 0.03592932

l3/W f4 [9, 81]
000000 f4 75 fb 3d 73 84 29 3e 8c f5 08 3d f2 58 72 be
       0.12278357 0.16554432 0.033437297 -0.23666742
000010 24 b3 87 ba 28 a8 08 bc 4b e2 89 bd 62 c9 c4 3e
       -0.0010353071 -0.008340873 -0.06732615 0.38434893
000020 14 81 db bd 78 ba b9 3d b9 b0 b2 3d 48 04 d2 3c
       -0.10717979 0.09068769 0.087251134 0.025636807
000030 61 79 82 be e5 2a ac bd 54 3b 46 3e fc ba af be
       -0.2548323 -0.08406619 0.1935857 -0.34322345
000040 d5 8a e4 be a2 e7 4c be ab 33 76 3e 13 0e 68 3d
       -0.4463717 -0.20010236 0.24043147 0.056654047
000050 eb 37 2c be 54 e0 81 3e 0f 41 92 3d ce 6e 94 3d
       -0.16818206 0.2536646 0.07141315 0.07247697
000060 19 3c 70 be 23 79 95 3b f0 5f 0d bc 9a 30 49 bd
       -0.23460425 0.0045615598 -0.00862883 -0.049118616
000070 32 49 34 be fc e0 b3 be 75 37 d5 bc 58 04 86 bb
       -0.17606047 -0.35132587 -0.02602742 -0.0040898733
000080 a0 c8 85 3e 97 cb 06 3e f0 e8 b7 be e3 2b 06 bd
       0.26129627 0.13163601 -0.35919905 -0.032756697
000090 7f 6a 80 3b e5 74 c5 3d 6b 87 72 3e d1 8a dc 3b
       0.0039189453 0.096414365 0.2368447 0.0067304154
0000a0 bb de 26 bd dd 3c 16 3e 73 f8 a4 3c db 48 5f 3e
       -0.040739756 0.14671655 0.020138001 0.21805136
0000b0 51 6d ee be c5 b8 5f be be f8 1f 3e 0f 38 8d be
       -0.46567777 -0.21847828 0.15622231 -0.27581832
0000c0 52 6f 9f be 21 e9 6c 3d 58 dc da bd e5 4c ba 3d
       -0.31139618 0.057839517 -0.106865585 0.09096698
0000d0 d4 92 e2 3d 46 f8 4e be fd 56 96 bb f7 5a 50 3b
       0.110631615 -0.20211896 -0.0045880065 0.00317925
0000e0 d9 c2 52 be 3b 72 65 3e 6a ec 83 3e 27 b4 8b 3e
       -0.20582141 0.22406857 0.25766307 0.27285883
0000f0 b4 32 40 be e6 9d 2f 3e c2 82 f3 3c 45 e5 df 3d
       -0.18769342 0.17150077 0.029725436 0.109324016
000100 a9 28 84 3b b0 95 ad be 1c bc 8d be 26 eb 96 bd
       0.0040331674 -0.33903265 -0.2768258 -0.0736907
000110 b4 6d 0c bf 96 5a 21 3e ac 40 f9 3d 39 4d 5d be
       -0.54854894 0.15757212 0.12170538 -0.2161149
000120 fa 72 5b be 1b 11 2e be 12 db 03 be ae e9 2b 3e
       -0.21430579 -0.16998713 -0.12876537 0.1678836
000130 50 7c 2d be 90 86 c2 3d a5 85 08 bc 44 67 39 be
       -0.16941953 0.09498322 -0.008332645 -0.18105799
000140 95 6a d8 be 10 b5 99 3d e1 ca 5d 3d 02 91 0d be
       -0.42268816 0.07505238 0.05414856 -0.13824847
000150 9e f6 7a 3e 11 c8 37 3e e7 72 43 bc d6 e8 8c 3d
       0.2450814 0.17947413 -0.01192925 0.068803474
000160 e1 04 fa bd e2 a3 5a bd 07 b8 1d bd b5 d1 2f 3e
       -0.12207962 -0.053378947 -0.03850558 0.1716984
000170 26 7c 05 bf 4f b9 9a bd ca 1a 3a be 67 af 10 3e
       -0.5214256 -0.07554876 -0.18174282 0.1412941
000180 f9 e7 72 be 38 94 b8 be ce de a5 3d c0 0d 25 be
       -0.23721303 -0.36050582 0.08099137 -0.16118526
000190 17 15 63 3e 79 3c a9 bd 1f 11 a2 bd c5 23 db bd
       0.22176014 -0.08263487 -0.07913422 -0.10700182
0001a0 47 a0 4f bd dc 04 4c be ef 30 44 3d f8 e5 2a 3e
       -0.05068996 -0.19923729 0.04789823 0.16689289
0001b0 4e 11 92 3e 04 dc b7 bd d8 5a b4 bd b5 a4 ea 3c
       0.28528827 -0.089775115 -0.088063896 0.028642992
0001c0 8c c5 e8 bd bf 62 4e bd ac 0e ef bd 8f 30 8a be
       -0.11365804 -0.05038714 -0.1167272 -0.26990172
0001d0 f7 88 31 be 8a 1b 4b be 36 91 fc 3d 2e 47 ce bd
       -0.17337404 -0.19834724 0.12332384 -0.1007217
0001e0 d1 bf 84 bd 59 ff 20 3e 23 6b 3f be b9 a2 21 3d
       -0.064818986 0.15722407 -0.18693213 0.039461825
0001f0 af 77 d4 3d 20 29 6e be 3e 03 9e 3c 09 8b fe 3c
       0.1037439 -0.23257875 0.019288655 0.031072157
000200 58 f8 c3 3d 18 1d ff bd 8c 92 b0 3e e1 52 21 be
       0.09568852 -0.12456721 0.34486806 -0.15754272
000210 df 89 7e 3e 4f 0b 7c be 19 70 3f 3d 0d 29 b5 be
       0.24857281 -0.24613689 0.046737764 -0.35382882
000220 ad 90 eb 3c ea 0b 83 be 06 eb 53 be bb 53 ed bc
       0.02875551 -0.25595027 -0.20695123 -0.02897059
000230 15 cb 01 3e 45 a1 40 bd 03 b9 47 be b1 d5 2e 3e
       0.12675126 -0.0470288 -0.1950417 0.17073704
000240 74 ea 8a bd 4a 92 d1 be e9 52 d1 bd dc 70 89 3c
       -0.06783 -0.40931922 -0.10220892 0.016777448
000250 85 67 48 3e 0c 86 09 be 2e 1f 2e 3d b4 77 15 3e
       0.1957074 -0.13430041 0.042510204 0.14596444
000260 82 bf e9 bd 4b 2e 26 3d a0 b0 d9 bd 22 e4 ea 3e
       -0.1141348 0.040571492 -0.10629392 0.45877177
000270 00 78 96 be ef a6 29 3e fd b6 45 be 0c 4b 99 3a
       -0.29388428 0.16567586 -0.19308086 0.0011695339
000280 34 52 c3 bd f3 ec 33 be df 51 7a 3e 9a 26 0f be
       -0.095371634 -0.17570858 0.24445294 -0.13979569
000290 a5 a7 a4 be c5 c4 a6 3d 88 4c 08 bf 6e 09 3d 3d
       -0.32159153 0.081429996 -0.5324178 0.04615157
0002a0 4f 53 a7 3d 07 d1 b2 3e 4b 33 c5 be d6 82 79 3e
       0.08170187 0.349251 -0.38515696 0.24366316
0002b0 c6 18 71 3c 50 b2 52 3e e3 b9 f6 bd 8a 4e 57 be
       0.014715379 0.20575833 -0.12047174 -0.21026054
0002c0 86 1f 65 3d 7f 10 28 3e 74 0d 4a 3d cc 29 d6 bd
       0.055938266 0.16412543 0.049329236 -0.10457191
0002d0 fc 12 91 bd 39 ea 2c bd d5 3b e9 3c f4 b3 d0 3d
       -0.07083699 -0.04221556 0.028470913 0.10190573
0002e0 48 45 49 3e d5 2c 3b be 57 cc 9b 3d dd 30 cb 3d
       0.19655335 -0.18278821 0.07607334 0.09921429
0002f0 ca b3 c6 3d c4 3b 23 be ea 0e 4e bd 65 40 83 3d
       0.09702261 -0.15940768 -0.050307192 0.06408767
000300 2a 34 48 be 23 36 a9 bc 81 ae 96 bd 7a 8b 42 3d
       -0.19551149 -0.020655697 -0.07357503 0.047496296
000310 dd 13 01 3e 8c 9a 93 bb 64 50 0f 3d f8 4e 12 3e
       0.12605233 -0.0045045074 0.034988776 0.14287937
000320 36 28 5a bd d6 38 80 be 9d 96 4f be ab a0 e3 3d
       -0.053261004 -0.25043362 -0.20272298 0.11114629
000330 3c 31 c4 bd 39 ab f5 be 12 64 8d 3d 69 41 fd bd
       -0.09579703 -0.47982195 0.069038525 -0.123659916
000340 4c 35 46 be c4 c2 4e 3b db b5 34 bc 7b be 85 bd
       -0.19356269 0.0031549195 -0.011029686 -0.06530472
000350 4a 5b 28 be eb 4a 98 be 09 46 68 be 67 bf 48 be
       -0.16441074 -0.29744658 -0.22682966 -0.19604264
000360 5f 49 26 be 77 25 ec bd 61 09 c3 3d 6b 54 a5 be
       -0.16238926 -0.11530583 0.09523273 -0.32290968
000370 f0 30 51 bd 09 51 ed bd 1b ad 25 3d f3 96 31 bd
       -0.05107206 -0.11587722 0.04044829 -0.043356847
000380 e1 c0 46 bc 99 5c f0 3c 4a f7 cd be eb 1e 5c be
       -0.012130947 0.029341029 -0.4022773 -0.2149617
000390 d9 1c 38 be 0e 75 d5 be 67 e1 21 be b6 cf 36 bd
       -0.17979755 -0.41690868 -0.1580864 -0.044631682
0003a0 d4 e5 bd 3e 7e b5 fe 3d 1d 80 b4 3e 50 0b 5f 3d
       0.37089407 0.12436961 0.35253993 0.054454148
0003b0 22 db 2c 3e 5f 54 81 be 03 e8 39 be 9d 91 47 bd
       0.16880468 -0.25259683 -0.18154912 -0.048722852
0003c0 04 c1 5a be 51 af 0a bf c3 18 a8 be 66 3d 0a bd
       -0.21362692 -0.5417376 -0.32831392 -0.03374996
0003d0 cb 6c 67 be 17 d4 93 3d 0d 8a 8d bd 52 f2 00 be
       -0.22600095 0.07218187 -0.06911097 -0.12592438
0003e0 e2 2f 6f be d8 67 1b be e9 88 bd 3d 17 66 a8 3d
       -0.2335811 -0.15176332 0.09254629 0.08222597
0003f0 65 ca 18 be 8b 44 81 be 0d 77 f5 3c 3f 13 bd be
       -0.14920957 -0.25247607 0.029963994 -0.36928746

l2/b f4 [81]
000000 9b 8b 9b 3b 65 fe 04 be 81 85 51 be f7 f0 ab bb
       0.004746867 -0.12987669 -0.20461084 -0.005247231
000010 bb 0f ab bd 62 38 27 3e ab af 21 be a7 29 40 3e
       -0.0835261 0.16330102 -0.15789668 0.18765889
000020 0b a7 56 be 32 87 e0 3b 7a 14 83 bd 04 e3 54 bd
       -0.2096216 0.006852054 -0.0640039 -0.05197431
000030 eb 2e 84 be d8 09 7c bd d4 3f 93 bd 40 21 8f 3c
       -0.25817046 -0.061532825 -0.071899086 0.01747191
000040 2b d4 1a be 68 24 6a bd e4 18 10 bc 44 64 d5 3d
       -0.15119998 -0.057163626 -0.008794997 0.10419515
000050 f6 72 09 3e cb 4c d4 3d 95 93 2b 3c 7d e4 3a be
       0.1342276 0.103662096 0.010472198 -0.18251224
000060 da 1c 90 bd 72 64 36 be 77 ac 17 bd 87 35 ad 3c
       -0.07036753 -0.17811754 -0.03702971 0.021143688
000070 ba 37 75 bd df eb c8 bd 13 31 58 bd 94 cc ab 3b
       -0.059867598 -0.09810614 -0.052781176 0.0052428935
000080 4b dd 2b bc 42 9f c4 3d 55 2e d6 bd 0c ac ed 3c
       -0.010489772 0.096006885 -0.10458056 0.029012702
000090 6f db c4 bc 02 ec 03 3c cd fe 10 3e a2 06 7b bd
       -0.024030415 0.008051874 0.14159699 -0.061285622
0000a0 07 a1 1f be 30 92 d2 3c 45 42 03 bd da 10 bf bd
       -0.15588771 0.025704473 -0.03204562 -0.09329386
0000b0 d4 74 ed 3c cf a3 ba bd 8d b0 33 be e6 5e 87 bd
       0.028986372 -0.09113275 -0.17547818 -0.06609897
0000c0 ed 70 69 be 94 eb 0a 3e 5e 0b 59 bd 22 57 1c be
       -0.22796984 0.13566428 -0.052989356 -0.15267614
0000d0 0b b0 5c 3d a8 10 24 be 2c d1 89 bd 60 5f 90 bc
       0.053878825 -0.16021979 -0.067293495 -0.017623603
0000e0 c0 f0 c0 bd 9c 37 14 be 2e 4f a4 bd f3 49 d0 bd
       -0.094209194 -0.14474338 -0.08022915 -0.10170355
0000f0 7e 77 3d bd 43 04 c8 bd da a9 67 3e 8d ed 4f be
       -0.046256535 -0.09766438 0.22623387 -0.20305462
000100 ce bb 46 be 9e 56 59 be 64 3e 8f bd a3 7b 0e be
       -0.1940758 -0.21224448 -0.06994322 -0.13914351
000110 18 4c 56 be 3f 4e 46 3e ab ae 51 3e 1b 64 3a be
       -0.20927465 0.19365786 0.20476787 -0.1820225
000120 cd e3 b8 bd a5 22 5d be d6 56 95 3d 36 e9 5d be
       -0.090278246 -0.21595247 0.07291953 -0.21670994
000130 ef 49 7e bd c8 94 97 be 21 aa 22 be 0d bb 30 bc
       -0.062082227 -0.296057 -0.15885212 -0.010786784
000140 15 16 9b be
       -0.30290285

l1/b f4 [81]
000000 47 06 b1 bb 8b 71 9d be a6 0a b9 3d ba 38 e7 bd
       -0.0054023596 -0.3075069 0.09035234 -0.112901166
000010 7b f5 43 3e b5 a6 7f be 75 cc 88 bd 75 2d 48 be
       0.19136612 -0.24965937 -0.06679622 -0.1954859
000020 42 10 4e bb bd c6 5b 3d 68 94 f0 3d 4d ef 82 bd
       -0.0031442796 0.05365633 0.11747056 -0.06393299
000030 f0 fc 29 be 71 ed 99 be c5 e6 ed bd cd 96 40 3d
       -0.16600394 -0.30063966 -0.116162814 0.047018815
000040 40 5c f6 bd f3 f9 b2 3d 7f 73 92 bd 66 e6 5e be
       -0.12029314 0.0873908 -0.071509354 -0.21767578
000050 95 9e 0a be 26 6a 8d 3e 1a 26 1e bd 2a 94 50 be
       -0.13537057 0.27620047 -0.038610555 -0.2036902
000060 3d 5e da bd 8a 52 37 be ff c0 80 be 9f a1 a3 bd
       -0.10662506 -0.1790258 -0.25147244 -0.07989811
000070 de e2 92 3c 0b b1 ae bd 52 0c 1e be e0 95 82 be
       0.017930444 -0.08529862 -0.15434387 -0.2550497
000080 17 57 34 3c 32 f5 94 bd 3f f5 6e be bf 3a 63 be
       0.011007092 -0.0727333 -0.23335741 -0.22190379
000090 d7 c0 99 be eb 59 c5 bd 0a 82 96 bd b2 95 4c be
       -0.30029938 -0.09636291 -0.07349022 -0.19978979
0000a0 96 7f 00 be 78 5e 6f be 18 a7 fb bd e2 b6 f1 bc
       -0.1254867 -0.2337588 -0.1228773 -0.02950615
0000b0 ca 8f 3a be d5 f9 45 3d 78 44 1f be d0 af 28 be
       -0.18218914 0.04833396 -0.15553463 -0.16473317
0000c0 55 09 ab bd dd 6a 01 be 64 8b 3b be f6 27 24 bd
       -0.08351389 -0.12638421 -0.18314892 -0.040077172
0000d0 55 a3 39 3d e9 42 b2 3e 30 ec a7 bd 38 91 9e be
       0.04532178 0.34816673 -0.08199346 -0.30970168
0000e0 8e 2e 0a be 73 45 00 3e 3b e8 3c 3c 2f c3 45 3e
       -0.13494322 0.12526493 0.011529977 0.19312738
0000f0 5e c3 95 3e 75 68 20 3d c3 21 83 bd 31 52 40 3e
       0.29250616 0.039162118 -0.06402924 0.18781354
000100 7c c8 0e be e5 da 39 3d 7d d6 55 3e 64 2f 6b bd
       -0.13943666 0.04537477 0.20882602 -0.057418242
000110 34 57 1d be 1b fe 3e be 54 d7 97 bd 6d a9 15 bd
       -0.15365297 -0.18651621 -0.074141175 -0.03653853
000120 2c 7f dd 3d 1b 3e 93 3c e3 cc fd bd 02 6f 19 be
       0.10815272 0.01797395 -0.12392595 -0.14983752
000130 f2 ad 96 be 36 ef b1 3b 57 78 41 be 64 bf ed bd
       -0.29429585 0.0054301275 -0.18893562 -0.116087705
000140 29 c7 4e 3c
       0.012620726

l0/W f4 [81, 9]
000000 a5 1f 78 bd 28 d9 bc be 69 c8 05 be c9 2e af bd
       -0.060577054 -0.36884427 -0.13064732 -0.085538454
000010 da a5 11 3f b7 98 2c 3e d3 50 10 3f 1a 8c e2 3d
       0.56893694 0.16855131 0.5637333 0.110618785
000020 2a 61 1a 3e 61 fe b7 3e 7c 82 1a 3f d4 df 52 3f
       0.15076128 0.35936263 0.60355353 0.82372785
000030 00 25 f3 be 2c c2 5c 3d 16 a1 85 be 6d 0f c2 bd
       -0.47489166 0.053896114 -0.2609946 -0.094755985
000040 b2 92 8d 3e 6d 13 fa 3e f4 3a a8 bd dd f3 5d 3d
       0.27650982 0.48842946 -0.082143694 0.054187644
000050 6c 89 6a bf ac 51 f9 3d b0 34 0c bf 02 ae de 3e
       -0.9161594 0.12173781 -0.54767895 0.43492132
000060 6c f6 a9 bd 7a 7e d8 be 68 98 32 be b8 ea 9f be
       -0.08298954 -0.42283994 -0.17440951 -0.31233764
000070 b5 14 ef 3e 0a 65 bb bd 42 d2 0a be 05 2f 9f 3e
       0.46695486 -0.09150131 -0.1355677 0.3109056
000080 6d 72 17 bf 87 08 be bd a9 c0 4a 3f 80 08 1e 3d
       -0.59158975 -0.0927897 0.79200226 0.038582325
000090 d5 8b 59 3f 52 e5 88 be 5a 4c d8 3d 40 b8 f3 be
       0.8497899 -0.26737458 0.10561438 -0.4760151
0000a0 a8 a1 22 3f eb 90 5f be 8b c5 85 3d ea 2c 6d 3c
       0.6352792 -0.21832626 0.06531819 0.01447604
0000b0 fc 6d 90 be 4f aa f7 3d 38 f6 2d 3e d3 e6 79 3d
       -0.2820891 0.12093031 0.16988456 0.061011147
0000c0 12 70 96 be 21 32 6a be e8 a1 29 be 83 22 94 3d
       -0.29382378 -0.22870685 -0.16565669 0.07233145
0000d0 72 83 79 bf 00 26 2c 3e c5 eb 18 3f 3b 61 70 3f
       -0.97466195 0.16811371 0.59734756 0.9389836
0000e0 30 f0 44 3e 52 10 a2 bc 67 3c 96 be 11 80 ab be
       0.1923225 -0.019783173 -0.29342958 -0.33496144
0000f0 54 90 40 3e 58 eb 44 be 73 c7 8f 3e cd c8 3a 3e
       0.18805057 -0.19230402 0.28081855 0.18240662
000100 d9 79 90 3e 81 55 d6 be c3 ec 3f 3d 8a 2b e9 3e
       0.28217962 -0.4186211 0.046856653 0.4554103
000110 f5 d1 73 be cf da f5 bd 4d 14 81 3e 82 a7 ba be
       -0.23810561 -0.12004625 0.252108 -0.36455923
000120 cd bf c4 3c 34 07 08 be d5 54 00 bf cb 6c 04 3e
       0.024017239 -0.13283998 -0.50129443 0.12932126
000130 83 90 ad 3e 33 3c da be da 89 f9 3e 86 73 c4 3e
       0.33899316 -0.42624053 0.48737985 0.38369387
000140 b5 17 08 3f 9f eb 9b 3e bf f1 a2 bd 59 f8 d0 3e
       0.53161174 0.30453202 -0.07956266 0.40814474
000150 38 38 e2 3e 87 38 4d be e0 05 22 3e 5b d2 ca 3c
       0.44183517 -0.20041095 0.15822554 0.024758508
000160 e2 33 26 bf 45 dc c5 3e 9a 60 0a 3f 0f 6e 95 3e
       -0.64922917 0.38644615 0.5405365 0.2918553
000170 76 fc e9 be f3 52 b3 bd 44 40 9b 3e e9 35 80 3d
       -0.45700425 -0.08756056 0.30322468 0.062602825
000180 bd 18 03 be 03 da 81 be ba 40 db be af 53 44 be
       -0.12802406 -0.25361642 -0.4282282 -0.19172548
000190 a7 45 b9 39 24 01 0c be 92 e9 b9 be 1a 7b 8e 3e
       0.00035337845 -0.1367231 -0.36311013 0.27828294
0001a0 52 36 df bc aa 8f cb be ce c4 11 3e 9f 2c 94 bd
       -0.027247582 -0.39758044 0.14235231 -0.07235073
0001b0 c6 b3 27 3f 17 69 03 3f 24 fa cb 3e cd 63 c2 3c
       0.6550869 0.5133223 0.3983928 0.02372923
0001c0 7b 87 61 3f bb cb bf bd 18 5c ad 3e f1 d4 ca 3d
       0.8809735 -0.093650304 0.33859324 0.099038966
0001d0 25 e6 7d 3e 2f b2 c2 bd 4b 11 38 3f 6c eb 25 3f
       0.24794824 -0.09506642 0.71901387 0.6481235
0001e0 91 72 05 3e c7 df 28 3e 2f 6d 71 3e e7 6d 92 3d
       0.13031985 0.16491614 0.23576806 0.071498685
0001f0 8e fb a7 be f1 6e b8 3e 22 35 d6 3e c9 69 22 3f
       -0.32809108 0.36022142 0.41837412 0.63442665
000200 58 85 d8 3d c8 e7 c3 be 3f 3b 82 3e 82 68 39 3d
       0.10572308 -0.38262773 0.25435826 0.045265682
000210 5f 70 69 bc 75 f3 cd bd 2e 32 e3 be 9a a3 03 3f
       -0.014247983 -0.10056201 -0.44374222 0.5142151
000220 0b e9 16 bf d5 68 17 3e b9 e1 2f 3f 06 16 9b 3e
       -0.58949345 0.14786084 0.687038 0.3029024
000230 4b 85 a5 be c6 8a 27 3e 50 3a 8d be 44 ea fb be
       -0.32328257 0.16361532 -0.2758355 -0.49202168
000240 6e b9 a8 be fe 22 d5 3e 11 bb 5e be 01 fd 11 3d
       -0.32953972 0.4162826 -0.21751048 0.035641674
000250 75 88 18 bd 30 d6 d0 bd 0e 4c 1a bf 71 e1 57 bf
       -0.03723951 -0.10197103 -0.602723 -0.8432837
000260 8a 23 0f bf 9f af 6a be f6 3d c9 bd 21 1e 1e 3e
       -0.55913603 -0.22918557 -0.09826271 0.15441181
000270 b6 ca c6 3e 4c aa ba be 2e b0 a5 3e 1a 69 89 3e
       0.3882653 -0.3645805 0.32360977 0.26838
000280 f2 63 18 3f c1 6f 1a 3e d0 49 3a be 7b aa 24 3f
       0.59527504 0.15081693 -0.1819222 0.6432263
000290 17 4e 80 3e 82 67 85 bd 17 c0 ee be a0 1d 77 3e
       0.25059578 -0.06513883 -0.46630928 0.24132395
0002a0 b6 76 8d bc 1f 82 1c be fe fd db be ff d9 a3 3d
       -0.01726852 -0.15284012 -0.42967218 0.08000564
0002b0 7a e0 a6 be 69 df 6e be 5f be b2 3e 94 9e 39 bd
       -0.32593137 -0.23327412 0.34910867 -0.045317248
0002c0 37 4d 38 bf bb 3d a9 be 9b 06 dc be 82 1c 73 3e
       -0.7199282 -0.3305491 -0.4297379 0.23741344
0002d0 3e a7 3f 3f 98 63 a7 3e e6 db 2f be 24 5c d8 bc
       0.74864566 0.32693172 -0.17173728 -0.026411124
0002e0 a7 c9 c1 3e c5 94 44 be 93 39 28 be f6 73 65 3b
       0.3784916 -0.19197376 -0.16428213 0.0035011745
0002f0 dc f8 95 3e c3 0a f8 bd b7 dd a4 3d 4a f1 11 3f
       0.29291427 -0.12111428 0.08050101 0.570088
000300 c8 3f 32 3e 3e b2 e9 bd 4d 09 02 3f cc 3a f8 be
       0.17407143 -0.1141095 0.5079544 -0.48482358
000310 6b b2 c2 3e 0d 91 68 3d 24 17 a2 be df 39 f1 3d
       0.38026747 0.056778956 -0.3165828 0.11778616
000320 b3 07 5a 3e 15 4b 61 bf c9 07 06 3e df 6d a7 3e
       0.21292 -0.8800519 0.13088907 0.32701012
000330 d6 f3 4a be fe 8b 06 3d 0f ec bc 3e ab 02 a7 bd
       -0.19819579 0.03284835 0.36898848 -0.08154806
000340 a0 d2 a3 be 1b aa eb bd 8e 21 9c be 9d 83 c5 be
       -0.31996632 -0.115070544 -0.3049435 -0.38576975
000350 3e d4 94 3e 7c 97 64 be c4 4d ad 3d 80 4c c1 be
       0.29068178 -0.22323412 0.08462098 -0.37753677
000360 7a 95 18 bf 16 4d f1 be fc 8e 1d bf f0 4e 67 be
       -0.59603083 -0.47129124 -0.615463 -0.22588706
000370 2a df 5c 3e 32 18 0f 3e a9 1b 85 bd c1 82 84 be
       0.21569505 0.13974074 -0.064994164 -0.25881007
000380 bd 56 1b 3e 0b aa 9f be d6 8b a8 3e 5f 57 89 be
       0.15169807 -0.3118442 0.32919186 -0.2682447
000390 d4 33 e6 3d 6b 51 e6 3e 81 cc 66 3d 99 6f 64 3e
       0.11240354 0.44983992 0.056347374 0.22308196
0003a0 50 f3 dd 3d 4b c9 33 be ed ea e5 bd f1 6f e6 3c
       0.10837424 -0.17557256 -0.11226449 0.02812955
0003b0 84 ae 1a be d1 02 31 be 4c 79 1b be b7 ce e3 bd
       -0.15105635 -0.1728623 -0.1518299 -0.11123412
0003c0 a4 39 2f 3f eb 14 58 be 1c 74 86 be a9 fd 02 bf
       0.6844733 -0.2110173 -0.2626046 -0.51168305
0003d0 50 d0 30 be 49 3d f1 3d 54 85 11 be 74 93 bb be
       -0.17266965 0.11779267 -0.14211017 -0.36635935
0003e0 ca 42 24 be 86 51 40 3d d8 8a 82 3f 9f 8c 74 be
       -0.16041103 0.046952747 1.0198622 -0.23881768
0003f0 fb e4 ed 3d 96 de 24 bd eb 78 a4 3e 4c 73 59 3f
       0.1161594 -0.040251337 0.32123503 0.84941554

l1/W f4 [81, 81]
000000 91 e3 38 3e ea 3b a8 3c ac a0 b9 3d 77 03 3b 3e
       0.1805556 0.020536382 0.09063849 0.1826304
000010 ef 1a 9e be 6c 2b c1 bd 44 36 bd 3e 74 c8 be bd
       -0.30879924 -0.0943211 0.36955464 -0.09315577
000020 c8 ec 01 be b3 d7 e6 3d ce 02 22 be 04 8c dd 39
       -0.12687981 0.1127161 -0.15821382 0.00042256725
000030 99 46 84 3e 74 49 7c 3e ce 33 d8 3d d7 d0 f6 bd
       0.25835112 0.24637395 0.10556756 -0.12051552
000040 51 d2 27 3d 78 2e 0e 3e 31 17 0a 3e 3c 4f 0a bc
       0.040972058 0.13884914 0.1348541 -0.0084417425
000050 84 cc 0e bd 95 c7 2b be d9 55 0c 3d cc b8 22 bc
       -0.03486301 -0.16775353 0.03426156 -0.009931754
000060 96 d1 00 be f7 87 ea 3d bf ad c8 3c 62 8d 9c bd
       -0.1257995 0.114517145 0.024496911 -0.07644154
000070 c4 7f d4 3b 88 81 c6 3d 71 ed 3e 3b c5 9a 21 3a
       0.0064849574 0.09692675 0.0029133225 0.0006164725
000080 2c 61 18 bc a9 d5 5b be 5b dd 92 3c a6 bc 42 be
       -0.009300511 -0.21468224 0.017927816 -0.19017276
000090 2c 7a 9b bd a8 bd a0 3b 4e a1 92 3d 1c fd 62 be
       -0.07591662 0.0049054213 0.07159673 -0.22166866
0000a0 66 fb f6 3d 21 1f 1d 3c 7f 8d 3d be 7a d4 79 bd
       0.12059669 0.009589941 -0.18511008 -0.06099365
0000b0 7b cf 43 3d aa 06 b0 be 54 f2 28 3e 38 eb 8a bd
       0.04780529 -0.34380084 0.16498691 -0.06783146
0000c0 0b 36 2f be 83 f7 2c be 21 83 94 3d b0 ee 60 3e
       -0.1711046 -0.16891293 0.07251573 0.21966052
0000d0 c2 84 dc bc d3 f4 be 3d 1d 64 88 3c 14 60 3e be
       -0.026918773 0.0932404 0.0166493 -0.18591338
0000e0 ae fb 1e be 1e 5d 75 3c dc 79 8f be 31 1d fa 3d
       -0.15525696 0.014975814 -0.2802266 0.12212599
0000f0 35 14 86 bd 53 86 83 bc 52 4f c0 3d 9b 53 59 be
       -0.06546823 -0.016055262 0.09390129 -0.21223299
000100 cd 80 2f be be 40 1c be df b7 34 be c3 7a d1 bd
       -0.17138977 -0.15259072 -0.17648266 -0.10228493
000110 9d fb 17 be 1a d2 74 bc 74 d9 59 be 7a 70 08 be
       -0.14842077 -0.01494267 -0.21274358 -0.13324156
000120 97 24 63 be 23 42 ac bd 19 23 09 3d ae 79 0c bd
       -0.22181927 -0.08411052 0.033480737 -0.03429573
000130 52 38 87 be 05 ed ac 3d 40 2e 23 3e 8f 77 5f be
       -0.26410156 0.084436454 0.15935612 -0.21822952
000140 65 70 68 be 42 57 1c be f8 08 e8 ba e9 83 47 3d
       -0.22699125 -0.15267661 -0.0017702868 0.048709784
000150 62 2d 20 be cf 2b 8c 3d b1 7b e4 3d fe 3b 06 3c
       -0.15642312 0.06844293 0.11156405 0.008193014
000160 92 24 4d 3e 76 43 04 3e 61 ac 46 be 22 2c 36 3d
       0.20033482 0.1291636 -0.19401695 0.044475682
000170 4f 26 8a 3d 77 ef bd 3c e5 d0 2a 3e 86 3d 5e 3e
       0.06745588 0.023185475 0.1668125 0.21703157
000180 e4 bb a9 3d 59 2d 10 3e c3 3a b7 bc c2 ff 04 3d
       0.082877904 0.14079799 -0.022366887 0.032470472
000190 9f 94 c5 3d ce 04 d8 3c 47 33 9c 3e 80 7f f5 3e
       0.09647488 0.026369479 0.30507872 0.47948837
0001a0 ab eb 28 bc a5 45 65 3d 5b c1 99 bd b9 74 82 bd
       -0.010310094 0.05597462 -0.07507583 -0.06369919
0001b0 39 da 4f be 2a ca c3 3d 4a 0f 23 be b5 9e c6 bc
       -0.20298089 0.09560044 -0.15923801 -0.0242456
0001c0 30 c3 2d be 8e 5b 73 3d 96 84 c8 bd 56 be 19 3d
       -0.1696899 0.059413485 -0.09790914 0.037535034
0001d0 93 65 1c bd 87 e7 fa bd 73 64 09 3e d6 80 41 3e
       -0.038182806 -0.122511916 0.13417225 0.18896803
0001e0 fd 84 e5 bd 10 54 44 3e 07 42 4e bb f6 d2 b2 bc
       -0.11207006 0.19172692 -0.003147246 -0.02182911
0001f0 a0 16 3d be a2 5f 37 be a9 a9 87 3d 6e fd 97 3a
       -0.18465662 -0.17907575 0.06624157 0.0011595914
000200 1d 8c 28 bc e5 3a dd be 76 9d 78 3d 28 23 2f 3e
       -0.010287312 -0.43208995 0.06069704 0.17103255
000210 05 d3 d7 bd fa 0d 6e 3e 22 4a 13 3d f2 86 a6 3b
       -0.10538296 0.23247519 0.03595937 0.0050820047
000220 67 23 55 bd 02 6e 8a 3e d4 70 2b 3e 6e 9b df 3d
       -0.052035715 0.27037054 0.1674226 0.10918318
000230 2a d7 ae be 44 98 ba 3d ab 93 87 bd 40 ea 19 3c
       -0.34148532 0.091110736 -0.06619962 0.009394228
000240 83 19 3c be b9 86 32 be f5 95 f0 3d d4 73 c1 ba
       -0.18369107 -0.17434205 0.11747352 -0.0014759251
000250 04 77 94 be 07 42 15 3d e4 a0 c7 3c 07 76 62 be
       -0.28997052 0.03643992 0.02436871 -0.22115336
000260 db 63 63 3e bc 66 eb 3d 3f 1e 0e 3b 46 96 9d 3e
       0.2220606 0.114942044 0.0021685509 0.30778712
000270 ee 22 17 bd f4 49 c3 3d e8 a4 d7 bc 80 8b 0d 3d
       -0.036898546 0.0953559 -0.02632375 0.034556866
000280 df 96 30 3e 98 03 87 3e d1 aa 56 3d 7f 3c 63 bc
       0.17245053 0.2636993 0.052408997 -0.013869404
000290 74 05 cd bc 60 83 0f 3e 55 f0 4a be e7 90 79 be
       -0.025027014 0.1401496 -0.19818242 -0.24371682
0002a0 27 60 af bd 6a d9 76 3e 85 4b 9c bc 38 1f 98 bc
       -0.085632615 0.24106374 -0.01907898 -0.018569574
0002b0 7e da a8 3d c1 e5 49 be 75 be e5 3d 89 60 4d be
       0.08244799 -0.1971655 0.112179674 -0.20056356
0002c0 73 f8 5a 3e 09 0f 73 bc 04 0a 98 be 0f 66 3d 3e
       0.21383838 -0.014835128 -0.2969514 0.18495964
0002d0 60 86 3b bd 19 20 17 be 73 b9 42 3d e5 b2 10 3e
       -0.045782447 -0.14758338 0.04754014 0.14130743
0002e0 3e d4 fa 3d d1 24 8e 3e 7c 8a 97 be 40 36 8c 3e
       0.12247513 0.27762464 -0.29597843 0.2738514
0002f0 6e 22 1a be 9e 49 4d be 12 50 92 bd af 43 a5 bd
       -0.15052196 -0.20047614 -0.071441785 -0.0806955
000300 69 73 62 3e c3 27 20 be 71 f5 0c be 1a 1a 54 be
       0.22114338 -0.15640168 -0.13765503 -0.20713082
000310 4c 4c d9 3e 63 a7 19 3e fc dc 89 3e 5c b5 6a be
       0.42441022 0.15005259 0.2692641 -0.22920746
000320 a0 de 4c bc 0e 79 df bd b5 32 04 be f6 a4 57 be
       -0.01250425 -0.10911761 -0.12909968 -0.21059021
000330 bc 35 f9 3d 6b f2 ca 3b 0a 47 1e 3d 9d ea 02 be
       0.12168452 0.0061934493 0.038641967 -0.1278481
000340 21 b4 24 3c e9 a2 4d bd 75 bb 1d 3e 79 4b 0d 3d
       0.010052712 -0.05020419 0.1540354 0.034495804
000350 02 58 27 be 98 97 13 be bc 06 a9 3d 88 31 71 3d
       -0.16342166 -0.14413297 0.082532376 0.058885127
000360 fc 8e fa bd ae 7c db bd 32 60 4e 3e eb a8 94 bd
       -0.12234303 -0.1071714 0.20153883 -0.07258781
000370 e2 9d fd bd e8 57 e7 bc 58 9d 4f 3e 99 b6 e0 bd
       -0.123836294 -0.02824016 0.20274866 -0.10972328
000380 24 08 22 be e7 07 e5 3d d3 41 36 be 18 69 4d bd
       -0.15823418 0.11183148 -0.17798547 -0.050149053
000390 94 b1 a0 3d 76 ef 6c bd bc 44 8b be 3b ec e6 bd
       0.0784637 -0.057845555 -0.27200878 -0.11275526
0003a0 4a 4f 95 bd e1 0c 0f 3d e0 b3 8f 3a bc d7 5b 3d
       -0.07290514 0.03492439 0.0010963641 0.053672537
0003b0 d9 9a 3a 3c d0 2d 4a be 4d b6 4d be 40 46 15 bc
       0.011389458 -0.19744039 -0.20089073 -0.009110987
0003c0 61 67 15 3e 93 57 5a 3e 81 93 34 be 3c 07 c1 bd
       0.14590217 0.2132247 -0.17634393 -0.09425208
0003d0 52 d3 ca 3c af fb 51 be 24 77 59 3e 52 e9 19 be
       0.024758969 -0.20506166 0.21236855 -0.15030411
0003e0 0a 64 92 3c ca 6a 8e be e5 2b 97 3e 8b da d3 bd
       0.017869968 -0.2781585 0.29525676 -0.10344418
0003f0 85 9c f5 3d f4 3b be 3d 0f 81 26 3d 04 24 60 be
       0.11992744 0.09288779 0.040650424 -0.21888739
