chainerrl/TicTacToe/result_10000/target_model.npz (npz, 56683 bytes, 8 tensors)

l3/b f4 [9]
000000 98 93 24 3d 8e 2e d2 3d 5d 1c 18 3e 02 e5 f5 3d
       0.04017982 0.10262786 0.1485457 0.120065704
000010 56 30 d7 3d 2d 36 ec bc d1 b9 0b 3e 82 ec bb 3d
       0.10507266 -0.028834427 0.13645102 0.0917597
000020 05 d0 e0 3d
       0.109771766

l0/b f4 [81]
000000 93 2e 68 3e 61 b4 bb 3d 07 e5 84 be 7b 54 83 be
       0.22674017 0.09165264 -0.25955984 -0.2565039
000010 fc f0 84 be ca 8b 9d be d6 6f b4 bd e4 67 9b be
       -0.25965106 -0.30770713 -0.088103935 -0.303527
000020 d1 48 50 bd 86 55 00 3e c2 f5 a3 bc d0 d7 06 be
       -0.050850693 0.12532625 -0.020014647 -0.13168263
000030 0d fb 0b 3d 10 c9 0d be f5 4a ea bd 29 2d de bd
       0.034174968 -0.1384623 -0.11440078 -0.10848457
000040 fb 19 40 be 31 1f 10 be 8b 01 13 be 1c 50 24 bd
       -0.18759911 -0.14074399 -0.14356057 -0.04011546
000050 5a 94 82 bd bb a8 2b bd d3 31 b1 be 35 00 08 be
       -0.06375952 -0.04190896 -0.34608325 -0.13281329
000060 90 7a 23 bd f0 46 1c be 5b c0 d6 bd e4 31 3e be
       -0.039911807 -0.15261436 -0.10485908 -0.1857372
000070 d3 dc 11 3c 6c 0c 23 be 1a f8 a4 3e ba e6 14 be
       0.008902746 -0.15922707 0.32220536 -0.1454114
000080 7c 81 08 bf a9 bb 59 3d 17 ff 40 be 9f 1b 19 be
       -0.5332258 0.053157482 -0.18847309 -0.14951943
000090 d1 7c d6 bd 03 c4 1a be a5 39 1d be 72 48 3a be
       -0.104730256 -0.15113835 -0.15354021 -0.18191698
0000a0 06 95 ac be b2 49 5e be b5 ef 5c be ad 83 bb bc
       -0.33707446 -0.217078 -0.21575816 -0.022889936
0000b0 ab 70 9a 3d fb 67 9d be ab 76 7b be 7a 16 fb bb
       0.07541021 -0.30743393 -0.24556987 -0.0076625915
0000c0 15 dd 22 be b3 bc 3d bd cd 9a 67 bb b1 8c 78 bd
       -0.15904649 -0.046322536 -0.0035340071 -0.06068105
0000d0 e5 63 80 be 71 1b b1 be ff e0 99 be 0e 95 5a be
       -0.25076213 -0.3459125 -0.3005447 -0.21345922
0000e0 d6 4b 1d be 22 79 ec bd 81 c1 c2 bd fd 0b 28 be
       -0.1536096 -0.11546542 -0.09509564 -0.16410823
0000f0 a3 9b 01 3d 51 e4 ee bd 04 f6 b7 bd 13 b7 4b be
       0.031642567 -0.11664642 -0.08982471 -0.19894056
000100 19 7b 77 bd d2 47 73 3d d9 cc 05 3e 6f d8 aa bd
       -0.06042013 0.059394665 0.13066424 -0.08342063
000110 68 7c 28 3e 37 25 d5 bd 29 13 aa bd 02 9e 4c 3d
       0.16453707 -0.10407489 -0.08304436 0.049955375
000120 87 e1 97 be 2f b3 9a be 2d 2c b5 bd 68 81 4a be
       -0.2966425 -0.3021483 -0.088463165 -0.19775927
000130 e4 3d 13 3c 10 63 5f be 4d e4 35 3e 2e 4d 94 3d
       0.008986924 -0.21815133 0.17762871 0.07241283
000140 23 1b 1d be
       -0.15342383

l2/W f4 [81, 81]
000000 ec e8 ae bd 1f 03 20 bd 1c da 88 3e 59 9f 9f bd
       -0.0854052 -0.039065477 0.26728904 -0.07794065
000010 55 a4 10 3d ae 75 2f be 57 cb 37 bd e1 b6 98 3d
       0.03531297 -0.17134735 -0.044871654 0.074567564
000020 a3 5a e5 3d 37 f0 74 be 62 c7 9c 3d bf 32 94 3c
       0.11198928 -0.2391976 0.07655217 0.018090604
000030 55 fd 2b bb f0 b1 83 3e 4d 6b 31 be 87 2a aa 3e
       -0.0026243527 0.25721693 -0.17326088 0.3323557
000040 d1 26 6a be cc 87 1b bc e7 9a 9d 3e d6 32 0a be
       -0.2286637 -0.009492826 0.30782244 -0.13495955
000050 03 d3 17 3e 41 4a 2c be 0f 0e cf 3d 7c 74 52 3e
       0.14826588 -0.168252 0.10110103 0.20552248
000060 4e 57 3b bd 15 36 82 be 64 e0 18 be 2a 33 14 be
       -0.045737557 -0.25431886 -0.14929348 -0.14472643
000070 1f da 28 be 4d c2 80 3d 77 e7 90 bd 27 82 6c 3e
       -0.16489457 0.0628706 -0.070753984 0.23096524
000080 1a 51 5b 3e a2 82 b8 3c ec 63 45 3d a7 33 f3 bc
       0.21417657 0.022523228 0.048190996 -0.029687716
000090 1a 8f b2 3c fb 8e df 3c 3b ba 51 3e 99 b0 56 bb
       0.021796752 0.027289858 0.20481198 -0.003275907
0000a0 1b 51 78 bd 53 9d 88 3e cd 0d 3b be 02 9a 37 bb
       -0.060624223 0.2668253 -0.18266983 -0.002801538
0000b0 c9 8f 8f bd e7 12 96 bd ab d4 5d be 21 9f 4a 3d
       -0.07009847 -0.07327824 -0.21663158 0.049468163
0000c0 a5 e5 c9 bc ac 07 4e bd c0 7c 4c be b8 8a c2 3d
       -0.024645636 -0.050300285 -0.19969463 0.09499115
0000d0 74 e4 88 be 28 18 21 be 7e 25 00 be 22 98 05 3e
       -0.26736796 -0.15731871 -0.12514302 0.13046315
0000e0 f8 4a bb 3c e0 2f 6f 3d 29 8d a3 3e bd d2 17 3d
       0.022862896 0.058395267 0.31943634 0.03706621
0000f0 c4 1c a7 be 4a aa 08 3e 28 ec ae bd df e5 e9 be
       -0.32639134 0.1334621 -0.08541137 -0.4568319
000100 b8 74 88 be ec 0b 6e 3e 57 92 50 3e e3 05 35 3e
       -0.2665155 0.23246735 0.20368324 0.17678027
000110 4b 33 c8 bb 5b 2a df 3d 55 51 90 3d 65 0d 90 3d
       -0.00610963 0.108967505 0.07046763 0.07033805
000120 ce 9e 94 bc 0b 34 38 3d 95 0a 18 3e 81 cf 95 bd
       -0.01814213 0.044971507 0.14847787 -0.07314969
000130 1b d1 3c 3c 59 62 2e be 65 aa 86 bd 68 98 a0 3e
       0.011524464 -0.17029704 -0.06575469 0.31366277
000140 66 a4 3f bb 69 e3 3d 3d 63 13 f6 bc e6 c7 84 bd
       -0.0029242276 0.046359453 -0.030038541 -0.0648344
000150 32 17 8c 3c 5c 2d b2 bd 6d fa 68 3c 03 df 17 3d
       0.017100904 -0.08700058 0.014219862 0.037077915
000160 fe 22 f7 bd 6b 6b 91 3d a8 26 9f bd b5 4d a7 be
       -0.12067221 0.071005665 -0.07771045 -0.32676473
000170 f3 41 b0 3d ec b2 51 3d 85 1f 1d be ab 72 86 bd
       0.08606329 0.051196024 -0.15344055 -0.0656484
000180 94 4a 6e bd b7 46 98 bd 4a 19 8e bd 3b f5 fd bd
       -0.058176592 -0.07435363 -0.06938417 -0.124002896
000190 c4 b2 1e be 61 f8 21 be 6d 2a 73 3d 30 22 bf bd
       -0.15497881 -0.15817405 0.059366632 -0.093326926
0001a0 ed b7 2c bd 0e d3 4f bd 25 5c 3e be 17 ea 8b 3d
       -0.042167593 -0.050738387 -0.18589838 0.068317585
0001b0 2b 19 00 be bc 07 1a bc 56 0f 41 3e 15 a3 3e bd
       -0.12509601 -0.009401258 0.18853506 -0.046542246
0001c0 a5 e7 60 bd cb ef 15 3b 31 17 64 be 4b 3a 4d 3e
       -0.054908413 0.0022878523 -0.22274472 0.20041768
0001d0 46 42 0a 3e 0a 9f 72 3e 85 00 51 be 7b 61 bf bc
       0.13501844 0.23693481 -0.20410354 -0.023361912
0001e0 0a 3c 9d 3c 2a 3d b5 bd 77 0c 04 3e 92 c9 df 3b
       0.019193668 -0.08849557 0.1289538 0.006829449
0001f0 cd eb f2 bd 56 3d 42 bd 43 e7 01 3e 0f 32 22 3e
       -0.11861382 -0.047421776 0.12685876 0.15839408
000200 93 0f 22 3d 6d 06 27 be 39 1c f4 3d 06 6d 76 bd
       0.039565634 -0.16311045 0.119194455 -0.060162567
000210 22 b0 a1 bd ed a5 54 bd 4e a9 db bd cd 69 c1 bd
       -0.07894923 -0.05191605 -0.10725652 -0.09444008
000220 a8 5c c4 3c 67 b2 14 3e ef 87 f8 bd ab e7 e1 bc
       0.023969963 0.1452118 -0.12135302 -0.027576288
000230 fe 8e dd ba 23 12 31 bc 47 81 ff bd fa 37 72 bd
       -0.0016903577 -0.010807547 -0.124758296 -0.059135415
000240 e7 3f 29 3e 4e 71 18 be 4d e5 ae bd 5f 0d 6f 3d
       0.16528283 -0.14886972 -0.085398294 0.05836236
000250 7a 6c c8 bd 72 de c0 bd 35 e6 8b bb 9e 33 d6 bd
       -0.09786315 -0.09417428 -0.004269386 -0.10459064
000260 9a c8 99 3d 07 82 40 be 3a 89 cb be a7 d3 09 3c
       0.07508965 -0.18799601 -0.39753133 0.008412278
000270 c9 a6 19 3d 84 00 61 3c 21 bd 95 3e e8 b9 0a 3e
       0.037512574 0.013733033 0.29245856 0.1354748
000280 c7 50 6a 3d 6d 09 87 bd 9f 21 b8 bd 2e 3f 01 3e
       0.05720594 -0.06593595 -0.08990788 0.12621757
000290 b4 3e 2d bd 27 45 25 be 3f e8 8a be 14 d3 14 bd
       -0.042296126 -0.16139661 -0.27130315 -0.036334112
0002a0 07 49 6c be 84 fe 95 3c 08 d4 80 be 55 4a e9 bd
       -0.23074733 0.01830984 -0.25161767 -0.11391131
0002b0 90 90 9c 3c 8a 8d 14 3e 08 56 59 be c7 f3 63 3d
       0.019111902 0.14507118 -0.21224225 0.055652406
0002c0 53 21 b6 bc 67 f5 b9 bd 9f 05 25 be 56 c1 00 3d
       -0.022232687 -0.0908001 -0.16115426 0.03143438
0002d0 3d f0 47 3d f1 f2 20 be f7 f3 c7 be ba dd 22 be
       0.048813093 -0.15717675 -0.39053318 -0.15904894
0002e0 ef 05 53 be b6 dc c6 bd 83 23 ba 3d f1 61 5d bd
       -0.20607732 -0.09710066 0.090888046 -0.054048482
0002f0 3f 5f 3c be 7e ea 51 3b 30 be 1c bd 40 7f 0e 3d
       -0.18395709 0.0032030637 -0.038267314 0.034789324
000300 35 70 d9 3d 23 26 90 3e e9 9c bd bc 6d e3 59 3d
       0.10617105 0.28154096 -0.02314611 0.053195406
000310 a5 8e a8 bb c1 a3 bb 3c 13 5c 58 3e 3a 30 02 bd
       -0.0051439577 0.022905232 0.21128874 -0.031784274
000320 71 85 11 3e 5d 49 ae bd b8 7a 8e bc af 22 39 3d
       0.1421106 -0.08510087 -0.017392501 0.045199092
000330 2c 09 6c be 1b 7a f7 bc da ab 50 bd fa 91 d6 bd
       -0.23050374 -0.030209592 -0.05094514 -0.104770616
000340 09 a1 1b be e3 3c 16 be 4e 35 c7 bd b1 af ab bd
       -0.15198149 -0.14671664 -0.09726964 -0.0838312
000350 df f3 17 3e a9 76 8f 3e 67 c8 2f be 07 34 98 be
       0.14839123 0.28020218 -0.17166291 -0.29727194
000360 2d 30 88 bd 85 64 d5 3e 6a 58 4d bd 0d 16 6f bd
       -0.06649814 0.41678253 -0.050133146 -0.05837064
000370 eb 4e ad bb ce 89 0c 3e b9 19 3d be 26 5b 3e 3e
       -0.005288949 0.13724443 -0.18466844 0.18589458
000380 e7 12 12 3e 00 9a 33 be fa 0b be b8 2a 51 b2 3d
       0.14265023 -0.17539215 -9.062137e-05 0.08706887
000390 e3 52 44 3c 55 d1 80 3d 85 19 dd bd ef b4 f4 3d
       0.011982652 0.06289927 -0.10795883 0.11948573
0003a0 48 73 e7 bc 7b d1 0c be 2d c3 26 3e f6 bd 93 3d
       -0.028253213 -0.13751785 0.16285391 0.072139665
0003b0 8d 6d 18 bd 7d 82 2e bd 91 17 3a bd ba 2b 92 3b
       -0.03721385 -0.042604912 -0.04543263 0.004460779
0003c0 91 a5 bf bd 4f d5 21 be 7b 16 4b bd cc e2 36 be
       -0.09357751 -0.15804027 -0.049581986 -0.17859954
0003d0 d1 cd 1e 3e 6f 56 37 3e 0b 84 b6 3b 60 0c fb 3c
       0.155082 0.17904066 0.00556994 0.03064555
0003e0 87 54 19 3b 7a d2 33 3d 39 81 18 be c8 cf 82 3e
       0.002339633 0.043901898 -0.14893045 0.2554915
0003f0 25 07 80 3e 3e 8e 7b 3e e8 b7 b1 bd b5 b5 13 3d
       0.2500545 0.2456598 -0.086776555 0.03606196

l3/W f4 [9, 81]
000000 47 e3 00 3e d9 46 2b 3e 25 82 00 3d b3 66 72 be
       0.125867 0.16726245 0.031374115 -0.23671989
000010 39 91 98 ba a1 20 0b bc da 9d 8a bd e8 84 c3 3e
       -0.0011639959 -0.008491666 -0.06768389 0.38187337
000020 3b c4 e1 bd 05 d6 be 3d 74 e1 ad 3d fa 24 f5 3c
       -0.11023756 0.09318165 0.084902674 0.029924858
000030 88 95 80 be a1 12 aa bd 32 53 3e 3e 2b a9 b0 be
       -0.25114083 -0.083043344 0.18586424 -0.34504065
000040 33 8a e6 be ce 09 51 be e0 ec 75 3e b1 4f 73 3d
       -0.45027313 -0.20413896 0.24016142 0.05940217
000050 29 c1 27 be 54 a3 81 3e d7 e9 8e 3d 21 20 8c 3d
       -0.16382279 0.25319922 0.06978195 0.068420656
000060 47 a0 70 be 94 d8 06 3c 09 b1 01 bc ef ec 46 bd
       -0.23498641 0.008230347 -0.007915744 -0.0485658
000070 e7 45 36 be 23 1c b6 be ee c8 9d bc ef 8d 3f bb
       -0.17800103 -0.35568342 -0.01926085 -0.0029228886
000080 b1 b2 86 3e 3c a4 06 3e 77 8d b8 be ec bb 07 bd
       0.26308206 0.13148588 -0.3604543 -0.0331382
000090 35 88 48 3b e9 90 cf 3d c8 c6 7a 3e 8a 55 03 3c
       0.0030598764 0.10135061 0.24489892 0.008016
0000a0 97 52 24 bd e8 ff 19 3e 2f db 90 3c 8c 51 5f 3e
       -0.040117826 0.15039027 0.01768264 0.21808451
0000b0 e5 3c f0 be a2 38 5f be 8c e6 19 3e 26 3f 8d be
       -0.4692146 -0.21798947 0.15029353 -0.2758724
0000c0 d4 8c 9f be 66 e8 79 3d 4d fa db bd 65 de c1 3d
       -0.3116213 0.061012648 -0.107411005 0.094662465
0000d0 2e 33 de 3d ef dd 4d be 43 c9 b0 bb de 9c 08 3b
       0.108496055 -0.20104192 -0.005395086 0.0020845453
0000e0 88 72 54 be 60 d0 69 3e e6 6d 85 3e 59 1e 8c 3e
       -0.20746815 0.22833395 0.26060408 0.27366903
0000f0 e0 99 41 be cc db 34 3e b4 33 f4 3c eb d2 e0 3d
       -0.18906355 0.17661971 0.02980981 0.109777294
000100 e3 16 28 3b 36 71 ae be 82 ad 8c be 9b 7f 99 bd
       0.0025648407 -0.34070748 -0.27476126 -0.07495042
000110 89 e0 0d bf ab 37 28 3e ab dd f8 3d b2 08 5f be
       -0.5542074 0.16427486 0.12151655 -0.21780661
000120 b5 f9 60 be 02 5d 2c be 95 a1 01 be 26 37 2e 3e
       -0.21970256 -0.16832355 -0.12659295 0.17013225
000130 df 36 2c be 60 06 b3 3d a8 8f 71 bc ce 97 36 be
       -0.16817807 0.0874145 -0.014743723 -0.17831346
000140 d9 96 d8 be 57 83 9e 3d 50 ed 5f 3d e0 e9 13 be
       -0.42302588 0.07739895 0.05466968 -0.14444685
000150 46 23 7e 3e 59 bc 39 3e 1e f2 51 bc 89 6d 94 3d
       0.24818143 0.18138255 -0.012814073 0.07247455
000160 51 a6 f1 bd 34 d1 7d bd 00 e6 0f bd 7b 5a 2d 3e
       -0.117993005 -0.06196709 -0.035131454 0.16929047
000170 60 c8 06 bf a7 91 8d bd fd 17 3b be a1 e4 13 3e
       -0.526495 -0.069125466 -0.1827087 0.14442684
000180 17 bd 6f be f6 13 b5 be aa 1d a6 3d c2 6b 28 be
       -0.23411976 -0.3536679 0.08111127 -0.16447356
000190 c7 45 5d 3e 56 94 b1 bd 2b ff a4 bd 69 5f db bd
       0.21608649 -0.08670871 -0.08056482 -0.107115574
0001a0 18 a8 41 bd e0 24 47 be f8 e9 44 3d 85 c2 2c 3e
       -0.047279447 -0.1944766 0.048074692 0.16871078
0001b0 1f a5 8e 3e 6e 87 bf bd a1 3c ae bd 32 63 f6 3c
       0.27860352 -0.09352003 -0.08507658 0.030076597
0001c0 70 ef f4 bd 0b 8d 4d bd e2 34 eb bd f4 b6 89 be
       -0.119597316 -0.050183337 -0.11484696 -0.26897395
0001d0 8e 6e 32 be a3 7e 4a be a2 a1 f5 3d 14 36 d4 bd
       -0.17424986 -0.1977487 0.1199372 -0.10361877
0001e0 fb dd 7d bd 2d d3 22 3e 1c db 40 be ae 86 2c 3d
       -0.061979275 0.1590087 -0.18833584 0.042120628
0001f0 6d 8f c1 3d 11 a8 6d be 2a d7 8e 3c ed 34 c8 3c
       0.094511844 -0.23208643 0.017436583 0.0244393
000200 67 f3 ba 3d ba 31 f2 bd c0 70 ae 3e 9d 42 1e be
       0.091284566 -0.11825891 0.34070396 -0.15455098
000210 b6 74 7d 3e ed 40 7d be 74 52 3d 3d fd 59 b4 be
       0.24751553 -0.24731798 0.04622121 -0.35224906
000220 e7 92 c3 3c c9 66 83 be 68 fa 58 be b2 e8 0d bd
       0.02387376 -0.25664356 -0.21189272 -0.034645744
000230 1c d5 03 3e c8 02 5a bd c6 a5 4c be 9d 28 2b 3e
       0.12874264 -0.05322531 -0.19985113 0.16714711
000240 b5 58 86 bd 6f bf ce be e1 1e d3 bd 9b 8b 5d 3c
       -0.06559888 -0.40380427 -0.10308624 0.013522054
000250 d5 d4 4a 3e 55 25 0e be 15 c1 35 3d 07 d7 0e 3e
       0.19807751 -0.13881429 0.04437359 0.13949214
000260 6b dc ea bd 15 62 2e 3d bf c3 d9 bd 8f e4 e9 3e
       -0.11467823 0.042574007 -0.10633039 0.4568219
000270 df c1 96 be 0a 5a 28 3e e7 43 48 be 16 97 74 bb
       -0.29444787 0.16440597 -0.19557153 -0.00373215
000280 2a 62 c6 bd 74 28 34 be 5a 5e 77 3e 5c ba 10 be
       -0.09686692 -0.17593557 0.24157086 -0.1413359
000290 fe 6d a5 be 6a 4f a2 3d 4c 7c 08 bf d7 8d 4d 3d
       -0.3231048 0.07925303 -0.5331466 0.050184097
0002a0 b1 e8 9f 3d 3e 1d b5 3e 47 06 c3 be 46 a4 79 3e
       0.07808054 0.35373873 -0.38090727 0.24379072
0002b0 b0 32 85 3c 24 1d 53 3e bc b1 f2 bd 69 5c 57 be
       0.016259521 0.20616585 -0.118503064 -0.21031345
0002c0 f5 1b 75 3d 8c 91 28 3e 79 5d 37 3d 6f b5 d6 bd
       0.059841115 0.16461772 0.044766877 -0.104838245
0002d0 3b 3d 8c bd e6 e6 1d bd 97 9b 0a 3d 7e 4a de 3d
       -0.06847616 -0.03855028 0.03383979 0.10854052
0002e0 64 bc 4c 3e 2d 99 3a be 3d f2 99 3d e6 8b c3 3d
       0.1999374 -0.18222494 0.075169064 0.09548168
0002f0 c7 41 cf 3d 58 5c 1e be 04 4d 49 bd 72 2d 81 3d
       0.10119968 -0.15464914 -0.049145713 0.06307496
000300 b7 94 4e be b1 6d a2 bc 11 3b 98 bd 79 70 38 3d
       -0.20173918 -0.019827696 -0.07433141 0.045029137
000310 e8 69 01 3e e2 ea dc b9 9a 5d 18 3d 9c 07 10 3e
       0.12638056 -0.0004213667 0.03719864 0.14065403
000320 c2 98 3f bd 03 4d 80 be 85 8b 53 be a5 78 e9 3d
       -0.04677654 -0.25058755 -0.20658691 0.11399964
000330 9b eb c1 bd 18 32 f7 be 49 c9 8d 3d bd d6 f8 bd
       -0.09468766 -0.48280406 0.06923158 -0.12150333
000340 b8 67 40 be e8 52 5d 3b 8e 22 5d bc fa 07 75 bd
       -0.18789566 0.003377134 -0.013497008 -0.05982206
000350 b4 1d 29 be 82 67 99 be 5e 2e 61 be c2 ff 47 be
       -0.16515237 -0.29961783 -0.21990344 -0.19531158
000360 fe 0b 24 be b1 16 dc bd d4 07 bd 3d 11 28 a5 be
       -0.160202 -0.107465155 0.09230009 -0.3225713
000370 b0 c9 4d bd 1e 09 ed bd a6 53 2f 3d 33 f4 29 bd
       -0.050241172 -0.115740046 0.042804383 -0.041492652
000380 80 de 94 bb 2b 08 fb 3c 06 56 d0 be 37 e4 59 be
       -0.0045431256 0.030643543 -0.4069063 -0.21278463
000390 ed f0 35 be a1 bf d6 be 77 19 21 be 5d 1b 1d bd
       -0.17767687 -0.41943076 -0.1573237 -0.038356174
0003a0 4f 12 c4 3e ac d0 fc 3d dc 07 b7 3e 25 17 48 3d
       0.38295218 0.123444885 0.35748184 0.048850197
0003b0 74 5a 29 3e 69 60 80 be f5 d5 3a be b8 28 40 bd
       0.16538411 -0.25073555 -0.1824568 -0.046913832
0003c0 58 78 58 be 9a 87 09 bf 3b bd a9 be 3d c4 0a bd
       -0.21139657 -0.53722537 -0.33152184 -0.033878554
0003d0 d1 31 6a be 1c 89 8f 3d ed bf 84 bd b9 bf 00 be
       -0.22870566 0.070085734 -0.064819194 -0.12573136
0003e0 6c f7 71 be a0 07 22 be 2d 02 bc 3d 49 9c 96 3d
       -0.2362954 -0.15823221 0.091801025 0.07354028
0003f0 f2 b0 16 be 42 6c 81 be 8a c3 e7 3c 22 0e bb be
       -0.14715937 -0.25277907 0.028291482 -0.3653422

l2/b f4 [81]
000000 3d 53 19 3c 12 63 06 be 36 b5 53 be ae 83 d7 bb
       0.009358224 -0.1312373 -0.20674595 -0.0065769767
000010 73 83 ad bd 5a c1 2d 3e 9e 10 21 be 06 11 41 3e
       -0.084723376 0.16968289 -0.15728995 0.1885415
000020 3e 59 5e be 0e 94 0e 3c d6 1e 83 bd 44 4a 3d bd
       -0.2171373 0.008702291 -0.06402366 -0.046213403
000030 ca 91 84 be 78 3b 80 bd 09 94 8d bd b3 0e 86 3c
       -0.25892478 -0.06261343 -0.06913001 0.016364431
000040 d5 2b 16 be d3 79 60 bd bf c6 fe bb d5 a7 d8 3d
       -0.14665158 -0.05480368 -0.007775157 0.105788864
000050 08 c5 06 3e 78 8c d2 3d c3 ae 5d 3c 69 29 3d be
       0.13161099 0.102806985 0.013530436 -0.18472828
000060 6b 49 97 bd 12 23 3a be d5 20 15 bd c5 4b a7 3c
       -0.0738705 -0.18177441 -0.036408264 0.020421872
000070 82 c8 70 bd c3 17 c5 bd 4b a2 58 bd 05 d0 aa 39
       -0.05878497 -0.09623673 -0.05288915 0.00032579913
000080 8a 47 d7 bb 3f 27 c5 3d bc 60 d8 bd 74 4a e8 3c
       -0.0065698074 0.09626626 -0.105653256 0.028355815
000090 72 c1 a7 bc cd e7 24 3c ec 94 12 3e 44 f4 80 bd
       -0.020477984 0.010065031 0.14314622 -0.0629659
0000a0 0c 08 20 be fd fd ed 3c 0f 7c 0a bd 78 c4 bb bd
       -0.1562807 0.029051775 -0.033809718 -0.09168333
0000b0 3d cd 00 3d 9c 9a c1 bd 77 2a 33 be 79 ff 8e bd
       0.03144573 -0.094533175 -0.17496668 -0.06982321
0000c0 09 04 6c be ec cd 07 3e de bc 47 bd f2 8f 1e be
       -0.23048414 0.13262147 -0.048764102 -0.15484598
0000d0 7e 32 49 3d ed d6 26 be 25 e6 93 bd a4 6d 83 bc
       0.04912042 -0.16292925 -0.07221631 -0.016043492
0000e0 fe dd c1 bd 44 4a 11 be ea de 9d bd de 51 d6 bd
       -0.0946617 -0.14188486 -0.07708533 -0.10464834
0000f0 ef e2 34 bd 21 86 c4 bd 03 a2 67 3e 78 45 52 be
       -0.044161733 -0.095958956 0.22620396 -0.20534313
000100 dc cf 46 be 8c c2 5c be 33 41 89 bd 87 31 11 be
       -0.1941523 -0.21558589 -0.06701889 -0.1417905
000110 fd 28 58 be fd e6 43 3e 8c a8 53 3e 7f 74 35 be
       -0.21109386 0.19131084 0.20669764 -0.17720221
000120 cb 65 b0 bd 80 9e 60 be c6 a2 8f 3d 85 df 5c be
       -0.086131655 -0.21935463 0.070134684 -0.21569641
000130 7e 77 88 bd fb 1a 96 be d0 3c 21 be 34 8c 64 bc
       -0.06663416 -0.2931746 -0.15745854 -0.013949443
000140 31 a2 9b be
       -0.3039718

l1/b f4 [81]
000000 77 e3 02 bb 82 d9 9d be 5e 65 b9 3d f0 ca ea bd
       -0.0019972005 -0.30830008 0.090525374 -0.114644885
000010 f1 80 44 3e a8 b7 80 be c4 6d 8c bd be 08 3f be
       0.19189812 -0.2514012 -0.06856874 -0.18655679
000020 2c be 1b bb 3f d2 50 3d 52 07 f1 3d 6a 85 84 bd
       -0.0023764474 0.050981756 0.11768974 -0.06470759
000030 9e b5 25 be d3 1f 98 be 84 82 e8 bd ac 8d 47 3d
       -0.16182563 -0.2971178 -0.11353019 0.048719093
000040 76 8c f5 bd b9 a9 b0 3d 80 a3 87 bd bc d4 60 be
       -0.119896814 0.08626122 -0.06622982 -0.21956152
000050 6b 09 0b be 2a 23 8d 3e 8a eb 1c bd 81 f8 51 be
       -0.13577811 0.2756589 -0.038310565 -0.20504953
000060 a1 cb d9 bd f1 24 35 be a3 88 80 be 59 92 a6 bd
       -0.10634542 -0.17689873 -0.25104246 -0.08133382
000070 ff 00 60 3c fa 1a a3 bd 50 42 22 be 32 69 80 be
       0.0136721125 -0.0796413 -0.15845609 -0.25080258
000080 5a c6 75 3c f4 cd 96 bd 78 1d 71 be 41 ba 62 be
       0.015000904 -0.07363501 -0.23546398 -0.22141363
000090 86 4f 99 be c4 f2 c3 bd af b8 97 bd 6a 22 4c be
       -0.29943484 -0.09567788 -0.074082725 -0.19935003
0000a0 ca 1f fd bd 6c b6 71 be 46 75 f8 bd 61 9d 02 bd
       -0.12359579 -0.23604745 -0.12131743 -0.03188837
0000b0 c9 f6 35 be 59 78 3a 3d 80 59 1e be c1 a0 2a be
       -0.17769922 0.04552493 -0.15463829 -0.16662885
0000c0 3d 52 a8 bd 5e 19 fa bd d5 dc 3d be e5 43 30 bd
       -0.08218811 -0.1221187 -0.18541272 -0.0430335
0000d0 73 6e 49 3d c6 32 b2 3e 2a b0 b3 bd c5 7d 9e be
       0.0491776 0.34804362 -0.08773835 -0.3095533
0000e0 79 88 0d be ea 76 04 3e 73 8c 59 3c 94 9e 4a 3e
       -0.13821591 0.12935987 0.013278115 0.19787055
0000f0 15 c6 95 3e 97 bd 41 3d 32 d9 83 bd 36 99 3d 3e
       0.29252687 0.047299948 -0.06437911 0.18515477
000100 71 12 13 be 87 70 29 3d 9c 2b 56 3e fc 7c 55 bd
       -0.14362504 0.04136708 0.20915073 -0.052121148
000110 34 6b 1e be 51 55 3c be cf 39 96 bd 28 df 17 bd
       -0.15470582 -0.1839192 -0.07335245 -0.037078053
000120 77 e7 e8 3d 00 f4 b7 3c ab a2 f7 bd 83 46 1b be
       0.113722734 0.022455215 -0.12091573 -0.15163617
000130 7e 4e 97 be 02 fb bb 3b 61 c0 41 be ad e5 ee bd
       -0.29552072 0.0057367096 -0.18921043 -0.11664901
000140 61 6b 3c 3c
       0.0115002105

l0/W f4 [81, 9]
000000 38 82 6d bd 7f 28 c0 be 65 ab 08 be 6d b9 b3 bd
       -0.057985514 -0.37530896 -0.13346632 -0.087756015
000010 f2 18 13 3f ce d4 27 3e bd 32 10 3f 48 e3 e5 3d
       0.5745994 0.16389772 0.5632742 0.11224991
000020 c9 fa 19 3e 2a 96 b8 3e 30 58 19 3f dc 0d 50 3f
       0.15037073 0.36052066 0.5990019 0.8127115
000030 27 de f6 be ac d3 59 3d 01 96 86 be 13 92 b8 bd
       -0.48216364 0.05318038 -0.2628632 -0.090122364
000040 4c 43 93 3e ec c6 fc 3e e3 3b 9d bd 73 83 73 3d
       0.2876228 0.49370515 -0.07677438 0.05945153
000050 cf 7b 6a bf 4d 6e fc 3d 6c d9 0b bf a9 ea da 3e
       -0.91595167 0.12325726 -0.54628634 0.42757156
000060 8b b5 a6 bd d2 38 d9 be 80 50 36 be 7b 13 a0 be
       -0.08140095 -0.42426163 -0.17804146 -0.31264862
000070 a9 f6 f0 3e 84 b9 c2 bd 90 68 06 be fe 69 9e 3e
       0.47063187 -0.095080405 -0.13125825 0.3094024
000080 05 64 17 bf c4 59 c9 bd 9c 0a 4b 3f a6 ed 22 3d
       -0.5913699 -0.098315746 0.79313064 0.03977742
000090 a1 de 59 3f 34 7e 89 be b3 a6 d7 3d e0 13 f4 be
       0.8510533 -0.26854098 0.10529842 -0.47671413
0000a0 7c e7 24 3f 9a 42 5d be 70 a4 76 3d 01 fe 56 3c
       0.6441572 -0.21607438 0.060215414 0.013122083
0000b0 97 34 8e be b2 f9 ec 3d 63 b7 33 3e 54 ba 7c 3d
       -0.27774498 0.11571063 0.17550425 0.061701134
0000c0 29 08 93 be e9 a2 68 be 4a 3e 2c be ef 8d 89 3d
       -0.28717163 -0.22718395 -0.16820636 0.06716525
0000d0 fe a7 79 bf 1b a1 2d 3e c1 55 18 3f 57 61 6f 3f
       -0.9752196 0.16955988 0.5950585 0.93507904
0000e0 93 a1 46 3e 80 31 95 bc f3 d9 94 be 8f 94 ad be
       0.19397573 -0.01821208 -0.29072532 -0.33902404
0000f0 51 7c 43 3e b5 38 44 be 5a 25 91 3e 42 b2 3a 3e
       0.19090392 -0.19162257 0.2834881 0.18232062
000100 dd 6d 8e 3e 95 33 d9 be 9c 94 3c 3d 78 82 e8 3e
       0.27818194 -0.42422166 0.046040162 0.4541204
000110 01 02 70 be 0b 0e f7 bd d1 a5 84 3e 4a f3 ba be
       -0.23438264 -0.12063225 0.25907758 -0.3651374
000120 29 7e b2 3c 9d 5d 0a be 06 7e 01 bf 85 e8 03 3e
       0.021788673 -0.13512273 -0.5058292 0.12881668
000130 bc 10 b0 3e 3f e6 da be 5f eb f9 3e 93 55 c7 3e
       0.34387767 -0.4275379 0.48812386 0.38932475
000140 06 0c 07 3f 09 e5 9b 3e f7 d4 9e bd 53 99 d2 3e
       0.5275272 0.30448177 -0.077554636 0.41132602
000150 55 56 dd 3e c3 1f 4e be 7b 12 22 3e 4f f7 dd 3c
       0.4322993 -0.20129304 0.15827362 0.027095465
000160 f0 14 26 bf fa 9c c5 3e 1a bb 0a 3f 94 58 93 3e
       -0.648757 0.38596326 0.54191744 0.28778517
000170 4e 7d ea be c9 88 bd bd ff 05 9c 3e 63 41 88 3d
       -0.45798725 -0.09254605 0.30473325 0.066530965
000180 a4 a0 03 be c6 98 85 be 84 cf d5 be 90 45 48 be
       -0.12854248 -0.2609312 -0.41759884 -0.19557786
000190 c3 b4 54 3b e9 e4 05 be 1d 0c b8 be 57 3c 8b 3e
       0.0032456375 -0.13075604 -0.35946742 0.27194473
0001a0 e8 f5 d5 bc 37 21 cb be 3f 68 12 3e 53 4c 99 bd
       -0.026118234 -0.39673778 0.14297579 -0.07485261
0001b0 bb 2a 29 3f ed ec 02 3f 97 13 cd 3e f4 1f ab 3c
       0.66080827 0.5114277 0.40054008 0.02088926
0001c0 d5 b7 60 3f 10 d7 b5 bd ca 69 ab 3e 3f 93 cb 3d
       0.87780505 -0.088789105 0.33479148 0.09940194
0001d0 b6 9b 7f 3e c2 d7 bf bd 02 ea 38 3f 06 77 26 3f
       0.24961743 -0.093673244 0.7223207 0.65025365
0001e0 53 a0 02 3e 25 0c 25 3e 3c b5 75 3e 7c 60 87 3d
       0.12756471 0.16117914 0.23994917 0.066102
0001f0 80 b0 a6 be fd ca b7 3e b1 c5 d7 3e 23 12 22 3f
       -0.32556534 0.35897055 0.42143014 0.63308924
000200 f2 a0 db 3d 36 b8 c1 be b1 90 83 3e 7d fe 3d 3d
       0.10724057 -0.37835854 0.25696328 0.046385277
000210 19 4d 93 bc 9a 69 cb bd 15 44 e7 be cb 9a 04 3f
       -0.017981099 -0.09932251 -0.4516913 0.51798695
000220 7b 23 19 bf b0 61 17 3e bf db 30 3f f1 b9 99 3e
       -0.59819764 0.14783359 0.69085306 0.30024675
000230 4b d5 a0 be ec 77 1c 3e 1f 67 8d be 99 d4 fa be
       -0.3141273 0.15280122 -0.27617738 -0.48990324
000240 d7 16 a7 be 3a 8f d3 3e f0 c1 5a be 7c 2e 23 3d
       -0.32634613 0.4132021 -0.21363044 0.039839253
000250 e9 fc f5 bc a4 bb ca bd 99 05 1c bf 23 ab 59 bf
       -0.030027824 -0.09899071 -0.6094604 -0.8502676
000260 41 84 0f bf 34 22 67 be 88 1a d0 bd 55 54 27 3e
       -0.5606118 -0.22571641 -0.101613104 0.16340764
000270 58 04 c8 3e 0e 4c b9 be 98 7f a2 3e d6 30 8b 3e
       0.39065814 -0.36190838 0.3173797 0.27185696
000280 ad aa 17 3f 41 6c 17 3e 2f 63 3b be 26 9d 24 3f
       0.59244806 0.1478739 -0.18299554 0.6430229
000290 55 f3 81 3e 95 1f 85 bd 33 90 ef be 7e d7 76 3e
       0.2538096 -0.065001644 -0.46789703 0.24105641
0002a0 4a 0d 98 bc 91 3e 1a be ae d9 da be d5 1c 9f 3d
       -0.018561024 -0.1506293 -0.427442 0.07769171
0002b0 ff a2 a8 be 37 45 6d be d0 11 b3 3e 2a d9 30 bd
       -0.32936856 -0.23170935 0.34974527 -0.043175854
0002c0 65 ab 39 bf 93 7a a9 be f6 5e db be 76 10 74 3e
       -0.7252715 -0.3310133 -0.42845887 0.23834404
0002d0 f3 c3 3f 3f 3f 7a a5 3e 81 92 34 be 49 3c 12 bd
       0.7490837 0.3231983 -0.17634012 -0.035702024
0002e0 5e 92 c3 3e 85 30 3d be 00 2a 2d be 65 a1 20 3b
       0.38197607 -0.1847554 -0.16910553 0.002451026
0002f0 fa 44 99 3e 20 6a 01 be 53 7f a3 3d d8 07 12 3f
       0.29935437 -0.1263814 0.079832695 0.5704322
000300 14 61 31 3e 57 ee ea bd 4d 01 02 3f dc ce f4 be
       0.17322189 -0.11471241 0.50783235 -0.4781407
000310 36 1f c4 3e e9 80 5d 3d 66 fa 9f be 94 42 f9 3d
       0.38305062 0.054078016 -0.31245726 0.12170902
000320 e6 7b 65 3e e5 db 5f bf 79 02 03 3e 9a c1 a6 3e
       0.22410545 -0.8744491 0.12793912 0.3256958
000330 39 f3 45 be f4 5f c7 3c f8 11 b9 3e ff a6 a0 bd
       -0.19331063 0.024337746 0.36146522 -0.07844352
000340 a8 68 a1 be 60 2e e4 bd 96 3e 9d be 63 50 c6 be
       -0.3152516 -0.11141658 -0.30711812 -0.38733205
000350 38 fc 93 3e 68 e0 61 be 47 34 aa 3d 63 cb c0 be
       0.28903365 -0.2205826 0.08310752 -0.37655172
000360 aa f8 18 bf a8 53 f0 be cc 66 1d bf 28 7d 62 be
       -0.5975443 -0.46938825 -0.6148498 -0.22118056
000370 31 37 59 3e f3 bb 09 3e 53 16 70 bd 95 51 85 be
       0.2121246 0.13450603 -0.05861504 -0.26038805
000380 16 47 19 3e bb f1 9e be 2b 68 a8 3e 57 96 89 be
       0.14968523 -0.310438 0.32891974 -0.26872513
000390 6f a0 d4 3d 55 e1 e3 3e 89 62 7a 3d ad 39 64 3e
       0.10382163 0.44507852 0.061129127 0.22287627
0003a0 82 ee df 3d b9 2d 32 be 49 d9 e8 bd 29 21 f7 3c
       0.10934164 -0.17400254 -0.11369569 0.03016718
0003b0 14 db 1c be fd a0 29 be 10 dc 21 be 79 57 df bd
       -0.15317947 -0.16565318 -0.15806603 -0.10905356
0003c0 4a 43 2f 3f fb 31 57 be db 64 86 be 21 c1 03 bf
       0.6846205 -0.2101516 -0.26248822 -0.51466566
0003d0 3a d0 2b be d9 64 ef 3d 8b dd 11 be 8d 27 ba be
       -0.16778651 0.11689157 -0.14244668 -0.363583
0003e0 db 04 2e be fc 4c 6b 3d 37 25 82 3f d6 fa 71 be
       -0.1699404 0.057446465 1.0167607 -0.23630843
0003f0 17 32 ed 3d 54 19 13 bd ba 6d a1 3e 21 82 58 3f
       0.115818195 -0.035912827 0.31529027 0.8457356

l1/W f4 [81, 81]
000000 ac 5c 39 3e 22 48 b3 3c a5 eb bc 3d b6 f1 3a 3e
       0.18101758 0.021884982 0.09224633 0.18256268
000010 ae 5f 9d be 0f 2e c5 bd 4d 3a bd 3e 56 8f c0 bd
       -0.3073706 -0.096279256 0.36958542 -0.09402339
000020 1e 57 03 be 22 62 df 3d df a1 20 be 33 d6 c3 3a
       -0.12826201 0.10907389 -0.15686749 0.0014941156
000030 df 61 82 3e 85 ab 76 3e c9 d9 de 3d 8b 87 fe bd
       0.25465295 0.24088867 0.10881383 -0.124281965
000040 dd 6d 0f 3d 45 1c 12 3e a9 6a 0e 3e 76 13 4a bc
       0.035016883 0.14268596 0.13907875 -0.012333741
000050 8d a7 19 bd e5 92 29 be 2c 93 18 3d e0 4a 4d bb
       -0.037513305 -0.16559942 0.03724973 -0.0031325147
000060 8b 1a 02 be b5 cf e5 3d 68 00 d8 3c 41 46 8d bd
       -0.12705438 0.112212576 0.026367381 -0.068981655
000070 a6 99 e5 3b 79 d6 ce 3d c1 a6 82 3b ab 51 8d 3b
       0.0070068417 0.10099501 0.003987164 0.004312714
000080 f8 3b d9 bb 04 99 5d be b5 da ce 3c 9c 10 41 be
       -0.0066294633 -0.21640402 0.025250772 -0.18853992
000090 7d 21 99 bd f3 76 a4 3b e4 21 98 3d 1b 25 60 be
       -0.074770905 0.0050190627 0.07428339 -0.21889155
0000a0 87 79 f6 3d cc da eb 3b 8d ce 3c be 9c 1b 68 bd
       0.12034898 0.0071977135 -0.18438168 -0.056666955
0000b0 76 a7 41 3d 51 99 ae be ea 55 2e 3e b1 da 8f bd
       0.047278844 -0.34101346 0.17024961 -0.07024134
0000c0 ba d8 2d be 33 b5 2f be 2b 29 8d 3d a6 49 65 3e
       -0.16977206 -0.17158966 0.06892618 0.22391376
0000d0 33 b8 da bc 2c 4f c9 3d b1 fc a2 3c f7 2d 3e be
       -0.026699161 0.09829554 0.019895883 -0.18572222
0000e0 42 0c 1e be 2d 1b 49 3c 7b 63 8d be 7f 8f f8 3d
       -0.15434363 0.012274546 -0.2761496 0.12136745
0000f0 09 60 87 bd be 40 98 bc 7a fd bb 3d de c9 5b be
       -0.06610114 -0.018585559 0.09179206 -0.21463725
000100 9a 97 2c be 33 97 18 be ae cd 32 be 99 95 d3 bd
       -0.16854706 -0.14901428 -0.17461273 -0.10331268
000110 9d 83 16 be 76 d8 eb bb 74 23 60 be 8a b3 09 be
       -0.14698644 -0.007197435 -0.21888524 -0.13447395
000120 93 75 61 be 9e ac b2 bd 5c 06 dc 3c 58 a3 03 bd
       -0.22017507 -0.0872433 0.026858501 -0.0321382
000130 cf e1 87 be c5 61 a7 3d bc 94 27 3e a2 65 5a be
       -0.26539466 0.08172945 0.16365331 -0.21327832
000140 90 c2 6b be a1 f7 1a be 44 6d 70 39 6b c7 39 3d
       -0.23023438 -0.15133525 0.00022928888 0.045356195
000150 f9 dc 1f be 61 3a 96 3d e7 ae e0 3d 13 92 25 3b
       -0.15611638 0.07335354 0.1097086 0.002526407
000160 0b 6f 4f 3e ff 04 05 3e d2 a8 48 be 2f e3 38 3d
       0.20257203 0.12990187 -0.1959565 0.045138534
000170 10 a5 86 3d c4 80 d4 3c 0d 75 2b 3e ff af 5f 3e
       0.06574452 0.025940306 0.1674387 0.21844481
000180 3b 12 b3 3d da 48 0d 3e 11 3e a5 bc 48 f8 01 3d
       0.087437116 0.13797322 -0.020171197 0.03173092
000190 06 b0 c8 3d 9a 12 c9 3c 86 13 9d 3e 23 89 f5 3e
       0.09799199 0.024545003 0.30678958 0.4795619
0001a0 b7 bb 20 bc 5b 6c 5c 3d 7f f4 96 bd f1 c8 83 bd
       -0.00981038 0.053814273 -0.07370853 -0.06434811
0001b0 42 95 48 be 96 50 c2 3d 7b 75 25 be f7 7f b9 bc
       -0.19588187 0.09488027 -0.16158096 -0.022644026
0001c0 80 01 29 be ff bf 6f 3d fd 52 cb bd 86 f1 21 3d
       -0.16504478 0.05853271 -0.09927938 0.039536975
0001d0 cc 16 33 bd dd 38 f2 bd 6b 20 06 3e 8e f3 3f 3e
       -0.043722913 -0.11827252 0.13098304 0.18745252
0001e0 42 26 e7 bd 37 8b 4a 3e b0 4a d3 ba 07 29 ad bc
       -0.11286594 0.19779669 -0.0016120281 -0.021137727
0001f0 4d 44 37 be f8 c8 37 be 69 84 8d 3d ee c9 92 3b
       -0.17897148 -0.17947757 0.06910021 0.0044796383
000200 57 22 2c bc f9 ec de be 2a 20 70 3d 7a b2 30 3e
       -0.010506234 -0.4354017 0.058624424 0.17255583
000210 e3 10 db bd a6 e8 6e 3e 6f e9 13 3d 9e d5 e0 3b
       -0.1069658 0.23330936 0.03611129 0.0068614027
000220 2f d8 58 bd 80 d0 88 3e f4 14 2d 3e e6 56 e5 3d
       -0.052940544 0.26721573 0.16902524 0.11198215
000230 7f c1 af be 6a 94 c0 3d 61 aa 8e bd de 24 29 3c
       -0.34327313 0.09403308 -0.06966091 0.010323731
000240 30 97 3e be c8 29 32 be 56 a5 f1 3d 12 1b 39 bb
       -0.18612361 -0.17398751 0.117991135 -0.0028244895
000250 cb ac 94 be d0 ba 15 3d 7b e6 ad 3c e2 98 66 be
       -0.2903808 0.03655511 0.021228066 -0.22519258
000260 46 a6 5e 3e 51 30 f0 3d 60 0c 75 3b c6 ea 9c 3e
       0.21743116 0.117279656 0.003739141 0.30647868
000270 6b 5b 21 bd a7 06 c7 3d f6 be c3 bc f7 a7 15 3d
       -0.039393824 0.09718066 -0.023894768 0.036537137
000280 e8 ad 2f 3e 27 d7 87 3e 2b 28 4d 3d 8d a3 64 bc
       0.17156184 0.26531336 0.050087135 -0.013955009
000290 50 9f d0 bc b7 60 0b 3e 41 d8 47 be b7 c7 78 be
       -0.025466591 0.13611113 -0.19516088 -0.24294935
0002a0 a5 24 ad bd 70 a6 76 3e 9e 9b b1 bc 81 df 9b bc
       -0.08454255 0.24086928 -0.02168065 -0.019027473
0002b0 d9 c8 ac 3d f0 78 49 be ca 7d e7 3d ee c4 4e be
       0.08436746 -0.1967504 0.11303289 -0.2019231
0002c0 1d 2b 5d 3e fa 29 6e bc 8d 56 97 be 38 17 3b 3e
       0.21598478 -0.014536375 -0.2955822 0.18270576
0002d0 53 0b 3a bd 52 23 17 be f3 5d 4b 3d 77 54 12 3e
       -0.045420956 -0.14759567 0.049650144 0.14290033
0002e0 d0 80 f9 3d d6 53 8f 3e 9f 53 97 be a8 5f 8b 3e
       0.12182772 0.2799365 -0.29555985 0.27221417
0002f0 e8 c0 1a be f8 ca 53 be 8f cb 9b bd f1 82 a6 bd
       -0.1511265 -0.20682895 -0.07607185 -0.08130444
000300 43 87 60 3e 93 30 20 be c1 8a 0b be 5a 10 53 be
       0.21926598 -0.1564353 -0.13627149 -0.20611706
000310 ea 26 d9 3e 71 7e 18 3e f9 dc 89 3e 37 3f 6c be
       0.42412502 0.14891984 0.269264 -0.2307099
000320 63 5b 29 bc 82 35 e0 bd fd 02 03 be 23 38 5a be
       -0.01033673 -0.10947706 -0.12794109 -0.21310477
000330 6d 77 f0 3d bd e5 04 3c e9 5e 21 3d a0 54 00 be
       0.11741529 0.0081114145 0.039397154 -0.12532282
000340 e0 09 ee 3b 68 88 4d bd 64 c1 1b 3e 72 98 09 3d
       0.007264361 -0.050178915 0.15210491 0.03359265
000350 65 ea 26 be 14 61 13 be a8 9e a6 3d f7 f8 74 3d
       -0.16300352 -0.14392501 0.0813573 0.059807744
000360 72 79 f5 bd 1e 22 d7 bd d5 b0 4d 3e cf de 90 bd
       -0.119860545 -0.10504554 0.20086987 -0.07073747
000370 b5 c6 fe bd ea 98 e0 bc 7c 9d 4c 3e 49 ad dc bd
       -0.12440244 -0.027416665 0.1998195 -0.10775239
000380 e3 19 21 be 7f 97 e4 3d 1a 2a 38 be c8 b0 5f bd
       -0.15732531 0.11161708 -0.1798481 -0.05461195
000390 ae ea a2 3d 93 a6 62 bd a5 d4 8a be 17 62 e4 bd
       0.07954918 -0.05533464 -0.2711536 -0.11151522
0003a0 51 ca 96 bd 40 5f 13 3d fa 7c c5 3a f9 11 5e 3d
       -0.073628075 0.03597951 0.0015067153 0.05421636
0003b0 a7 54 2d 3c 9d 37 4b be c9 e1 4b be 4e d5 18 bc
       0.010579265 -0.19845434 -0.19910349 -0.0093282
0003c0 1a 68 18 3e 89 93 58 3e 3f 16 35 be 15 ca c7 bd
       0.14883462 0.2115003 -0.17684267 -0.09755341
0003d0 28 24 b9 3c 96 a9 4e be 72 4a 59 3e 7c cb 18 be
       0.022600248 -0.2018188 0.21219805 -0.14921373
0003e0 13 30 8d 3c 41 cc 8e be 13 74 97 3e de 4e db bd
       0.017234838 -0.27890208 0.29580745 -0.10708402
0003f0 9f c5 f2 3d d0 49 c3 3d 34 67 2e 3d 9e b7 62 be
       0.118540995 0.09535563 0.04257889 -0.22140357
