chainerrl/TicTacToe/result_90000/target_model.npz (npz, 56568 bytes, 8 tensors)

l3/W f4 [9, 81]
0	0x3e1c3087	0.15252887
1	0xbd227395	-0.03966101
2	0xbeeb95a2	-0.46012598
3	0x3ce7312f	0.028221695
4	0xbc31a3b0	-0.010842249
5	0xbe32fd92	-0.17479542
6	0x3d44f537	0.048085418
7	0xbe115df2	-0.14195994
8	0x3e5832c0	0.2111311
9	0x3ad5bbf6	0.0016306627
10	0xbf1f6e82	-0.62277997
11	0xbd90e679	-0.07075209
12	0xbec895cb	-0.39176783
13	0x3d1f3c0c	0.038875625
14	0x3d689515	0.0567828
15	0x3db6310e	0.08896075
16	0xbc4c1e5a	-0.012458408
17	0x3e36bce9	0.17845501
18	0xbf1c6975	-0.61098415
19	0x3e5f6c7d	0.21818729
20	0xbdfd620d	-0.12372217
21	0x3d1e1f35	0.03860398
22	0xbcb1157f	-0.021616695
23	0x3da615b2	0.08109607
24	0xbeff8eca	-0.49913627
25	0xbb2ff4fe	-0.0026848908
26	0xbdcd7931	-0.10032881
27	0x3e661d17	0.22472034
28	0xbe2b5188	-0.1673032
29	0x3e007adc	0.12546867
30	0x3de468fa	0.11152835
31	0x3e63dbc3	0.22251801
32	0xbd119b97	-0.035548773
33	0x3e133514	0.14375716
34	0xbe93a432	-0.2883621
35	0x3d319688	0.04335645
36	0x3e8064b5	0.25076833
37	0x3eb89931	0.36054376
38	0xbc89e446	-0.016832482
39	0xbdbf5f19	-0.0934431
40	0xbbff736a	-0.007795741
41	0xbf237242	-0.6384622
42	0xbeaaea23	-0.33381757
43	0x3e97cea5	0.29649845
44	0x3e20035c	0.15626281
45	0xbf29e559	-0.6636558
46	0x3e0dbd3f	0.13841723
47	0xbb49d13b	-0.0030794877
48	0x3e25f777	0.16207682
49	0x3e53dd0f	0.20689796
50	0x3e82e0d9	0.2556217
51	0xbe5862c3	-0.21131425
52	0xbccaa5eb	-0.024737319
53	0xbe33f549	-0.17574038
54	0x3d2f0fd3	0.0427397
55	0xbe640b57	-0.22269951
56	0xbceb6002	-0.028732304
57	0x3e6ec5ea	0.23317686
58	0x3e0075bd	0.12544914
59	0x3de82c60	0.11336589
60	0xbe084f09	-0.133114
61	0xbd764230	-0.060121715
62	0x3e7b0d2e	0.24516746
63	0xbe01354c	-0.12617987
64	0x3d6c0422	0.05762113
65	0x3e04c8e3	0.12967257
66	0xbeb794b0	-0.35855627
67	0xbf005396	-0.5012754
68	0xbca40e88	-0.02002646
69	0xbbaced57	-0.0052773166
70	0xbdb82381	-0.08991147
71	0xbe55242d	-0.20814581
72	0xbce16c15	-0.027517358
73	0x3e68e7db	0.22744696
74	0xbe929a04	-0.2863313
75	0xbdd4c8db	-0.10389873
76	0xbc87cd03	-0.01657725
77	0x3dadfa8e	0.08495055
78	0xbebab505	-0.36466232
79	0xbe3ac261	-0.18238212
80	0xbc184450	-0.009293631
81	0x3cfb7de1	0.030699672
82	0xbea0c758	-0.31402087
83	0x3c8e1ef0	0.017348737
84	0x3ee88423	0.45413312
85	0x3d594474	0.053043798
86	0x3e5aed7f	0.2137966
87	0x3c753780	0.0149668455
88	0xbe7b50de	-0.24542567
89	0xbf3a4332	-0.7275878
90	0x3dd0aec8	0.10189587
91	0x3db83a55	0.08995501
92	0xbdb20936	-0.08693163
93	0xbd2fcf0a	-0.042922057
94	0x3e0f475c	0.13992065
95	0x3e4d7e0d	0.20067616
96	0x3e5f1203	0.21784215
97	0x3e1719cb	0.14755933
98	0x3ea14a6b	0.3150209
99	0xbe8c4403	-0.2739564
100	0xbe0f1c4d	-0.1397564
101	0xbe1202d0	-0.14258885
102	0x3e417222	0.18891194
103	0x3e653028	0.22381651
104	0xbe3382c3	-0.1753035
105	0x3be9a016	0.0071296794
106	0xbee4fb0e	-0.4472279
107	0xbe2e6a6f	-0.17032789
108	0x3e614d4e	0.22002146
109	0xbe5b402f	-0.21411203
110	0x3e940726	0.28911704
111	0x3e82eb3b	0.25570092
112	0xbec1f7fd	-0.37884513
113	0xbe2fa2a7	-0.1715189
114	0xbe24225d	-0.16028734
115	0x3e40c9f4	0.18827039
116	0x3eec1dd7	0.46116516
117	0x3e53d9b4	0.20688516
118	0xbe0e9081	-0.13922311
119	0xbbfb3ee3	-0.007667409
120	0xbec40fe9	-0.38293388
121	0x3a521218	0.00080135604
122	0xbe1bc1b7	-0.15210615
123	0xbe2d62dc	-0.16932243
124	0x3dc684be	0.09693287
125	0xbe1d1d43	-0.15343194
126	0x3df59e05	0.119930305
127	0x3e61a4c6	0.22035512
128	0xbe4d72f1	-0.20063378
129	0xbe1ce76f	-0.1532266
130	0xbe76284c	-0.2403881
131	0xbe2719af	-0.16318391
132	0x3e4e934e	0.2017338
133	0x3d459fce	0.048248105
134	0xbe8b1fba	-0.27172643
135	0x3e5fbd49	0.2184955
136	0xbe30fcf7	-0.17283998
137	0xbccc7372	-0.024957392
138	0xbd3a3d21	-0.045468453
139	0xbda94062	-0.08264233
140	0x3dec730e	0.115453824
141	0xbe1de2b4	-0.15418512
142	0x3e4bab6f	0.19889615
143	0xbde56666	-0.112011716
144	0xbda2aaa3	-0.079427026
145	0x3d22f37c	0.039782986
146	0xbecfe1d4	-0.4060198
147	0xbd64bc60	-0.05584371
148	0x3e6c8ff1	0.23101784
149	0x3e75b842	0.2399607
150	0xbe2ef37b	-0.17085068
151	0x3d637faa	0.05554167
152	0x3d166673	0.036718797
153	0xbeb69911	-0.35663655
154	0xbafdfaa9	-0.0019377071
155	0x3e305399	0.1721939
156	0xbe8c3dc5	-0.27390876
157	0x3b9a8878	0.0047159754
158	0xbecbd4ca	-0.39810783
159	0xbecbf1ce	-0.3983292
160	0xbd9828c1	-0.07429648
161	0xbe002525	-0.1251417
162	0x3ec53b67	0.38521883
163	0xbdc33f84	-0.09533599
164	0xbee40ca7	-0.44540903
165	0x3d02f98b	0.031976264
166	0xbced5e19	-0.028975533
167	0xbe0bb769	-0.13644184
168	0x3e1c8ed4	0.1528886
169	0x3d9707f0	0.07374561
170	0x3de1b733	0.110212706
171	0x3ebfb6d0	0.37444162
172	0x3e3a9737	0.18221746
173	0xbda97215	-0.082737125
174	0xbeed1511	-0.46305135
175	0xbded8bd9	-0.115989394
176	0x3a004613	0.00048932544
177	0x3cd2b3b1	0.02572045
178	0x3c1a0023	0.009399447
179	0xbd4be92d	-0.04978292
180	0x3e0ff980	0.1406002
181	0xbe58441d	-0.21119733
182	0xbf32547a	-0.6966015
183	0xbdf1b172	-0.11801423
184	0xbc21457c	-0.0098432265
185	0xbd99b5f4	-0.07505408
186	0xbe1858fb	-0.14877693
187	0x3d94e447	0.07270103
188	0xbe9a91b4	-0.30189288
189	0x3e30c03a	0.17260829
190	0xbed5580a	-0.4166873
191	0xbf05ab7d	-0.52214795
192	0xbe656db6	-0.22405133
193	0xbd95ab2d	-0.0730804
194	0xbd217d4c	-0.039426133
195	0x3ef62605	0.48075882
196	0x3ee79730	0.45232534
197	0x3e771bd7	0.24131714
198	0xbef936f1	-0.4867473
199	0xbe28bc7c	-0.16478151
200	0x3e063211	0.13105036
201	0xbe9e5c32	-0.30929714
202	0x3e017c81	0.1264515
203	0xbd390e84	-0.04517986
204	0xbe0823b5	-0.13294871
205	0xbe9e1022	-0.30871683
206	0xbd890721	-0.06690813
207	0x3d20ea63	0.03928603
208	0xbd0c04a3	-0.03418411
209	0x3ddf1cb1	0.10894144
210	0xbdffce91	-0.12490571
211	0xbe4c6f3f	-0.19964312
212	0x3e5ee672	0.21767595
213	0x3ea1bd72	0.31589848
214	0xbdddc3ba	-0.108283475
215	0xbe2917f0	-0.16513038
216	0x3e45070f	0.19240974
217	0xbee2f80f	-0.4432988
218	0x3e092e0f	0.13396476
219	0x3ea5258e	0.32255214
220	0xbe569a16	-0.20957217
221	0xbd826edb	-0.063688
222	0xbebf05e8	-0.37309194
223	0x3ddd1df3	0.10796728
224	0x3d9da3b7	0.07697242
225	0x3db648d1	0.089006074
226	0x3e294623	0.16530661
227	0xbc441ee3	-0.011970255
228	0xbdc351cf	-0.09537088
229	0xbc569f44	-0.013099495
230	0x3dfd3652	0.123638764
231	0xbe314b90	-0.17313981
232	0xbd7668f6	-0.060158692
233	0xbdd57abb	-0.104237996
234	0xbd7c2dca	-0.061567105
235	0xbe4314e7	-0.19050942
236	0x3d6aa13e	0.05728268
237	0xbda7dfa2	-0.081969514
238	0xbdc93b65	-0.09825782
239	0x3d83e2f8	0.06439775
240	0x3d8ae6a0	0.067822695
241	0xbdb01583	-0.08597853
242	0x3e492377	0.19642435
243	0x3e0032f1	0.12519433
244	0x3d59a4a4	0.05313553
245	0xbec8a788	-0.39190316
246	0x3e1490bb	0.14508335
247	0x3db1c7fb	0.08680721
248	0xbdbb7082	-0.091523185
249	0xbd898299	-0.06714363
250	0xbe403195	-0.18768914
251	0x3e27217e	0.1632137
252	0x3ac99c28	0.0015381621
253	0x3d59335e	0.053027503
254	0xbede1b6f	-0.43380305
255	0x3d6b0de6	0.0573863

l3/b f4 [9]
0	0xbe2268b0	-0.15860248
1	0xbeaba0b9	-0.3352106
2	0xbe6e930e	-0.23298284
3	0xbd917fe6	-0.07104473
4	0x3ca3db52	0.020002041
5	0xbbf16d57	-0.0073677707
6	0xbd5c8716	-0.053839765
7	0xbe9c0b63	-0.30477437
8	0xbe66a777	-0.2252482

l0/b f4 [81]
0	0x3e84db72	0.25948673
1	0xbea0721a	-0.31337053
2	0xbe88fcb4	-0.26755297
3	0xbe9acc8a	-0.30234176
4	0xbdc5998f	-0.096484296
5	0xbed8f081	-0.4237099
6	0xbf06df4b	-0.5268447
7	0xbe389fe2	-0.1802974
8	0xbd8aed35	-0.06783525
9	0xbd259fd6	-0.040435635
10	0xbed08f4b	-0.40734324
11	0xbe322d9d	-0.17400213
12	0xbd962cda	-0.073327735
13	0xbe3a5897	-0.18197857
14	0xbf1516be	-0.58237827
15	0xb9fcf2f8	-0.0004824621
16	0x3e9271f3	0.2860256
17	0xbe81bc26	-0.25338858
18	0xbe727132	-0.23675993
19	0xbd04840e	-0.0323525
20	0x3c9d4bdf	0.019201217
21	0x3eb7b2aa	0.35878497
22	0xbe4861ed	-0.19568606
23	0xbed25d9d	-0.41087046
24	0xbeaed4d0	-0.34146738
25	0xbe7f2fa6	-0.2492052
26	0xbe84cef7	-0.25939152
27	0xbdd9c7bb	-0.10633799
28	0xbe0b21bf	-0.13587092
29	0xbebb0525	-0.36527362
30	0xbea2b07c	-0.31775272
31	0xbe3e300a	-0.18573013
32	0xbe673f36	-0.22582707
33	0xbe6c1a1e	-0.23056838
34	0xbeaf0144	-0.34180653
35	0xbed73f58	-0.42040515
36	0x3d9a9d9f	0.07549595
37	0xbf44d671	-0.7688971
38	0xbe60aab4	-0.21940118
39	0xbe59deba	-0.2127637
40	0xbe4f2fcd	-0.20233078
41	0xbc6ce4ee	-0.014458878
42	0xbe2c9699	-0.16854323
43	0xbe4c442b	-0.19947879
44	0xbea6e74c	-0.3259834
45	0x3e1ebb86	0.15501222
46	0xbe135224	-0.14386803
47	0xbec9fa97	-0.39448997
48	0xbf075fce	-0.5288056
49	0xbe6c300e	-0.23065206
50	0xbe0aeb8f	-0.13566421
51	0xbe86c80c	-0.263245
52	0xbed72036	-0.42016762
53	0xbedf288f	-0.4358563
54	0xbeda1c66	-0.4259979
55	0xbeb6e76e	-0.35723442
56	0xbeab9109	-0.3350909
57	0xbeea1757	-0.45720932
58	0x3d989f06	0.07452206
59	0xbdbf28d6	-0.09333961
60	0xbe1373ad	-0.14399596
61	0xbebeacfa	-0.37241346
62	0x3c60063f	0.013673364
63	0xbe739051	-0.23785521
64	0xbeefe9fd	-0.46858206
65	0x3e993e76	0.29930466
66	0xbe6e27f4	-0.23257428
67	0xbe891f1c	-0.26781547
68	0xbe88e080	-0.2673378
69	0xbf47c214	-0.78030515
70	0xbe0e10e3	-0.1387363
71	0xbecf4f37	-0.40490124
72	0xbeae6fcd	-0.34069672
73	0xbdc771ba	-0.097384885
74	0xbe241089	-0.16021933
75	0xbdbc4591	-0.09192956
76	0xbeca9754	-0.3956858
77	0xbdbdd7f0	-0.092697024
78	0xbcf0e6d9	-0.029406952
79	0xbe8fff3b	-0.28124413
80	0xbe8cd6cf	-0.27507636

l1/W f4 [81, 81]
0	0xbe73eac4	-0.23820025
1	0xbe41e23e	-0.18933961
2	0xbe1d3b11	-0.15354563
3	0x3c6ffb65	0.0146473395
4	0x3d8a15bb	0.06742426
5	0x3e2079c9	0.15671457
6	0x3e2ff6e0	0.17184019
7	0xbecc8607	-0.39946005
8	0xbea0ca65	-0.31404415
9	0xbe86ae9d	-0.26305094
10	0xbe44f8e7	-0.19235574
11	0xbdd116ac	-0.102094024
12	0xbe495157	-0.19659935
13	0xbe4fa424	-0.20277458
14	0xbe6d886d	-0.23196574
15	0x3e56918c	0.20953959
16	0x3cba17a5	0.022716353
17	0x38300d56	4.197409e-05
18	0xbe09ec95	-0.13469155
19	0x3db7162b	0.08939775
20	0xbdf41b4a	-0.119192675
21	0xbdf6e03f	-0.1205449
22	0xbcd3577c	-0.025798552
23	0x3de42873	0.111405276
24	0x3cce6eb5	0.025199274
25	0xbdf5002b	-0.11962923
26	0x3eac1bcd	0.3361496
27	0xbed20227	-0.41017267
28	0xbe6f927b	-0.23395722
29	0xbd9a3c0a	-0.07530983
30	0xbdf12b43	-0.1177583
31	0xbd654a24	-0.05597891
32	0x3e67d70a	0.22640625
33	0xbc67e5e3	-0.01415393
34	0x3e13ab2c	0.14420766
35	0xbecb2f89	-0.39684704
36	0xbd9db1a6	-0.076998994
37	0xbd3d6f2e	-0.046248607
38	0xbe22f171	-0.15912415
39	0xbd494a74	-0.04914327
40	0x3bb33db0	0.00547
41	0x3dc71b22	0.09721972
42	0xbdceed65	-0.10103873
43	0x3db3d01f	0.0877993
44	0x3de7a9e2	0.113116995
45	0x3cab1f46	0.020888936
46	0xbbc98f4b	-0.006151115
47	0xbda48c3a	-0.080345586
48	0x3e8bf392	0.27334267
49	0x3d8ad663	0.06779172
50	0xbd79bea9	-0.060972843
51	0xbd0c6797	-0.03427848
52	0x3d34beef	0.0441274
53	0x3dfd8d0c	0.12380418
54	0x3d75ae53	0.0599807
55	0xbddc9fef	-0.107726924
56	0x3d81ffd1	0.06347621
57	0x3e899f26	0.26879233
58	0x3db8635f	0.090033285
59	0xbe70a495	-0.23500283
60	0x3e313e13	0.17308836
61	0xbe2e6dc3	-0.17034058
62	0xbe26849b	-0.16261522
63	0xbd39f4e0	-0.045399547
64	0x3e78c8cf	0.24295352
65	0x3c202222	0.009773763
66	0x3e2f662e	0.17128822
67	0x3d172c63	0.036907565
68	0xbcf754b5	-0.030191759
69	0xbe47f18b	-0.19525735
70	0xbe12ccc1	-0.1433592
71	0x3dcb747d	0.09934328
72	0xbe57c8e6	-0.2107273
73	0x3d3af94e	0.04564791
74	0x3db21cca	0.08696897
75	0xbedde0ff	-0.4333572
76	0xbe252483	-0.1612721
77	0x3c98fde0	0.018675745
78	0x3d46a7c7	0.04849985
79	0x3d2e45e3	0.042547118
80	0xbe33d79f	-0.17562722
81	0xbea56342	-0.3230229
82	0xbf1daff6	-0.6159662
83	0xbdc96c31	-0.09835089
84	0x3df4bb2a	0.11949761
85	0xbdfdaf25	-0.12386922
86	0x3e99fc9b	0.30075535
87	0x3e179c6c	0.14805764
88	0x3e364f61	0.17803718
89	0xbe85cbe1	-0.2613211
90	0xbdc1827a	-0.094487146
91	0x3e68ea1d	0.22745557
92	0x3eabd77f	0.33562848
93	0x3ea0b00b	0.3138431
94	0x3e01b32d	0.12666006
95	0xbd2f29a0	-0.042764306
96	0xbd975307	-0.07388883
97	0x3e55b1da	0.20868626
98	0xbce9f87a	-0.028560866
99	0x3e3dcab7	0.18534361
100	0xbe06ca90	-0.13163209
101	0x3e2fcc8b	0.1716787
102	0xbe8716b7	-0.26384518
103	0x3e6fd331	0.23420407
104	0xbe301d4f	-0.1719868
105	0x3d717075	0.058945138
106	0x3d9a2de7	0.075282864
107	0x3db38eb2	0.08767451
108	0xbe32cecb	-0.17461698
109	0xbe494a32	-0.1965721
110	0xbd19ab9d	-0.03751718
111	0x3d1cc3b7	0.038272586
112	0xbde6f6c6	-0.11277537
113	0x3d982412	0.07428755
114	0x3e21ecfe	0.15813062
115	0xbd85c55b	-0.06531783
116	0xbdef25df	-0.11677145
117	0xbe8272b0	-0.25478125
118	0x3ebd2b2c	0.36947
119	0x3e08311d	0.13299985
120	0x3d3d29e7	0.04618254
121	0xbd10469c	-0.03522359
122	0xbea50fdb	-0.3223866
123	0xbdc10390	-0.094245076
124	0x3e0c4a46	0.13700208
125	0xbe474bad	-0.19462462
126	0xbd9fc4c0	-0.07801199
127	0xbd91712c	-0.07101664
128	0xbe8ec787	-0.27886602
129	0xbdb83708	-0.089948714
130	0xbccbe377	-0.024888737
131	0x3e78049e	0.24220511
132	0xbe66910b	-0.22516267
133	0x3e239f28	0.15978682
134	0xbecc2af1	-0.39876512
135	0x3e0fc777	0.14040934
136	0xbdb02cf9	-0.08602328
137	0x3d8490f1	0.06472958
138	0x3eabe39b	0.33572087
139	0x3ddd3c88	0.10802561
140	0xbee61e2d	-0.44944897
141	0xbecd359d	-0.40079966
142	0x3e490b73	0.19633274
143	0xbe1404a7	-0.144549
144	0xbe5f0d09	-0.21782316
145	0x3e278117	0.16357838
146	0x3e1ec786	0.155058
147	0x3d9b58fe	0.07585333
148	0xbea39b83	-0.31954584
149	0x3e0a599a	0.13510743
150	0xbccfdd2f	-0.025374023
151	0x3e2803b8	0.16407669
152	0x3e427826	0.18991145
153	0x3e3c1cf9	0.18370427
154	0xbe82530c	-0.25453985
155	0x3c29d536	0.010365775
156	0xbe56bdc8	-0.20970833
157	0xbe295843	-0.16537575
158	0x3e5041c9	0.20337595
159	0x3e1822a4	0.14856964
160	0x3bd27973	0.0064231693
161	0xbc017bf3	-0.007903087
162	0x3e37c082	0.1794453
163	0xbd8948cc	-0.06703338
164	0x3dd42c72	0.1036004
165	0xbd8ad7b4	-0.06779423
166	0x3eb88243	0.36036882
167	0x3e59138f	0.21198867
168	0x3e1d11a5	0.15338762
169	0x3df8cce2	0.12148453
170	0xbeba3ab3	-0.3637291
171	0x3d9379b0	0.072009444
172	0xbe69bf66	-0.22826919
173	0xbd38289e	-0.04496061
174	0xbe14cfae	-0.14532349
175	0xbdf6bd2f	-0.12047803
176	0xbde3af33	-0.11117401
177	0x3e5d1119	0.21588553
178	0x3e9e62a9	0.30934647
179	0x3e52bdab	0.20580165
180	0xbd6f6152	-0.05844242
181	0x3cfb3bcf	0.030668167
182	0x3d89857c	0.06714913
183	0xbe81b6a8	-0.25334668
184	0xbe90bc6f	-0.28268763
185	0xbda3832b	-0.07984003
186	0x3d61f581	0.05516577
187	0xbe428255	-0.1899503
188	0xbe9d2be9	-0.30697563
189	0xbde144fb	-0.10999485
190	0x3e193e76	0.14965233
191	0xbe364b3e	-0.1780214
192	0x3e2a4d7c	0.1663112
193	0x3b780909	0.0037847182
194	0xbd346689	-0.044043098
195	0xbc84f554	-0.016230263
196	0x3d584eda	0.052809574
197	0x3e7bdf54	0.24596912
198	0xbcfa8d84	-0.030585058
199	0x3e97d754	0.2965647
200	0xbe6d6d02	-0.23186114
201	0xbc18da82	-0.00932944
202	0xbdda4fad	-0.10659728
203	0xbcd070ea	-0.025444467
204	0xbdfae2a1	-0.12250257
205	0xbe0d3a93	-0.13791876
206	0x3e88e709	0.26738766
207	0xbe627173	-0.2211359
208	0x3e10373e	0.14083573
209	0xbe33845f	-0.17530964
210	0x3daf5a87	0.085621886
211	0x3e45091f	0.1924176
212	0xbcceb4e5	-0.025232742
213	0xbce31b51	-0.027722986
214	0x3d8dd26f	0.06924903
215	0x3d0aa108	0.033844978
216	0xbe98b128	-0.2982266
217	0xbdd743df	-0.10510992
218	0x3c94b183	0.01815105
219	0xbea53542	-0.32267195
220	0xbd91b460	-0.07114482
221	0x3dae9c67	0.08525925
222	0x3d87e35c	0.06635162
223	0xbd3e1fb7	-0.046416964
224	0xbd99f979	-0.07518286
225	0xbd16be0b	-0.036802333
226	0xbe14f3e9	-0.1454617
227	0xbd17d1ff	-0.037065502
228	0xbdd58f0a	-0.10427673
229	0xbe26238c	-0.16224498
230	0x3e25b1c6	0.16181096
231	0x3c28b37a	0.010296697
232	0x3d7af367	0.061267283
233	0x3db4fc0e	0.08837138
234	0xbdeeb229	-0.11655075
235	0x3c218131	0.009857462
236	0xbbfb27be	-0.0076646497
237	0xbeb382cd	-0.3506073
238	0xbd1823bc	-0.037143454
239	0x3c3e4291	0.01161255
240	0xbc8c3890	-0.017116815
241	0x3e83d080	0.2574501
242	0x3d8d523f	0.06900453
243	0x3e10a865	0.14126737
244	0xbe65d014	-0.22442657
245	0x3d987f1d	0.0744612
246	0x3e1c9efc	0.15295023
247	0x3d778165	0.060426135
248	0xbe92477b	-0.2857016
249	0x3ee1f3b6	0.4413125
250	0xbe46b56f	-0.19405149
251	0xbc08e2e1	-0.008354873
252	0x3ea06dd4	0.31333792
253	0xbe08c907	-0.13357936
254	0x3e541a18	0.20713079
255	0x3caefcd2	0.021360788

l2/W f4 [81, 81]
0	0xbe1cb011	-0.15301539
1	0xbe21aa0f	-0.15787528
2	0x3cd6988f	0.026195792
3	0x3e0fb5d9	0.14034213
4	0xbed1cf7d	-0.40978613
5	0x3e6f182a	0.23349062
6	0x3e073701	0.13204576
7	0xbdf45ef2	-0.11932172
8	0x3d894ec9	0.0670448
9	0x3c022445	0.007943218
10	0xbc6dac4a	-0.014506409
11	0x3d2e0881	0.04248858
12	0x3d03e375	0.03219934
13	0xbd6c3f70	-0.057677686
14	0xbd08e6a4	-0.03342308
15	0x3d2a3fd9	0.041564796
16	0xbe0942ff	-0.13404463
17	0x3cad4361	0.021150293
18	0x3e1dc496	0.15407023
19	0xbca0413e	-0.01956236
20	0x3e69b5c0	0.22823238
21	0x3d5bde9a	0.053679086
22	0x3e6e2d87	0.23259555
23	0xbe2479dc	-0.1606211
24	0xbd4a4321	-0.049380425
25	0xbe213f61	-0.15746833
26	0xbf027aea	-0.509688
27	0xbcc02a82	-0.02345777
28	0x3e123067	0.14276277
29	0xbe4128b7	-0.18863188
30	0xbc74ff3c	-0.014953431
31	0xbdf13264	-0.117771894
32	0xbe1c8e4f	-0.15288661
33	0xbb3d7248	-0.0028907228
34	0x3da98382	0.08277036
35	0xbf03440c	-0.51275706
36	0x3db82296	0.08990972
37	0x3d9b6faf	0.07589661
38	0xbebe1e76	-0.37132615
39	0x3ec4ee30	0.38462973
40	0xbdb901fa	-0.0903358
41	0x3e12ce37	0.14336477
42	0x3e385f10	0.18005013
43	0xbcb264e5	-0.021776626
44	0xbe6ba42e	-0.23011848
45	0x3e8ee233	0.2790695
46	0x3dedd549	0.116129465
47	0x3d94b663	0.0726135
48	0xbdc6bc37	-0.09703868
49	0xbe102241	-0.14075567
50	0x3e6439e8	0.22287714
51	0xbe1df9d3	-0.15427332
52	0xbdcd9140	-0.1003747
53	0xbe0fd4a7	-0.14045964
54	0xbd832d8b	-0.06405171
55	0xbd742f23	-0.059615266
56	0x3e954050	0.2915063
57	0xbf3773d3	-0.7166111
58	0x3ea086ad	0.3135275
59	0xbeb2a4c7	-0.3489134
60	0xbe3f51bc	-0.18683523
61	0x3c8ec5b5	0.017428258
62	0xbe081c2f	-0.13292001
63	0xbd93c114	-0.07214561
64	0x3dd27ee4	0.10278109
65	0xbc2b1291	-0.010441438
66	0xbe013688	-0.12618458
67	0xbee8c87b	-0.45465454
68	0x3e1ae2cb	0.15125577
69	0x3d320b22	0.04346765
70	0x3e6a9f9a	0.22912446
71	0xbe1f38a5	-0.15548952
72	0xbde223cd	-0.11041985
73	0xbddccbfd	-0.10781095
74	0x3c4fc66b	0.012681584
75	0xbe0bf6f8	-0.1366843
76	0xbea692ac	-0.32533777
77	0xbdaa7426	-0.08322935
78	0xbd8200a6	-0.0634778
79	0xbed4b0e4	-0.41541207
80	0x3d6811e7	0.056657698
81	0x3dd52287	0.10406976
82	0xbec5e748	-0.38653016
83	0x3e0f5e90	0.14000916
84	0x3e104155	0.14087422
85	0xbc1ad7d3	-0.009450871
86	0xbe6bc29b	-0.23023455
87	0xbd54700e	-0.051864676
88	0xbe6c1093	-0.23053198
89	0xbde75cbe	-0.11296986
90	0x3e256be3	0.16154437
91	0x3d17f5f3	0.03709979
92	0xbcdc225c	-0.026871853
93	0x3dd6cf9d	0.10488818
94	0xbe143f99	-0.14477386
95	0xbdb0d52a	-0.08634408
96	0xbe15ff59	-0.14648189
97	0x3da5c30f	0.08093845
98	0x3d9702db	0.073735915
99	0x3e3bcdb6	0.18340191
100	0xbebbaecd	-0.366568
101	0x3e520fb6	0.20513806
102	0x3edf8b60	0.43661022
103	0x3e8d9cc8	0.27658677
104	0x3cd4f79c	0.025996976
105	0x3da27e21	0.079342134
106	0xbe24eabe	-0.16105172
107	0x3e8198f7	0.25312015
108	0xbe66c696	-0.22536692
109	0x3cdf5952	0.027264271
110	0xbce722c3	-0.028214818
111	0xbe6a9493	-0.22908239
112	0xbb963a09	-0.004584555
113	0x3e2ef5f5	0.17086013
114	0x3e197d63	0.14989237
115	0xbbd7cb68	-0.006585527
116	0xbe9bad32	-0.30405575
117	0x3ce10f78	0.027473196
118	0x3dad56ff	0.08463859
119	0xbe017a7f	-0.12644385
120	0xbdc695fc	-0.09696576
121	0xbf15d957	-0.5853476
122	0xbe67a094	-0.2261985
123	0xbed2fb4c	-0.4120735
124	0x3de056ff	0.10954093
125	0xbdffb7c6	-0.12486224
126	0xbccc9e3a	-0.024977792
127	0xbc2b01b4	-0.010437418
128	0xbe6762d0	-0.22596288
129	0xbe1bb7a2	-0.15206769
130	0x3e255863	0.16146998
131	0xbe7b7898	-0.24557722
132	0xbcdd6039	-0.027023422
133	0xbcb00b4f	-0.021489767
134	0x3e373c7c	0.17894167
135	0x3e444084	0.19165236
136	0x3e6982dd	0.22803827
137	0xbdcd52e9	-0.100255795
138	0x3da0585c	0.07829353
139	0xbe39cc73	-0.18144397
140	0x3e216d22	0.15764287
141	0xbe083a6e	-0.13303539
142	0xbcf7a036	-0.030227762
143	0x3e6bad79	0.23015393
144	0xbe8d5741	-0.27605632
145	0xbde86bbd	-0.113486744
146	0xbcb80c8e	-0.022466924
147	0x3d5339a9	0.05156866
148	0x3e810171	0.25196412
149	0x3c644293	0.013931888
150	0xbe7feeb4	-0.24993402
151	0xbd868b92	-0.0656959
152	0xbd95779b	-0.072982036
153	0xbd00a960	-0.03141153
154	0xbe3e56ec	-0.18587846
155	0xbd9a858a	-0.07545002
156	0x3ddb8edb	0.10720607
157	0xbd116053	-0.035492253
158	0xbd15a4bc	-0.036534056
159	0x3d0c1412	0.034198828
160	0x3eb81ea5	0.3596088
161	0x3e88f604	0.26750195
162	0xbe48f279	-0.19623746
163	0x3da72319	0.08160991
164	0x3e2cc6ba	0.16872683
165	0xbc8afbc7	-0.01696576
166	0x3de9f14e	0.11422978
167	0x3c5bbce2	0.013411732
168	0xbe59ee54	-0.21282321
169	0xbe40aa7f	-0.18815039
170	0xbde467ba	-0.11152597
171	0xbb6083c5	-0.0034258228
172	0x3e4b3027	0.19842587
173	0xbe1a4e27	-0.15068875
174	0xbdadef2d	-0.08492885
175	0xbdbd3826	-0.09239225
176	0xba45389a	-0.0007523388
177	0xbec20e4e	-0.3790154
178	0xbd3ecc38	-0.046581477
179	0xbe1efbbe	-0.1552572
180	0x3d631870	0.055443227
181	0xbe3d05c1	-0.18459226
182	0xbe00f7c3	-0.12594514
183	0xbedee73e	-0.435358
184	0x3d30ad7e	0.043134205
185	0xbdf2c3ea	-0.11853774
186	0xbe9224ba	-0.28543645
187	0xbd71cd4f	-0.05903369
188	0xbdceee65	-0.10104064
189	0xbdcb8838	-0.09938091
190	0xbd0d4ad2	-0.034495182
191	0x3e310d61	0.1729026
192	0x3e924f67	0.28576204
193	0xbe01354a	-0.12617984
194	0x3d8f408e	0.06994735
195	0x3d2ffeaf	0.042967495
196	0xbc5b2350	-0.013375118
197	0x3eac61db	0.33668408
198	0xbf0e574e	-0.55601966
199	0x3e628991	0.2212279
200	0x3da2a216	0.07941072
201	0xbec4adfa	-0.38413984
202	0xbdfd3869	-0.12364275
203	0xbe475e2d	-0.19469519
204	0xbe1d1fcb	-0.1534416
205	0x3e669645	0.22518261
206	0xbe2b18da	-0.16708699
207	0xbdece48f	-0.115670316
208	0x3e26470b	0.16238038
209	0xbe91795a	-0.28412896
210	0x3dc9d481	0.09854985
211	0xbe001f24	-0.12511879
212	0x3d73f35d	0.05955826
213	0x3d282e32	0.04105968
214	0xbec17ecf	-0.3779206
215	0xbec706fe	-0.38872522
216	0xbdc956b8	-0.098309934
217	0xbdd88dc5	-0.105739154
218	0x3e6d933f	0.23200701
219	0xbe8b50ea	-0.2721017
220	0xbeb4a966	-0.3528549
221	0xbe61fe5d	-0.22069688
222	0x3e2c1965	0.16806562
223	0xbea601fc	-0.3242339
224	0xbed7d465	-0.42154232
225	0xbda71f65	-0.08160285
226	0xbe374c3a	-0.17900172
227	0xbe757706	-0.23971185
228	0xbe2129df	-0.15738629
229	0xbe982b7b	-0.29720673
230	0xbe7eee2e	-0.24895546
231	0xbe0ffd2f	-0.14061426
232	0xbe744b84	-0.23856932
233	0xbc2efe7b	-0.01068079
234	0xbe77e5ac	-0.24208707
235	0x3d1d9afa	0.038477875
236	0xbeec8f10	-0.46202898
237	0x3da198cd	0.078904726
238	0xbca8fcc9	-0.02062835
239	0x3da0dc94	0.07854572
240	0xbdbe9258	-0.093052566
241	0xbe1b7bfa	-0.15184012
242	0x3d701770	0.0586161
243	0x3dc0fed6	0.09423606
244	0xbe035bfd	-0.1282806
245	0xbd84f5c9	-0.06492192
246	0xbde951cd	-0.113925554
247	0xbe54c11c	-0.2077679
248	0xbc0ac85d	-0.008470622
249	0x3e01eb2f	0.12687372
250	0x3c9dd51a	0.019266654
251	0xbea1d1ea	-0.31605464
252	0xbdc3ee98	-0.095669925
253	0xbdc268c2	-0.09492637
254	0x3cc36fb7	0.02385698
255	0xbd79db6d	-0.061000276

l1/b f4 [81]
0	0xbdcd3fd7	-0.10021942
1	0xbe6e14b4	-0.23250085
2	0xbe4d74bd	-0.20064063
3	0xbe6e28ce	-0.23257753
4	0xbeced512	-0.40396935
5	0xbe5135ec	-0.20430726
6	0xbe72c50b	-0.23707978
7	0xbe1b9cb4	-0.15196496
8	0xbeaeb449	-0.34121922
9	0x3c5d5e95	0.01351132
10	0xbe862815	-0.26202455
11	0xbdc216bb	-0.09476992
12	0xbe2484b8	-0.16066253
13	0xbd64496f	-0.055734094
14	0xbe132d4e	-0.14372751
15	0xbcdb4bb2	-0.026769493
16	0xbf00a3d3	-0.50249976
17	0xbda57318	-0.08078593
18	0x3d890221	0.06689859
19	0xbddf8e8e	-0.10915862
20	0xbe8b9822	-0.27264506
21	0xbe2a6caa	-0.16643015
22	0xbec52e3c	-0.38511837
23	0xbec369ce	-0.3816666
24	0xbeb107ab	-0.34576163
25	0xbed43bad	-0.4145178
26	0xbaa4b61d	-0.0012566481
27	0xbe96d3be	-0.2945842
28	0xbd11bed4	-0.03558238
29	0x3ce506f2	0.027957413
30	0xbea6329b	-0.32460484
31	0xbcdfa77b	-0.02730154
32	0x3da8dadd	0.0824487
33	0xbe995ad4	-0.2995211
34	0xbddd791e	-0.10814117
35	0x3dca22c8	0.09869915
36	0xbe15afac	-0.14617795
37	0xbe2ee24d	-0.17078514
38	0xbf3efdd1	-0.74606043
39	0xbe850fa0	-0.25988483
40	0x3e0f52df	0.13996457
41	0xbe001a65	-0.12510069
42	0xbe8c0e9a	-0.2735489
43	0xbdfaef80	-0.12252712
44	0xbe9209e6	-0.28523177
45	0x3e4e0735	0.20119937
46	0xbe23f224	-0.16010338
47	0xbe3db6eb	-0.18526809
48	0xbd934693	-0.07191195
49	0xbed502e3	-0.41603765
50	0xbe330bd4	-0.17484981
51	0xbe6e0c06	-0.23246774
52	0xbe61cb52	-0.22050217
53	0xbda399d9	-0.079883285
54	0xbed2c423	-0.41165265
55	0xbd28ccaa	-0.041210808
56	0xbd67d607	-0.056600597
57	0xbe2722cd	-0.16321869
58	0x3c33e3cc	0.010979604
59	0xbedf9e6c	-0.43675554
60	0xbd641484	-0.055683628
61	0xbe919530	-0.28434134
62	0xbe756746	-0.23965177
63	0xbf0106fb	-0.50401276
64	0x3d54d608	0.05196193
65	0x3c0f1c18	0.008734725
66	0xbef99d9d	-0.48753062
67	0xbe08dcd3	-0.13365488
68	0xbdf77a6f	-0.12083899
69	0xbe0ab96b	-0.13547294
70	0xbcaf6107	-0.02140857
71	0x3bf91e9a	0.007602525
72	0x3eba8636	0.3643052
73	0xbdfba487	-0.122872405
74	0xbec12fc9	-0.3773177
75	0xbe63e6da	-0.22256032
76	0x3d9e5c25	0.07732419
77	0x3d1cb8ee	0.0382623
78	0x3da71e54	0.081600815
79	0xbe2e0d36	-0.16997227
80	0xbd791d1f	-0.060818788

l2/b f4 [81]
0	0xbd2934d2	-0.04131014
1	0xbdcc443c	-0.09973952
2	0xbe54a23a	-0.2076501
3	0x3d0b71c7	0.034044053
4	0x3d3042a3	0.0430323
5	0xbea7b395	-0.32754198
6	0xbeb8003d	-0.35937682
7	0xbe324ab1	-0.17411305
8	0xbe0c345f	-0.13691853
9	0x3e20fcfa	0.15721503
10	0xbebb0e40	-0.3653431
11	0x3d508da3	0.050916325
12	0xbd9f9044	-0.07791188
13	0xbdef5415	-0.11685959
14	0x3da5be8f	0.08092987
15	0x3e816394	0.25271285
16	0xbd051352	-0.03248913
17	0xbe92e8e8	-0.28693318
18	0xbe47685f	-0.19473408
19	0xbeaf343d	-0.34219542
20	0xbe31646d	-0.17323466
21	0x3da4d7bd	0.08048961
22	0xbe39ddf6	-0.18151078
23	0xbe8c4937	-0.27399608
24	0xbe0bf97b	-0.13669388
25	0xbd931617	-0.07181948
26	0xbe65d895	-0.224459
27	0xbe32b624	-0.17452294
28	0xbe719e8d	-0.23595639
29	0xbe4e7979	-0.20163526
30	0xbb04dc6e	-0.0020272988
31	0xbdfae91f	-0.122514956
32	0xbe6915af	-0.22762178
33	0xbe42d4fd	-0.19026561
34	0xbd8ec9ab	-0.06972059
35	0xbe0cc41c	-0.13746685
36	0xbe42524e	-0.18976709
37	0x3e1114f5	0.1416815
38	0xbe673dd1	-0.22582175
39	0xbdee8271	-0.116459735
40	0x3d3ddcce	0.046353154
41	0xbe20d6bc	-0.15706915
42	0xbe8b9f5d	-0.27270022
43	0xbd365720	-0.044516683
44	0xbd88389c	-0.066514224
45	0xbe27995d	-0.16367097
46	0xbe32e721	-0.17470981
47	0xbd876d5d	-0.06612656
48	0xbe67f43f	-0.22651766
49	0xbe80d683	-0.2516366
50	0xbe9b6423	-0.30349836
51	0xbe06ad11	-0.13151957
52	0xbe1c101f	-0.15240525
53	0xbe877ae5	-0.2646095
54	0xbcea0b54	-0.028569855
55	0x3e09cc8c	0.13456935
56	0x3d86a521	0.065744646
57	0x3c44b2d6	0.012005528
58	0x3afe71fc	0.0019412632
59	0xbd363168	-0.04448071
60	0xbeab8f41	-0.33507732
61	0xbdabf35a	-0.08396025
62	0xbe93028c	-0.2871288
63	0xbbf9feb3	-0.0076292395
64	0xbd82d5f8	-0.063884676
65	0xbe14de30	-0.14537883
66	0xbe8f9c6c	-0.28049028
67	0xbe3372c3	-0.17524247
68	0xbe9c2677	-0.30498096
69	0xbe426b3e	-0.18986222
70	0xbe821ba3	-0.2541171
71	0xbe9e42ff	-0.3091049
72	0xbdd09886	-0.101853415
73	0xbe548095	-0.20752175
74	0xbe2c0c59	-0.16801585
75	0xbe0b39bd	-0.13596244
76	0xbdfc6d0c	-0.123254865
77	0xbe59bbd7	-0.21263061
78	0xbeb1d609	-0.34733608
79	0xbd662a8b	-0.056192916
80	0xbe01d4cb	-0.1267883

l0/W f4 [81, 9]
0	0x3ef3c06a	0.47607738
1	0x3d9e69ad	0.07735
2	0x3da5ba23	0.080921434
3	0x3e5fdf0c	0.2186243
4	0x3d76da63	0.060266864
5	0x3ebba474	0.36648905
6	0x3f04735d	0.5173853
7	0x3cf5e8d4	0.030018248
8	0x3f2ceb89	0.675469
9	0x3d572d93	0.052533697
10	0x3f9c2071	1.21974
11	0x3da7ae1f	0.08187508
12	0xbe4de58c	-0.20107096
13	0x3f25f9e3	0.6483442
14	0xbe4dcb9b	-0.200972
15	0xbae893ac	-0.0017744205
16	0x3f187739	0.5955692
17	0x3eb8ff77	0.36132404
18	0xbd9fa1f3	-0.07794561
19	0x3e7099f1	0.23496224
20	0x3e46673e	0.19375321
21	0xbf2f394b	-0.684468
22	0x3e1edefb	0.15514748
23	0x3dcd5fe9	0.10028059
24	0xbf303e6b	-0.6884524
25	0x3d871f7c	0.06597802
26	0xbe9b7947	-0.30365965
27	0x3f02a373	0.51030654
28	0x3ddf31a6	0.108981416
29	0x3dd61a25	0.104542054
30	0xbe34192e	-0.1758773
31	0x3dde2440	0.10846758
32	0xbeb54911	-0.35407308
33	0xbe621b8b	-0.2208082
34	0x3ab5783a	0.0013845034
35	0xbea39996	-0.31953114
36	0x3ef5fe7d	0.48045722
37	0x3cb70032	0.02233896
38	0x3d0861d8	0.033296436
39	0xbccf6c94	-0.025320329
40	0xbf092c71	-0.5358344
41	0xba7bc935	-0.00096048723
42	0xbc98652d	-0.018602932
43	0xbe09dee4	-0.13463932
44	0xbefadefb	-0.48998246
45	0xbe902820	-0.28155613
46	0xbee9a719	-0.45635298
47	0x3ed785aa	0.42094165
48	0x3f1b9adb	0.60783166
49	0xbe844cab	-0.25839743
50	0x3daf29da	0.085529044
51	0xbec2e4c7	-0.38065168
52	0xbf5943ca	-0.8486906
53	0x3d43ec2b	0.04783265
54	0xbd878037	-0.06616252
55	0xbf14f0d7	-0.5817999
56	0xbf126a5e	-0.57193553
57	0x3e6223d1	0.22083975
58	0xbeb4d081	-0.35315326
59	0x3dc1e6d5	0.09467856
60	0x3f283c4c	0.65717006
61	0xbe66580c	-0.22494525
62	0xbe9432ec	-0.289451
63	0xbec7c329	-0.39016083
64	0xbe9b4d89	-0.30332592
65	0xbe7bbfa6	-0.24584827
66	0xbec47bc2	-0.3837567
67	0xbe382da4	-0.1798616
68	0xbd506de5	-0.050886054
69	0xbe9e83da	-0.3095997
70	0x3f40126a	0.750281
71	0xbed71016	-0.4200446
72	0x3eb9f03d	0.363161
73	0x3de59e43	0.11211827
74	0x3e506c08	0.2035371
75	0xbe576c15	-0.21037324
76	0x3b86402e	0.0040970063
77	0x3d13e39a	0.03610573
78	0xbdb9090c	-0.09034929
79	0xbf6782a7	-0.90433735
80	0x3eaa9a5b	0.3332089
81	0x3e5c6d10	0.21525979
82	0xbdd755de	-0.10514425
83	0x3e1e97e4	0.15487629
84	0x3f0b55e3	0.5442793
85	0xbed6cc9e	-0.41952986
86	0xbe18b201	-0.14911653
87	0x3d13e6a5	0.03610863
88	0x3d49d319	0.049273584
89	0x3ea7569a	0.3268326
90	0x3de439f5	0.11143867
91	0xbecb3624	-0.39689744
92	0xbedf50e7	-0.4361641
93	0xbd15d3f0	-0.036579072
94	0x3d0c9814	0.03432472
95	0xbd90ff9e	-0.07080005
96	0xbf5e557e	-0.868492
97	0xbf0739b0	-0.528224
98	0xbf30665f	-0.68906206
99	0x3efb6a74	0.49104655
100	0x3df57f55	0.11987177
101	0xbdf8f6e8	-0.12156469
102	0x3d22b740	0.039725542
103	0x3f3e8b22	0.7443105
104	0x3f2f3d7b	0.68453187
105	0x3ece971e	0.40349668
106	0x3da27a9f	0.07933544
107	0xbd35bbf9	-0.044368718
108	0x3ef98a12	0.48738152
109	0x3f0968a3	0.5367529
110	0x3ee5b028	0.4486096
111	0x3e34e421	0.1766515
112	0x3f14ff33	0.58201903
113	0xbdf2bcad	-0.11852393
114	0xbe72317f	-0.23651694
115	0x3eb96919	0.36212996
116	0x3e89c6d6	0.26909512
117	0x3f5d1760	0.8636379
118	0xbedfe1ff	-0.4372711
119	0x3dd8b036	0.105804846
120	0x3e7f9ea3	0.24962859
121	0x3ed7dfa6	0.42162818
122	0x3f0bdbe1	0.54632384
123	0x3b879c71	0.0041385223
124	0xbe8f9850	-0.28045893
125	0x3f241829	0.64099365
126	0xbe4851b4	-0.19562417
127	0x3dafc4c6	0.085824534
128	0xbf67541e	-0.9036273
129	0x3d9af43f	0.075661175
130	0xbf24bd72	-0.6435157
131	0x3cc89062	0.02448291
132	0xbf465629	-0.7747522
133	0x3e9d56c1	0.3073025
134	0x3d4286df	0.047491904
135	0x3e106fea	0.14105192
136	0x3ef69b87	0.48165533
137	0x3ec6bacf	0.388144
138	0x3eec1459	0.46109274
139	0x3ebda6cd	0.3704132
140	0xbb65d2d6	-0.0035068295
141	0x3e0f8014	0.14013702
142	0xbe53a4a3	-0.20668273
143	0x3e17371f	0.14767121
144	0x3f604f94	0.87621427
145	0x3e255e11	0.16149165
146	0x3ed3ddc5	0.41380134
147	0x3e9d315e	0.30701727
148	0x3e9dc5a5	0.30814853
149	0x3f1cc90c	0.61244273
150	0x3ee16235	0.4402024
151	0x3e99d369	0.30044106
152	0x3e42bc77	0.19017206
153	0xbe7baa82	-0.24576762
154	0x3e5f92c2	0.21833327
155	0xbeda0ca8	-0.4258778
156	0xbeaa10b7	-0.33215877
157	0xbf18bda0	-0.59664345
158	0xbf08f577	-0.5349955
159	0x3e681394	0.22663718
160	0xbc9ac5e9	-0.018893199
161	0xbd8732f3	-0.06601515
162	0xbc636b6c	-0.013880592
163	0xbeaa1530	-0.3321929
164	0x3d1dace6	0.038494967
165	0xbbd6a381	-0.006550253
166	0xbe3531ef	-0.1769483
167	0x3f681103	0.9065096
168	0x3dfca701	0.12336541
169	0xbd9519b0	-0.0728029
170	0x3da44915	0.08021752
171	0x3b212877	0.002459077
172	0xbc9a0028	-0.018798903
173	0xbe00834e	-0.12550089
174	0x3e44474d	0.19167824
175	0xbec0c465	-0.37649837
176	0x3ea4f8ee	0.32221168
177	0xbe88ed22	-0.26743418
178	0xbe51e29a	-0.20496598
179	0x3e9bdc39	0.30441454
180	0xbe1a99f3	-0.1509779
181	0x3d6f9568	0.058492094
182	0x3ef41c41	0.47677806
183	0xbe0a1d42	-0.13487723
184	0xbd988378	-0.07446951
185	0x3eb02410	0.34402514
186	0x3ee1e741	0.44121745
187	0x3eaaa921	0.3333216
188	0xbe89abed	-0.2688898
189	0x3eda818b	0.42676958
190	0x3f536f86	0.82592046
191	0x3edd5b2d	0.43233624
192	0x3ed30de7	0.41221544
193	0x3eceac34	0.40365756
194	0x3f49d9b5	0.7884782
195	0x3ed67ce6	0.41892165
196	0x3ec6eb71	0.38851503
197	0x3eeb18a6	0.45917243
198	0x3d28d4d6	0.0412186
199	0x3ec684c9	0.38773182
200	0xbee682f9	-0.450218
201	0xbe8fd44e	-0.28091663
202	0x3cade540	0.021227479
203	0x3e621893	0.22079687
204	0x3e1fd589	0.15608801
205	0x3ef75cb7	0.48312923
206	0x3e2f6e94	0.17132026
207	0x3e8b7e4f	0.27244803
208	0x3e4a119c	0.1973328
209	0xbdc9856d	-0.09839902
210	0xbe9e1cc2	-0.30881315
211	0xbf64edb0	-0.8942518
212	0xbeb7f1cc	-0.35926664
213	0xbe17d782	-0.14828303
214	0x3d907860	0.0705421
215	0x3ed54823	0.41656598
216	0xbaa97092	-0.0012927225
217	0xbe3767b9	-0.17910661
218	0xbec1518a	-0.37757522
219	0x3f6ef84e	0.9334763
220	0xbef428e7	-0.47687456
221	0xbefe12d6	-0.49623746
222	0xbe804c67	-0.2505829
223	0xbc9979cf	-0.01873484
224	0xbeef2961	-0.46711257
225	0x3d5d201d	0.053985704
226	0xbd43624b	-0.04770116
227	0x3f1af6dd	0.60532933
228	0xbd7d1877	-0.06179091
229	0x3dbbc714	0.091688305
230	0xbf0940c2	-0.5361444
231	0xbd9a4fea	-0.07534774
232	0xbe5b58c3	-0.21420579
233	0x3f2ffac6	0.68742025
234	0xbeb0fdae	-0.34568542
235	0x3b5f9c43	0.003412024
236	0xbd8ca706	-0.06867795
237	0x3e6b7f61	0.2299781
238	0x3e9eef56	0.31041974
239	0x3ea6f07f	0.3260536
240	0x3eef7f20	0.46776676
241	0xbf00ad46	-0.50264394
242	0x3ea3ecb3	0.32016525
243	0x3f0e27e6	0.5552963
244	0xbea33031	-0.31872705
245	0xbe7ea618	-0.24868047
246	0x3ecd78c1	0.4013119
247	0xbd8f78bb	-0.070054494
248	0xbebb58eb	-0.36591277
249	0x3d0cab50	0.034343064
250	0x3d44d4eb	0.048054617
251	0x3e09243d	0.1339273
252	0x3eda7f2b	0.42675146
253	0x3e35f675	0.17769797
254	0x3dbe1851	0.09281982
255	0xbe01faa3	-0.12693267
