chainerrl/TicTacToe/result_100000/model.npz (npz, 56561 bytes, 8 tensors)

l3/W f4 [9, 81]
0	0x3e21fe9e	0.15819785
1	0xbd1ee68a	-0.038794078
2	0xbee4272e	-0.44561142
3	0x3d16651a	0.03671751
4	0x3b414652	0.0029491377
5	0xbe255dc1	-0.16149046
6	0x3d0a637b	0.03378628
7	0xbe2bc346	-0.1677371
8	0x3e5be52a	0.21474138
9	0x3b1225d2	0.0022300375
10	0xbf210457	-0.6289725
11	0xbdcd58dd	-0.10026715
12	0xbec10bb6	-0.37704247
13	0x3d17b652	0.03703911
14	0x3d7a6bfa	0.06113813
15	0x3d7419fb	0.05959509
16	0xbc8f4541	-0.017489078
17	0x3e3efbdb	0.18650763
18	0xbf24f7d6	-0.6444067
19	0x3e4f5b3e	0.2024965
20	0xbe09c1be	-0.13452813
21	0x3d1f6580	0.038915157
22	0x3a89009c	0.0010452452
23	0x3d81f8c5	0.06346277
24	0xbf023856	-0.5086721
25	0xbbe97756	-0.0071248217
26	0xbda34a26	-0.07973127
27	0x3e5d79e1	0.21628524
28	0xbe12777c	-0.14303392
29	0x3e0ed7ed	0.13949557
30	0x3e041b8e	0.12901136
31	0x3e44b455	0.19209416
32	0xbc4dd6bd	-0.012563405
33	0x3e07aab8	0.13248718
34	0xbe9247a8	-0.28570294
35	0x3d1b3986	0.037896655
36	0x3e6a025f	0.22852467
37	0x3ead9d32	0.33908993
38	0x3b4f7421	0.0031654912
39	0xbdbe5cc4	-0.092950374
40	0xbbbcc3b7	-0.0057606357
41	0xbf2187d9	-0.6309791
42	0xbeab336f	-0.33437678
43	0x3e921fbe	0.28539842
44	0x3e16862b	0.14699619
45	0xbf2af294	-0.66776395
46	0x3e286b8a	0.16447273
47	0x3c0d0ca4	0.008608971
48	0x3e12bf58	0.14330804
49	0x3e53b096	0.20672831
50	0x3e7f5fd7	0.24938904
51	0xbe726f52	-0.23675278
52	0xbd1e8254	-0.03869851
53	0xbe318302	-0.17335132
54	0x3d8719e9	0.06596739
55	0xbe76a90e	-0.24087927
56	0xba3547c4	-0.0006915296
57	0x3e6ccd49	0.23125185
58	0x3de020eb	0.109437786
59	0x3ded475a	0.11585875
60	0xbe0d4591	-0.13796069
61	0xbc3762a7	-0.011192954
62	0x3e83dbb1	0.2575355
63	0xbdd9cd82	-0.10634901
64	0x3d8d3a33	0.06895866
65	0x3df93a7f	0.1216936
66	0xbec84451	-0.3911462
67	0xbefc3628	-0.49260068
68	0xbc9860ad	-0.018600786
69	0xbcbcfd15	-0.023069898
70	0xbdc8a94b	-0.09797915
71	0xbe4a3061	-0.19745018
72	0xbd1abc90	-0.037777483
73	0x3e637b5e	0.2221503
74	0xbe8a1464	-0.26968682
75	0xbde0a02c	-0.1096805
76	0xbd0482cf	-0.03235131
77	0x3d6abfa1	0.057311658
78	0xbec50cf8	-0.38486457
79	0xbe2dea1b	-0.16983835
80	0x3c725c61	0.014792533
81	0x3cec57e5	0.028850505
82	0xbe911a8a	-0.2834056
83	0x3be4a537	0.006977703
84	0x3ee7edbf	0.45298573
85	0x3d3f72b0	0.046740234
86	0x3e4a9ed0	0.19787145
87	0xbb82111d	-0.003969325
88	0xbe823857	-0.2543361
89	0xbf36fc8c	-0.71479106
90	0x3de06f0e	0.10958682
91	0x3dcd5f4f	0.10027944
92	0xbde0dea1	-0.10979963
93	0xbd0febd8	-0.035137028
94	0x3e22e3c5	0.159072
95	0x3e570418	0.20997655
96	0x3e6479d5	0.223121
97	0x3e1f7fe3	0.15576129
98	0x3e9ee41d	0.31033412
99	0xbe8e60be	-0.27808183
100	0xbe1b365c	-0.15157455
101	0xbe1ed867	-0.15512238
102	0x3e3ad0b0	0.1824367
103	0x3e58b95c	0.21164459
104	0xbe470ff0	-0.19439673
105	0x3c7d566a	0.015462497
106	0xbed66ef1	-0.41881517
107	0xbe2352c1	-0.15949537
108	0x3e5802fc	0.21094888
109	0xbe5473d9	-0.20747317
110	0x3e9c932b	0.3058103
111	0x3e7e739c	0.24848789
112	0xbed97d32	-0.4247833
113	0xbe2dd675	-0.1697634
114	0xbe254ac7	-0.16141807
115	0x3e20bbc1	0.15696622
116	0x3eea2d85	0.45737854
117	0x3e4df59c	0.20113224
118	0xbe2a0a26	-0.16605434
119	0xbbf12440	-0.0073590577
120	0xbec7ae3f	-0.39000127
121	0x3bfcc7a3	0.0077142282
122	0xbe1c54af	-0.15266679
123	0xbe277281	-0.16352274
124	0x3de7f9e3	0.11326959
125	0xbe0ffc1e	-0.14061019
126	0x3dde5067	0.10855179
127	0x3e676953	0.22598772
128	0xbe5985c6	-0.21242437
129	0xbe26501b	-0.16241495
130	0xbe806390	-0.2507596
131	0xbe3b1fdd	-0.18273874
132	0x3e4cb4bc	0.1999082
133	0x3d8f29d6	0.069904014
134	0xbe88dd7f	-0.26731488
135	0x3e73db8c	0.23814219
136	0xbe2407a8	-0.16018546
137	0xbcfd4ea7	-0.030921293
138	0xbd1164a3	-0.035496365
139	0xbdb30b5e	-0.087424025
140	0x3dafdd5f	0.08587145
141	0xbe1cd2b0	-0.15314746
142	0x3e654de7	0.22392999
143	0xbe09c6d1	-0.13454749
144	0xbdbc37f9	-0.091903634
145	0x3d2a2981	0.041543487
146	0xbed5ff14	-0.41796172
147	0xbd22a260	-0.039705634
148	0x3e784901	0.24246599
149	0x3e70aab3	0.23502617
150	0xbe389217	-0.18024479
151	0x3d9123ec	0.0708693
152	0x3d1acdf5	0.037794072
153	0xbebe526f	-0.37172267
154	0xbbd97dbd	-0.0066373036
155	0x3e1d6d87	0.15373813
156	0xbea733eb	-0.32656798
157	0xbd0c24e3	-0.034214865
158	0xbed63e0b	-0.4184421
159	0xbed59216	-0.41713017
160	0xbdb12740	-0.086500645
161	0xbe174811	-0.14773585
162	0x3ec72dab	0.3890203
163	0xbdc2abf7	-0.09505456
164	0xbee1e034	-0.44116366
165	0x3bab8168	0.0052339323
166	0xbd22f1e7	-0.039781477
167	0xbe041561	-0.1289878
168	0x3e3208a6	0.17386112
169	0x3dd30bc7	0.10304981
170	0x3de3e2be	0.11127232
171	0x3ec2d7de	0.3805532
172	0x3e258552	0.16164139
173	0xbdd2ba51	-0.10289443
174	0xbef3558f	-0.47526214
175	0xbdc553a6	-0.09635095
176	0x3ce514b1	0.027963968
177	0x3c963138	0.018334016
178	0x3c97e06e	0.018539634
179	0xbd46ee2e	-0.04856699
180	0x3de5fb53	0.11229577
181	0xbe4265fa	-0.18984213
182	0xbf301ebd	-0.687969
183	0xbe0016a4	-0.12508637
184	0xbc3a6eb0	-0.011378929
185	0xbd2d653f	-0.042332884
186	0xbe1f71e1	-0.15570785
187	0x3daeed6b	0.08541378
188	0xbea2739e	-0.31728834
189	0x3e267799	0.1625656
190	0xbed441bc	-0.414564
191	0xbf07511e	-0.5285815
192	0xbe67bb86	-0.22630128
193	0xbda6706e	-0.08126913
194	0xbd2a1fa4	-0.04153408
195	0x3ee88e39	0.45421007
196	0x3eee33aa	0.46523792
197	0x3e803f61	0.25048354
198	0xbefaff45	-0.4902288
199	0xbe22574f	-0.15853618
200	0x3e188f38	0.14898384
201	0xbeaac007	-0.3334963
202	0x3e0573df	0.13032483
203	0xbd5341c2	-0.051576383
204	0xbe016ad8	-0.12638414
205	0xbe9882d9	-0.2978733
206	0xbd917c86	-0.07103829
207	0x3d27bd13	0.0409518
208	0xbd3a6e16	-0.045515142
209	0x3dd474a0	0.10373807
210	0xbdb9d636	-0.090740606
211	0xbe5cfbdd	-0.21580453
212	0x3e65b151	0.22430922
213	0x3ea00ebb	0.31261238
214	0xbdf83c6c	-0.121208996
215	0xbe06b53a	-0.1315507
216	0x3e2edfb9	0.17077531
217	0xbeeeec26	-0.46664542
218	0x3e08e655	0.13369115
219	0x3ea2eb40	0.31820107
220	0xbe610e52	-0.21978119
221	0xbd0252bd	-0.031817187
222	0xbebccbed	-0.36874333
223	0x3d516797	0.05112418
224	0x3de29867	0.11064225
225	0x3d880748	0.06642014
226	0x3e23476c	0.15945214
227	0xbd228563	-0.03967799
228	0xbddb34c6	-0.10703425
229	0xb99d6df6	-0.000300273
230	0x3e01419a	0.12622681
231	0xbe374113	-0.17895918
232	0xbd5475b7	-0.051870074
233	0xbdce9206	-0.100864455
234	0xbd994703	-0.074842475
235	0xbe325684	-0.17415816
236	0x3d1b6d81	0.037946228
237	0xbda74476	-0.08167355
238	0xbda0828a	-0.07837398
239	0x3d89e891	0.06733812
240	0x3d50df76	0.05099436
241	0xbd52dc12	-0.051479407
242	0x3e20bdb3	0.15697365
243	0x3e2e4403	0.17018132
244	0x3d6b3163	0.057420146
245	0xbec63fef	-0.38720652
246	0x3e12b811	0.14328028
247	0x3d6a9a2b	0.057275932
248	0xbd88eeb1	-0.06686152
249	0xbd75a7b5	-0.05997439
250	0xbe40a3d2	-0.18812492
251	0x3e1da32f	0.15394281
252	0xba95e6b6	-0.0011436555
253	0x3d1117d5	0.03542312
254	0xbedca64d	-0.43095627
255	0x3d353f1f	0.04424965

l3/b f4 [9]
0	0xbe202118	-0.15637624
1	0xbeb19ad0	-0.34688425
2	0xbe766248	-0.24060929
3	0xbd8d9d7a	-0.06914802
4	0xbb1c40d8	-0.002384236
5	0xbd2f598d	-0.04281001
6	0xbd3c22df	-0.045931693
7	0xbe9ce078	-0.30640006
8	0xbe580d7b	-0.21098892

l0/b f4 [81]
0	0x3e75af5e	0.23992679
1	0xbe9e7b9d	-0.30953684
2	0xbe927955	-0.28608194
3	0xbe9257ae	-0.2858252
4	0xbdb4d46d	-0.088295795
5	0xbed10dc6	-0.4083082
6	0xbf0a3a02	-0.5399476
7	0xbe2bdc0d	-0.16783161
8	0xbd8444bc	-0.064584225
9	0xbd4dcdda	-0.050245143
10	0xbed52844	-0.41632283
11	0xbe37f1d2	-0.17963341
12	0xbdb651e7	-0.089023404
13	0xbe42c1b2	-0.19019201
14	0xbf1ba3c4	-0.6079676
15	0xba5f0afb	-0.0008508411
16	0x3e8ae924	0.27130997
17	0xbe911d29	-0.2834256
18	0xbe815a9d	-0.25264445
19	0xbcf7f971	-0.03027031
20	0x3c23e644	0.01000363
21	0x3ebe2308	0.37136102
22	0xbe47bb7a	-0.1950511
23	0xbed18656	-0.40922803
24	0xbeafdfe8	-0.34350514
25	0xbe7f0029	-0.24902405
26	0xbe855bf0	-0.26046705
27	0xbdeb1401	-0.11478425
28	0xbe1317e2	-0.1436458
29	0xbecb9fd0	-0.39770365
30	0xbe9d937f	-0.30776593
31	0xbe32ab2c	-0.1744811
32	0xbe5e5707	-0.21712886
33	0xbe81ab18	-0.25325847
34	0xbeac438d	-0.33645287
35	0xbed37603	-0.41300973
36	0x3d79ea22	0.061014302
37	0xbf4b055c	-0.7930505
38	0xbe71537a	-0.23567
39	0xbe5a59b4	-0.21323282
40	0xbe5957b4	-0.21224862
41	0xbcb59cc1	-0.022169473
42	0xbe0aa390	-0.13538957
43	0xbe461e20	-0.1934743
44	0xbea7d49d	-0.327794
45	0x3e072982	0.13199428
46	0xbe0b77aa	-0.13619867
47	0xbed61942	-0.41816145
48	0xbf0711f4	-0.5276177
49	0xbe6d2f34	-0.23162538
50	0xbe0f9356	-0.14021048
51	0xbe8425ab	-0.25809988
52	0xbee24eb1	-0.44200662
53	0xbee6dac4	-0.4508878
54	0xbee13903	-0.4398881
55	0xbeae164b	-0.34001383
56	0xbeb123b0	-0.3459754
57	0xbef056eb	-0.46941313
58	0x3dbdbbfd	0.092643715
59	0xbda26d14	-0.07930961
60	0xbe2bb470	-0.1676805
61	0xbec2059e	-0.3789491
62	0x3bb85f5f	0.0056266035
63	0xbe72a5e3	-0.23696093
64	0xbeecc52a	-0.46244174
65	0x3e90f8e4	0.28314888
66	0xbe6f160e	-0.23348257
67	0xbe87896d	-0.26472035
68	0xbe910d65	-0.28330532
69	0xbf4ac084	-0.79200006
70	0xbe0dcae0	-0.13846922
71	0xbee75a3d	-0.45186034
72	0xbead2a35	-0.33821264
73	0xbde161e8	-0.11005002
74	0xbe166712	-0.14687756
75	0xbda3de16	-0.08001344
76	0xbec669ac	-0.38752496
77	0xbdc3ee1e	-0.095669016
78	0xbc920f7d	-0.017829651
79	0xbe8788ba	-0.26471502
80	0xbe901807	-0.2814333

l1/W f4 [81, 81]
0	0xbe6c2972	-0.23062685
1	0xbe5f9da5	-0.2183748
2	0xbe21bf97	-0.15795742
3	0x3b93070e	0.004486925
4	0x3d8cefd6	0.068816826
5	0x3e3ac132	0.1823776
6	0x3e43a212	0.19104794
7	0xbecde345	-0.40212455
8	0xbea71e3b	-0.32640252
9	0xbe830cab	-0.25595602
10	0xbe51cdaf	-0.20488618
11	0xbddeb502	-0.10874368
12	0xbe57e6c1	-0.2108412
13	0xbe486077	-0.19568048
14	0xbe68ecbf	-0.22746561
15	0x3e57cc48	0.21074021
16	0x3c56bdc6	0.013106769
17	0x3b7c4baf	0.003849726
18	0xbe0cb29b	-0.13740008
19	0x3dd290ef	0.1028155
20	0xbdfb937e	-0.12283991
21	0xbddb75e2	-0.10715844
22	0xbc85268e	-0.016253736
23	0x3e05c3ad	0.13062926
24	0x3ca8da2b	0.020611843
25	0xbe036299	-0.12830581
26	0x3eb16592	0.34647804
27	0xbed38b59	-0.4131725
28	0xbe67f414	-0.22651702
29	0xbdaacedd	-0.08340237
30	0xbdfdc297	-0.12390631
31	0xbd879ca9	-0.066216774
32	0x3e70155c	0.23445648
33	0xbc0a9247	-0.008457727
34	0x3e0c22af	0.13685106
35	0xbec952ee	-0.39321083
36	0xbd901d31	-0.07036818
37	0xbd350fff	-0.04420471
38	0xbe161e1d	-0.14659925
39	0xbd8eb6d2	-0.06968464
40	0x3ba65ddb	0.0050771064
41	0x3db77e7c	0.08959672
42	0xbdf09b0a	-0.11748321
43	0x3d95e475	0.07318965
44	0x3e055c4c	0.1302349
45	0x3d086b18	0.033305258
46	0x3a8f3cd1	0.0010928159
47	0xbd87b357	-0.06626003
48	0x3e883871	0.2660556
49	0x3dc96a19	0.0983469
50	0xbd84b7c9	-0.06480367
51	0xbcace270	-0.021104068
52	0x3d4d0b48	0.050059587
53	0x3df4e025	0.11956815
54	0x3d9bd226	0.07608442
55	0xbdfe07a0	-0.12403798
56	0x3d93e0bd	0.072206
57	0x3e867c65	0.2626678
58	0x3da6e334	0.08148804
59	0xbe692f84	-0.22772032
60	0x3e362242	0.17786506
61	0xbe1f3924	-0.15549141
62	0xbe2ad583	-0.16683011
63	0xbd51d20a	-0.0512257
64	0x3e7b3b60	0.24534369
65	0x3be25879	0.0069075194
66	0x3e2b4253	0.1672452
67	0x3c937ac6	0.018002879
68	0xbc2e0eec	-0.010623675
69	0xbe4a314d	-0.1974537
70	0xbe166d47	-0.14690123
71	0x3dce9053	0.100861214
72	0xbe550e9d	-0.20806356
73	0x3d7de06e	0.06198161
74	0x3dabcce6	0.08388691
75	0xbedcc107	-0.43116018
76	0xbe235904	-0.15951926
77	0x3cc3ea19	0.023915337
78	0x3d32f83b	0.043693762
79	0x3d52a6f3	0.051428746
80	0xbe2ed6ee	-0.17074177
81	0xbea4306c	-0.32068193
82	0xbf20c000	-0.6279297
83	0xbdb7a57b	-0.0896711
84	0x3dfdb4f3	0.12388029
85	0xbe141d86	-0.14464387
86	0x3ea4be28	0.32176328
87	0x3e099544	0.13435847
88	0x3e232828	0.15933287
89	0xbe7eb809	-0.24874891
90	0xbdb51dcb	-0.08843573
91	0x3e778ff5	0.24176009
92	0x3ebc6d2b	0.3680204
93	0x3ea5f463	0.32413015
94	0x3e032f61	0.12811042
95	0xbd13e040	-0.036102533
96	0xbd8ad36f	-0.06778609
97	0x3e4b0fee	0.19830295
98	0xbd0a0d34	-0.033703998
99	0x3e35aede	0.17742488
100	0xbe0d08de	-0.13772914
101	0x3e208904	0.15677267
102	0xbe881e10	-0.26585436
103	0x3e862669	0.2620118
104	0xbe487430	-0.19575572
105	0x3d513f00	0.051085472
106	0x3db4a4ab	0.088204704
107	0x3dafe681	0.08588887
108	0xbe4c2eb4	-0.19939691
109	0xbe424eec	-0.18975419
110	0xbd24a50d	-0.040196467
111	0x3d3619bd	0.04445814
112	0xbda9be35	-0.08288232
113	0x3db1d58b	0.08683308
114	0x3e365ddd	0.17809244
115	0xbd631913	-0.055443835
116	0xbded8040	-0.11596727
117	0xbe86f71d	-0.26360407
118	0x3eb93d3f	0.3617954
119	0x3e02be13	0.1276782
120	0x3d50667a	0.05087898
121	0xbcd6daec	-0.026227437
122	0xbea6fe3e	-0.32615846
123	0xbd91f32a	-0.07126458
124	0x3e0ea904	0.13931662
125	0xbe3ce8e1	-0.18448211
126	0xbdc6463d	-0.09681366
127	0xbd9c21f4	-0.076236635
128	0xbe8f361d	-0.27970973
129	0xbdc6cb8e	-0.09706794
130	0x3b25be31	0.0025290365
131	0x3e84f996	0.2597167
132	0xbe67427c	-0.22583956
133	0x3e287271	0.16449906
134	0xbed1a747	-0.40947935
135	0x3df5a9da	0.11995287
136	0xbd9704b6	-0.073739454
137	0x3d36d6a1	0.04463828
138	0x3ebeb95a	0.37250787
139	0x3e0309fe	0.1279678
140	0xbee72e2b	-0.4515241
141	0xbecc6160	-0.3991804
142	0x3e3c4868	0.18386996
143	0xbe1edcd6	-0.1551393
144	0xbe6cde7e	-0.23131749
145	0x3e1f59d6	0.15561613
146	0x3e1cc028	0.15307677
147	0x3dade485	0.08490852
148	0xbea47997	-0.32124016
149	0x3e069b65	0.13145216
150	0x3c13b838	0.009016089
151	0x3e2e7e25	0.17040308
152	0x3e4ddcfd	0.20103832
153	0x3e352ed7	0.17693649
154	0xbe83b32a	-0.2572263
155	0x3bc32055	0.005954782
156	0xbe4d4c29	-0.20048584
157	0xbe5618f1	-0.20907952
158	0x3e631477	0.22175775
159	0x3e21d56c	0.1580407
160	0xbc862ad6	-0.016377848
161	0xbbd7a1c7	-0.0065805647
162	0x3e323377	0.17402445
163	0xbd8b7bfd	-0.06810758
164	0x3de8b5dc	0.11362812
165	0xbd6c87b4	-0.057746604
166	0x3eb58bea	0.35458308
167	0x3e60e489	0.21962179
168	0x3e176527	0.1478468
169	0x3daf975e	0.08573793
170	0xbec5d63e	-0.38640016
171	0x3d8746ea	0.06605323
172	0xbe5d4e82	-0.2161198
173	0xbd0a2038	-0.033722132
174	0xbe225ec8	-0.15856469
175	0xbde264c5	-0.110543765
176	0xbe00f60c	-0.1259386
177	0x3e4ad87a	0.19809142
178	0x3eac7d1c	0.336892
179	0x3e415a6b	0.18882148
180	0xbd643098	-0.055710405
181	0x3cbe5755	0.023235003
182	0x3d88c722	0.066786066
183	0xbe86ce2f	-0.2632918
184	0xbea3658a	-0.31913406
185	0xbdb6d835	-0.08927957
186	0x3c7bed0e	0.015376342
187	0xbe351a21	-0.17685749
188	0xbea2ab65	-0.3177139
189	0xbdf38dc6	-0.118922755
190	0x3e100a93	0.14066534
191	0xbe2378fe	-0.15964124
192	0x3e1ac2c8	0.15113366
193	0xbc2ec31e	-0.010666637
194	0xbd2d54b9	-0.042317126
195	0xbcb6c0ac	-0.02230867
196	0x3d114656	0.03546747
197	0x3e81f848	0.25384736
198	0xbcba5b04	-0.022748478
199	0x3ea006f1	0.31255296
200	0xbe732e16	-0.23748049
201	0xbb8bd814	-0.004267702
202	0xbdd77c59	-0.10521764
203	0xbccea227	-0.025223805
204	0xbdea0ce4	-0.1142824
205	0xbe03a4b3	-0.12855797
206	0x3e92cb9b	0.28670964
207	0xbe75063d	-0.23928161
208	0x3de497e9	0.11161787
209	0xbe37aa12	-0.1793597
210	0x3daf3c38	0.08556408
211	0x3e417759	0.18893184
212	0xbcd14a58	-0.025548145
213	0xbd0d0b98	-0.034434885
214	0x3d8c0298	0.06836432
215	0x3d54a69e	0.05191671
216	0xbea5ea5e	-0.3240537
217	0xbdf02669	-0.11726076
218	0x3c839659	0.016062902
219	0xbea1f688	-0.316334
220	0xbd72a73b	-0.059241515
221	0x3da98049	0.082764216
222	0x3d32590e	0.04354196
223	0xbd32f143	-0.043687116
224	0xbd89bae9	-0.067251034
225	0xbd4c4966	-0.049874686
226	0xbe2cb375	-0.16865332
227	0xbd9b5471	-0.07584465
228	0xbdd4c881	-0.103898056
229	0xbe221b05	-0.1583062
230	0x3e0ead61	0.13933326
231	0x3bece2fc	0.007229207
232	0x3d7f899d	0.062387098
233	0x3de58485	0.11206917
234	0xbe03ac07	-0.12858592
235	0x3cb8612b	0.02250727
236	0xbce13fde	-0.027496275
237	0xbeb456e8	-0.35222554
238	0xbd3032a5	-0.04301705
239	0x3ce458b3	0.027874326
240	0xbcb2f33e	-0.021844503
241	0x3e7d834d	0.24757119
242	0x3d7db403	0.06193925
243	0x3dff5e91	0.12469209
244	0xbe559ab6	-0.20859799
245	0x3d863069	0.06552202
246	0x3e36e613	0.17861204
247	0x3d94b5fc	0.07261273
248	0xbe9762f6	-0.2956769
249	0x3ee5cbd3	0.44882068
250	0xbe2c0dd7	-0.16802154
251	0xbc604a12	-0.013689535
252	0x3e9cf7a8	0.30657697
253	0xbe116c72	-0.14201525
254	0x3e4ebd15	0.20189317
255	0x3d0b4824	0.034004346

l2/W f4 [81, 81]
0	0xbe25b1c2	-0.1618109
1	0xbe44cb3a	-0.1921815
2	0x3d066b30	0.032817066
3	0x3e1327f0	0.14370704
4	0xbecc470c	-0.39897954
5	0x3e788e17	0.24272953
6	0x3dff3957	0.124621086
7	0xbdde7b4a	-0.10863359
8	0x3db33fe0	0.087524176
9	0xbb31f926	-0.002715656
10	0x3b906d82	0.0044075856
11	0x3c8e9c99	0.017408656
12	0x3cedcc7d	0.029028172
13	0xbd408ae2	-0.04700745
14	0xbce53118	-0.027977511
15	0x3cded8ba	0.027202953
16	0xbe156534	-0.14589387
17	0x3cc08c96	0.023504537
18	0x3e212b6c	0.1573922
19	0xbbea73d7	-0.0071549225
20	0x3e6407aa	0.22268549
21	0x3d68929f	0.056780454
22	0x3e7e1b1b	0.24815027
23	0xbe332fea	-0.17498747
24	0xbd89f548	-0.06736237
25	0xbe29340e	-0.16523764
26	0xbf03e59e	-0.51522243
27	0xbd27074b	-0.04077844
28	0x3e378929	0.17923416
29	0xbe4a716a	-0.19769827
30	0xbbb97e5c	-0.005660815
31	0xbdf87994	-0.12132564
32	0xbe2755d4	-0.16341335
33	0xba6bbcd3	-0.00089926756
34	0x3df2a437	0.11847728
35	0xbf06ef1f	-0.5270862
36	0x3d85c6c4	0.06532052
37	0x3d9c4892	0.07631029
38	0xbec321d2	-0.3811174
39	0x3ec20900	0.3789749
40	0xbdd3650d	-0.10322008
41	0x3e14c96d	0.14529963
42	0x3e425752	0.18978623
43	0xbd00ca17	-0.031442728
44	0xbe7aebad	-0.24503966
45	0x3e85a13d	0.26099578
46	0x3dd13fe7	0.102172665
47	0x3d2ffdbb	0.042966586
48	0xbde4decd	-0.111753084
49	0xbe1fec2d	-0.15617438
50	0x3e6146d0	0.21999669
51	0xbe160167	-0.14648972
52	0xbde7bff7	-0.11315911
53	0xbe23a96a	-0.15982595
54	0xbd9f4d85	-0.077784576
55	0xbd7149fc	-0.058908448
56	0x3e9f2d78	0.31089377
57	0xbf426de7	-0.7594895
58	0x3ea75dae	0.3268866
59	0xbea9d62f	-0.33171222
60	0xbe3c2ecb	-0.18377225
61	0xba9af1c9	-0.0011821325
62	0xbe1041d3	-0.1408761
63	0xbd8d4948	-0.06898743
64	0x3d9ca7b2	0.07649173
65	0x3c0e20bd	0.008674798
66	0xbdebc4d3	-0.115121506
67	0xbef1a46f	-0.47195765
68	0x3dff4f62	0.12466313
69	0x3d0a6967	0.033791926
70	0x3e671946	0.22568235
71	0xbe02213d	-0.12707992
72	0xbde4273d	-0.111402966
73	0xbdc7dfa9	-0.09759457
74	0x3ca8a8b6	0.02058826
75	0xbe1626e3	-0.14663272
76	0xbeb19bba	-0.34689122
77	0xbd9605f2	-0.07325353
78	0xbd83905b	-0.06424018
79	0xbecec514	-0.40384734
80	0x3d8367db	0.06416293
81	0x3dbde2be	0.09271763
82	0xbec9652e	-0.39335006
83	0x3e06b3da	0.13154545
84	0x3e0acfc2	0.13555816
85	0x3ae0fdd3	0.0017165489
86	0xbe6b4aed	-0.229778
87	0xbd667465	-0.056263346
88	0xbe593910	-0.21213174
89	0xbde9f8b0	-0.114243865
90	0x3e3c5373	0.18391208
91	0x3d508923	0.050912034
92	0xbcc2d197	-0.02378158
93	0x3dd18f7c	0.102324456
94	0xbe0ea084	-0.1392842
95	0xbdcd2e5a	-0.100186065
96	0xbe02f4ad	-0.12788649
97	0x3dcd64bc	0.10028979
98	0x3d92f2f5	0.071752466
99	0x3e335904	0.17514426
100	0xbebf624d	-0.37379685
101	0x3e556714	0.20840102
102	0x3ee1586f	0.44012782
103	0x3e8a3fbb	0.27001747
104	0x3cdfc4dd	0.027315551
105	0x3d996c29	0.07491333
106	0xbe055d92	-0.13023975
107	0x3e811a80	0.2521553
108	0xbe5e85ad	-0.21730681
109	0x3cfd1158	0.03089206
110	0xbce1798d	-0.02752378
111	0xbe60a6ef	-0.2193868
112	0xbc8f9547	-0.017527236
113	0x3e2655be	0.16243646
114	0x3e223e05	0.15843971
115	0xbcefd69c	-0.029277138
116	0xbea0167a	-0.31267148
117	0x3c5ca19b	0.013466264
118	0x3d67e2af	0.056612667
119	0xbe068cfb	-0.13139717
120	0xbdc3e909	-0.09565932
121	0xbf1a078a	-0.60167754
122	0xbe694042	-0.22778419
123	0xbeccfbda	-0.40035897
124	0x3de9b08c	0.11410627
125	0xbe060f8d	-0.1309187
126	0xbd0f400a	-0.03497318
127	0xbc8ea424	-0.017412253
128	0xbe5ccac1	-0.2156172
129	0xbe25db89	-0.16197027
130	0x3e276a88	0.16349232
131	0xbe8a63e6	-0.2702934
132	0xbd1a18b4	-0.037621215
133	0xbc9b8f25	-0.018989155
134	0x3e43b37f	0.19111441
135	0x3e40e3ba	0.18836871
136	0x3e597092	0.21234348
137	0xbdcb6169	-0.09930689
138	0x3daf8912	0.08571066
139	0xbe399bb7	-0.18125807
140	0x3e1e9459	0.15486278
141	0xbe1d16dc	-0.15340751
142	0x3b583195	0.0032988538
143	0x3e67b2e2	0.22626832
144	0xbe8aacc0	-0.27084923
145	0xbdf7cbd8	-0.12099427
146	0xbc0ff6cf	-0.008786871
147	0x3d2da16e	0.04239028
148	0x3e8692a6	0.2628376
149	0x3cdd7080	0.027031183
150	0xbe760d61	-0.24028541
151	0xbd64dcb2	-0.055874534
152	0xbdacbc13	-0.0843431
153	0xbd0a9277	-0.033831086
154	0xbe479428	-0.19490111
155	0xbdb3e4ef	-0.087839
156	0x3de4bbe2	0.11168648
157	0xbce5d2cc	-0.028054617
158	0xbd1703ff	-0.036869045
159	0x3d06ce45	0.032911558
160	0x3ebafdd9	0.36521795
161	0x3e92898d	0.28620568
162	0xbe62ae88	-0.22136891
163	0x3daf81fb	0.08569714
164	0x3e1ecea3	0.15508513
165	0x3be12614	0.0068709943
166	0x3de8b93e	0.11363457
167	0x3cbbeacd	0.02293911
168	0xbe4eb641	-0.20186712
169	0xbe503762	-0.20333627
170	0xbdece7b2	-0.1156763
171	0xbc2bc00e	-0.010482801
172	0x3e4a56d9	0.19759692
173	0xbdffef72	-0.124968424
174	0xbdaf202c	-0.08551058
175	0xbdd4ce45	-0.10390905
176	0xbc26b297	-0.010174415
177	0xbec9d68f	-0.39421508
178	0xbd8c87c7	-0.06861835
179	0xbe2a270c	-0.16616458
180	0x3d7930f1	0.06083769
181	0xbe3a2a02	-0.18180087
182	0xbe0ba5ab	-0.13637416
183	0xbedd68bc	-0.43243968
184	0x3d480122	0.048829205
185	0xbe10536c	-0.14094323
186	0xbe8e058a	-0.277386
187	0xbd9b4383	-0.07581236
188	0xbdd5c518	-0.10437983
189	0xbde0211e	-0.109438166
190	0xbd1d2e39	-0.03837416
191	0x3e39c096	0.18139872
192	0x3e888522	0.26664072
193	0xbe140a8c	-0.14457148
194	0x3d874606	0.06605153
195	0x3d71c807	0.05902865
196	0xbcbd47b7	-0.023105485
197	0x3eaa3e9a	0.33250886
198	0xbf137644	-0.57602334
199	0x3e56a063	0.2095962
200	0x3d9ee1ce	0.077579126
201	0xbec1f7a5	-0.3788425
202	0xbdd9d2b9	-0.10635895
203	0xbe4d5956	-0.2005361
204	0xbe1ecbe9	-0.15507473
205	0x3e5ff720	0.21871614
206	0xbe237f57	-0.15966545
207	0xbde8a199	-0.11358947
208	0x3e2c61f2	0.16834238
209	0xbe906cf3	-0.28208122
210	0x3dd998e3	0.10624864
211	0xbe0c780d	-0.1371767
212	0x3da1c749	0.07899339
213	0x3d6fba16	0.058527075
214	0xbebff88c	-0.37494314
215	0xbec19f24	-0.37816727
216	0xbdd3eecb	-0.103482805
217	0xbe05adbf	-0.1305456
218	0x3e74ca3d	0.23905273
219	0xbe8f85a8	-0.2803166
220	0xbec21ccc	-0.37912595
221	0xbe5213b7	-0.20515333
222	0x3e4344bf	0.19069193
223	0xbeaacee5	-0.33360973
224	0xbeda70cd	-0.42664185
225	0xbdbfb0ee	-0.093599185
226	0xbe2a92f1	-0.16657616
227	0xbe5695b1	-0.2095554
228	0xbe14a809	-0.14517225
229	0xbe9d5589	-0.3072932
230	0xbe794885	-0.2434407
231	0xbe1ef747	-0.15524016
232	0xbe830a87	-0.2559397
233	0xbca11caf	-0.019666998
234	0xbe891169	-0.26771095
235	0x3d1b2633	0.037878226
236	0xbee21c66	-0.4416229
237	0x3d97fe3c	0.07421538
238	0xbd0a78e5	-0.0338067
239	0x3dde5238	0.10855526
240	0xbdaa1050	-0.083038926
241	0xbe287308	-0.16450131
242	0x3d724817	0.05915078
243	0x3da3b788	0.0799399
244	0xbdf21aba	-0.11821504
245	0xbdc4d62b	-0.09611162
246	0xbe004fbb	-0.12530415
247	0xbe66f694	-0.22555
248	0xbc060e7d	-0.008182165
249	0x3e210b88	0.15727055
250	0x3c9580d3	0.018249905
251	0xbea171ee	-0.31532234
252	0xbd8ae09b	-0.06781121
253	0xbde06e02	-0.10958482
254	0x3cb92f1a	0.022605468
255	0xbd4cc14a	-0.049989022

l1/b f4 [81]
0	0xbdfd6797	-0.12373274
1	0xbe6f9637	-0.23397146
2	0xbe57456e	-0.21022579
3	0xbe851020	-0.25988865
4	0xbecf9dc8	-0.40550065
5	0xbe4ca353	-0.19984178
6	0xbe6ef442	-0.23335364
7	0xbe163fa8	-0.1467272
8	0xbea96a2d	-0.33088818
9	0xbb4e105d	-0.0031442859
10	0xbe8583fc	-0.2607726
11	0xbdd06f87	-0.10177522
12	0xbe4f1930	-0.20224452
13	0xbd9bb87b	-0.07603546
14	0xbdeb99eb	-0.11503967
15	0xbd27bd8a	-0.040952243
16	0xbf0281d0	-0.5097933
17	0xbdb9a608	-0.09064871
18	0x3d86efe2	0.06588723
19	0xbde3120c	-0.110874265
20	0xbe868153	-0.26270542
21	0xbe2ada40	-0.16684818
22	0xbecb2384	-0.39675534
23	0xbed3b519	-0.41349104
24	0xbebb638c	-0.36599386
25	0xbed63596	-0.41837758
26	0xbcd93199	-0.026512908
27	0xbe915945	-0.2838842
28	0xbd0696b6	-0.032858573
29	0x3cfbfef0	0.030761212
30	0xbe9b2482	-0.3030129
31	0xbca43afb	-0.020047655
32	0x3d240464	0.04004325
33	0xbe90afc6	-0.28259104
34	0xbdd3b3a5	-0.10336999
35	0x3da92567	0.08259087
36	0xbe17c9e5	-0.1482311
37	0xbe1e9eb9	-0.15490235
38	0xbf445bdb	-0.7670266
39	0xbe8c9478	-0.27457023
40	0x3e164016	0.14672884
41	0xbdff10e4	-0.124543935
42	0xbe92990c	-0.2863239
43	0xbe042b57	-0.12907158
44	0xbe91ef73	-0.28502998
45	0x3e5c3a3b	0.21506588
46	0xbe1e9d30	-0.1548965
47	0xbe340c71	-0.17582871
48	0xbd8656db	-0.06559535
49	0xbecae9c7	-0.39631483
50	0xbe3ceb1e	-0.18449065
51	0xbe80e9cf	-0.25178382
52	0xbe637683	-0.22213177
53	0xbda35d00	-0.07976723
54	0xbed4138e	-0.4142117
55	0xbd68b1c6	-0.056810163
56	0xbd6c3fa3	-0.057677876
57	0xbe25a8ab	-0.16177623
58	0xbcadac94	-0.021200456
59	0xbee2d813	-0.44305477
60	0xbd7ca9ec	-0.061685488
61	0xbe973fca	-0.29540855
62	0xbe5fdc22	-0.21861318
63	0xbeff9c8f	-0.49924132
64	0x3d5e6186	0.054292224
65	0xbc18015c	-0.009277668
66	0xbf02c03c	-0.51074576
67	0xbe12e18e	-0.14343855
68	0xbdf812d1	-0.12112964
69	0xbe35aea4	-0.17742401
70	0xbd0e9d54	-0.03481801
71	0xbc06958e	-0.008214368
72	0x3eb2a078	0.34888053
73	0xbdee677a	-0.1164083
74	0xbec82c4f	-0.39096305
75	0xbe6fab99	-0.23405303
76	0x3d88c7b2	0.06678714
77	0x3d0da6ed	0.03458302
78	0x3dcc9f0f	0.099912755
79	0xbe30c081	-0.17260934
80	0xbd616613	-0.055028986

l2/b f4 [81]
0	0xbd7459f3	-0.059656095
1	0xbdd7ab96	-0.10530774
2	0xbe4ff5c1	-0.20308591
3	0x3caf0128	0.021362856
4	0x3d34e3e2	0.04416264
5	0xbeaa2f3e	-0.33239168
6	0xbeb7bd71	-0.3588672
7	0xbe1264ac	-0.14296216
8	0xbe0bac21	-0.1363988
9	0x3e14c4e1	0.14528228
10	0xbeca3d3e	-0.3949985
11	0x3d3c4d1e	0.045971982
12	0xbdd1eaf7	-0.10249894
13	0xbe105b90	-0.14097428
14	0x3d7bfb64	0.06151904
15	0x3e5ccada	0.21561757
16	0xbc8879c9	-0.016659634
17	0xbe860cf9	-0.26181772
18	0xbe4f3774	-0.20235997
19	0xbeae2915	-0.34015718
20	0xbe452cd3	-0.1925538
21	0x3d9e946b	0.07743152
22	0xbe461490	-0.19343781
23	0xbe9ce128	-0.3064053
24	0xbdf8afab	-0.12142881
25	0xbd9f40da	-0.07776041
26	0xbe6986aa	-0.22805277
27	0xbe5141b7	-0.20435224
28	0xbe6a6b8d	-0.2289259
29	0xbe587eca	-0.21142116
30	0xbd32e72a	-0.043677486
31	0xbe0e6850	-0.1390698
32	0xbe6cca52	-0.23124054
33	0xbe4f796c	-0.20261163
34	0xbdcd0f4a	-0.10012682
35	0xbe0592fe	-0.13044354
36	0xbe588355	-0.21143849
37	0x3e082936	0.1329697
38	0xbe606176	-0.21912178
39	0xbe0754fd	-0.13216014
40	0x3ce638b9	0.02810322
41	0xbe0ef07a	-0.13958922
42	0xbe940ce7	-0.28916094
43	0xbd82a312	-0.063787594
44	0xbdb80db7	-0.08986991
45	0xbe362e26	-0.17791042
46	0xbe27a386	-0.16370973
47	0xbd9c6dc0	-0.07638121
48	0xbe6989a6	-0.22806415
49	0xbe9416d3	-0.28923663
50	0xbea22553	-0.316691
51	0xbe158899	-0.14602889
52	0xbe22ffaa	-0.1591784
53	0xbe86d811	-0.2633672
54	0xbd6c37cc	-0.0576704
55	0x3e077782	0.13229182
56	0x3dab879c	0.08375475
57	0x3ca611b8	0.02027212
58	0x3cb8d250	0.022561222
59	0xbd50ae95	-0.050947744
60	0xbeb876c6	-0.36028117
61	0xbdb6ea62	-0.08931424
62	0xbe8a27c3	-0.2698346
63	0xbd026bb4	-0.031840995
64	0xbdb68750	-0.089125276
65	0xbe076ac4	-0.13224322
66	0xbe96ca0e	-0.2945103
67	0xbe37a7bb	-0.17935078
68	0xbe9a562c	-0.3014387
69	0xbe4ed182	-0.20197108
70	0xbe8db4b0	-0.27676916
71	0xbeab7f17	-0.334954
72	0xbe039e96	-0.12853464
73	0xbe6b3a56	-0.22971472
74	0xbe4261b9	-0.1898259
75	0xbdfe1ffc	-0.12408444
76	0xbdf46b22	-0.119344965
77	0xbe577e4d	-0.21044274
78	0xbea1b57d	-0.31583777
79	0xbd714b86	-0.058909915
80	0xbe18661b	-0.148827

l0/W f4 [81, 9]
0	0x3ef470dc	0.47742355
1	0x3d98fc47	0.07469993
2	0x3dc906bc	0.098157376
3	0x3e67ef77	0.22649942
4	0x3d7e0f41	0.062026266
5	0x3ec84a7e	0.39119333
6	0x3f00c4bf	0.5030021
7	0x3d72812b	0.059205215
8	0x3f2d4d96	0.6769651
9	0x3d784f53	0.060622524
10	0x3f9b5b3c	1.2137218
11	0x3da20968	0.0791195
12	0xbe4931c3	-0.19647889
13	0x3f25e1d1	0.64797693
14	0xbe45a7ba	-0.19302264
15	0x3c86c26d	0.016450131
16	0x3f1be700	0.60899353
17	0x3ebda0b6	0.37036675
18	0xbd9a668c	-0.075390905
19	0x3e6d36ae	0.2316539
20	0x3e4fb9e7	0.2028576
21	0xbf2dcd5c	-0.6789148
22	0x3e31b005	0.17352302
23	0x3dd31d7c	0.10308358
24	0xbf34264c	-0.70370936
25	0x3d82a97e	0.06379984
26	0xbe9978f8	-0.29975104
27	0x3ef8faa0	0.48628712
28	0x3db417a6	0.08793573
29	0x3d9512e8	0.07278997
30	0xbe1a8e34	-0.15093309
31	0x3e036388	0.12830937
32	0xbec2097e	-0.37897867
33	0xbe703f90	-0.23461747
34	0x3ce330b7	0.02773319
35	0xbeb7efbf	-0.359251
36	0x3f00504b	0.5012252
37	0x3b56963b	0.0032743353
38	0x3c75c662	0.015000911
39	0xbc9ad0cd	-0.018898392
40	0xbf0261de	-0.50930583
41	0xbbe5b28c	-0.00700981
42	0xbcb1515f	-0.021645246
43	0xbe0ac84e	-0.13552973
44	0xbeebbd1f	-0.46042725
45	0xbe926ccf	-0.2859864
46	0xbef4c49a	-0.47806245
47	0x3ee48e13	0.44639644
48	0x3f1c93b0	0.61162853
49	0xbe8a61fa	-0.27027875
50	0x3da33749	0.07969529
51	0xbec3415f	-0.38135812
52	0xbf56f1b2	-0.8396255
53	0x3d8b2144	0.06793454
54	0xbd809bc3	-0.06279709
55	0xbf186990	-0.59536076
56	0xbf10b511	-0.56526285
57	0x3e62e6a2	0.22158292
58	0xbeba58d2	-0.3639589
59	0x3dc127ed	0.09431443
60	0x3f23bc0d	0.6395882
61	0xbe86e08f	-0.263432
62	0xbe90da32	-0.2829147
63	0xbec0f5b6	-0.37687463
64	0xbe995671	-0.29948762
65	0xbe7121e0	-0.23548079
66	0xbeb4a287	-0.3528025
67	0xbe4b22e0	-0.19837523
68	0xbce822cd	-0.028336907
69	0xbeae6da3	-0.3406802
70	0x3f3cf3d6	0.73809564
71	0xbede5292	-0.4342237
72	0x3ebd4ab8	0.36971068
73	0x3e0165e4	0.12636524
74	0x3e55354e	0.20821115
75	0xbe53934f	-0.20661663
76	0x3ceb336b	0.028711041
77	0x3d47ca47	0.04877689
78	0xbd79bc79	-0.060970757
79	0xbf61fd16	-0.88276803
80	0x3ea907e1	0.33013824
81	0x3e5713b2	0.21003607
82	0xbdaf0938	-0.0854668
83	0x3e2d08cd	0.16897888
84	0x3f0551fd	0.5207823
85	0xbeccc7eb	-0.39996275
86	0xbe17afff	-0.14813231
87	0x3cabcf66	0.020972919
88	0x3d82f5cc	0.06394538
89	0x3ea884df	0.32913873
90	0x3e0610a6	0.13092288
91	0xbec22177	-0.37916157
92	0xbee7bfc7	-0.45263502
93	0xbd00d2bd	-0.031450976
94	0x3ca80390	0.020509511
95	0xbd9edf0c	-0.077573866
96	0xbf5855fe	-0.84506214
97	0xbefeef67	-0.49792024
98	0xbf38d624	-0.7220175
99	0x3ef89aa3	0.48555478
100	0x3e073672	0.13204363
101	0xbde245b9	-0.11048455
102	0x3d6702b1	0.05639905
103	0x3f3b2349	0.73100716
104	0x3f2ff5e4	0.68734574
105	0x3ec0cf4d	0.37658158
106	0x3d5ce5f6	0.053930245
107	0xbd24ed59	-0.040265415
108	0x3f03a2da	0.51420367
109	0x3f07311c	0.5280931
110	0x3edee104	0.43531048
111	0x3e2050f3	0.1565588
112	0x3f13ccd5	0.57734424
113	0xbe0a59c7	-0.1351081
114	0xbe726917	-0.23672901
115	0x3eb9a2f0	0.36257124
116	0x3e8cd17c	0.27503574
117	0x3f5a4544	0.8526194
118	0xbed5075a	-0.4160717
119	0x3df8da07	0.121509604
120	0x3e6490b9	0.22320832
121	0x3ed63f16	0.41845006
122	0x3f10c886	0.56555974
123	0x3c1a98d1	0.009435848
124	0xbe8e26f0	-0.27764082
125	0x3f2406f5	0.64073116
126	0xbe4f1551	-0.20222975
127	0x3d9afa2a	0.07567246
128	0xbf634f6f	-0.8879308
129	0x3da485f1	0.0803336
130	0xbf256dd6	-0.6462072
131	0xbd030e15	-0.03199585
132	0xbf467eb6	-0.77537096
133	0x3e96fd70	0.29490232
134	0x3d0dfe01	0.034666065
135	0x3e2263e3	0.15858416
136	0x3ef2d554	0.4742838
137	0x3eb7ac16	0.3587348
138	0x3eef92f1	0.46791795
139	0x3ec09a27	0.3761761
140	0x3ce5fb53	0.028073942
141	0x3e01fc18	0.12693822
142	0xbe6daf41	-0.23211385
143	0x3e086982	0.13321498
144	0x3f6072bc	0.8767507
145	0x3e279b6f	0.16367887
146	0x3ed49778	0.4152181
147	0x3e8f3855	0.27972665
148	0x3ea3d0d0	0.3199525
149	0x3f251ce8	0.6449723
150	0x3edb7380	0.42861557
151	0x3e942e26	0.28941458
152	0x3e51a7fb	0.20474236
153	0xbe7bae7a	-0.24578276
154	0x3e4f724c	0.20258445
155	0xbed96915	-0.42462984
156	0xbeaa7e22	-0.33299357
157	0xbf105e51	-0.56393915
158	0xbf094f03	-0.5363619
159	0x3e7a3f9f	0.24438332
160	0x3c47ca99	0.012194299
161	0xbd7a2d04	-0.061078086
162	0x3cd0554d	0.0254313
163	0xbe9d08e4	-0.30670846
164	0x3d0db65d	0.034597743
165	0xbc19fdd2	-0.009398894
166	0xbe348adf	-0.176311
167	0x3f6ac744	0.91710305
168	0x3dff8036	0.12475626
169	0xbd95a1c3	-0.07306244
170	0x3daaa151	0.0833155
171	0x3c24060f	0.01001121
172	0x3ceab21c	0.028649382
173	0xbe0c4b45	-0.13700588
174	0x3e1ca8f6	0.15298828
175	0xbebebac3	-0.37251863
176	0x3ea95c47	0.33078215
177	0xbe84d8dd	-0.25946704
178	0xbe2d5f97	-0.16930996
179	0x3e949d81	0.29026416
180	0xbe150d86	-0.1455594
181	0x3d7667de	0.06015765
182	0x3efa5c5d	0.48898593
183	0xbe162a1c	-0.14664501
184	0xbd855248	-0.065098345
185	0x3ebf8c82	0.37411886
186	0x3ee3cfbf	0.44494435
187	0x3ea12bb9	0.3147867
188	0xbe95a8da	-0.29230386
189	0x3ed76512	0.42069298
190	0x3f556658	0.8335929
191	0x3edfcd16	0.43711156
192	0x3ee27a3f	0.4423389
193	0x3ed293b9	0.41128328
194	0x3f4b0462	0.7930356
195	0x3ed2c152	0.41163117
196	0x3ecbdaf4	0.39815485
197	0x3ee93e4c	0.4555534
198	0x3d53e7ed	0.051734854
199	0x3ec476df	0.3837194
200	0xbee68139	-0.45020464
201	0xbe8fef9a	-0.2811249
202	0x3ca179a1	0.019711317
203	0x3e729d71	0.23692872
204	0x3e426039	0.18982019
205	0x3ef5b486	0.4798929
206	0x3e2e64cc	0.17030638
207	0x3e890ee6	0.2676918
208	0x3e2c69d7	0.1683725
209	0xbe0f7816	-0.14010653
210	0xbe9fab12	-0.31185204
211	0xbf6393f0	-0.8889761
212	0xbeab31e2	-0.33436495
213	0xbe28bfd9	-0.16479434
214	0x3d6c6f25	0.057723183
215	0x3ed9dad2	0.4254976
216	0x38dda4c6	0.00010568793
217	0xbe316fbc	-0.1732778
218	0xbec83431	-0.3910232
219	0x3f6bb203	0.920685
220	0xbee8c08a	-0.45459396
221	0xbee736ce	-0.45159
222	0xbe770c57	-0.24125801
223	0xbca0acff	-0.019613741
224	0xbefa8a96	-0.48933858
225	0x3d1aae4a	0.03776387
226	0xbd3ef768	-0.046622664
227	0x3f17f107	0.59352154
228	0xbdefe522	-0.117136255
229	0x3dc47986	0.09593491
230	0xbf04948c	-0.51789165
231	0xbd251885	-0.040306587
232	0xbe56cffb	-0.20977776
233	0x3f2fe099	0.68702084
234	0xbeba6a05	-0.3640901
235	0x3c04abb9	0.0080975825
236	0xbd1193fb	-0.035541516
237	0x3e734e01	0.23760225
238	0x3e9b3a5a	0.30317956
239	0x3e9934ef	0.29923198
240	0x3edff49e	0.43741316
241	0xbf0277ff	-0.5096435
242	0x3ea52184	0.32252133
243	0x3f0f7258	0.5603385
244	0xbea66147	-0.32496092
245	0xbe6764d9	-0.22597064
246	0x3ec5958a	0.38590652
247	0xbd8cfd8d	-0.068842985
248	0xbeb6c89b	-0.35699925
249	0x3cfefe44	0.031127103
250	0x3d3253ec	0.043537065
251	0x3e3da15a	0.18518582
252	0x3ee6c502	0.4507218
253	0x3e3c937d	0.18415637
254	0x3dedf98d	0.11619864
255	0xbe028b38	-0.1274842
