chainerrl/TicTacToe/result_100000/target_model.npz (npz, 56594 bytes, 8 tensors)

l3/W f4 [9, 81]
0	0x3e22132a	0.15827623
1	0xbd28b90b	-0.041192096
2	0xbee3aaaf	-0.4446616
3	0x3d10c4a6	0.03534379
4	0xbb850bdb	-0.004060251
5	0xbe225a89	-0.15854849
6	0x3d18062d	0.037115265
7	0xbe2c4827	-0.16824399
8	0x3e5cb783	0.21554379
9	0x3bab2776	0.00522321
10	0xbf21970e	-0.63121116
11	0xbdbc6a83	-0.09200003
12	0xbebf8a51	-0.37410215
13	0x3d265000	0.040603638
14	0x3d6902c5	0.056887407
15	0x3d70cbe5	0.0587882
16	0xbc654190	-0.013992682
17	0x3e3f22a0	0.18665552
18	0xbf22be5e	-0.6357173
19	0x3e51d2d6	0.20490584
20	0xbe0a1f00	-0.13488388
21	0x3d019b8b	0.031642478
22	0x3b1a8a72	0.0023581055
23	0x3d80341a	0.062599376
24	0xbf026d5c	-0.5094812
25	0xbbfcb004	-0.0077114124
26	0xbda5ea7a	-0.081013635
27	0x3e5b2934	0.21402436
28	0xbe18d8f9	-0.14926518
29	0x3e0e7942	0.13913444
30	0x3e07203f	0.13195895
31	0x3e4701c7	0.19434272
32	0xbc21faeb	-0.009886484
33	0x3e0778fd	0.13229747
34	0xbe93389c	-0.28754127
35	0x3d2aa045	0.04165675
36	0x3e6c6866	0.230867
37	0x3eafffbb	0.34374794
38	0x39a2c24c	0.0003104381
39	0xbdcb1a7c	-0.09917161
40	0x39a419c0	0.00031299703
41	0xbf20e04b	-0.62842244
42	0xbeaeaffe	-0.34118646
43	0x3e964f6f	0.29357478
44	0x3e19887e	0.14993474
45	0xbf2be3f3	-0.671447
46	0x3e249268	0.16071475
47	0x3bc4b023	0.0060024424
48	0x3e0c2105	0.13684471
49	0x3e530c32	0.20610121
50	0x3e7d4f25	0.24737222
51	0xbe734c8a	-0.23759666
52	0xbcfdafdb	-0.030967643
53	0xbe2ec702	-0.17068103
54	0x3d829795	0.06376568
55	0xbe77770a	-0.24166504
56	0xbbba1a6b	-0.005679419
57	0x3e7278e8	0.23678935
58	0x3de3082b	0.11085542
59	0x3df6ae28	0.120449364
60	0xbe0b5738	-0.1360749
61	0xbc45024e	-0.012024475
62	0x3e84b92f	0.25922534
63	0xbdd2f62b	-0.10300859
64	0x3d92355d	0.071390845
65	0x3df03f7a	0.11730857
66	0xbec9ac81	-0.39389423
67	0xbef98e9d	-0.48741618
68	0xbc9d8690	-0.019229203
69	0xbcd93dda	-0.026518751
70	0xbdc8b944	-0.098009616
71	0xbe4c6642	-0.19960883
72	0xbd2ea8e3	-0.04264153
73	0x3e61b61f	0.2204213
74	0xbe897338	-0.26845717
75	0xbde39e88	-0.11114222
76	0xbcef048d	-0.029176975
77	0x3d7495b6	0.059713088
78	0xbec9246d	-0.39285603
79	0xbe282d51	-0.16423537
80	0x3ca17772	0.019710276
81	0x3cfd40db	0.030914715
82	0xbe90399d	-0.28168955
83	0x3c48125a	0.012211407
84	0x3ee862e6	0.45387954
85	0x3d3718fe	0.04470157
86	0x3e4ac741	0.19802572
87	0xbaa8922e	-0.0012860948
88	0xbe8131d3	-0.25233325
89	0xbf375f81	-0.716301
90	0x3ddedc13	0.108818196
91	0x3dc773d2	0.09738888
92	0xbdd5a15e	-0.10431169
93	0xbd18700e	-0.03721624
94	0x3e22693a	0.15860453
95	0x3e59d0de	0.21271083
96	0x3e63a15c	0.22229522
97	0x3e1ef5ae	0.15523407
98	0x3e9fb8b3	0.31195602
99	0xbe8a6498	-0.27029872
100	0xbe1ad7c2	-0.15121368
101	0xbe1a024d	-0.1503994
102	0x3e35a9ca	0.1774055
103	0x3e5a9a81	0.21348001
104	0xbe44cfde	-0.1921992
105	0x3c6627d5	0.014047583
106	0xbed73f1b	-0.42040333
107	0xbe236d7b	-0.15959732
108	0x3e5849d7	0.21121918
109	0xbe5254ca	-0.20540157
110	0x3e9f28fa	0.3108595
111	0x3e80c693	0.251515
112	0xbedb5406	-0.42837542
113	0xbe2be5dd	-0.16786905
114	0xbe24cee3	-0.16094546
115	0x3e204888	0.15652668
116	0x3ee89a65	0.45430294
117	0x3e4df714	0.20113784
118	0xbe297ff6	-0.1655272
119	0xbbfaf462	-0.007658527
120	0xbecac982	-0.39606863
121	0x3c21bdd8	0.009871922
122	0xbe1b2442	-0.1515055
123	0xbe2811ce	-0.16413042
124	0x3dec2e64	0.11532286
125	0xbe0ab9ef	-0.1354749
126	0x3dd9976b	0.10624584
127	0x3e65e2d7	0.22449814
128	0xbe591990	-0.21201158
129	0xbe2a70c0	-0.16644573
130	0xbe7fc288	-0.24976552
131	0xbe3cd294	-0.18439704
132	0x3e51bdde	0.20482585
133	0x3d8d7cfc	0.069086045
134	0xbe89930e	-0.26870006
135	0x3e7047d7	0.23464905
136	0xbe26518d	-0.16242047
137	0xbd07ac33	-0.033123206
138	0xbcfca1b7	-0.03083883
139	0xbdaf55ac	-0.085612625
140	0x3db71aeb	0.08940681
141	0xbe1f2244	-0.15540415
142	0x3e66b52c	0.22530049
143	0xbe07ad82	-0.13249782
144	0xbdb5614f	-0.08856451
145	0x3d280716	0.041022383
146	0xbed49781	-0.41521838
147	0xbd197234	-0.03746243
148	0x3e762f64	0.24041516
149	0x3e6ea960	0.23306799
150	0xbe3bff21	-0.18359043
151	0x3d98aacb	0.07454451
152	0x3d1b10c9	0.037857804
153	0xbebfb341	-0.37441447
154	0xbba1ebd2	-0.004941442
155	0x3e1db596	0.15401301
156	0xbeaa7033	-0.33288726
157	0xbcfe6c45	-0.031057486
158	0xbed65e31	-0.41868737
159	0xbed5ef6b	-0.41784224
160	0xbdaee62e	-0.08539997
161	0xbe10a691	-0.1412604
162	0x3ec785a7	0.38969156
163	0xbdb1770a	-0.08665283
164	0xbee04292	-0.4380079
165	0x3b3e91a8	0.0029078517
166	0xbd17ec0b	-0.037090342
167	0xbe01059b	-0.12599795
168	0x3e2eb923	0.17062812
169	0x3dd3c5c2	0.10340454
170	0x3deab0b2	0.11459483
171	0x3ebfafc2	0.3743878
172	0x3e268fe7	0.16265832
173	0xbdcc41c7	-0.099734835
174	0xbef2fe54	-0.47459662
175	0xbdcf2454	-0.10114351
176	0x3d0406b4	0.032232955
177	0x3c82672c	0.015918337
178	0x3c66e55b	0.014092769
179	0xbd464a22	-0.048410542
180	0x3df6d3d1	0.120521195
181	0xbe415b18	-0.18882406
182	0xbf30d016	-0.69067514
183	0xbe03933f	-0.12849139
184	0xbc107e8a	-0.008819232
185	0xbd34a5c5	-0.044103403
186	0xbe23d5d2	-0.15999535
187	0x3db22de8	0.08700162
188	0xbea4cb3e	-0.3218631
189	0x3e259095	0.16168435
190	0xbed32ba6	-0.4124424
191	0xbf07928a	-0.52957976
192	0xbe6d1f03	-0.23156361
193	0xbd9ec785	-0.07752899
194	0xbd0fade3	-0.03507794
195	0x3eeb4f5d	0.45958987
196	0x3eed99be	0.46406358
197	0x3e80dd18	0.2516868
198	0xbef973d8	-0.48721194
199	0xbe25a587	-0.16176425
200	0x3e160c23	0.14653067
201	0xbeab9eab	-0.33519492
202	0x3e086739	0.13320626
203	0xbd4cb8dd	-0.049980987
204	0xbe01a5c3	-0.1266089
205	0xbe98a2ee	-0.29811805
206	0xbd99e6ec	-0.07514748
207	0x3d1db106	0.0384989
208	0xbd30d585	-0.043172378
209	0x3dd24c1f	0.10268425
210	0xbdbe6e81	-0.09298421
211	0xbe5c15b4	-0.21492654
212	0x3e632ddb	0.22185461
213	0x3ea2f619	0.31828383
214	0xbdefb546	-0.11704497
215	0xbe07e760	-0.13271856
216	0x3e2be1e1	0.16785385
217	0xbeed35e9	-0.46330193
218	0x3e0cdab8	0.1375531
219	0x3ea1c966	0.31598967
220	0xbe65e32f	-0.22449945
221	0xbd12cee0	-0.035841823
222	0xbebebda3	-0.37254056
223	0x3d541d71	0.05178589
224	0x3de311b6	0.110873625
225	0x3d817d18	0.06322688
226	0x3e21bf70	0.15795684
227	0xbd221e56	-0.03957971
228	0xbddcf588	-0.10789019
229	0xbadd2f0e	-0.0016874985
230	0x3e00de3e	0.12584779
231	0xbe3686a7	-0.17824803
232	0xbd566eba	-0.05235169
233	0xbdcb2675	-0.099194445
234	0xbd9b6a89	-0.07588679
235	0xbe2fc06b	-0.17163245
236	0x3d1a270c	0.037634894
237	0xbdada41f	-0.08478569
238	0xbda02bf7	-0.07820886
239	0x3d82cd98	0.0638687
240	0x3d576c26	0.052593373
241	0xbd661b35	-0.05617829
242	0x3e26f943	0.16306023
243	0x3e303ce5	0.1721073
244	0x3d58423e	0.05279755
245	0xbec28b24	-0.3799678
246	0x3e194ae6	0.14969978
247	0x3d62f47f	0.05540895
248	0xbd8d2931	-0.06892622
249	0xbd7daa58	-0.06193003
250	0xbe41f12c	-0.18939656
251	0x3e1a55da	0.15071812
252	0xbb38340d	-0.0028107197
253	0x3d014de9	0.03156844
254	0xbedfaccc	-0.4368652
255	0x3d1949b7	0.037423816

l3/b f4 [9]
0	0xbe1bbe14	-0.15209228
1	0xbeb0cd8d	-0.34531823
2	0xbe75a538	-0.23988807
3	0xbd9b6c6d	-0.0758904
4	0xba9b4aa2	-0.0011847804
5	0xbd0064ba	-0.03134606
6	0xbd4bf846	-0.04979732
7	0xbe9f9256	-0.31166333
8	0xbe5ee1bf	-0.21765803

l0/b f4 [81]
0	0x3e7ad191	0.24494006
1	0xbe9ddd25	-0.30832782
2	0xbe93602b	-0.28784308
3	0xbe91c70c	-0.28472173
4	0xbdae302c	-0.08505282
5	0xbed0f86b	-0.40814528
6	0xbf0a0551	-0.5391436
7	0xbe2e2df8	-0.17009723
8	0xbd830394	-0.06397167
9	0xbd59d64f	-0.053182896
10	0xbed6b14e	-0.41932148
11	0xbe36b072	-0.17840746
12	0xbdaf32ee	-0.08554636
13	0xbe4241d9	-0.18970431
14	0xbf1af87e	-0.6053542
15	0xbbd65cc4	-0.0065418202
16	0x3e892128	0.2678311
17	0xbe8edaac	-0.27901208
18	0xbe829f05	-0.25511947
19	0xbd0176ae	-0.031607322
20	0xbafe0214	-0.0019379281
21	0x3ebd327f	0.36952588
22	0xbe4569ca	-0.19278637
23	0xbeced7ac	-0.4039892
24	0xbeae762a	-0.34074527
25	0xbe78f238	-0.24311149
26	0xbe855cb1	-0.2604728
27	0xbded66dc	-0.115918845
28	0xbe140be8	-0.14457667
29	0xbecbcd43	-0.3980504
30	0xbe9c028c	-0.30470693
31	0xbe2d592c	-0.16928548
32	0xbe5de6d4	-0.21670085
33	0xbe81b7e5	-0.25335613
34	0xbeadc6e1	-0.33940795
35	0xbed123cb	-0.4084762
36	0x3d65abb3	0.05607195
37	0xbf4ac3cf	-0.7920503
38	0xbe6edd9f	-0.23326729
39	0xbe5fb737	-0.21847235
40	0xbe5d70da	-0.2162508
41	0xbc7ed777	-0.0155543005
42	0xbe0a3331	-0.1349609
43	0xbe41db0f	-0.1893122
44	0xbea95f51	-0.33080533
45	0x3e05e061	0.13073875
46	0xbe08c8dc	-0.13357872
47	0xbed3d664	-0.41374505
48	0xbf059e8b	-0.5219504
49	0xbe6efaa6	-0.23337802
50	0xbe0a3635	-0.13497241
51	0xbe844ba6	-0.25838965
52	0xbee1ca63	-0.4409972
53	0xbee4b993	-0.44672832
54	0xbedecfec	-0.43518007
55	0xbeab1eea	-0.33422023
56	0xbeaeb6c6	-0.3412382
57	0xbeef9c75	-0.46799055
58	0x3db4c3c8	0.08826405
59	0xbd9bf4b7	-0.07615035
60	0xbe31711c	-0.17328304
61	0xbec348a5	-0.3814136
62	0x3ac8b817	0.0015313652
63	0xbe79b9d7	-0.24387299
64	0xbeeae341	-0.45876506
65	0x3e91c856	0.28473157
66	0xbe6c5ec2	-0.23083022
67	0xbe87da29	-0.2653363
68	0xbe911115	-0.28333345
69	0xbf4ada4f	-0.7923936
70	0xbe10dbed	-0.14146395
71	0xbee7e63d	-0.45292845
72	0xbeab72b8	-0.3348596
73	0xbddfd9a9	-0.10930187
74	0xbe1c662d	-0.15273352
75	0xbdae27a1	-0.08503652
76	0xbec60717	-0.38677284
77	0xbdd1311f	-0.10214447
78	0xbc7613b2	-0.015019344
79	0xbe86fceb	-0.26364836
80	0xbe933c21	-0.28756812

l1/W f4 [81, 81]
0	0xbe6c02f3	-0.23048
1	0xbe5ebedf	-0.21752499
2	0xbe225b2a	-0.15855089
3	0x3b77455b	0.0037730548
4	0x3d88c159	0.06677503
5	0x3e3ab81a	0.18234292
6	0x3e41ceaa	0.18926492
7	0xbece245b	-0.40262112
8	0xbea77100	-0.327034
9	0xbe833eff	-0.25634
10	0xbe52e195	-0.20593865
11	0xbddf7c4d	-0.1091238
12	0xbe582a44	-0.21109873
13	0xbe47f18a	-0.19525734
14	0xbe69a378	-0.22816265
15	0x3e56f59f	0.20992135
16	0x3c41906a	0.011814216
17	0x3b5b012b	0.0033417444
18	0xbe0d6de2	-0.13811448
19	0x3dd11629	0.10209305
20	0xbdfe4224	-0.12414959
21	0xbdddf283	-0.10837271
22	0xbc885bf7	-0.016645415
23	0x3e05a5cf	0.13051532
24	0x3c9b5d9e	0.018965539
25	0xbe02515d	-0.1272635
26	0x3eb1eba5	0.34750095
27	0xbed3ad8b	-0.4134334
28	0xbe678356	-0.22608694
29	0xbda80fd5	-0.08206145
30	0xbdfedf87	-0.12444978
31	0xbd88d15a	-0.06680556
32	0x3e706912	0.23477581
33	0xbc09e29d	-0.008415845
34	0x3e0bc5e4	0.13649708
35	0xbeca1214	-0.39466918
36	0xbd8e09f8	-0.06935495
37	0xbd3cb81c	-0.046074018
38	0xbe167a94	-0.14695197
39	0xbd8eacfc	-0.06966588
40	0x3bc3f992	0.005980679
41	0x3db65caa	0.08904393
42	0xbdecdac2	-0.11565162
43	0x3d94b9b6	0.07261984
44	0x3e05b9c9	0.13059153
45	0x3d06546c	0.032795355
46	0x38c98fd3	9.611216e-05
47	0xbd860358	-0.065436065
48	0x3e886840	0.26642036
49	0x3dc705fa	0.09717937
50	0xbd8673fa	-0.065650895
51	0xbcac4962	-0.021031085
52	0x3d49ea0a	0.049295463
53	0x3dfa3865	0.12217788
54	0x3d9c948a	0.07645519
55	0xbdfd7dec	-0.12377533
56	0x3d9443cd	0.072394945
57	0x3e86e05a	0.26343042
58	0x3da6d347	0.08145767
59	0xbe65e376	-0.2245005
60	0x3e352c9a	0.17692795
61	0xbe202b81	-0.15641595
62	0xbe2b9bc3	-0.16758637
63	0xbd4af117	-0.049546327
64	0x3e7b6a8a	0.2455236
65	0x3bdeef62	0.006803439
66	0x3e2b0824	0.16702324
67	0x3c9787a3	0.018497294
68	0xbc2f7dcd	-0.010711146
69	0xbe4a36b7	-0.19747435
70	0xbe14c790	-0.14529252
71	0x3dd09ed3	0.10186543
72	0xbe556a25	-0.20841272
73	0x3d768c0a	0.060192145
74	0x3dac07fa	0.08399959
75	0xbedc543f	-0.43033025
76	0xbe233ae1	-0.1594043
77	0x3cc49e80	0.02400136
78	0x3d2e31df	0.04252803
79	0x3d4bf73b	0.049796324
80	0xbe2f553b	-0.17122357
81	0xbea4bd90	-0.32175875
82	0xbf20eee7	-0.62864536
83	0xbdb1d15c	-0.0868251
84	0x3dfe7600	0.124248505
85	0xbe15d27f	-0.14631079
86	0x3ea42292	0.32057625
87	0x3e086c1e	0.13322493
88	0x3e24f313	0.1610835
89	0xbe7ec8af	-0.24881242
90	0xbdb6958a	-0.08915241
91	0x3e79490c	0.24344271
92	0x3ebc8eb1	0.36827615
93	0x3ea5df70	0.32397032
94	0x3e03b57a	0.12862197
95	0xbd1908cc	-0.037361905
96	0xbd8d0bb9	-0.068870015
97	0x3e4afd2f	0.19823144
98	0xbd0afadd	-0.033930648
99	0x3e353475	0.17695792
100	0xbe0dd8c8	-0.13852227
101	0x3e213b4c	0.15745276
102	0xbe88b52b	-0.2670072
103	0x3e84f9e5	0.25971904
104	0xbe49fb62	-0.19724801
105	0x3d4ff829	0.050773773
106	0x3db68dfd	0.08913801
107	0x3daefda6	0.08544473
108	0xbe4cce23	-0.2000051
109	0xbe4295e7	-0.19002496
110	0xbd22d59e	-0.039754502
111	0x3d392547	0.045201566
112	0xbdab27b2	-0.08357181
113	0x3db2964f	0.08720075
114	0x3e35c6bb	0.17751591
115	0xbd66f705	-0.05638792
116	0xbdee9ed0	-0.11651385
117	0xbe867fac	-0.2626928
118	0x3eb93485	0.36172882
119	0x3e040991	0.12894274
120	0x3d5185a0	0.051152825
121	0xbccfe930	-0.025379747
122	0xbea75d16	-0.32688206
123	0xbd90c38a	-0.07068546
124	0x3e0e7a71	0.13913895
125	0xbe3d5126	-0.18487987
126	0xbdc81f98	-0.09771651
127	0xbd9f9679	-0.07792372
128	0xbe8ec75a	-0.27886468
129	0xbdc6260a	-0.09675224
130	0x3b34cc8d	0.0027587742
131	0x3e85fa0a	0.26167327
132	0xbe675407	-0.22590648
133	0x3e270c61	0.16313316
134	0xbed10096	-0.4082076
135	0x3df5d1a5	0.12002877
136	0xbd967d78	-0.0734815
137	0x3d42a145	0.04751708
138	0x3ebf774a	0.37395698
139	0x3e03ef28	0.128842
140	0xbee748fe	-0.45172876
141	0xbeccac74	-0.3997532
142	0x3e3af9a8	0.18259299
143	0xbe1ddc93	-0.15416174
144	0xbe6ba4eb	-0.2301213
145	0x3e208725	0.15676554
146	0x3e1c7e1d	0.15282483
147	0x3db32b71	0.0874852
148	0xbea47075	-0.32117048
149	0x3e05029b	0.12989275
150	0x3c0a7e76	0.008453002
151	0x3e3036e6	0.17208442
152	0x3e4ea72b	0.20180957
153	0x3e35e5c5	0.17763431
154	0xbe831148	-0.25599122
155	0x3bdd0bd6	0.0067457957
156	0xbe4c8749	-0.19973482
157	0xbe553a12	-0.20822933
158	0x3e64c06b	0.22339027
159	0x3e22df88	0.15905583
160	0xbc93e8db	-0.01805537
161	0xbbe81339	-0.0070823696
162	0x3e339eba	0.17541018
163	0xbd8f0e60	-0.06985164
164	0x3de4cc91	0.111718304
165	0xbd720692	-0.059088297
166	0x3eb5abe3	0.35482702
167	0x3e64cc4b	0.22343557
168	0x3e1a6a68	0.15079653
169	0x3dadca01	0.08485795
170	0xbec53921	-0.38520148
171	0x3d88e67f	0.06684589
172	0xbe5e6261	-0.21717216
173	0xbd0495bd	-0.032369364
174	0xbe23d155	-0.15997823
175	0xbde3f558	-0.1113078
176	0xbe02c8fc	-0.12771982
177	0x3e4c7db1	0.19969822
178	0x3eac70be	0.33679765
179	0x3e435241	0.19074346
180	0xbd5c2915	-0.053750116
181	0x3cc86e75	0.024466733
182	0x3d8f6ee0	0.070035696
183	0xbe850e35	-0.25987402
184	0xbea32f6b	-0.31872115
185	0xbdbaf7da	-0.09129305
186	0x3c8d99d4	0.017285265
187	0xbe365f7c	-0.17809862
188	0xbea147f0	-0.31500196
189	0xbdf55f96	-0.11981122
190	0x3e11edad	0.14250822
191	0xbe22aa29	-0.15885223
192	0x3e1b8b8e	0.15189955
193	0xbc463599	-0.01209774
194	0xbd329fa0	-0.04360926
195	0xbca24f6c	-0.019813262
196	0x3d16ccc0	0.03681636
197	0x3e810ca5	0.2520496
198	0xbcb7ddd8	-0.02244465
199	0x3ea22ba0	0.31673908
200	0xbe72ecf4	-0.23723203
201	0xbb9345ef	-0.0044944207
202	0xbddc372e	-0.10752712
203	0xbcbe60b9	-0.02323948
204	0xbdedb0cf	-0.11605989
205	0xbe004e4a	-0.12529865
206	0x3e9473a7	0.28994486
207	0xbe758d4b	-0.2397968
208	0x3deacc5c	0.1146476
209	0xbe374e39	-0.17900933
210	0x3db1dc2c	0.086845726
211	0x3e43bcdd	0.19115014
212	0xbcc8a621	-0.024493279
213	0xbd018806	-0.031623863
214	0x3d836479	0.06415648
215	0x3d4e0f07	0.0503073
216	0xbea6ffac	-0.32616937
217	0xbdecec2b	-0.11568483
218	0x3c85092e	0.016239729
219	0xbea24664	-0.3169433
220	0xbd6b6e3b	-0.05747817
221	0x3dae7d04	0.085199386
222	0x3d438924	0.04773821
223	0xbd3557ac	-0.044273064
224	0xbd88a4e2	-0.06672074
225	0xbd530f05	-0.051527996
226	0xbe2b2903	-0.16714863
227	0xbd982d52	-0.07430519
228	0xbdd3b9bb	-0.1033816
229	0xbe21c434	-0.15797502
230	0x3e0e5760	0.13900518
231	0x3c15660d	0.009118569
232	0x3d80675e	0.06269716
233	0x3de51780	0.11186123
234	0xbe037048	-0.128358
235	0x3cc0a035	0.023513893
236	0xbcbc4a50	-0.022984654
237	0xbeb44ecd	-0.3521637
238	0xbd3b731d	-0.045764077
239	0x3ce3c2c6	0.027802836
240	0xbca033e2	-0.01955599
241	0x3e7fcc1b	0.24980204
242	0x3d7ea0e0	0.06216514
243	0x3e013efe	0.12621686
244	0xbe54a340	-0.207654
245	0x3d85e59c	0.06537935
246	0x3e382817	0.17984043
247	0x3d9bc189	0.07605273
248	0xbe97e9f3	-0.29670677
249	0x3ee49171	0.44642213
250	0xbe2e2537	-0.17006384
251	0xbc133d3c	-0.008986767
252	0x3e9d542e	0.30728287
253	0xbe10e7f7	-0.14150988
254	0x3e4e4043	0.20141701
255	0x3d0b26a1	0.033972386

l2/W f4 [81, 81]
0	0xbe26ce82	-0.16289714
1	0xbe443b3d	-0.19163223
2	0x3d0ab6cf	0.033865746
3	0x3e141b6c	0.14463586
4	0xbecbf36f	-0.39834163
5	0x3e797d1c	0.24364132
6	0x3dff3246	0.12460761
7	0xbdde5b73	-0.10857286
8	0x3dac0da7	0.084010415
9	0xbb1b1800	-0.0023665428
10	0x3b770b2b	0.0037695866
11	0x3c92ab94	0.01790408
12	0x3cf227c7	0.029559983
13	0xbd3bb380	-0.04582548
14	0xbcfc4b11	-0.030797513
15	0x3ce1c234	0.027558424
16	0xbe16d256	-0.14728674
17	0x3ca8354c	0.020533226
18	0x3e23408b	0.1594259
19	0xbc166a40	-0.009180605
20	0x3e64741a	0.22309914
21	0x3d5f053d	0.054448355
22	0x3e807f32	0.25097042
23	0xbe32e60f	-0.17470573
24	0xbd883579	-0.06650824
25	0xbe295460	-0.16536093
26	0xbf03efcf	-0.51537794
27	0xbd32d932	-0.043664165
28	0x3e36bbb1	0.17845036
29	0xbe490e24	-0.196343
30	0xbbbdf254	-0.00579671
31	0xbdf87343	-0.121313594
32	0xbe287f53	-0.1645482
33	0xba301341	-0.0006716736
34	0x3dece755	0.115675606
35	0xbf06a3ca	-0.5259367
36	0x3d85c44e	0.06531583
37	0x3d9e5183	0.07730391
38	0xbec31d04	-0.38108075
39	0x3ec297ee	0.38006538
40	0xbdd39f09	-0.10333068
41	0x3e15b1b0	0.14618564
42	0x3e3f325f	0.18671559
43	0xbcfd60f0	-0.030930012
44	0xbe7a8971	-0.24466492
45	0x3e83837e	0.25686258
46	0x3dd492cb	0.10379561
47	0x3d21dac2	0.039515264
48	0xbde843db	-0.113410674
49	0xbe228549	-0.15871157
50	0x3e5f2ebf	0.21795176
51	0xbe121886	-0.14267167
52	0xbde7e87b	-0.11323639
53	0xbe23ea84	-0.1600743
54	0xbda1f779	-0.0790853
55	0xbd7a4d7e	-0.06110906
56	0x3e9f11a8	0.31068158
57	0xbf42265b	-0.75839776
58	0x3ea7dc47	0.32785246
59	0xbea98efb	-0.33116898
60	0xbe3b62c0	-0.18299389
61	0xba7c399b	-0.0009621621
62	0xbe127c9f	-0.14305352
63	0xbd8908c7	-0.06691127
64	0x3d9af87f	0.07566928
65	0x3bda34c4	0.006659122
66	0xbdeeb265	-0.1165512
67	0xbef22b2c	-0.47298563
68	0x3dfb4f50	0.12270987
69	0x3cee1b68	0.029065803
70	0x3e670147	0.22559081
71	0xbe0203e0	-0.1269679
72	0xbde6cc68	-0.11269456
73	0xbdc70df7	-0.097194605
74	0x3cb8bb21	0.022550168
75	0xbe1891ee	-0.14899418
76	0xbeb27dd5	-0.34861627
77	0xbd978800	-0.07398987
78	0xbd87c719	-0.06629772
79	0xbecf960b	-0.4054416
80	0x3d83db79	0.064383455
81	0x3db64241	0.08899356
82	0xbeca361b	-0.39494404
83	0x3e05ede4	0.1307903
84	0x3e0cfd4c	0.137685
85	0x3b255a4e	0.0025230828
86	0xbe6c2003	-0.23059087
87	0xbd69f17d	-0.057115067
88	0xbe5b9117	-0.21442066
89	0xbde28414	-0.11060348
90	0x3e3d3d7e	0.18480489
91	0x3d4481b8	0.047975272
92	0xbcc9d5f2	-0.02463815
93	0x3dd26bff	0.10274505
94	0xbe0c175e	-0.13680789
95	0xbdca04bd	-0.09864185
96	0xbe01e1bf	-0.12683772
97	0x3dca827c	0.09888169
98	0x3d8cb15c	0.06869766
99	0x3e31ba53	0.17356233
100	0xbebf0297	-0.37306663
101	0x3e55d4ce	0.2088196
102	0x3ee364cf	0.44412848
103	0x3e8ab7c7	0.27093336
104	0x3cf31143	0.029671317
105	0x3d9796df	0.07401823
106	0xbe04d0dc	-0.12970299
107	0x3e7f1deb	0.24913757
108	0xbe5e0a43	-0.21683602
109	0x3d01cea0	0.031691194
110	0xbce5d517	-0.02805571
111	0xbe5f1ee9	-0.21789135
112	0xbc8b016c	-0.016968451
113	0x3e25003d	0.16113372
114	0x3e22c201	0.15894319
115	0xbcde231f	-0.027116356
116	0xbea09ac0	-0.31368065
117	0x3c62e420	0.013848335
118	0x3d6d1860	0.057884574
119	0xbe07c87c	-0.13260072
120	0xbdc2c232	-0.09509696
121	0xbf1a134f	-0.6018571
122	0xbe6919f4	-0.22763807
123	0xbecc67d4	-0.39922965
124	0x3de92246	0.1138349
125	0xbe05f9f1	-0.13083626
126	0xbd0be510	-0.034153998
127	0xbca23fbf	-0.019805787
128	0xbe5d45c4	-0.21608645
129	0xbe265e1f	-0.16246842
130	0x3e28a4a3	0.16469054
131	0xbe8b0c77	-0.27157947
132	0xbd1eb0ac	-0.038742706
133	0xbc8d2d3f	-0.01723349
134	0x3e42e989	0.19034399
135	0x3e41a300	0.18909836
136	0x3e5698ae	0.2095668
137	0xbdc7d6b5	-0.09757749
138	0x3dacd0e7	0.084382825
139	0xbe36aec5	-0.17840107
140	0x3e20d069	0.15704502
141	0xbe1a77e1	-0.15084793
142	0x3a967798	0.0011479734
143	0x3e69fa59	0.22849406
144	0xbe8aa58f	-0.27079436
145	0xbdfdbdf2	-0.12389745
146	0xbc124f91	-0.008930103
147	0x3d34e295	0.044161398
148	0x3e883b26	0.26607627
149	0x3cc42e12	0.02394775
150	0xbe766174	-0.24060613
151	0xbd646cab	-0.055767696
152	0xbdaed3d9	-0.085365005
153	0xbd07c50f	-0.033146914
154	0xbe475001	-0.19464113
155	0xbdb70850	-0.08937132
156	0x3de0e52c	0.10981211
157	0xbce55404	-0.027994163
158	0xbd17bcf7	-0.037045445
159	0x3d10c205	0.03534128
160	0x3eb9c8ad	0.36285916
161	0x3e925409	0.2857974
162	0xbe63ff7a	-0.22265425
163	0x3db12740	0.086500645
164	0x3e1ceb8a	0.15324226
165	0x3bf8450b	0.00757659
166	0x3de75757	0.11295956
167	0x3cbbf03a	0.022941697
168	0xbe4df163	-0.20111613
169	0xbe4fc769	-0.20290913
170	0xbde95f2f	-0.11395108
171	0xbc153795	-0.00910749
172	0x3e46a37b	0.193983
173	0xbdff8011	-0.124755986
174	0xbdae2b00	-0.08504295
175	0xbdd71f4d	-0.10504017
176	0xbc259144	-0.010105435
177	0xbec8e00e	-0.3923344
178	0xbd8f435f	-0.06995272
179	0xbe2b8b66	-0.16752395
180	0x3d72883c	0.059211954
181	0xbe38f449	-0.18061937
182	0xbe0c1faf	-0.13683961
183	0xbedcbc1e	-0.43112272
184	0x3d41505d	0.04719578
185	0xbe10ccb7	-0.14140593
186	0xbe8e1f74	-0.27758372
187	0xbda1759a	-0.07883759
188	0xbdd97456	-0.106178924
189	0xbddc20b0	-0.10748422
190	0xbd265e22	-0.040617116
191	0x3e3a5fa8	0.18200552
192	0x3e893507	0.2679827
193	0xbe12acd2	-0.14323738
194	0x3d844f3f	0.064604275
195	0x3d70063b	0.05859969
196	0xbcbea49e	-0.023271855
197	0x3ea9805e	0.3310575
198	0xbf12e70f	-0.5738382
199	0x3e542426	0.20716915
200	0x3d9e1b71	0.07720078
201	0xbec17ffa	-0.3779295
202	0xbddb47df	-0.10707068
203	0xbe4ce5b2	-0.20009497
204	0xbe1c3339	-0.15253915
205	0x3e5c3099	0.21502914
206	0xbe226cd4	-0.15861827
207	0xbdea40cc	-0.1143814
208	0x3e2c0026	0.16796932
209	0xbe8fdddb	-0.2809895
210	0x3ddb0f30	0.10696256
211	0xbe0cab32	-0.13737181
212	0x3d9ed1a1	0.07754827
213	0x3d64596a	0.055749334
214	0xbebfdf7f	-0.374752
215	0xbec17191	-0.37781957
216	0xbdd57d24	-0.10424259
217	0xbe0523fd	-0.1300201
218	0x3e74a30d	0.23890324
219	0xbe8fbe6a	-0.28074962
220	0xbec2200b	-0.37915072
221	0xbe4ef88a	-0.20211998
222	0x3e44954c	0.19197577
223	0xbeab6dc3	-0.3348218
224	0xbeda13ad	-0.42593136
225	0xbdbdfa8b	-0.09276303
226	0xbe2ccb26	-0.1687437
227	0xbe581cbc	-0.21104711
228	0xbe1217a0	-0.14266825
229	0xbe9da59d	-0.30790415
230	0xbe77619f	-0.24158333
231	0xbe1d9fd6	-0.15393004
232	0xbe82c85d	-0.2554349
233	0xbc9cd801	-0.019145967
234	0xbe8a10dd	-0.2696599
235	0x3d1459f3	0.036218595
236	0xbee174dc	-0.4403447
237	0x3d8f3cbd	0.06994007
238	0xbd05787f	-0.032585617
239	0x3dde9eb8	0.10870117
240	0xbda94ea2	-0.08266951
241	0xbe280ca0	-0.16411066
242	0x3d695b95	0.056972105
243	0x3da5685e	0.08076547
244	0xbdf64c81	-0.12026311
245	0xbdc2242d	-0.09479556
246	0xbe004c13	-0.1252902
247	0xbe654558	-0.22389734
248	0xbc20008a	-0.0097657535
249	0x3e21537e	0.15754506
250	0x3c91a37e	0.017778154
251	0xbea1ed85	-0.31626526
252	0xbd89d28a	-0.0672961
253	0xbddcc909	-0.10780532
254	0x3cb849fd	0.022496218
255	0xbd47fe79	-0.04882667

l1/b f4 [81]
0	0xbe005a06	-0.12534341
1	0xbe6e4431	-0.232682
2	0xbe51efa8	-0.20501578
3	0xbe834bb7	-0.25643703
4	0xbecf79fa	-0.40522748
5	0xbe4a7412	-0.1977084
6	0xbe6dacf2	-0.23210505
7	0xbe14f06d	-0.1454484
8	0xbea6852c	-0.32523477
9	0xbab90f1f	-0.0014118886
10	0xbe864c79	-0.2623022
11	0xbdd58d82	-0.10427381
12	0xbe4ceddb	-0.2001261
13	0xbd9e96c0	-0.07743597
14	0xbdeed9bf	-0.116626255
15	0xbd2115ce	-0.039327435
16	0xbf026c7f	-0.509468
17	0xbdb8b255	-0.09018389
18	0x3d8e18d5	0.0693833
19	0xbddb1863	-0.10698011
20	0xbe87d361	-0.26528457
21	0xbe2d715a	-0.16937771
22	0xbeca1d99	-0.39475706
23	0xbed2a472	-0.41141087
24	0xbebb67c7	-0.36602613
25	0xbed2337a	-0.41054899
26	0xbcb7bf54	-0.0224301
27	0xbe91fd19	-0.2851341
28	0xbcf2a258	-0.029618427
29	0x3cf52a95	0.029927531
30	0xbe9957ff	-0.29949948
31	0xbca3f709	-0.020015256
32	0x3d0dbb3c	0.03460239
33	0xbe91b79d	-0.28460398
34	0xbdde2c2d	-0.108482696
35	0x3da8788b	0.08226117
36	0xbe12f6b3	-0.14351921
37	0xbe1ac9c4	-0.1511603
38	0xbf43d1ba	-0.7649189
39	0xbe8f528f	-0.27992675
40	0x3e17db91	0.14829852
41	0xbe06bb28	-0.13157332
42	0xbe90c671	-0.282764
43	0xbe067603	-0.13130955
44	0xbe92f657	-0.28703567
45	0x3e57997e	0.21054646
46	0xbe2447e5	-0.1604305
47	0xbe314d6a	-0.17314687
48	0xbd7c920a	-0.06166271
49	0xbecb0d63	-0.3965865
50	0xbe43a0f9	-0.19104375
51	0xbe846654	-0.2585932
52	0xbe62a405	-0.22132881
53	0xbda646c1	-0.08118964
54	0xbed3f539	-0.41398028
55	0xbd77559d	-0.06038438
56	0xbd798eed	-0.06092732
57	0xbe205ea9	-0.1566111
58	0xbca824ea	-0.020525414
59	0xbee4ce14	-0.44688475
60	0xbd871a99	-0.0659687
61	0xbe96dfcb	-0.29467615
62	0xbe6014a7	-0.21882878
63	0xbeffe595	-0.49979845
64	0x3d69c9e2	0.057077296
65	0xbb838dc7	-0.004014704
66	0xbf01d415	-0.50714236
67	0xbe0d4afe	-0.13798138
68	0xbdf916aa	-0.12162526
69	0xbe3a1127	-0.18170606
70	0xbd07b648	-0.03313282
71	0xbbb0790c	-0.0053855237
72	0x3eaffab3	0.34370956
73	0xbde33118	-0.11093348
74	0xbec71487	-0.3888285
75	0xbe71cf24	-0.23614174
76	0x3d8900a0	0.06689572
77	0x3d07d230	0.033159435
78	0x3dc8280c	0.09773263
79	0xbe325c2c	-0.17417973
80	0xbd582d61	-0.05277765

l2/b f4 [81]
0	0xbd79db78	-0.061000317
1	0xbdd91475	-0.10599605
2	0xbe53b61a	-0.20674935
3	0x3c9c41d2	0.019074354
4	0x3d51191f	0.051049348
5	0xbea8a9d3	-0.32942066
6	0xbeb51118	-0.35364604
7	0xbe15f6f3	-0.14644985
8	0xbe09e710	-0.1346705
9	0x3e128e47	0.14312087
10	0xbecac217	-0.39601204
11	0x3d3bc244	0.045839563
12	0xbddc350e	-0.10752307
13	0xbe0a55d3	-0.13509302
14	0x3d7145f8	0.058904618
15	0x3e5d5640	0.21614933
16	0xbca19b36	-0.01972733
17	0xbe870bdc	-0.26376235
18	0xbe51197f	-0.20419882
19	0xbeadc22e	-0.3393721
20	0xbe4293e7	-0.19001733
21	0x3d97cf65	0.07412604
22	0xbe44ebbd	-0.19230552
23	0xbe9bac6f	-0.30404994
24	0xbdfc8db3	-0.123317145
25	0xbd959457	-0.07303684
26	0xbe6b93ab	-0.2300555
27	0xbe4e9c56	-0.20176825
28	0xbe6e2e53	-0.23259859
29	0xbe59c440	-0.2126627
30	0xbd10ab9a	-0.035319902
31	0xbe0cff95	-0.13769372
32	0xbe6f60ac	-0.23376721
33	0xbe4a3bf7	-0.19749437
34	0xbdcbd3ad	-0.09952483
35	0xbe0646c5	-0.13112934
36	0xbe5af4d3	-0.21382456
37	0x3e0e00a4	0.13867432
38	0xbe5d247e	-0.21595952
39	0xbe021cfe	-0.12706372
40	0x3d12cb5a	0.035838462
41	0xbe0e21e0	-0.1388011
42	0xbe91c27d	-0.28468695
43	0xbd81066b	-0.06300052
44	0xbdc0a8e1	-0.09407211
45	0xbe374cfb	-0.1790046
46	0xbe26ccd9	-0.1628908
47	0xbda56fec	-0.08077988
48	0xbe656113	-0.22400312
49	0xbe9310e8	-0.28723836
50	0xbea4f06d	-0.3221468
51	0xbe15e6f4	-0.14638883
52	0xbe1df84f	-0.15426753
53	0xbe866773	-0.262508
54	0xbd7010ec	-0.058609888
55	0x3e07d92b	0.13266437
56	0x3dab679a	0.0836937
57	0x3cc22f3e	0.023704167
58	0x3cadde0c	0.021224044
59	0xbd5fe5ed	-0.054662634
60	0xbeb509f3	-0.35359153
61	0xbdb599dc	-0.08867237
62	0xbe8a2338	-0.26979995
63	0xbd0d8c4a	-0.03455762
64	0xbdac4061	-0.08410717
65	0xbe09fe26	-0.13475856
66	0xbe97405e	-0.29541296
67	0xbe3bc801	-0.18338014
68	0xbe9bfb29	-0.30465057
69	0xbe546743	-0.20742516
70	0xbe8e3c9f	-0.27780625
71	0xbeac1c23	-0.33615217
72	0xbe023eb0	-0.12719226
73	0xbe704940	-0.23465443
74	0xbe42560c	-0.18978137
75	0xbdf35af2	-0.11882581
76	0xbdf26138	-0.11834949
77	0xbe5a7894	-0.2133506
78	0xbe9f9b58	-0.31173205
79	0xbd765e95	-0.060148794
80	0xbe177529	-0.14790787

l0/W f4 [81, 9]
0	0x3ef50eff	0.47863004
1	0x3d963dd1	0.07336009
2	0x3dbf330e	0.0933591
3	0x3e6b3282	0.22968486
4	0x3d78237e	0.060580723
5	0x3ec7db6f	0.39034602
6	0x3f018fc7	0.5061001
7	0x3d71ae1b	0.05900393
8	0x3f2d4f47	0.6769909
9	0x3d8034c5	0.06260065
10	0x3f9baf5d	1.2162892
11	0x3d9b048a	0.07569225
12	0xbe4caa81	-0.19986917
13	0x3f273a0f	0.65322965
14	0xbe46db49	-0.19419588
15	0x3c8cea80	0.017201662
16	0x3f1addb7	0.6049456
17	0x3ebd87f6	0.37017792
18	0xbda370c2	-0.07980491
19	0x3e6c04c4	0.23048693
20	0x3e511b35	0.20420535
21	0xbf2f58b1	-0.6849471
22	0x3e2fc58f	0.17165206
23	0x3ddb6b52	0.10713829
24	0xbf32fcfd	-0.6991728
25	0x3d81589f	0.06315731
26	0xbe990564	-0.29886925
27	0x3ef97cc8	0.48728013
28	0x3dae3981	0.08507062
29	0x3d9b8468	0.07593614
30	0xbe19636f	-0.14979337
31	0x3dfcca09	0.12343223
32	0xbec3a3d5	-0.3821093
33	0xbe70affd	-0.23504634
34	0x3cebf9a2	0.028805558
35	0xbeb80f83	-0.35949335
36	0x3eff3d96	0.49851674
37	0x3b35bb8c	0.0027730195
38	0x3c5bae6d	0.013408286
39	0xbca21ad0	-0.019788176
40	0xbf03692a	-0.5133234
41	0xbc43fcff	-0.011962174
42	0xbc411dc2	-0.01178688
43	0xbe098708	-0.13430417
44	0xbeebe278	-0.4607122
45	0xbe955266	-0.29164428
46	0xbef43a3c	-0.4770068
47	0x3ee75a34	0.45186007
48	0x3f1ce5c0	0.6128807
49	0xbe8952a7	-0.2682087
50	0x3d9b3e83	0.075802825
51	0xbec30dc9	-0.38096455
52	0xbf56093a	-0.8360783
53	0x3d85a1fe	0.06525038
54	0xbd8eefa4	-0.069793016
55	0xbf1876c9	-0.5955625
56	0xbf1118cd	-0.5667847
57	0x3e617817	0.22018467
58	0xbeba2579	-0.36356714
59	0x3dc7e622	0.09760691
60	0x3f243eb1	0.6415816
61	0xbe8622f4	-0.26198542
62	0xbe8dc1b3	-0.27686843
63	0xbec3c0af	-0.38232943
64	0xbe9876c6	-0.29778117
65	0xbe6c5d72	-0.23082522
66	0xbeb0e269	-0.34547737
67	0xbe4be877	-0.19912897
68	0xbcee3bfc	-0.029081337
69	0xbeae9dab	-0.34104666
70	0x3f3d4061	0.7392636
71	0xbedfa826	-0.43682975
72	0x3ebc90e9	0.36829308
73	0x3e02adcb	0.1276161
74	0x3e59e1b8	0.21277511
75	0xbe4eafe8	-0.2018429
76	0x3ce2f7a4	0.027705975
77	0x3d427ee8	0.04748431
78	0xbd8a98c2	-0.067674175
79	0xbf62256b	-0.88338345
80	0x3ea880d8	0.329108
81	0x3e5150f0	0.20441031
82	0xbda1f6f3	-0.0790843
83	0x3e2ef619	0.17086066
84	0x3f05aaba	0.52213633
85	0xbecd1dc5	-0.40061775
86	0xbe14d520	-0.14534426
87	0x3ca0ca94	0.019627847
88	0x3d82d005	0.06387333
89	0x3ea6ecda	0.32602578
90	0x3e0c3f79	0.13696088
91	0xbec14bed	-0.3775324
92	0xbee3cdcf	-0.44492957
93	0xbd15932e	-0.036517315
94	0x3c923389	0.01784684
95	0xbd9dd339	-0.07706303
96	0xbf59ca93	-0.8507473
97	0xbf0023b1	-0.5005446
98	0xbf393fd3	-0.72363013
99	0x3ef9502e	0.48693985
100	0x3e0a74fb	0.13521187
101	0xbde31c57	-0.1108939
102	0x3d64422e	0.055727176
103	0x3f3a7798	0.72838736
104	0x3f2f7388	0.6853566
105	0x3ec33220	0.3812418
106	0x3d5700b6	0.052490912
107	0xbd3495a1	-0.04408801
108	0x3f0417fa	0.51599085
109	0x3f06a881	0.52600867
110	0x3edd5534	0.43229067
111	0x3e1f5aa9	0.15561928
112	0x3f14d3cb	0.5813567
113	0xbe0c2c4c	-0.13688773
114	0xbe718a59	-0.23587932
115	0x3eb9c60b	0.36283907
116	0x3e8c5987	0.27412054
117	0x3f5a3a16	0.8524488
118	0xbed726e0	-0.42021847
119	0x3df88daf	0.12136399
120	0x3e673e7f	0.22582434
121	0x3ed8c607	0.42338583
122	0x3f103924	0.5633719
123	0x3c0f0fc4	0.008731786
124	0xbe8b1a99	-0.2716873
125	0x3f242d8a	0.6413199
126	0xbe521fe9	-0.20519985
127	0x3d93a08c	0.07208356
128	0xbf640ccc	-0.89082026
129	0x3daf0729	0.085462876
130	0xbf2412b7	-0.64091057
131	0xbce451cd	-0.027871037
132	0xbf477209	-0.7790838
133	0x3e97f0d9	0.2967594
134	0x3d031b35	0.03200837
135	0x3e20b067	0.15692292
136	0x3ef208a4	0.47272217
137	0x3eb686f5	0.3564984
138	0x3ef04c68	0.46933293
139	0x3ebf3fa3	0.37353238
140	0x3ce9976c	0.028514586
141	0x3e08d35f	0.13361882
142	0xbe6b087a	-0.22952452
143	0x3e098ebf	0.1343336
144	0x3f607d30	0.8769102
145	0x3e275777	0.16341959
146	0x3ed4f0d7	0.41589996
147	0x3e904488	0.28177285
148	0x3ea3e398	0.32009578
149	0x3f249ec4	0.6430476
150	0x3edaa465	0.42703548
151	0x3e93bb02	0.28853613
152	0x3e543a6f	0.20725416
153	0xbe8317d3	-0.25604114
154	0x3e51b495	0.20479043
155	0xbedbb456	-0.42911023
156	0xbeaa5ee4	-0.3327552
157	0xbf0eceed	-0.55784494
158	0xbf09c2d5	-0.53812915
159	0x3e7b5511	0.24544169
160	0x3c8b348c	0.01699283
161	0xbd7cc4e7	-0.06171122
162	0x3ca532da	0.02016585
163	0xbe9c9a66	-0.30586547
164	0x3d1122d8	0.03543362
165	0xbc09903d	-0.0083962055
166	0xbe2fdc07	-0.17173778
167	0x3f6baa11	0.92056376
168	0x3dfd5f78	0.12371725
169	0xbd99617b	-0.07489296
170	0x3da6eeb3	0.08150997
171	0x3c1d66f1	0.009607063
172	0x3cf8e7af	0.030383913
173	0xbe096ca8	-0.13420355
174	0x3e1f3f16	0.15551409
175	0xbebe64b2	-0.371862
176	0x3eaad957	0.33368942
177	0xbe843101	-0.25818637
178	0xbe2ef0b7	-0.17084013
179	0x3e9196d3	0.28435382
180	0xbe1032eb	-0.14081924
181	0x3d66604c	0.05624418
182	0x3ef8a7ad	0.48565426
183	0xbe0eb676	-0.13936791
184	0xbd7fe8a3	-0.06247772
185	0x3ebbbe84	0.3666879
186	0x3ee0f211	0.43934682
187	0x3ea3a0b0	0.31958532
188	0xbe91b944	-0.2846166
189	0x3ede81ff	0.43458554
190	0x3f569968	0.8382783
191	0x3edfd0e9	0.43714073
192	0x3ee18a81	0.44050983
193	0x3ed06078	0.406986
194	0x3f4a6af0	0.79069424
195	0x3ed12e52	0.40855652
196	0x3ec8cf80	0.3922081
197	0x3ee8caef	0.45467326
198	0x3d509fb5	0.05093356
199	0x3ec2ddee	0.38059944
200	0xbee86bf6	-0.45394868
201	0xbe902687	-0.28154394
202	0x3c94c9c3	0.018162614
203	0x3e70df99	0.23522796
204	0x3e434e90	0.19072938
205	0x3ef72ffc	0.48278797
206	0x3e303cc0	0.17210674
207	0x3e89e3f0	0.26931715
208	0x3e311867	0.17294465
209	0xbe11b33c	-0.14228529
210	0xbe9fae02	-0.31187445
211	0xbf64788c	-0.8924644
212	0xbeac025f	-0.3359556
213	0xbe27f4a8	-0.16401923
214	0x3d781460	0.060566306
215	0x3ed723f7	0.42019626
216	0xba885810	-0.0010402221
217	0xbe33f232	-0.17572859
218	0xbeca9125	-0.3956386
219	0x3f6b5550	0.9192705
220	0xbee9facb	-0.45699152
221	0xbee51ef1	-0.4475017
222	0xbe7363df	-0.23768567
223	0xbc94b503	-0.01815272
224	0xbef98dbf	-0.48740956
225	0x3d0f9612	0.035055228
226	0xbd2a4141	-0.041566137
227	0x3f18a5d8	0.5962806
228	0xbdf00682	-0.11719991
229	0x3dc9aede	0.098478064
230	0xbf0593b6	-0.52178514
231	0xbd3b0bdf	-0.045665618
232	0xbe5938cb	-0.21213071
233	0x3f303748	0.6883435
234	0xbebc1b71	-0.36739686
235	0x3bafcfc7	0.005365345
236	0xbd1a851e	-0.037724607
237	0x3e735965	0.2376457
238	0x3e9b8d95	0.30381456
239	0x3e9a4528	0.30130887
240	0x3edf6662	0.436328
241	0xbf00f350	-0.50371265
242	0x3ea5d633	0.32389984
243	0x3f0f3dff	0.55953974
244	0xbea42595	-0.32059923
245	0xbe68dc7c	-0.22740358
246	0x3ec53116	0.38514012
247	0xbd8994d8	-0.06717843
248	0xbeb6663b	-0.3562487
249	0x3cd7ea41	0.026356818
250	0x3d3c1264	0.045915976
251	0x3e3e2449	0.18568529
252	0x3ee60ceb	0.4493173
253	0x3e3cdd91	0.18443896
254	0x3dea9e61	0.1145599
255	0xbe004007	-0.12524424
