chainerrl/NeverSay20/result_100000/model.npz (npz, 27525 bytes, 6 tensors)

l2/W f4 [3, 81]
00000000: 0e43 dc3b fa4a babb 4e41 803c d220 3b3f
00000010: 5792 00bf 26e0 733e ebb5 853d 619c 86be
00000020: 9444 573e 7c98 563d 5bad ffbe 9f52 5abd
00000030: 0149 a33f baf3 6d3f 2a69 37bc 0f3d 02bc
00000040: 06b9 5a3e 0925 d0bf 30dc 9dbb f8f5 1fbf
00000050: 1868 dc3e 1ebf 7ebc 3507 9c3e ccf6 21bd
00000060: 1212 eb3c 181d cebf f541 0cbf 2a3a 3bbd
00000070: 35a0 c2ba d8c1 4ebe fc93 c7bb b074 50bf
00000080: 0439 a23d cd01 6b3e 0228 94bd 95e6 82bf
00000090: ff1d 883c 37c8 fa3c 79de 933f e7f5 08be
000000a0: bbcd 9dbb 78c5 203f 0d5b 923e 3b3a 3dbe
000000b0: 7d79 d1bd 97f4 61bf 4087 013f aaa4 36be
000000c0: d8d5 83bf d748 98bd 97ab 67be 6ba1 273f
000000d0: acd2 1a3f bf91 19be 8e40 02be ce1c 11bc
000000e0: 1e6c d93c 7162 2bbf ece6 b3be c0e4 dabd
000000f0: 5982 183e 22b9 2f3d b3c9 323f cd38 683d
00000100: ecf7 aa3d a756 383f 8170 bb3d 2f20 4a3c
00000110: 82bf 4dbe d3e3 d6be ca0d 1fbe 456e a63e
00000120: 028d 093d 4b19 aebe b741 a63f c368 eebe
00000130: ae49 8d3c a91d b7bd 6e46 43be a350 b3be
00000140: 5638 d9bb 6f27 15bc 6c04 43bc f857 6fbd
00000150: a8b4 b13e 33d9 a9be d00a 61be 3344 25bd
00000160: c33c cc3d ca49 613e 1a5e df3b b50a 77be
00000170: ef33 2f3d 2d41 583e c49f 74bf 276f dcbc
00000180: 5721 24bb 5a57 3f3d 7d5b a3bd bcd0 d33c
00000190: 49c8 76be c567 72bd 9161 53bc 4ffe 84bd
000001a0: bdd0 263e 3600 81bd ac94 563f 4615 3abe
000001b0: 6b7a 323c ae43 41bb 3a94 77bc 406b b43b
000001c0: cee3 c23e b327 99bd d6cf 90be e9ad 1f3d
000001d0: 9047 003f a192 5e3d d1f5 28bd 9054 4abf
000001e0: 1525 9c3d a74f 873d 0672 04bf 12aa 4f3e
000001f0: 242c 203d 229c 7b3b 91e7 73be b0e6 6bbf
00000200: a4ee 1b3e 633a d43d 7cf8 e33b 1a39 213e
00000210: 110e a2bf a0c1 0cbf 1519 8fbc b7f9 e63c
00000220: 68fe 19bd 0cde 0fbd 6bf0 a73e 9a45 54bd
00000230: 37d0 723d 1fcc b9bd 7c28 15bd b9e6 1c3f
00000240: 96ca ddb9 d106 62bd 82ce 15bf 1998 41bd
00000250: 0a6c 8d3c 4754 4dbd 7c5a 183e 9342 bf3d
00000260: 184d 5c3f fce8 b13d be56 303e 3d47 763f
00000270: 2475 4f3e adb8 8bbd b5c4 313e ab9c 26bd
00000280: 939d 5e3f d90a 723d cce0 95ba b0b1 ca3c
00000290: feb3 393d 76c9 0c3f 1a3d 8dbf 205a 1cbd
000002a0: fbf9 dabc dcd4 06be b870 453e 5e41 b73c
000002b0: 4636 c63d ad48 d4bd 420e 9e3f eb7d 813e
000002c0: ea89 97bc f9c9 babb 30ff 2f3f f6a8 10bf
000002d0: 7fa0 2fbd f673 90be c125 88be 0bee 5bbd
000002e0: cd4e 0c3e f857 babe a7de 533d da9c 643d
000002f0: 7209 04bf 5725 be3c 02ee b53c ca29 0dbd
00000300: dc72 123d 138d 7abf 2183 24bd 4efe 1d3f
00000310: efb0 3cbd 8aa1 a7bf cbd5 773c dc1f 923c
00000320: 38bf e8be ad00 a6bd 0b40 973b 0509 4ebe
00000330: 363b 6b3e 1b9c 9ebf 0cb2 62bc 7fe3 b5bc
00000340: 3fb4 0d3f 0ee3 193e 0ddc 623d e644 99bd
00000350: 70ce d9bb 1798 e43e 978f f1bd 43a6 20be
00000360: b778 2fbd 0640 c03d f1f0 3bbb 34da 61bf
00000370: 9c8a 6dbf be14 003e cf2e 453e 6dc9 d43d
00000380: a095 233f 297c 82bd 156c de3d ef21 7abe
00000390: e6b7 5ebe 407c e7bd c933 8bbd d346 8c3e
000003a0: 9934 bebd 4526 ef3e e4c3 843d aaa8 1bbe
000003b0: ea27 c03f 5293 35bf d735 c03d 9592 9abe
000003c0: d245 57bb 976b 8ebf 2cbf efbc
0.0067218607 -0.0056852074 0.01565614 0.73096955 -0.50223297 0.23815975 0.06528839 -0.26291183
0.21022254 0.052391514 -0.49936947 -0.05330145 1.2756654 0.9295002 -0.011194507 -0.007949128
0.21359643 -1.6261302 -0.004817508 -0.62484694 0.43048167 -0.015548496 0.3047425 -0.039542004
0.02869514 -1.6102629 -0.5478814 -0.045709766 -0.0014848771 -0.20191133 -0.006090639 -0.8142805
0.07921031 0.22949906 -0.072341934 -1.0226618 0.016615866 0.030613048 1.1552268 -0.13375054
-0.0048157847 0.62801313 0.2858509 -0.18479244 -0.1022825 -0.8826384 0.50597 -0.17836252
-1.0299635 -0.07435768 -0.2262405 0.6548068 0.6047771 -0.14997004 -0.12719938 -0.008856965
0.026540812 -0.66947085 -0.35137117 -0.10688162 0.14893474 0.042901166 0.6983902 0.056694794
0.083480686 0.7200722 0.09152318 0.012336775 -0.20092586 -0.4197069 -0.15532604 0.32506004
0.03358174 -0.34003672 1.2988805 -0.46564302 0.017247047 -0.08941204 -0.19069836 -0.35022458
-0.00662903 -0.00910364 -0.01190291 -0.058433503 0.34708142 -0.33173522 -0.21976781 -0.040348243
0.09972527 0.22000805 0.0068166377 -0.24125178 0.042774137 0.21118613 -0.95556283 -0.02690847
-0.0025044286 0.046714164 -0.079764344 0.025856368 -0.2409984 -0.059180994 -0.01290168 -0.06493818
0.16290565 -0.06298868 0.83820605 -0.18172178 0.0108934445 -0.0029489803 -0.015111024 0.0055059493
0.38064426 -0.07478275 -0.28283566 0.038984213 0.50109196 0.054339055 -0.041250054 -0.7903528
0.0762426 0.06606989 -0.51736486 0.2027972 0.039104596 0.0038392623 -0.23818804 -0.92148876
0.15227753 0.10362699 0.006957112 0.15744439 -1.2660543 -0.5498295 -0.017468015 0.028195245
-0.037596136 -0.03512387 0.32800612 -0.05182419 0.0592806 -0.09072136 -0.036415562 0.61289555
-0.00042303343 -0.055182282 -0.5851823 -0.047264192 0.017263431 -0.0501292 0.14878267 0.0933887
0.86055136 0.08687016 0.1722059 0.9620245 0.2025953 -0.068223335 0.17360194 -0.040676754
0.8695919 0.059092376 -0.0011434793 0.024742931 0.04533767 0.54994905 -1.1034272 -0.038171887
-0.026730528 -0.13167137 0.1928128 0.022370037 0.096783206 -0.10365424 1.2348101 0.2529138
-0.01849838 -0.0057003465 0.6874876 -0.56507814 -0.04287767 -0.2821347 -0.26591304 -0.053693812
0.13701935 -0.3639524 0.05172601 0.055813648 -0.5157691 0.023211164 0.022208218 -0.03446368
0.03575407 -0.9787151 -0.040164117 0.61716163 -0.046067175 -1.3096173 0.015126656 0.017837457
-0.45458388 -0.08105598 0.004615789 -0.20120628 0.22971806 -1.239139 -0.013836395 -0.022203205
0.5535316 0.1502802 0.055385638 -0.074838445 -0.0066469237 0.44647285 -0.11794966 -0.15688424
-0.042839732 0.093872115 -0.0028677548 -0.88223577 -0.92789626 0.12507913 0.19256137 0.103899814
0.63900185 -0.06371338 0.10860459 -0.24427007 -0.21749839 -0.11302996 -0.067969866 0.27397785
-0.09287376 0.46708885 0.06482676 -0.15201059 1.5012181 -0.7092792 0.09385269 -0.30189958
-0.0032848013 -1.1126584 -0.029265963

l0/b f4 [81]
00000000: e156 cfbe 5ac2 65c0 8833 a3bf 2e20 b7bc
00000010: 09a6 a8bc 3743 453f c44f 2fbd d2c9 3e3f
00000020: 8559 123c dced c93f fbd9 323f be67 053f
00000030: baf3 edbd 18be 233f c1c3 ae3f 7e68 aa3e
00000040: cb5c 8ac0 e281 59c0 ccd7 3dbc c9c2 f83f
00000050: f809 f2be 23d1 62bc 6cb4 b2bb 220b a23e
00000060: 4353 64be c2d5 0ebe 3271 753f a46e 81c0
00000070: 6734 963f 79eb fc3e 51e0 7fc0 bd39 47bd
00000080: b688 1ebd bc31 4ac0 13a6 cfbe 4659 4c3e
00000090: 411a 94bd 2df0 533e f024 05bc 5a71 0e3f
000000a0: ea0b 22c0 f6c0 10bb 1ee3 67bf b779 963e
000000b0: 4284 fa3e 01ee 0dbc 6deb 79bb 7254 69bf
000000c0: b038 c03d c376 47c0 5282 163f 0625 2fc0
000000d0: 6861 f7bd 32f0 ff3f ea9b 1ac0 3221 32bf
000000e0: b706 04bc b402 713f 27f0 a43f ee3c 1540
000000f0: 48c9 73bf 3822 b23d 25ae b2c0 68ec 4cc0
00000100: 80b4 bfbd c3e8 c7ba d852 eb3f e811 71bd
00000110: 039b 36bf 5a80 3e3e 8025 98c0 b261 c2bc
00000120: 6aca d6be 0a3d 5d3e ff32 33c0 c24c 073e
00000130: 75cf 41c0 f28e eb3f 0eeb 913d 011d 0d3e
00000140: a338 2c3f
-0.4049597 -3.5899873 -1.2750101 -0.022354212 -0.020586984 0.77055687 -0.04280068 0.74526703
0.008932476 1.5775714 0.6986386 0.52111423 -0.11618753 0.63961935 1.3653489 0.33282846
-4.3238273 -3.3985524 -0.0115870945 1.9434444 -0.4727323 -0.013843807 -0.005453637 0.3164912
-0.22297387 -0.1394873 0.9587585 -4.044756 1.1734742 0.493984 -3.9980662 -0.048639048
-0.038704596 -3.1592855 -0.40556392 0.1995593 -0.0723157 0.20697089 -0.008126482 0.5564171
-2.5319772 -0.002208767 -0.9058093 0.29389736 0.4892903 -0.008662702 -0.003813471 -0.9114448
0.09385812 -3.1166236 0.58792603 -2.7366347 -0.12079126 1.9995177 -2.4157662 -0.695819
-0.008058242 0.9414475 1.2885789 2.3318439 -0.95229006 0.08697933 -5.583758 -3.201929
-0.093605995 -0.0015251864 1.8384657 -0.058854967 -0.7133028 0.1860365 -4.7545776 -0.023728225
-0.41951305 0.21605316 -2.7999876 0.13212875 -3.0282872 1.8402998 0.07124911 0.13780595
0.6727392

l2/b f4 [3]
00000000: ed08 25bd 74fa 0740 a282 3540
-0.040291715 2.1246614 2.8360982

l0/W f4 [81, 1]
00000000: 89e5 a33c 0146 713e 1343 803d af22 aabb
00000010: 51bf ddbb 9924 e2bc 0406 1ebc 9f30 04be
00000020: 0986 32bc 94bb a1be 3413 77be b4e0 0fbc
00000030: 5019 893b fef8 a5be 453b b2be 521e 68bd
00000040: 3235 883e 7180 bf3e 907a d0bb ca28 e9bd
00000050: 1ad5 c53c 7bb1 25bc c97b 24bc a1d1 a3bd
00000060: 3fe3 1e3c 1fa6 da3b 0f57 0cbe 31ae 863e
00000070: 3f83 1abe 0ae6 31be 27e6 e13e 04d3 f739
00000080: 7b2c e9ba ff48 633e 6144 713c c24e d0bd
00000090: 1007 4f39 9f18 2bbd 5d7a aebb b915 d9bd
000000a0: 8cd8 223e 78df f6bb 4810 213d 7572 9abd
000000b0: b47d fbbe 7f77 f0bb 340f 04bc 2226 813c
000000c0: 0f65 b2bc f269 c53e eec1 e8bd 8222 453e
000000d0: abf4 70bb 053e 67be 227e 1f3e 4a22 d13c
000000e0: 75c7 c0bb 754a 22be 3545 a7be f867 97be
000000f0: 65ef 533c 0dec 98bc 98de da3e 3d72 793e
00000100: 066e 033b b958 2abc 3fdb 54be 609c 83ba
00000110: bdb8 103d d1c2 35bd f6c0 8e3e e92b 85ba
00000120: 40bd ab3c dc1f 76bd 1a1b 6a3e c478 06bd
00000130: feca 8c3e 951d 86be 60c0 93bc 1a7c 14bd
00000140: 2069 2ebe
0.020006912 0.2356186 0.062627934 -0.005192123 -0.0067671915 -0.027605342 -0.009644989 -0.12909172
-0.010896214 -0.31588423 -0.24128419 -0.008781601 0.0041839257 -0.32416528 -0.34810844 -0.05666954
0.26603085 0.3740268 -0.006362267 -0.11384733 0.024149466 -0.010113115 -0.010039278 -0.07998968
0.009697734 0.006672635 -0.13705085 0.26304772 -0.15089129 -0.17372909 0.44120905 0.0004726873
-0.0017789745 0.22195815 0.014725775 -0.10171272 0.0001974369 -0.041771527 -0.0053246454 -0.105998464
0.15902919 -0.007533964 0.039322168 -0.07541362 -0.4911934 -0.007338464 -0.008060265 0.015765253
-0.021776704 0.38557392 -0.11365114 0.19251445 -0.0036766927 -0.22582252 0.1557546 0.025529046
-0.005883152 -0.15848716 -0.32669988 -0.2957151 0.012935494 -0.018667245 0.4274795 0.24359985
0.0020054593 -0.01039713 -0.20786761 -0.001004111 0.03533243 -0.044375245 0.27881593 -0.0010160181
0.020964265 -0.060088977 0.22861901 -0.032830015 0.2749862 -0.26194444 -0.018036067 -0.036251165
-0.1703229

l1/b f4 [81]
00000000: bcc3 1cbc e1c3 12bb 5054 02be 46b2 1e3e
00000010: 9647 c6be 4f9c 0fbe 94fe 903e d533 fb3d
00000020: 450c 5abe f53c a1bd 3cbb 77bd 8ddc 7b3d
00000030: 5994 47bf 9dd8 d73e c558 fb3d c635 f33d
00000040: 94f3 6fbe 120c a93d 18c9 37bd f20c 1a3e
00000050: 7f60 d2bd a15f 903d 3dd6 6e3d 5a56 d3bb
00000060: 0b03 163e e1fe 54c0 5a29 ac3e 4ed4 9fbd
00000070: 4ced bdbc c9a7 33be 0451 b4bd 5271 283e
00000080: ce82 9a3d 00a2 b93d 1a79 cabd c457 053e
00000090: 90c7 04be 8157 19bd f6da 3abf b294 8fbd
000000a0: 0737 0abe e677 2fbe b0c3 7fbe 34a1 d6be
000000b0: e168 0a3d 12a1 9c3e c0ad 1f40 4fc1 abbe
000000c0: 11f9 1dbf 788a 76bd 3daf 27be 5e95 bbbe
000000d0: 8a2a 82be cd7c 33be 1281 833e a75a f4bb
000000e0: ab8c 08bd 58de bf3d 4b82 0d3f 08bc 9fbe
000000f0: 2176 913d c777 92bc b981 dc3c d3f2 8abb
00000100: 77f1 4d3d c4c0 d3be 2902 8a3d 56d2 f7bd
00000110: 1e46 9dbe cd8f c83d 5391 83be 8da9 30bf
00000120: 7b03 8cbd 06bb 33be eb8f 3f3e 4166 c03e
00000130: 4e9b 1dbd 4b75 15be c9d0 2bbe 0c28 473f
00000140: 714d 7dbd
-0.009568151 -0.0022394585 -0.12727475 0.15497693 -0.3872649 -0.14024471 0.28319228 0.122657456
-0.21293743 -0.07872955 -0.060481295 0.06148963 -0.77960736 0.4215745 0.12272791 0.11875491
-0.23432761 0.08254255 -0.044869512 0.15044 -0.102723114 0.0704949 0.058309782 -0.006449503
0.14649598 -3.3280566 0.336253 -0.07804166 -0.023184441 -0.17544474 -0.08804515 0.16449478
0.0754448 0.09064102 -0.098863795 0.13021761 -0.12966752 -0.037436966 -0.7299036 -0.07010783
-0.13497554 -0.17135581 -0.24976993 -0.41919863 0.033791427 0.30591637 2.4949799 -0.3354592
-0.6170817 -0.060190648 -0.16375442 -0.36637396 -0.2542308 -0.17528076 0.2568441 -0.0074570957
-0.033337276 0.093685806 0.55276936 -0.31198144 0.071026094 -0.01787938 0.026917325 -0.0042403727
0.050279107 -0.41358006 0.06738693 -0.12100665 -0.30717558 0.09793053 -0.2569681 -0.69008714
-0.06836601 -0.17551813 0.18707244 0.37578014 -0.03847819 -0.14595525 -0.16778864 0.7779548
-0.061841432

l1/W f4 [81, 81]
00000000: 93a0 c5bd 783b b4bd cf55 b63d 83e3 dc3d
00000010: a13f 8839 1c8b 193b 100f edbd 6473 f33d
00000020: 217c 343d ce79 bfbc b118 cbba 768e 32be
00000030: feb0 f4bc 5c29 283e a606 3a3d 0117 eebd
00000040: bfcc 723e d7a1 fbbd 666e d53d a306 103e
00000050: 9aa1 79bd 9c2a 3dbe ea05 6a3e 63e7 c7bc
00000060: 2af9 463c 7e24 943d 8c72 eabd 7f56 b8bd
00000070: 7668 02bd 8a53 c5bd d27d 66bd 8a84 823b
00000080: 5877 6bbd 4c59 803d dba9 35be 26f9 12bd
00000090: d73b d9bd 15cf efbd 6a9d d5bd a990 4abd
000000a0: 4cd8 9abd 1a65 f93b 4b23 863d 4ff5 b2bd
000000b0: 8d9d e339 91a7 bdbd 3dbb b2bc 0639 7a3d
000000c0: 9859 aebd d7d9 a23d e821 c2bd f45b 623d
000000d0: c1be 843e a09a 9fbd 85d6 f9bd d507 81bd
000000e0: 189d 403e fe81 c43c f5fe 45bd 218f 30be
000000f0: 7fe1 0cbe 1fce f53c b4c4 96bd 7822 133d
00000100: 1f2e 5b3c 6717 ee3c bcb3 c93e a162 09be
00000110: 4570 983d e815 b73d 8395 0a3e 7fe8 9a3e
00000120: 136b bbbc c938 f8bc 5280 6d3d 531d 803d
00000130: cc92 423e 3925 e0bc f75a 2f3e 690e a8bd
00000140: 8b46 0bbd 607e ff3d b4b2 1a3e 1f3a a7bd
00000150: 381d 0a3e 918c 8e3d 2177 893c f7db c2bc
00000160: 300e f2bc 79be c3bd dd43 f23c 3c29 a4bd
00000170: 24b8 0bbe da3a 3f3e 0cf3 4f3d daf1 57be
00000180: 216a 873c eeb2 da3d 13ca b8bb a9cc 7d3d
00000190: aa54 dcbd ceb3 99bc 7785 e63d e07b e53c
000001a0: db38 97bd a298 72be 4517 efbd 810f 033e
000001b0: 4a6d 00bd e67a f1bd da48 d13d ce9c b0bd
000001c0: f6ad 1bbe 1e88 3d39 76dd ac3d 9241 0dbe
000001d0: 1a00 a2bb 672c fe3c 6d41 af3d 09ea 333e
000001e0: a1ce 943d 7884 aabc db3b abbd 03fd c33c
000001f0: 78ee c73d 881c 8ebe ed8c 7e3d 6ca1 b6bd
00000200: 4fb2 ddbc e53b 543e ca7f ce3d dcf9 7dbc
00000210: 159d a0bc 9185 fe3c 2ae7 79bd 708c 94bd
00000220: ba8b 1e3e 9f06 81bc 62ed a0bc d3dd b83d
00000230: 678f 613e 4307 223e 5f41 11bd a973 433d
00000240: b8f0 30be 2030 ea3d bbec efbc 8c20 7fbd
00000250: 04c7 b83c 05a3 553c e61c c8bd 1097 143e
00000260: 2ed9 08be f5f2 54bd 1463 50bd ca6d 4dbe
00000270: 0495 2abd 4c3d 56bc f4cf fd3d dce4 a63c
00000280: 580a 0abd 7ccf be3d d2c9 e3bc d16f a9be
00000290: 46da a23d 4bee 323c 176a 53be 6b22 27bd
000002a0: d7b6 73bd e5e9 913a 7829 713e b43a c3bd
000002b0: 1c76 33bd 3927 80be 1a72 3b3d 893e cd3d
000002c0: 53d9 0c3e 5603 a03c 31fe d33b 62b0 54bc
000002d0: 6dfe 02be 3179 54be ee0c cb3d 5105 1e3d
000002e0: 42e8 6d3d 6496 65be 409b 05bd 5faa 02be
000002f0: 4c94 25be 3227 54be f495 343e 0c22 8bbd
00000300: 6156 1fbd 131a 04bd b9ab b03d fab4 18bd
00000310: f0f8 6b3e b454 9c3e a2c9 163d 56c1 d8bd
00000320: cc95 26bd 53b8 10be 884f 85bc 21db d0bd
00000330: 9ed4 03bc 3499 143d 94e6 05be 48d2 413d
00000340: 006f 593d 203e 5cbd 55d8 4b3d 3ed7 5f3e
00000350: 0bcb f9bd 7581 9c3d 9bfd 92bd 3c8a 9e3d
00000360: 6be1 4b3d e005 003c fe23 65bd 9b61 8b3e
00000370: fd9c 4b3d 0d1d 1d3d 8cbe 353e 7e82 6fbe
00000380: 526e c7bd 76eb a03d 8bef 08be c5ac 083d
00000390: 8b4e 313d 07d2 013e 0d32 48bd fc79 26be
000003a0: 3684 9cbd feae 0d3e f1bd 09be 7ddf 84bd
000003b0: 1a7c e43d 8e44 05bd b2c5 87bd b723 ddbd
000003c0: c1d5 a9bd 998e ea3d c883 033e 660b 933d
000003d0: a0af bbbd d36b 4dbe 9842 72bd 0001 d23d
000003e0: d648 c63e 4260 0f3e c99e dbbe 3778 713d
000003f0: 70c9 19be 62de e53e 79d1 e33e f149 d9bd
-0.09649768 -0.08800405 0.089030854 0.10785582 0.0002598735 0.0023428863 -0.115751386 0.118872434
0.04406369 -0.02337351 -0.001549503 -0.17437157 -0.029869553 0.16422027 0.045416497 -0.116254814
0.23710917 -0.12286728 0.104214475 0.14065032 -0.06094513 -0.18473285 0.22853819 -0.024402326
0.012144366 0.07233523 -0.11447629 -0.09000873 -0.031837903 -0.096350744 -0.056272335 0.003983085
-0.057486862 0.06267032 -0.17740576 -0.035882138 -0.10607117 -0.1170942 -0.10430415 -0.049454365
-0.075607866 0.007610929 0.065497 -0.08738195 0.00043414198 -0.092604764 -0.021817798 0.061089538
-0.085131824 0.07951706 -0.09479123 0.055263475 0.25926784 -0.07793164 -0.121991195 -0.06300322
0.18809927 0.023987766 -0.04833885 -0.172421 -0.13757895 0.030005513 -0.07361737 0.035921544
0.013377695 0.029063893 0.3939494 -0.1341653 0.07443289 0.08939725 0.13533597 0.30255505
-0.022878205 -0.030300515 0.057983704 0.06255593 0.19001311 -0.0273615 0.17124544 -0.082058735
-0.034002822 0.12475276 0.15107232 -0.081653826 0.13487709 0.06960405 0.016780438 -0.023786528
-0.02954778 -0.09557814 0.029573375 -0.08015677 -0.13644463 0.18674794 0.050768897 -0.21088353
0.016530098 0.106786594 -0.0056393235 0.061962757 -0.10758336 -0.018762495 0.11255925 0.02801317
-0.07383891 -0.23691037 -0.1167436 0.12798883 -0.031354226 -0.11791019 0.102189735 -0.08623658
-0.1520308 0.00018075152 0.08440678 -0.13794544 -0.0049438598 0.031027032 0.08557401 0.17569746
0.07265974 -0.02081512 -0.08361026 0.023924356 0.09762281 -0.27756143 0.062146116 -0.089175075
-0.027062563 0.20725973 0.100829676 -0.015501466 -0.019606153 0.031069549 -0.06101147 -0.07253349
0.15482989 -0.015750227 -0.019644443 0.090266846 0.2202736 0.15823083 -0.035462733 0.047717724
-0.17279327 0.1143496 -0.029287687 -0.0622869 0.022555836 0.013039355 -0.09771137 0.14510751
-0.13364097 -0.051989514 -0.05087574 -0.20061412 -0.04164602 -0.013076138 0.123931795 0.0203728
-0.03370127 0.09316918 -0.027806196 -0.33093122 0.079517886 0.010921071 -0.20645939 -0.040804308
-0.05950054 0.0011132328 0.23550975 -0.09532681 -0.04381381 -0.25029925 0.045763113 0.10021693
0.13754778 0.01953284 0.006469511 -0.012981506 -0.12792368 -0.20749356 0.099145755 0.03857929
0.058082826 -0.2242065 -0.03261876 -0.12760304 -0.16169852 -0.20718077 0.17635328 -0.06793603
-0.038900737 -0.03225143 0.086265035 -0.037281968 0.23044181 0.30533373 0.036813386 -0.10583751
-0.0406702 -0.14132814 -0.016273275 -0.101980455 -0.008046297 0.03627892 -0.1307624 0.04731968
0.053084373 -0.053770185 0.049766857 0.21859452 -0.121969305 0.076418795 -0.07177278 0.0774121
0.049775522 0.007813901 -0.055942528 0.27222905 0.049710263 0.038357783 0.17748469 -0.23389623
-0.09737839 0.078574106 -0.13372628 0.03336789 0.043287795 0.12677775 -0.048875857 -0.16257471
-0.07642405 0.13836285 -0.13451363 -0.064879395 0.11156483 -0.032536082 -0.06629504 -0.10797828
-0.082927234 0.114529796 0.1284324 0.071799085 -0.09164357 -0.20060663 -0.05914554 0.10254097
0.38727444 0.14001563 -0.4289458 0.058952536 -0.15018249 0.44896227 0.44495752 -0.10609806
