chainerrl/NeverSay20/result_100000/target_model.npz (npz, 27523 bytes, 6 tensors)

l2/W f4 [3, 81]
0.0066391397 -0.0057389936 0.014627392 0.73374796 -0.50457215 0.23688021 0.065052554 -0.26418474
0.20831285 0.051233303 -0.49687517 -0.053385668 1.2748765 0.9342882 -0.011172442 -0.007984666
0.2149873 -1.620332 -0.004244692 -0.61988974 0.42998192 -0.015609921 0.3075714 -0.039343018
0.028828122 -1.6112212 -0.5447143 -0.045448158 -0.0012556576 -0.20340753 -0.0059770043 -0.81166357
0.07835238 0.2323131 -0.07262896 -1.0199608 0.015627442 0.030236991 1.1551343 -0.1337252
-0.0059500127 0.6278037 0.28350773 -0.18483819 -0.10298759 -0.88015026 0.5068916 -0.18037346
-1.0314049 -0.07457784 -0.22612543 0.65407324 0.6045774 -0.15026374 -0.1272781 -0.0085815415
0.026120227 -0.6669575 -0.34800136 -0.10886049 0.1508029 0.043775313 0.70142055 0.056675248
0.08486191 0.7199616 0.093283504 0.011792345 -0.2014529 -0.4168482 -0.15537158 0.3241518
0.032921605 -0.34014344 1.3030908 -0.4635628 0.017769787 -0.089469515 -0.19236594 -0.34916568
-0.0060646445 -0.009308195 -0.012576864 -0.05947978 0.35082915 -0.33259183 -0.21991773 -0.040689
0.10142957 0.22166578 0.0074534714 -0.24015729 0.042586315 0.21263145 -0.9533838 -0.026956076
-0.0022570065 0.046759058 -0.078747496 0.025738744 -0.23933724 -0.059722945 -0.013277127 -0.061565056
0.16470875 -0.063383505 0.8370138 -0.17903621 0.010635762 -0.003076199 -0.015447418 0.004972101
0.3797979 -0.07508014 -0.2812724 0.03894167 0.50004387 0.055130653 -0.041583687 -0.79168606
0.076248206 0.066053815 -0.51813495 0.20418438 0.039587606 0.0036995588 -0.23483412 -0.92022383
0.15269345 0.1048487 0.006611206 0.1574273 -1.2672167 -0.5509373 -0.017989686 0.028030554
-0.03821549 -0.035286628 0.3270527 -0.047768682 0.059383593 -0.08882463 -0.035563286 0.6153715
-0.0007325921 -0.054509766 -0.5863204 -0.046783127 0.016739007 -0.050509885 0.14966957 0.09333927
0.8578003 0.08584095 0.171807 0.96353513 0.20168723 -0.06865833 0.17416903 -0.040693127
0.8713222 0.059522126 -0.0010577581 0.02477656 0.045346245 0.5491714 -1.1009408 -0.03614407
-0.026926793 -0.12846161 0.19834602 0.024716405 0.09574208 -0.10350212 1.2372231 0.25071222
-0.01906861 -0.005382292 0.68606466 -0.5680385 -0.042884078 -0.2831253 -0.26536098 -0.05351291
0.13641492 -0.36230567 0.05125063 0.056793503 -0.517415 0.023023453 0.022212407 -0.03157844
0.03548352 -0.98112375 -0.03927384 0.6168077 -0.045521446 -1.312082 0.01703202 0.017751556
-0.45455566 -0.080752455 0.0051525533 -0.20095009 0.23566154 -1.2372764 -0.012237203 -0.022100314
0.5529337 0.15239903 0.05826623 -0.07494626 -0.006280563 0.44797885 -0.11780222 -0.15695749
-0.04263286 0.09363725 -0.0024590634 -0.8846273 -0.92954147 0.12695509 0.19345693 0.104064524
0.6397307 -0.063803725 0.108465336 -0.24422707 -0.21719158 -0.11310475 -0.06850809 0.27294618
-0.0927662 0.46816635 0.065073416 -0.15174672 1.4990681 -0.7113452 0.093362994 -0.30151397
0.00018158398 -1.1129997 -0.029356116
00000000: 248d d93b 2b0e bcbb bba7 6f3c e8d6 3b3f
00000010: a42b 01bf ba90 723e 463a 853d 3943 87be
00000020: f74f 553e 03da 513d 6c66 febe eeaa 5abd
00000030: 272f a33f 832d 6f3f 9e0c 37bc 1ed2 02bc
00000040: a125 5c3e 0a67 cfbf 0f17 8bbb 18b1 1ebf
00000050: 9726 dc3e c1c0 7fbc 007a 9d3e 2526 21bd
00000060: f428 ec3c 7f3c cebf 6572 0bbf d927 3abd
00000070: e194 a4ba 104a 50be bfda c3bb 2fc9 4fbf
00000080: 3677 a03d 7ce3 6d3e 7ebe 94bd 138e 82bf
00000090: 1f05 803c 91b3 f73c 71db 933f 42ef 08be
000000a0: 53f8 c2bb beb7 203f ed27 913e 3946 3dbe
000000b0: 28eb d2bd 8751 61bf a6c3 013f d2b3 38be
000000c0: 1305 84bf 44bc 98bd 6d8d 67be 5871 273f
000000d0: 96c5 1a3f bdde 19be 3155 02be 9899 0cbc
000000e0: 16fa d53c babd 2abf 3c2d b2be 40f2 debd
000000f0: 136c 1a3e be4d 333d 4c90 333f 4e24 683d
00000100: 15cc ad3d 674f 383f 6c0b bf3d ae34 413c
00000110: ab49 4ebe 216d d5be ba19 1fbe 3af7 a53e
00000120: ced8 063d 4827 aebe aecb a63f 1a58 edbe
00000130: f291 913c cb3b b7bd 94fb 44be d8c5 b2be
00000140: edb9 c6bb 6681 18bc 310f 4ebc 12a1 73bd
00000150: e19f b33e 7a49 aabe 1d32 61be 82a9 26bd
00000160: 4eba cf3d 5bfc 623e 403c f43b cbeb 75be
00000170: fd6e 2e3d 0fbc 593e f610 74bf fdd2 dcbc
00000180: 49ea 13bb 6d86 3f3d 5e46 a1bd 0fda d23c
00000190: d214 75be 0ca0 74bd 4f88 59bc a42b 7cbd
000001a0: 69a9 283e 36cf 81bd 8946 563f 4555 37be
000001b0: 9e41 2e3c 0e9a 49bb 2b17 7dbc 02ed a23b
000001c0: df74 c23e 9ec3 99bd f002 90be 4d81 1f3d
000001d0: e002 003f aed0 613d a853 2abd f0ab 4abf
000001e0: 0528 9c3d 3947 873d 7ea4 04bf b615 513e
000001f0: 9d26 223d 4c74 723b 5b78 70be ca93 6bbf
00000200: ac5b 1c3e eaba d63d d1a2 d83b 9f34 213e
00000210: 2834 a2bf 3a0a 0dbf 1b5f 93bc 55a0 e53c
00000220: d887 1cbd b688 10bd 7473 a73e 18a9 43bd
00000230: 363c 733d b0e9 b5bd cfaa 11bd fd88 1d3f
00000240: 6c0b 40ba a245 5fbd 1819 16bf aa9f 3fbd
00000250: 3e20 893c 74e3 4ebd fb42 193e a928 bf3d
00000260: cd98 5b3f 61cd af3d 2dee 2f3e 3daa 763f
00000270: 1987 4e3e bd9c 8cbd 5e59 323e d6ad 26bd
00000280: f90e 5f3f 79cd 733d 79a4 8aba 36f8 ca3c
00000290: fcbc 393d 7f96 0c3f a1eb 8cbf ce0b 14bd
000002a0: 9495 dcbc 718b 03be 381b 4b3e 0f7a ca3c
000002b0: 6c14 c43d ebf8 d3bd 545d 9e3f 5a5d 803e
000002c0: c635 9cbc f05d b0bb efa1 2f3f f96a 11bf
000002d0: 37a7 2fbd cdf5 90be 65dd 87be 5a30 5bbd
000002e0: 5ab0 0b3e 2180 b9be 2eec 513d 4ea0 683d
000002f0: 4f75 04bf ae9b bc3c cbf6 b53c 6558 01bd
00000300: 2b57 113d ed2a 7bbf 9bdd 20bd 1ce7 1d3f
00000310: b274 3abd 4ef2 a7bf bc86 8b3c b66b 913c
00000320: 85bb e8be 8b61 a5bd c0d6 a83b dcc5 4dbe
00000330: 4251 713e 135f 9ebf 8d7e 48bc b80b b5bc
00000340: 108d 0d3f 7e0e 1c3e 92a8 6e3d 6d7d 99bd
00000350: 2ecd cdbb 7c5d e53e 4a42 f1bd 77b9 20be
00000360: cb9f 2ebd e3c4 bf3d 3d28 21bb ef76 62bf
00000370: 6ef6 6dbf 8400 023e 9319 463e c81f d53d
00000380: 64c5 233f 87ab 82bd 1323 de3d a916 7abe
00000390: 7867 5ebe 77a3 e7bd f84d 8cbd 9abf 8b3e
000003a0: 35fc bdbd 80b3 ef3e 3645 853d 7e63 1bbe
000003b0: 77e1 bf3f b81a 36bf 1935 bf3d 0a60 9abe
000003c0: 9467 3e39 c676 8ebf 3d7c f0bc

l0/b f4 [81]
-0.40488073 -3.5852072 -1.2754993 -0.021891585 -0.020628028 0.7731 -0.04266458 0.74468577
0.009370141 1.5769627 0.70075876 0.52324563 -0.11632581 0.6381542 1.367097 0.33282334
-4.328336 -3.401334 -0.011499073 1.9434981 -0.47271857 -0.013426111 -0.0055681416 0.31804258
-0.22337642 -0.1397348 0.95871097 -4.039565 1.1737795 0.49568498 -4.001642 -0.04866812
-0.038608164 -3.1563933 -0.40618032 0.19893888 -0.072510004 0.20845221 -0.008104131 0.55724764
-2.5329607 -0.002035407 -0.90649784 0.29608604 0.49068707 -0.008679339 -0.0039753797 -0.9120679
0.0939829 -3.1146562 0.5887712 -2.7346323 -0.12076054 1.9973149 -2.4132075 -0.69649655
-0.008113835 0.9407931 1.2899065 2.3315852 -0.9532539 0.08831699 -5.5838904 -3.2022085
-0.09371503 -0.0018937122 1.8365693 -0.059397243 -0.71369326 0.18760526 -4.7566977 -0.024157992
-0.41954017 0.21599725 -2.8001873 0.13336767 -3.0330718 1.8381718 0.07114446 0.13777551
0.67472494
00000000: 874c cfbe 0974 65c0 9043 a3bf fb55 b3bc
00000010: 1cfc a8bc e2e9 453f 0ec1 2ebd baa3 3e3f
00000020: 3885 193c ead9 c93f ed64 333f 6df3 053f
00000030: 3a3c eebd 135e 233f 09fd ae3f d267 aa3e
00000040: ba81 8ac0 75af 59c0 9c66 3cbc 8cc4 f83f
00000050: 2b08 f2be 31f9 5bbc f574 b6bb 7ad6 a23e
00000060: cabc 64be a416 0fbe 156e 753f 1e44 81c0
00000070: 683e 963f 6cca fd3e 740d 80c0 3958 47bd
00000080: 9823 1ebd 5902 4ac0 def6 cfbe a2b6 4b3e
00000090: 2080 94bd 7f74 553e 30c7 04bc c8a7 0e3f
000000a0: 071c 22c0 7664 05bb 3e10 68bf 9798 973e
000000b0: 563b fb3e c933 0ebc e743 82bb 487d 69bf
000000c0: 1b7a c03d 8756 47c0 b6b9 163f 3704 2fc0
000000d0: 4d51 f7bd 04a8 ff3f fe71 1ac0 994d 32bf
000000e0: e4ef 04bc d1d7 703f a81b a53f b138 1540
000000f0: 7308 74bf 8adf b43d 3baf b2c0 fcf0 4cc0
00000100: aaed bfbd 7036 f8ba b414 eb3f 864a 73bd
00000110: 9ab4 36bf 981b 403e de36 98c0 fbe6 c5bc
00000120: f8cd d6be 622e 5d3e 4536 33c0 8991 083e
00000130: d91d 42c0 3749 eb3f 30b4 913d 0615 0d3e
00000140: c6ba 2c3f

l2/b f4 [3]
-0.040290833 2.125817 2.8364017
00000000: 0008 25bd 630d 0840 9b87 3540

l0/W f4 [81, 1]
0.021153163 0.24481082 0.061646536 -0.0011266386 -0.0072707664 -0.023751836 -0.01040608 -0.13069674
-0.009335547 -0.31605116 -0.24116568 -0.005924963 0.0035640076 -0.3282005 -0.34639072 -0.0599902
0.2575784 0.3705141 -0.007123741 -0.11389225 0.024593048 -0.0071454323 -0.010259193 -0.07961097
0.0073048966 0.004249203 -0.13795552 0.2725609 -0.14977314 -0.17336485 0.4365886 0.00077630405
-0.0013843479 0.22703494 0.012224731 -0.105701566 -1.9401661e-05 -0.038669784 -0.006751784 -0.10445049
0.15538208 -0.007836845 0.037189566 -0.072776414 -0.49147186 -0.007596743 -0.008783119 0.012679752
-0.021084046 0.38711816 -0.11412042 0.19639975 -0.0040377015 -0.22868994 0.16223764 0.022371056
-0.0072789886 -0.1620194 -0.32557485 -0.29529274 0.0098228725 -0.01657646 0.42740893 0.24342105
0.0004103679 -0.01263835 -0.21056809 -0.0019908713 0.033354267 -0.042773385 0.27585852 -0.0030422406
0.021176178 -0.061744824 0.2278455 -0.033388335 0.2675903 -0.26503164 -0.01847508 -0.039391607
-0.16795191
00000000: 6649 ad3c b0af 7a3e 1481 7c3d b8ab 93ba
00000010: 9c3f eebb 3693 c2bc 437e 2abc 5ed5 05be
00000020: 1ff4 18bc 75d1 a1be 23f4 76be 3126 c2bb
00000030: 2092 693b e509 a8be 205a b1be 49b8 75bd
00000040: 51e1 833e 06b4 bd3e 456e e9bb 5740 e9bd
00000050: 5c77 c93c 3b24 eabb 2d16 28bc 140b a3bd
00000060: ea5d ef3b e63c 8b3b 3644 0dbe 1a8d 8b3e
00000070: 215e 19be 8e86 31be 8a88 df3e e280 4b3a
00000080: 0273 b5ba d97b 683e 3d4a 483c 107a d8bd
00000090: c0c0 a2b7 3564 1ebd 123e ddbb 23ea d5bd
000000a0: 7b1c 1f3e 1c66 00bc 1654 183d cd0b 95bd
000000b0: 33a2 fbbe 19ee f8bb 12e7 0fbc bcbe 4f3c
000000c0: 73b8 acbc 5a34 c63e f7b7 e9bd 041d 493e
000000d0: b24e 84bb b22d 6abe a021 263e 8143 b73c
000000e0: 9584 eebb 6ae8 25be bfb1 a6be 9c30 97be
000000f0: 1df0 203c 5bcb 87bc 58d5 da3e 5e43 793e
00000100: a626 d739 1511 4fbc 299f 57be 4779 02bb
00000110: 7c9e 083d 2533 2fbd 543d 8d3e 5460 47bb
00000120: aa79 ad3c 24e8 7cbd 5550 693e 35c2 08bd
00000130: 9901 893e 3ab2 87be 0d59 97bc 1859 21bd
00000140: 96fb 2bbe

l1/b f4 [81]
-0.00948826 -0.002181504 -0.12707365 0.15604073 -0.38874543 -0.14100678 0.2829851 0.12274
-0.21153414 -0.07860096 -0.061795615 0.060748786 -0.77951187 0.42185512 0.12307492 0.11869631
-0.23418488 0.083222084 -0.044861887 0.14727415 -0.10338049 0.070274256 0.057980057 -0.006034581
0.14644295 -3.3284564 0.3366863 -0.07808196 -0.023193305 -0.1754364 -0.08802465 0.16554217
0.07517815 0.09149815 -0.09885615 0.12995456 -0.12906556 -0.037604425 -0.7303897 -0.07042745
-0.13445617 -0.17140445 -0.2485219 -0.41943058 0.03395535 0.30505455 2.4945087 -0.3347873
-0.61570364 -0.060596693 -0.16320755 -0.36795765 -0.25465003 -0.17456996 0.2565922 -0.007485765
-0.033438466 0.09350631 0.5541012 -0.31164297 0.07188475 -0.017787844 0.02798856 -0.0044703386
0.05138086 -0.41401786 0.06688907 -0.1212528 -0.30753252 0.09662971 -0.2572562 -0.6901561
-0.06758515 -0.1757698 0.18710183 0.37602723 -0.03879319 -0.14543442 -0.16766717 0.7776684
-0.061796717
00000000: a674 1bbc 90f7 0ebb 981f 02be 24c9 1f3e
00000010: a409 c7be 1564 10be 6ce3 903e 1c5f fb3d
00000020: 689c 58be 8af9 a0bd 661d 7dbd b8d3 783d
00000030: 178e 47bf 65fd d73e b40e fc3d 0d17 f33d
00000040: 29ce 6fbe 5770 aa3d 19c1 37bd 09cf 163e
00000050: 26b9 d3bd f3eb 8f3d 7f7c 6d3d bcbd c5bb
00000060: 24f5 153e 6e05 55c0 2662 ac3e 6fe9 9fbd
00000070: e3ff bdbc 9aa5 33be 4546 b4bd e383 293e
00000080: 00f7 993d 6263 bb3d 1875 cabd cf12 053e
00000090: c329 04be 1907 1abd d2fa 3abf 443c 90bd
000000a0: e1ae 09be a684 2fbe 867c 7ebe 9bbf d6be
000000b0: c414 0b3d 1c30 9c3e 08a6 1f40 3e69 abbe
000000c0: c19e 1dbf 3d34 78bd e11f 27be f264 bcbe
000000d0: 7d61 82be 78c2 32be 0e60 833e 264b f5bb
000000e0: c6f6 08bd 3c80 bf3d 94d9 0d3f ab8f 9fbe
000000f0: 5038 933d d0b7 91bc 4448 e53c eb7b 92bb
00000100: bd74 523d 26fa d3be 23fd 883d 6353 f8bd
00000110: e774 9dbe cce5 c53d 16b7 83be 12ae 30bf
00000120: 156a 8abd 00fd 33be 9f97 3f3e a486 c03e
00000130: 9ce5 1ebd c3ec 14be f1b0 2bbe 4715 473f
00000140: 8e1e 7dbd

l1/W f4 [81, 81]
-0.09650062 -0.08800468 0.08902195 0.10785488 0.00025809382 0.0023796484 -0.115753666 0.118854485
0.044061802 -0.023420487 -0.0015879477 -0.17433757 -0.029870888 0.1641675 0.045360394 -0.116262436
0.23710175 -0.12278241 0.10421317 0.1407043 -0.060948182 -0.18473457 0.22853631 -0.024415275
0.012142589 0.07233394 -0.11449184 -0.09001051 -0.031847823 -0.09637841 -0.05617218 0.0039824434
-0.057487737 0.0626766 -0.17740963 -0.03589907 -0.106072254 -0.117100604 -0.10430537 -0.04946923
-0.07560924 0.007609338 0.06548956 -0.08739346 0.00034967923 -0.09260635 -0.021819457 0.061077446
-0.08513536 0.07962265 -0.094807565 0.055268914 0.2592652 -0.07793584 -0.121993 -0.063009895
0.18809772 0.023965912 -0.048391536 -0.17243938 -0.13759238 0.030002655 -0.073587015 0.035937864
0.013376537 0.029061817 0.39394516 -0.13416657 0.0744278 0.08939108 0.13532019 0.30255422
-0.022881033 -0.030310279 0.05800469 0.06255066 0.19005118 -0.027393771 0.17124249 -0.08206463
-0.03403028 0.12475386 0.15110277 -0.08165016 0.13487378 0.069601715 0.016785003 -0.023789551
-0.029576428 -0.09558237 0.029503737 -0.080203764 -0.13642429 0.18674788 0.050701316 -0.21095268
0.016517483 0.106850885 -0.005292323 0.061960444 -0.10763685 -0.01876148 0.11255525 0.028008437
-0.07385569 -0.23690861 -0.1167433 0.12795682 -0.031323835 -0.11794186 0.10215435 -0.0858268
-0.15203108 0.00018033134 0.084467396 -0.13794546 -0.004964461 0.03102653 0.08556306 0.17569636
0.07263478 -0.020778421 -0.08361247 0.023925666 0.09760779 -0.27769154 0.062143125 -0.08917864
-0.027067773 0.20725419 0.10120892 -0.015528151 -0.019552622 0.031066079 -0.061053 -0.07251655
0.15482908 -0.01575254 -0.019679457 0.090201914 0.22021429 0.1582235 -0.035467856 0.047893327
-0.17269604 0.11434924 -0.029290771 -0.062325858 0.022555225 0.013041859 -0.09772042 0.14515968
-0.13364165 -0.05198797 -0.050889026 -0.20049459 -0.041652404 -0.0128348665 0.12387206 0.020366793
-0.0337097 0.093133636 -0.027804619 -0.3309297 0.079508595 0.0109193 -0.20646766 -0.040712517
-0.0595116 0.0010241421 0.2355048 -0.09552851 -0.043948956 -0.250193 0.04576089 0.10002645
0.13733888 0.019490698 0.0064848117 -0.012509738 -0.12793027 -0.20751853 0.099144794 0.03857448
0.058074646 -0.22425786 -0.032624036 -0.12760657 -0.16179888 -0.20719129 0.17624705 -0.06803597
-0.03835606 -0.032252364 0.08626359 -0.03724491 0.2304315 0.30526784 0.036809884 -0.10586248
-0.04067607 -0.14139928 -0.016268374 -0.101987116 -0.0080587035 0.036231555 -0.1310746 0.047313824
0.05307699 -0.053801976 0.049753662 0.21919349 -0.12204857 0.07645108 -0.071782276 0.07725382
0.049772255 0.0077987607 -0.055949837 0.27211717 0.049512636 0.03815862 0.17744732 -0.2339077
-0.09721539 0.078662455 -0.13373022 0.03335541 0.043141656 0.12677306 -0.04888236 -0.16260412
-0.076406084 0.1383584 -0.13451572 -0.06492345 0.11168485 -0.03255638 -0.06607596 -0.108165234
-0.08293954 0.11450187 0.12832622 0.07148852 -0.09271342 -0.20131664 -0.05914832 0.10251457
0.38838845 0.13996631 -0.42787746 0.058958836 -0.14837058 0.45021936 0.44585872 -0.10620257
00000000: 1ea2 c5bd cc3b b4bd 2451 b63d 05e3 dc3d
00000010: c450 8739 e0f3 1b3b 4210 edbd fb69 f33d
00000020: 267a 343d 52dc bfbc af22 d0ba 8c85 32be
00000030: cbb3 f4bc 861b 283e d2cb 393d 001b eebd
00000040: cdca 723e 5875 fbbd b76d d53d ca14 103e
00000050: cda4 79bd 0f2b 3dbe 6c05 6a3e 8b02 c8bc
00000060: b6f1 463c d123 943d b37a eabd 6e57 b8bd
00000070: dd72 02bd 0b62 c5bd cd14 66bd 287f 823b
00000080: 4378 6bbd 975c 803d dfaa 35be e70a 13bd
00000090: 693c d9bd 71d2 efbd 0e9e d5bd 3fa0 4abd
000000a0: 04d9 9abd c157 f93b 641f 863d 58fb b2bd
000000b0: 2755 b739 66a8 bdbd b8be b2bc 582c 7a3d
000000c0: 735b aebd 3311 a33d 782a c2bd a861 623d
000000d0: 69be 843e d39c 9fbd 77d7 f9bd 550b 81bd
000000e0: b09c 403e 2954 c43c 3436 46bd f393 30be
000000f0: 04e5 0cbe 21c8 f53c cab4 96bd 9533 133d
00000100: 4329 5b3c 0c13 ee3c 2eb3 c93e f662 09be
00000110: 9a6d 983d ac12 b73d 6091 0a3e 63e8 9a3e
00000120: 0171 bbbc 434d f8bc 5396 6d3d 8f1a 803d
00000130: c79c 423e e768 e0bc 315a 2f3e 8011 a8bd
00000140: 5663 0bbd f47e ff3d afba 1a3e 3338 a7bd
00000150: 5a1c 0a3e 588b 8e3d b480 893c 4ee2 c2bc
00000160: 444a f2bc b1c0 c3bd d2b1 f13c df41 a4bd
00000170: cfb2 0bbe d63a 3f3e 2fac 4f3d fb03 58be
00000180: ac4f 873c a3d4 da3d 396b adbb 3cca 7d3d
00000190: b570 dcbd adb1 99bc 5e83 e63d f371 e53c
000001a0: a741 97bd 2c98 72be 1c17 efbd 1d07 033e
000001b0: 6c4d 00bd 808b f1bd 4d36 d13d f6c5 afbd
000001c0: 09ae 1bbe 5317 3d39 3efd ac3d 9341 0dbe
000001d0: ebac a2bb 592b fe3c b03b af3d bfe9 333e
000001e0: 8bc1 943d 8237 aabc 043d abbd c2ff c33c
000001f0: 98e6 c73d 962d 8ebe ca89 7e3d 4aa3 b6bd
00000200: 3cbd ddbc 713a 543e 9f46 cf3d c969 7ebc
00000210: d22c a0bc 4a7e fe3c b612 7abd 8f83 94bd
00000220: 848b 1e3e 790b 81bc d036 a1bc c8bb b83d
00000230: db7f 613e 5705 223e be46 11bd cb2b 443d
00000240: 3bd7 30be ef2f ea3d 33f3 efbc 6649 7fbd
00000250: bcc5 b83c 85ad 553c a521 c8bd bda4 143e
00000260: 5bd9 08be 56f1 54bd 0371 50bd 744e 4dbe
00000270: b69b 2abd 5549 52bc a2b0 fd3d 43d8 a63c
00000280: 2f13 0abd d9bc be3d 83c6 e3bc 9e6f a9be
00000290: 67d5 a23d dde6 323c 426c 53be 2bc2 26bd
000002a0: 6fc2 73bd 823c 863a 2c28 713e 74a4 c3bd
000002b0: d203 34bd 4c19 80be c56f 3b3d abda cc3d
000002c0: 90a2 0c3e f5aa 9f3c 8b7e d43b a5f5 4cbc
000002d0: 2700 03be bd7f 54be 6d0c cb3d 4600 1e3d
000002e0: aedf 6d3d daa3 65be c8a0 05bd 4cab 02be
000002f0: 9bae 25be f429 54be 1b7a 343e 7156 8bbd
00000300: 3e1b 1dbd 0e1b 04bd f7aa b03d 1e8e 18bd
00000310: 3cf6 6b3e 114c 9c3e f6c5 163d 6ece d8bd
00000320: f39b 26bd f9ca 10be 4145 85bc 9fde d0bd
00000330: a708 04bc 8a67 143d 6c38 06be 24cc 413d
00000340: 4267 593d 765f 5cbd 7fca 4b3d 4274 603e
00000350: 9af4 f9bd 6292 9c3d 9602 93bd 4037 9e3d
00000360: fedd 4b3d bf8c ff3b a82b 65bd f152 8b3e
00000370: c3cd 4a3d 374c 1c3d c0b4 353e 8085 6fbe
00000380: dd18 c7bd c819 a13d 93f0 08be af9f 083d
00000390: 4eb5 303d ccd0 013e df38 48bd b281 26be
000003a0: cb7a 9cbd d3ad 0d3e 7dbe 09be 96f6 84bd
000003b0: 07bb e43d d759 05bd d552 87bd bc85 ddbd
000003c0: 35dc a9bd f57f ea3d f367 033e 9368 923d
000003d0: 89e0 bdbd f325 4ebe 8245 72bd 29f3 d13d
000003e0: dada c63e 5453 0f3e c112 dbbe d27e 713d
000003f0: 75ee 17be 2783 e63e 9847 e43e bc80 d9bd
