chainerrl/TicTacToe/result_120000/model.npz (npz, 56586 bytes, 8 tensors)

l3/W f4 [9, 81]
0.14201997 -0.047313936 -0.4205297 0.048055567 -0.012022838 -0.16288887 0.0019795562 -0.17655118
0.2379403 -0.00073802506 -0.66023356 -0.090495616 -0.39329597 0.026295898 0.068446666 0.069133215
-0.0039017529 0.18067296 -0.6700141 0.20599973 -0.1634728 0.021504227 0.021835994 0.050160255
-0.5036789 0.005285121 -0.06514836 0.20399271 -0.14266522 0.13375422 0.11989927 0.18547767
-0.012053625 0.11692922 -0.30676377 0.05157235 0.21216178 0.35751793 -0.031568777 -0.09001492
-0.009101054 -0.6152733 -0.33374172 0.28587845 0.12852994 -0.678604 0.1742215 -0.0038300813
0.1470243 0.2032774 0.2537592 -0.21039681 -0.011949961 -0.17887267 0.083086304 -0.26217082
0.0064884806 0.23303275 0.103051804 0.12392034 -0.12693493 -0.014907288 0.304051 -0.13163838
0.091258064 0.10279642 -0.4258032 -0.5217665 -0.0005988586 -0.009463671 -0.091290876 -0.23159723
-0.057359744 0.1985471 -0.2917288 -0.117703795 0.0028362134 0.07005329 -0.37829357 -0.17605214
0.015423746 0.043726847 -0.25648624 0.0058531216 0.44998142 0.05480455 0.18818414 -0.0037163687
-0.25207996 -0.70689666 0.12023247 0.09522864 -0.110278584 -0.0231713 0.16205488 0.1912701
0.22600739 0.1536144 0.32334188 -0.25549787 -0.17002809 -0.16813691 0.1624144 0.19084458
-0.17273079 0.0195286 -0.3875889 -0.12756754 0.21196082 -0.17899078 0.3119955 0.23438682
-0.4205649 -0.15367049 -0.17259945 0.14745261 0.4614067 0.21101135 -0.133674 -0.037785865
-0.4214446 0.028151007 -0.14732173 -0.1740954 0.116465405 -0.15862073 0.09994684 0.23244482
-0.21465869 -0.12890999 -0.2279449 -0.1702054 0.17538896 0.08219405 -0.27838358 0.26881525
-0.13796614 -0.010128045 -0.03927543 -0.06933006 0.07702441 -0.15329018 0.2064462 -0.12516506
-0.06541158 0.04314858 -0.41453022 -0.045017548 0.23968433 0.22811078 -0.1710366 0.05577338
0.015957411 -0.38290545 -0.004757703 0.15065043 -0.31389734 -0.01978741 -0.40585107 -0.37549883
-0.121432856 -0.14005981 0.39617002 -0.07132156 -0.45490327 -0.029457642 -0.036853597 -0.15488279
0.16359554 0.12505294 0.10953467 0.36704805 0.13483724 -0.10709454 -0.47200862 -0.10840429
0.054927096 0.060732305 -0.008208547 -0.06533629 0.1330728 -0.18805997 -0.68900114 -0.13021043
-0.019529335 -0.049230378 -0.14299639 0.11549121 -0.311851 0.16076598 -0.40050903 -0.5366405
-0.22996627 -0.0847555 -0.06316742 0.4577408 0.43478653 0.23207143 -0.512902 -0.15929337
0.14983046 -0.26742968 0.12304134 -0.02139513 -0.11035714 -0.2666834 -0.06424883 0.05124535
-0.05041099 0.103944436 -0.079804875 -0.19010441 0.2186676 0.3087315 -0.09940177 -0.13011852
0.16575305 -0.46643913 0.136406 0.31632364 -0.21537551 -0.039570894 -0.4098233 0.008835609
0.15771596 0.086421825 0.14794384 -0.036490396 -0.04432774 -0.016208898 0.10910353 -0.18617463
-0.073768206 -0.06699109 -0.0729564 -0.18520853 0.04656738 -0.08679182 -0.111397184 0.06429265
0.028398264 -0.026649976 0.15434228 0.16625355 0.053743217 -0.37402576 0.12690298 0.049816582
-0.0698362 -0.034846805 -0.16366132 0.14348151 -0.034916442 0.04349029 -0.4481169 0.03458126
00000000: af6d 113e 42cc 41bd ab4f d7be ead5 443d
00000010: 70fb 44bc 57cc 26be 71bb 013b d5c9 34be
00000020: 9fa6 733e 0678 41ba 1105 29bf c455 b9bd
00000030: 175e c9be 7f6a d73c c42d 8c3d b795 8d3d
00000040: 8db4 7fbb 5502 393e 0b86 2bbf 98f1 523e
00000050: 6a65 27be a229 b03c 66e1 b23c d774 4d3d
00000060: 1af1 00bf cf2e ad3b 816c 85bd 77e3 503e
00000070: d516 12be def6 083e c08d f53d dced 3d3e
00000080: 917c 45bc 9678 ef3d 2410 9dbe 873d 533d
00000090: f040 593e 970c b73e 434e 01bd be59 b8bd
000000a0: 961c 15bc 8d82 1dbf 32e0 aabe a95e 923e
000000b0: 5a9d 033e feb8 2dbf 1f67 323e 1a02 7bbb
000000c0: 8a8d 163e f327 503e baec 813e 4372 57be
000000d0: c5c9 43bc 662a 37be 2729 aa3d 413b 86be
000000e0: 529d d43b 23a0 6e3e d30c d33d f2c9 fd3d
000000f0: 3bfb 01be b33d 74bc 93ac 9b3e 36cc 06be
00000100: 82e5 ba3d ee86 d23d e102 dabe 7d92 05bf
00000110: b8fc 1cba 830d 1bbc b6f6 babd d327 6dbe
00000120: 0df2 6abd ee4f 4b3e 7a5d 95be b00e f1bd
00000130: c4df 393b 1978 8f3d b2af c1be 0347 34be
00000140: e1b3 7c3c ec1a 333d 2a52 83be 8bcb bf3b
00000150: f763 e63e bc7a 603d 58b3 403e 528e 73bb
00000160: a010 81be 2ef7 34bf 713c f63d 3c07 c33d
00000170: bdd9 e1bd bdd1 bdbc b7f1 253e 4fdc 433e
00000180: 7b6e 673e 184d 1d3e 118d a53e 9ed0 82be
00000190: d81b 2ebe 152c 2cbe f64f 263e c36c 433e
000001a0: 57e0 30be 71fa 9f3c 0d72 c6be 11a1 02be
000001b0: 420c 593e 5c49 37be e0bd 9f3e 1903 703e
000001c0: 4854 d7be cc5b 1dbe e9bd 30be d1fd 163e
000001d0: 803d ec3e 5c13 583e d6e1 08be 5ac5 1abd
000001e0: 96c7 d7be f19c e63c 82db 16be 1146 32be
000001f0: 6a85 ee3d 796d 22be eeb0 cc3d 0406 6e3e
00000200: 7dcf 5bbe fb00 04be 636a 69be 534a 2ebe
00000210: 2a99 333e 5b55 a83d 4b88 8ebe 27a2 893e
00000220: ff46 0dbe 1af0 25bc 46df 20bd ebfc 8dbd
00000230: f9be 9d3d 1af8 1cbe a266 533e 452b 00be
00000240: 82f6 85bd 91bc 303d 4e3d d4be 5264 38bd
00000250: cf6f 753e df95 693e 3824 2fbe a172 643d
00000260: 1eb9 823c 2f0c c4be 81e6 9bbb 1b44 1a3e
00000270: 27b7 a0be 3519 a2bc b6cb cfbe 6241 c0be
00000280: cab1 f8bd d76b 0fbe ccd6 ca3e 0a11 92bd
00000290: 15e9 e8be 2751 f1bc ccf3 16bd 9899 1ebe
000002a0: 9785 273e e10d 003e b753 e03d b9ed bb3e
000002b0: c612 0a3e 6254 dbbd 1dab f1be 1203 debd
000002c0: 3cfb 603d 70c2 783d 247d 06bc 08cf 85bd
000002d0: 3c44 083e cb92 40be 6162 30bf e255 05be
000002e0: fcfb 9fbc cba5 49bd a56d 12be a886 ec3d
000002f0: efaa 9fbe d69f 243e 850f cdbe 4661 09bf
00000300: 477c 6bbe 4b94 adbd ec5d 81bd 015d ea3e
00000310: 579c de3e 22a4 6d3e 8c4d 03bf cd1d 23be
00000320: 286d 193e 8bec 88be 19fd fb3d d744 afbc
00000330: ed02 e2bd ba8a 88be e494 83bd a5e6 513d
00000340: c17b 4ebd d2e0 d43d bd70 a3bd bbaa 42be
00000350: 66ea 5f3e 0e12 9e3e 2893 cbbd ca3d 05be
00000360: 2bbb 293e 1cd1 eebe 04ae 0b3e 2cf5 a13e
00000370: 668b 5cbe 1715 22bd 5cd4 d1be 3bc3 103c
00000380: 4b80 213e edfd b03d 977e 173e f476 15bd
00000390: 0191 35bd 86c8 84bc ac71 df3d 90a4 3ebe
000003a0: c913 97bd a032 89bd 2a6a 95bd 4ea7 3dbe
000003b0: 70bd 3e3d e9bf b1bd 3524 e4bd ddab 833d
000003c0: 7aa3 e83c 0d51 dabc e70b 1e3e 5f3e 2a3e
000003d0: d921 5c3d 4e80 bfbe dbf2 013e 790c 4c3d
000003e0: 4806 8fbd 86bb 0ebd d596 27be d1ec 123e
000003f0: 8b04 0fbd e022 323d 946f e5be 14a5 0d3d

l3/b f4 [9]
-0.14980511 -0.37619552 -0.25272447 -0.088052526 -0.011147335 -0.030343747 -0.06258822 -0.3109569
-0.20827529
00000000: 8366 19be b39c c0be 1a65 81be e254 b4bd
00000010: 50a3 36bc 7393 f8bc 412e 80bd be35 9fbe
00000020: 1e46 55be

l0/b f4 [81]
0.20628455 -0.31870088 -0.29939476 -0.30348998 -0.08168076 -0.41268232 -0.5515811 -0.1404235
-0.022785354 -0.03905237 -0.4243814 -0.17184195 -0.115247466 -0.19377401 -0.6065489 -0.021402227
0.28321934 -0.3464646 -0.28079557 -0.034768667 -0.020583984 0.3622927 -0.17750886 -0.42127442
-0.33917668 -0.2666219 -0.29016316 -0.1091921 -0.14205298 -0.4335937 -0.32291433 -0.19569153
-0.21053918 -0.25639883 -0.36437568 -0.4335886 0.06548199 -0.8015362 -0.2343233 -0.25127423
-0.2564468 0.008698909 -0.18828583 -0.17568508 -0.3455901 0.095733464 -0.14759885 -0.4321874
-0.6198862 -0.23943613 -0.16256292 -0.26416737 -0.4379327 -0.45414937 -0.46074486 -0.3400218
-0.37765652 -0.47117996 0.09410115 -0.108719274 -0.18262988 -0.41205502 -0.011837084 -0.24323736
-0.49225453 0.32041344 -0.22062168 -0.26855144 -0.26892057 -0.8232325 -0.18588868 -0.48079556
-0.37392676 -0.074522786 -0.15986231 -0.1013702 -0.4277026 -0.116567515 -0.035418198 -0.23237139
-0.265629
00000000: 423c 533e c32c a3be 454a 99be 0a63 9bbe
00000010: 3e48 a7bd 194b d3be 6b34 0dbf 2ecb 0fbe
00000020: 5aa8 babc 61f5 1fbd 8548 d9be 56f7 2fbe
00000030: dd06 ecbd b26c 46be ca46 1bbf b953 afbc
00000040: 2002 913e cf63 b1be 70c4 8fbe 9769 0ebd
00000050: be9f a8bc 6e7e b93e e2c4 35be 48b1 d7be
00000060: 91a8 adbe aa82 88be 4490 94be 1ca0 dfbd
00000070: 5676 11be feff ddbe 0755 a5be 5c63 48be
00000080: 9597 57be b546 83be 738f babe 53ff ddbe
00000090: 6c1b 863d 7a31 4dbf 72f2 6fbe 04a7 80be
000000a0: ff4c 83be de85 0e3c 00ce 40be cae6 33be
000000b0: 30f1 b0be e80f c43d 2724 17be ab47 ddbe
000000c0: ddb0 1ebf bf2e 75be e576 26be f240 87be
000000d0: b738 e0be 4486 e8be c0e6 ebbe 5617 aebe
000000e0: 325c c1be 803e f1be 1bb8 c03d 36a8 debd
000000f0: 5403 3bbe e0f8 d2be 54f0 41bc 3713 79be
00000100: c908 fcbe 3b0d a43e a6ea 61be 937f 89be
00000110: f5af 89be 5dbf 52bf 9a59 3ebe d62a f6be
00000120: 5473 bfbe 679f 98bd f2b2 23be 2e9b cfbd
00000130: d6fb dabe f3ba eebd ac12 11bd c4f2 6dbe
00000140: 8600 88be

l1/W f4 [81, 81]
-0.23800278 -0.20874739 -0.17372435 0.0063111093 0.075425714 0.19427322 0.19568492 -0.4289386
-0.32537118 -0.26983702 -0.24566475 -0.11486087 -0.2053895 -0.19485976 -0.22499967 0.21894929
0.022364067 -0.0051279487 -0.17016014 0.104757145 -0.11403526 -0.09573917 0.0041817976 0.1450282
-0.0005515854 -0.14300394 0.34863383 -0.41508877 -0.22150593 -0.06955928 -0.14534526 -0.06898168
0.25354075 0.0047277226 0.13422129 -0.3683629 -0.051954314 -0.06769457 -0.1338549 -0.08501736
0.0031646965 0.10418513 -0.13277963 0.066897154 0.097604975 0.043466896 0.021773117 -0.044810493
0.2761945 0.1034336 -0.0470047 -0.046191536 0.061441053 0.12630007 0.09284477 -0.13263865
0.06797883 0.26491526 0.08883123 -0.24363686 0.19028251 -0.1580769 -0.15367962 -0.039287176
0.25299227 0.016141627 0.16490932 -0.007530925 0.015561337 -0.19031489 -0.12067097 0.09525619
-0.24435057 0.10204053 0.0916372 -0.42376545 -0.1558883 0.040922083 0.05366796 0.034214824
-0.16901757 -0.2997944 -0.64449346 -0.095254816 0.13212842 -0.13214962 0.32344562 0.12151009
0.17636633 -0.2548575 -0.08920341 0.2569832 0.38750806 0.35182783 0.11810192 -0.053238593
-0.048926122 0.18028885 -0.021874106 0.17978175 -0.13836965 0.17980759 -0.25965375 0.29630286
-0.15688807 0.040059134 0.08766985 0.08223406 -0.2286148 -0.17702666 -0.06385538 0.06390835
-0.07715798 0.10504691 0.16784339 -0.052041944 -0.15025757 -0.2565498 0.35203594 0.13661672
0.06793424 -0.026065543 -0.3022214 -0.05549159 0.14084667 -0.18687575 -0.079688504 -0.093074165
-0.3135527 -0.107849285 0.016546493 0.28613454 -0.21806039 0.1886293 -0.42090577 0.12531151
-0.072528705 0.02125758 0.40875134 0.13423708 -0.4397578 -0.402828 0.21890236 -0.16884755
-0.21116543 0.16595693 0.1590872 0.08801114 -0.30449846 0.11493616 0.009807125 0.16614193
0.2445205 0.16170277 -0.28849137 0.015156685 -0.2242194 -0.19185327 0.21806698 0.1604949
-0.026014132 -0.011077034 0.19220449 -0.058442473 0.12044775 -0.0536699 0.31473836 0.21617271
0.1146828 0.092455976 -0.39269033 0.06386786 -0.19674608 -0.05885305 -0.15696457 -0.0795427
-0.10523574 0.2110541 0.35696816 0.2067222 -0.06265812 0.014724481 0.06002937 -0.2677744
-0.33525082 -0.06662079 -0.012456945 -0.16516103 -0.31663817 -0.11860637 0.14438407 -0.16275409
0.1518341 0.0018907388 -0.0340928 -0.007200842 0.02518186 0.24708024 -0.00901602 0.33766526
-0.26313764 -0.003536691 -0.09480065 -0.00931208 -0.09896664 -0.1291454 0.30029234 -0.2350767
0.13935223 -0.1855137 0.070133686 0.1394899 -0.06281974 -0.040689778 0.074023254 0.07158506
-0.34243196 -0.11350664 0.02666837 -0.32350665 -0.053789645 0.09237185 0.06907175 -0.054862328
-0.06258074 -0.03921289 -0.19480087 -0.08116945 -0.13150492 -0.14005296 0.15077485 0.0096128285
0.06630895 0.10301003 -0.16455711 0.041393925 -0.04375702 -0.34158173 -0.057144288 0.03329904
-0.021360219 0.23845303 0.04456311 0.14352193 -0.20477903 0.04067543 0.17511235 0.074989684
-0.30166999 0.47216102 -0.14182882 -0.024404356 0.3247806 -0.14409015 0.20880169 0.012888286
00000000: 00b7 73be e0c1 55be cce4 31be 6ccd ce3b
00000010: cc78 9a3d 8fef 463e a161 483e d79d dbbe
00000020: 0d97 a6be 1428 8abe 8a8f 7bbe 2d3c ebbd
00000030: a051 52be 5189 47be 5066 66be 3e34 603e
00000040: d934 b73c 5a08 a8bb 763e 2ebe ea8a d63d
00000050: 528b e9bd e612 c4bd 7607 893b 4682 143e
00000060: 4598 10ba a06f 12be 2280 b23e 8486 d4be
00000070: 73d2 62be 1975 8ebd 63d5 14be 4446 8dbd
00000080: 18d0 813e 03eb 9a3b 4e71 093e 109a bcbe
00000090: 0cce 54bd 73a3 8abd 4211 09be 951d aebd
000000a0: cc66 4f3b 035f d53d 62f7 07be 6001 893d
000000b0: 1ee5 c73d 580a 323d 895d b23c 358b 37bd
000000c0: 5e69 8d3e ffd4 d33d 0088 40bd 5633 3dbd
000000d0: 9da9 7b3d ce54 013e 6625 be3d 6dd2 07be
000000e0: 7c38 8b3d f9a2 873e 26ed b53d f17b 79be
000000f0: 6bd9 423e e9de 21be 315e 1dbe 97eb 20bd
00000100: 3488 813e 723b 843c fddd 283e fac5 f6bb
00000110: faf4 7e3c e8e1 42be 5722 f7bd ad15 c33d
00000120: 0937 7abe a0fa d03d 49ac bb3d c9f7 d8be
00000130: 2fa1 1fbe ea9d 273d efd2 5b3d d824 0c3d
00000140: f112 2dbe a77e 99be 86fd 24bf f514 c3bd
00000150: ac4c 073e 3b52 07be aa9a a53e 48da f83d
00000160: 6099 343e af7c 82be 47b0 b6bd 4d93 833e
00000170: 7567 c63e c722 b43e 6bdf f13d b610 5abd
00000180: c266 48bd a49d 383e 5331 b3bc b518 383e
00000190: c6b0 0dbe 7b1f 383e 56f1 84be 02b5 973e
000001a0: 44a7 20be 0c15 243d 408c b33d 556a a83d
000001b0: 001a 6abe 7a46 35be 9cc6 82bd 62e2 823d
000001c0: 0105 9ebd d622 d73d 23df 2b3e ef29 55bd
000001d0: 1fdd 19be 7f5a 83be 0e3e b43e 41e5 0b3e
000001e0: 1b21 8b3d 6887 d5bc c3bc 9abe 264b 63bd
000001f0: 1c3a 103e 5b5c 3fbe ba33 a3bd ab9d bebd
00000200: fb89 a0be 16e0 dcbd 838c 873c 3a80 923e
00000210: 394b 5fbe 0a28 413e f680 d7be a951 003e
00000220: ee89 94bd 6024 ae3c db47 d13e 7275 093e
00000230: ef27 e1be 793f cebe f127 603e 5fe6 2cbe
00000240: c03b 58be 9df0 293e c1e7 223e 2f3f b43d
00000250: 39e7 9bbe a663 eb3d 10ae 203c 1c21 2a3e
00000260: 9563 7a3e 6995 253e 24b5 93be bf53 783c
00000270: c599 65be 2f75 44be f34c 5f3e c658 243e
00000280: 971b d5bc 737c 35bc 41d1 443e 6061 6fbd
00000290: 4fad f63d f8d4 5bbd 6325 a13e 615c 5d3e
000002a0: d1de ea3d 8f59 bd3d b50e c9be 27cd 823d
000002b0: ce77 49be e50f 71bd 52bb 20be 48e7 a2bd
000002c0: d685 d7bd 911e 583e 88c4 b63e fcae 533e
000002d0: e752 80bd f33e 713c 5be1 753d ba19 89be
000002e0: ffa5 abbe 7b70 88bd 3718 4cbc f91f 29be
000002f0: 661e a2be e6e7 f2bd 6bd9 133e 02a9 26be
00000300: 667a 1b3e abd2 f73a e4a4 0bbd 0af5 ebbb
00000310: 304a ce3c 9a02 7d3e eeb7 13bc 76e2 ac3e
00000320: fab9 86be d4c7 67bb d826 c2bd b291 18bc
00000330: 06af cabd b13e 04be ebbf 993e f2b7 70be
00000340: 5ab2 0e3e 4ef7 3dbe 40a2 8f3d 71d6 0e3e
00000350: a3a7 80bd 53aa 26bd 8199 973d 309b 923d
00000360: 3e53 afbe 2b76 e8bd a077 da3c aaa2 a5be
00000370: 8852 5cbd 742d bd3d 7d75 8d3d 52b7 60bd
00000380: 552a 80bd b29d 20bd e179 47be 2b3c a6bd
00000390: 3aa9 06be 0b6a 0fbe b964 1a3e 207f 1d3c
000003a0: fdcc 873d ecf6 d23d a981 28be ad8c 293d
000003b0: 903a 33bd cde3 aebe 2110 6abd 9364 083d
000003c0: a0fb aebc 082d 743e cf87 363d 6af7 123e
000003d0: 98b1 51be 489b 263d a750 333e 3194 993d
000003e0: 7d74 9abe 17bf f13e 933b 11be a5eb c7bc
000003f0: a549 a63e 5e8c 13be 1cd0 553e 6429 533c

l2/W f4 [81, 81]
-0.18628003 -0.23519737 0.032847874 0.14837676 -0.39511362 0.25418013 0.10390742 -0.08073129
0.12986565 -0.015146338 0.023261335 0.015966564 0.01605586 -0.08002632 -0.044727623 0.04622145
-0.15068619 0.00800426 0.1637944 -0.017887542 0.24607185 0.07389652 0.25209376 -0.17550825
-0.05855186 -0.21537231 -0.52458787 -0.05216119 0.15733954 -0.20777453 -0.05837657 -0.11690788
-0.15416127 -0.04140801 0.14276297 -0.5690067 0.07036223 0.08242608 -0.3770171 0.34787482
-0.10361892 0.14157806 0.2330334 -0.034224033 -0.3144336 0.22429852 0.08645841 0.0105642695
-0.12723686 -0.18241368 0.19144668 -0.13882445 -0.12875752 -0.16555534 -0.09196034 -0.058984816
0.30805826 -0.79247767 0.34054086 -0.30675587 -0.19207996 -0.01840567 -0.15744568 -0.113930605
0.100158975 0.029904237 -0.11317507 -0.52736735 0.108684026 0.036083817 0.2187799 -0.12834238
-0.10849782 -0.08892363 0.040187035 -0.1486631 -0.38280785 -0.07037212 -0.07671858 -0.39913687
0.05757464 0.043787707 -0.40329137 0.13117792 0.14187415 -0.006104019 -0.26545832 -0.05046201
-0.21403085 -0.08887792 0.21906073 0.028345339 -0.039831027 0.06690438 -0.15015574 -0.115815386
-0.12609518 0.06408718 0.061190333 0.15554821 -0.35618755 0.19108218 0.43781453 0.26816204
0.0003505365 0.074533224 -0.14614168 0.2558193 -0.190245 0.07192289 -0.022528749 -0.2087885
-0.024513543 0.16186368 0.15325429 -0.021940252 -0.31897977 -0.015636371 0.058134165 -0.111961685
-0.134219 -0.6287892 -0.26861745 -0.39216098 0.11913259 -0.16222818 -0.023541968 -0.033604022
-0.2195475 -0.16512114 0.20523372 -0.28086188 -0.04508379 0.00051384774 0.21158546 0.1908595
0.17815827 -0.11783366 0.059513878 -0.16659378 0.1506414 -0.1450243 0.009570451 0.20317982
-0.29365933 -0.13089691 0.040609732 0.033766937 0.26764348 0.016845504 -0.25208396 -0.03950117
-0.13281472 -0.031504218 -0.19565482 -0.09957529 0.096754126 -0.052132066 -0.04854021 0.07838018
0.3813548 0.31915158 -0.23743957 0.113145225 0.13950233 -0.017273169 0.10294166 0.019575942
-0.19247782 -0.21891686 -0.12579428 -0.013282486 0.23195103 -0.07818891 -0.0649767 -0.1119741
-0.026801612 -0.4055794 -0.066880405 -0.18611437 0.07494459 -0.2036667 -0.16466515 -0.40789312
0.009617879 -0.15020378 -0.29400176 -0.12793958 -0.12449078 -0.103749946 -0.059431944 0.19379653
0.266291 -0.16284914 0.06255478 0.06603246 -0.01631058 0.33827153 -0.6284837 0.20787473
0.07295227 -0.3824299 -0.10417057 -0.2227245 -0.16034937 0.22407487 -0.19431505 -0.12227693
0.15371372 -0.2761463 0.10501474 -0.1668445 0.076816574 0.044524234 -0.3714553 -0.34720555
-0.0969413 -0.1314871 0.27340207 -0.29663166 -0.3631134 -0.20507886 0.22193824 -0.3721937
-0.4361555 -0.0896395 -0.15506971 -0.20986547 -0.12771043 -0.299909 -0.22914495 -0.16415772
-0.2606265 -0.0064872284 -0.27618456 0.034828264 -0.42155492 0.024176823 -0.051578376 0.12747632
-0.059678305 -0.16393413 0.031337105 0.058403894 -0.13156071 -0.12710543 -0.14346936 -0.22380544
-0.029056802 0.17834884 0.051183157 -0.36817423 -0.048215374 -0.12700446 0.015354793 -0.06885269
00000000: 31c0 3ebe 94d7 70be 7e8b 063d 14f0 173e
00000010: 554c cabe e623 823e 6acd d43d 7256 a5bd
00000020: 80fb 043e 5928 78bc 8e8e be3c 50cc 823c
00000030: 9487 833c d7e4 a3bd 5034 37bd b452 3d3d
00000040: 7b4d 1abe 4d24 033c b8b9 273e e588 92bc
00000050: 42fa 7b3e 0f57 973d 6f12 813e 6fb8 33be
00000060: 13d4 6fbd 8f8a 5cbe 644b 06bf f9a6 55bd
00000070: 9e1d 213e d9c2 54be 451c 6fbd 666d efbd
00000080: 74dc 1dbe 729b 29bd 7530 123e 6caa 11bf
00000090: 131a 903d 01cf a83d 6308 c1be a61c b23e
000000a0: 2836 d4bd d7f9 103e 4fa0 6e3e 802e 0cbd
000000b0: 71fd a0be 83ae 653e 1b11 b13d c215 2d3c
000000c0: 614a 02be a7ca 3abe 990a 443e ff27 0ebe
000000d0: 03d9 03be 5787 29be b455 bcbd 109a 71bd
000000e0: d0b9 9d3e d1df 4abf 5f5b ae3e 1b0f 9dbe
000000f0: 9cb0 44be 7dc7 96bc 7139 21be 7354 e9bd
00000100: 2620 cd3d bbf9 f43c 55c8 e7bd 8c01 07bf
00000110: bb95 de3d a0cc 133d d707 603e 2f6c 03be
00000120: 1b34 debd 981d b6bd 299b 243d 243b 18be
00000130: 64ff c3be 421f 90bd a21e 9dbd ab5b ccbe
00000140: 63d3 6b3d bd5a 333d 357c cebe 8153 063e
00000150: 7547 113e 3904 c8bb 27ea 87be 41b1 4ebd
00000160: e72a 5bbe a005 b6bd 7551 603e 7c34 e83c
00000170: dc25 23bd 2a05 893d 6dc2 19be 9e30 edbd
00000180: 181f 01be 2440 833d b7a2 7a3d 0848 1f3e
00000190: 375e b6be 0cab 433e 3a29 e03e 894c 893e
000001a0: 36c8 b739 e0a4 983d 2aa6 15be bffa 823e
000001b0: 96cf 42be 4f4c 933d 368e b8bc a7cc 55be
000001c0: a0d0 c8bc 98bf 253e b1ee 1c3e 0bbc b3bc
000001d0: 5151 a3be d917 80bc 171e 6e3d 2b4c e5bd
000001e0: b570 09be 54f8 20bf 3a88 89be 53c9 c8be
000001f0: cafb f33d 251f 26be 16db c0bc 5fa4 09bd
00000200: 0fd1 60be 8415 29be ca28 523e 21cd 8fbe
00000210: c8a9 38bd bdb3 063a dca9 583e ac70 433e
00000220: 1f6f 363e c652 f1bd d3c4 733d 8f97 2abe
00000230: bd41 1a3e 4081 14be 62cd 1c3c 5f0e 503e
00000240: 845a 96be d709 06be 6456 263d 334f 0a3d
00000250: 9108 893e 95ff 893c 2611 81be fbcb 21bd
00000260: 9500 08be 910a 01bd bd59 48be 21ee cbbd
00000270: 0727 c63d 6f88 55bd 19d2 46bd ca85 a03d
00000280: f040 c33e d667 a33e 5c23 73be afb8 e73d
00000290: b3d9 0e3e 7680 8dbc 14d3 d23d ba5d a03c
000002a0: e818 45be be2b 60be 37d0 00be c99e 59bc
000002b0: 9284 6d3e 8221 a0bd 8112 85bd ad52 e5bd
000002c0: 0e8f dbbc 1aa8 cfbe 98f8 88bd c494 3ebe
000002d0: 8d7c 993d 018e 50be fb9d 28be 5ed7 d0be
000002e0: 4f94 1d3c 05cf 19be 6687 96be 9802 03be
000002f0: 06f5 febd da7a d4bd e96e 73bd 9972 463e
00000300: 4b57 883e edc1 26be b81c 803d 073c 873d
00000310: c49d 85bc ed31 ad3e 4fe4 20bf 1ddd 543e
00000320: 0068 953d dacd c3be 6157 d5bd e411 64be
00000330: a032 24be e273 653e 86fa 46be 546c fabd
00000340: 2167 1d3e 0c63 8dbe f811 d73d 49d9 2abe
00000350: 0252 9d3d 0b5f 363d 642f bebe edc4 b1be
00000360: 2989 c6bd 8ea4 06be 5bfb 8b3e 1be0 97be
00000370: 00ea b9be 3100 52be c743 633e 2c90 bebe
00000380: c64f dfbe ea94 b7bd 98ca 1ebe f9e6 56be
00000390: 86c6 02be ac8d 99be f9a4 6abe f618 28be
000003a0: d670 85be d192 d4bb 1068 8dbe 15a8 0e3d
000003b0: 0cd6 d7be 790e c63c d943 53bd 2789 023e
000003c0: 3d71 74bd 59de 27be 565b 003d ec38 6f3d
000003d0: dab7 06be ed27 02be a2e9 12be 412d 65be
000003e0: 8808 eebc 14a1 363e 6ea5 513d 5581 bcbe
000003f0: 7c7d 45bd 750d 02be ab92 7b3c a402 8dbd

l1/b f4 [81]
-0.13523087 -0.20610994 -0.19346671 -0.2600155 -0.43678132 -0.21005613 -0.25052914 -0.15565562
-0.35233632 -0.032351878 -0.26653156 -0.12027624 -0.21920663 -0.111648545 -0.11078605 -0.051796924
-0.502262 -0.103130504 0.056565613 -0.112738185 -0.2803031 -0.18422061 -0.41609147 -0.422527
-0.3956013 -0.41807532 -0.02555358 -0.3132715 -0.083098724 0.018441185 -0.27366203 -0.0029695423
0.04892264 -0.2997155 -0.11943741 0.073008746 -0.14404611 -0.14430344 -0.77777994 -0.29073948
0.13232884 -0.17905654 -0.2734896 -0.15298882 -0.26212603 0.16446628 -0.15090361 -0.17555742
-0.046361588 -0.40795463 -0.23622698 -0.24321865 -0.22593871 -0.08904073 -0.3766697 -0.042062752
-0.060972657 -0.14695488 -0.0019036285 -0.44743252 -0.08157467 -0.2874463 -0.23837678 -0.4827388
0.08444574 -0.040882908 -0.55836445 -0.16711494 -0.12461181 -0.19559953 -0.054473657 -0.022906093
0.32578528 -0.10779033 -0.43317986 -0.24021415 0.023868477 0.013559569 0.10435309 -0.21811715
-0.05940556
00000000: f679 0abe 7c0e 53be 231c 46be c020 85be
00000010: cda1 dfbe f418 57be 5b45 80be 3064 1fbe
00000020: 6d65 b4be 6783 04bd d376 88be 6453 f6bd
00000030: b477 60be fea7 e4bd cce3 e2bd 0329 54bd
00000040: 3e94 00bf 1636 d3bd 58b1 673d 47e3 e6bd
00000050: e383 8fbe 54a4 3cbe f109 d5be 7555 d8be
00000060: 418c cabe f80d d6be be55 d1bc 1f65 a0be
00000070: aa2f aabd f811 973c 6e1d 8cbe a79c 42bb
00000080: 1b63 483d 4f74 99be 9a9b f4bd 9c85 953d
00000090: d380 13be 48c4 13be 961c 47bf cedb 94be
000000a0: 3681 073e 995a 37be d406 8cbe 1aa9 1cbe
000000b0: 6235 86be d969 283e 7a86 1abe 53c5 33be
000000c0: a6e5 3dbd 6edf d0be 7ce5 71be 4f0e 79be
000000d0: 7a5c 67be fc5a b6bd dada c0be fe49 2cbd
000000e0: 77be 79bd 577b 16be 2c83 f9ba e015 e5be
000000f0: 9f10 a7bd 292c 93be 0b19 74be 8a29 f7be
00000100: e3f1 ac3d d674 27bd f9f0 0ebf 2e20 2bbe
00000110: 7a34 ffbd 3e4b 48be c51f 5fbd 8fa5 bbbc
00000120: 54cd a63e 2dc1 dcbd c0c9 ddbe b3fa 75be
00000130: d387 c33c f428 5e3c 13b7 d53d 1a5a 5fbe
00000140: 3f53 73bd

l2/b f4 [81]
-0.10956697 -0.12884268 -0.22497511 -0.0075897276 0.06624633 -0.34688306 -0.364151 -0.1618757
-0.15264595 0.1676604 -0.41885093 0.07390647 -0.10290013 -0.18382719 0.019419568 0.23105101
-0.016646825 -0.2915734 -0.22808906 -0.36908543 -0.17737061 0.09720115 -0.20893483 -0.3007025
-0.14198323 -0.104476385 -0.23986238 -0.25487858 -0.23703729 -0.21432815 -0.038339555 -0.15232292
-0.27013087 -0.22767308 -0.09969351 -0.12477746 -0.22739097 0.14231148 -0.25330484 -0.13050553
0.042800482 -0.16460477 -0.28993055 -0.06851173 -0.08625712 -0.20160729 -0.18228234 -0.09901678
-0.2147108 -0.3144069 -0.33963805 -0.17384844 -0.14742783 -0.275134 -0.04475203 0.11597996
0.09549051 0.035880953 -0.01305377 -0.05531832 -0.39728534 -0.1150982 -0.28074244 -0.046185084
-0.08517799 -0.1449778 -0.33064494 -0.19707683 -0.33428717 -0.20519415 -0.2990751 -0.34166434
-0.12235192 -0.24713415 -0.20520337 -0.1312191 -0.12002101 -0.22490898 -0.3118014 -0.08145766
-0.1825568
00000000: a664 e0bd 56ef 03be e05f 66be 40b3 f8bb
00000010: 28ac 873d a89a b1be 0072 babe bec2 25be
00000020: 384f 1cbe 2baf 2b3e a173 d6be 465c 973d
00000030: 4ebd d2bd 323d 3cbe c915 9f3c a398 6c3e
00000040: ec5e 88bc 1c49 95be 2e90 69be c4f8 bcbe
00000050: a4a0 35be 6611 c73d 03f3 55be aef5 99be
00000060: 0d64 11be b7f7 d5bd 7c9e 75be 727f 82be
00000070: e7b9 72be d778 5bbe f009 1dbd 8afa 1bbe
00000080: 984e 8abe 2223 69be 1c2c ccbd 538b ffbd
00000090: 2ed9 68be 1aba 113e 2cb1 81be 3ea3 05be
000000a0: 8f4f 2f3d 278e 28be c771 94be e14f 8cbd
000000b0: 93a7 b0bd 2472 4ebe 39a8 3abe 4fc9 cabd
000000c0: 26dd 5bbe f1f9 a0be 0ae5 adbe 5305 32be
000000d0: 52f7 16be 5dde 8cbe e84d 37bd e786 ed3d
000000e0: 8790 c33d e8f7 123d 7bdf 55bc 7695 62bd
000000f0: fc68 cbbe 9bb8 ebbd 79bd 8fbe 922c 3dbd
00000100: cc71 aebd 0f75 14be 4b4a a9be 82ce 49be
00000110: b027 abbe 6a1e 52be 5f20 99be a1ee aebe
00000120: a593 fabd bc10 7dbe d520 52be 4d5e 06be
00000130: 93cd f5bd 8a4e 66be 6fa4 9fbe 46d3 a6bd
00000140: 2bf0 3abe

l0/W f4 [81, 9]
0.48548535 0.044825066 0.0779458 0.19455184 0.09553216 0.36991054 0.4893193 0.06627159
0.71183586 0.093229085 1.1986536 0.09857562 -0.2116538 0.67997414 -0.16493674 0.049273822
0.6295506 0.37355173 -0.0764906 0.23592663 0.21998754 -0.67376405 0.20089327 0.12869416
-0.64046085 0.101865 -0.2917412 0.48328277 0.10322983 0.04547086 -0.17188317 0.1251906
-0.35514385 -0.269866 -0.0023211292 -0.3530246 0.47504452 0.0064347205 -0.010359356 -0.018521626
-0.51131505 -0.017041083 -0.015860837 -0.1047915 -0.44785246 -0.29319742 -0.46296278 0.43238267
0.60445404 -0.2575228 0.091073796 -0.3320254 -0.81879896 0.08833349 -0.07992275 -0.57744336
-0.5552407 0.2110042 -0.37699735 0.07157316 0.6414707 -0.24311298 -0.3131187 -0.3935314
-0.29378736 -0.2490522 -0.35570058 -0.19768631 -0.047068205 -0.34305608 0.7009201 -0.3962015
0.3844692 0.16401917 0.20018081 -0.19889894 0.032559145 0.063198596 -0.08565721 -0.87251216
0.30799577 0.18259755 -0.09006396 0.17813252 0.5147121 -0.371859 -0.1468131 -0.00486031
0.04325147 0.3123177 0.1129522 -0.39076972 -0.4553809 -0.029798023 0.000981798 -0.08072312
-0.85261863 -0.510994 -0.7402995 0.46975446 0.14768186 -0.08408953 0.028719747 0.7462861
0.6489466 0.38859034 0.036828835 -0.025855124 0.4912421 0.52047414 0.4168395 0.14452279
0.5784657 -0.12262052 -0.23145753 0.40814286 0.29542494 0.82557595 -0.4281837 0.13720004
0.23792036 0.4402413 0.54305756 0.021805234 -0.27934885 0.6387888 -0.16082884 0.052096628
-0.88241464 0.054469135 -0.68066925 -0.052011993 -0.8095927 0.26968113 -0.005370384 0.17971705
0.48029962 0.35770354 0.44778275 0.44395065 -0.0018979164 0.13913363 -0.22372384 0.15240933
0.83831745 0.1501733 0.40871283 0.32063782 0.34266838 0.6309175 0.46125162 0.25835052
0.1750673 -0.27737728 0.27868056 -0.40756342 -0.3340753 -0.5493441 -0.53952676 0.22955608
0.03180977 -0.080781035 0.04834119 -0.2950155 0.05610011 0.022111276 -0.13107769 0.91600305
0.1419833 -0.0752292 0.07109661 0.013852689 0.028416667 -0.13443765 0.19987696 -0.37157264
0.3593958 -0.26323178 -0.1797069 0.28117466 -0.15999065 0.0572527 0.46914265 -0.14763291
-0.05679767 0.36808452 0.4332881 0.326393 -0.3162776 0.42591533 0.8126882 0.44925368
0.44199112 0.42141068 0.78534824 0.4160681 0.4108272 0.45072472 0.043473333 0.36937934
-0.4354851 -0.2784055 0.021472756 0.23457135 0.18347101 0.47113746 0.1721446 0.23810229
0.14698632 -0.11227342 -0.31266877 -0.87316364 -0.34851077 -0.17079893 0.014533089 0.40884325
-0.0122589255 -0.14891285 -0.4049279 0.8472029 -0.43730888 -0.4325568 -0.23788598 -0.025677502
-0.4915355 0.059480935 -0.0139899785 0.61799383 -0.0752783 0.10832635 -0.5157456 -0.017549006
-0.21576485 0.67627835 -0.3394177 -0.028154816 -0.025601888 0.22725813 0.29756784 0.30597615
0.4424605 -0.48521563 0.34139043 0.56013 -0.32352608 -0.22595194 0.42119476 -0.05613852
-0.3339944 0.05275285 0.06274025 0.17243451 0.46093157 0.15568532 0.109706484 -0.099419385
00000000: 8991 f83e 7d9a 373d 0ca2 9f3d 9938 473e
00000010: 5da6 c33d ea64 bd3e 0f88 fa3e 66b9 873d
00000020: e03a 363f e4ee be3d 7b6d 993f 04e2 c93d
00000030: c6bb 58be c912 2e3f 2de5 28be 59d3 493d
00000040: 3a2a 213f 2c42 bf3e 1ba7 9cbd c096 713e
00000050: 6a44 613e cd7b 2cbf f7b6 4d3e 67c8 033e
00000060: 3ef5 23bf 999e d03d 1a5f 95be d770 f73e
00000070: 296a d33d a73f 3a3d 2402 30be f731 003e
00000080: 6ad5 b5be e02b 8abe 161e 18bb a4bf b4be
00000090: 0939 f33e 59da d23b 4aba 29bc aaba 97bc
000000a0: 8be5 02bf be99 8bbc 96ee 81bc ed9c d6bd
000000b0: eb4c e5be f91d 96be 7509 edbe 4361 dd3e
000000c0: 80bd 1a3f 07da 83be e684 ba3d 3cff a9be
000000d0: cf9c 51bf 30e8 b43d 8aae a3bd 54d3 13bf
000000e0: 4124 0ebf 7c11 583e cc05 c1be f394 923d
000000f0: 6c37 243f 9cf2 78be 1851 a0be f37c c9be
00000100: 4c6b 96be 8a07 7fbe 631e b6be 486e 4abe
00000110: 97ca 40bd 0ca5 afbe 806f 333f ecda cabe
00000120: 26d9 c43e a4f4 273e 33fc 4c3e 2aac 4bbe
00000130: bd5c 053d 446e 813d 0c6d afbd f55c 5fbf
00000140: 9fb1 9d3e dafa 3a3e 7473 b8bd 5f68 363e
00000150: 2cc4 033f 4e64 bebe 2c56 16be 3c43 9fbb
00000160: 7428 313d 1be8 9f3e 7c53 e73d f812 c8be
00000170: af27 e9be fc1a f4bc adaf 803a 2a52 a5bd
00000180: 3745 5abf 81d0 02bf 4584 3dbf a883 f03e
00000190: ea39 173e 2237 acbd ad45 eb3c 9b0c 3f3f
000001a0: 5d21 263f 50f5 c63e d5d9 163d 20ce d3bc
000001b0: 1684 fb3e cb3d 053f fd6b d53e c8fd 133e
000001c0: 5416 143f 7820 fbbd 3403 6dbe 1af8 d03e
000001d0: f041 973e f258 533f e53a dbbe 2b7e 0c3e
000001e0: 65a1 733e 4f67 e13e d205 0b3f e4a0 b23c
000001f0: d006 8fbe aa87 233f 51b0 24be 4663 553d
00000200: ede5 61bf 071b 5f3d 5740 2ebf 870a 55bd
00000210: 7841 4fbf a513 8a3e 0cfa afbb bf07 383e
00000220: d5e9 f53e eb24 b73e c843 e53e 804d e33e
00000230: 82c3 f8ba 0c79 0e3e dd17 65be 3111 1c3e
00000240: f99b 563f 08c7 193e cf42 d13e a42a a43e
00000250: 3b72 af3e cf83 213f 2c29 ec3e 8546 843e
00000260: d844 333e 6504 8ebe 38af 8e3e 27ac d0be
00000270: eb0b abbe d1a1 0cbf 6d1e 0abf c010 6b3e
00000280: f64a 023d 8770 a5bd 6901 463d 460c 97be
00000290: 3bc9 653d b522 b53c 3b39 06be 2d7f 6a3f
000002a0: 1264 113e c411 9abd 199b 913d 64f6 623c
000002b0: 12ca e83c 06aa 09be 8cac 4c3e c53e bebe
000002c0: ba02 b83e 51c6 86be 1605 38be 20f6 8f3e
000002d0: 97d4 23be cf81 6a3d 7733 f03e 152d 17be
000002e0: aca4 68bd 9375 bc3e f0d7 dd3e fc1c a73e
000002f0: 23ef a1be 9311 da3e 550c 503f 9404 e63e
00000300: a94c e23e 24c3 d73e 950c 493f e106 d53e
00000310: f157 d23e 64c5 e63e 1811 323d 4a1f bd3e
00000320: e7f7 debe 2a8b 8ebe a2e7 af3c 7933 703e
00000330: d3df 3b3e ee38 f13e ad46 303e 16d1 733e
00000340: 9583 163e 9bef e5bd 1f16 a0be a787 5fbf
00000350: 0170 b2be eae5 2ebe 311c 6e3c e753 d13e
00000360: a9d9 48bc 9c7c 18be b652 cfbe 4ae2 583f
00000370: f3e6 dfbe 1678 ddbe 6298 73be a059 d2bc
00000380: 8baa fbbe 48a2 733d 3936 65bc d834 1e3f
00000390: 822b 9abd 35da dd3d e707 04bf efc2 8fbc
000003a0: 76f1 5cbe 9420 2d3f 28c8 adbe eea4 e6bc
000003b0: 0dbb d1bc 5bb6 683e d05a 983e e8a8 9c3e
000003c0: 2f8a e23e 2f6e f8be baca ae3e ae64 0f3f
000003d0: 36a5 a5be f25f 67be d7a6 d73e 81f1 65bd
000003e0: 5001 abbe 5f13 583d f67d 803d ac92 303e
000003f0: 39ff eb3e f96b 1f3e cbad e03d 649c cbbd
