chainerrl/TicTacToe/result_120000/target_model.npz (npz, 56593 bytes, 8 tensors)

l3/W f4 [9, 81]
000000 17 aa 16 3e a4 05 47 bd 55 f9 d9 be bd 85 52 3d
       0.14713322 -0.048589364 -0.42573038 0.051397074
000010 d1 53 43 bc 4c 13 28 be 7c a0 68 39 6d 90 33 be
       -0.011921839 -0.16413611 0.00022185029 -0.17535563
000020 bf 32 74 3e b4 2b 08 3b 2a 28 29 bf a3 e5 c7 bd
       0.23847483 0.0020778002 -0.6607691 -0.097605966
000030 78 60 ca be 8c 20 f9 3c 72 93 80 3d 8e 36 8f 3d
       -0.39526725 0.030411027 0.06278123 0.06992827
000040 9f 6a 10 3b 56 36 38 3e da c6 2a bf 49 a7 52 3e
       0.0022036207 0.17989478 -0.66709673 0.20571627
000050 8d 69 25 be df c9 aa 3c 44 48 93 3c 9a 77 2c 3d
       -0.16153546 0.020848213 0.017978795 0.04210625
000060 67 d8 00 bf 76 d7 19 3b a9 7f 8b bd 00 75 54 3e
       -0.50330204 0.0023474372 -0.068114586 0.20747757
000070 6e d7 12 be 70 b1 06 3e 79 4d eb 3d 8f 7a 3c 3e
       -0.14339992 0.13153625 0.11489386 0.18406127
000080 23 f7 f5 bb 5d b0 eb 3d 9a 84 9c be 05 35 64 3d
       -0.0075062676 0.11508248 -0.30569917 0.055714626
000090 db 2f 5f 3e f6 59 b8 3e 8e c7 ea bc 97 d5 bf bd
       0.21795599 0.36006135 -0.028659608 -0.09366911
0000a0 48 70 8e bc 76 18 20 bf 97 2f ab be fa 44 93 3e
       -0.017387524 -0.62537324 -0.33434746 0.28763562
0000b0 e0 9e f8 3d ba 3e 2e bf d0 be 30 3e e4 db a0 bb
       0.12139678 -0.68064463 0.17260289 -0.0049090255
0000c0 2c 4f 17 3e 51 b0 52 3e 3f bb 81 3e f5 44 56 be
       0.14776295 0.20575072 0.2533817 -0.20924743
0000d0 5a a7 7f bc bf a9 39 be f0 7b a9 3d 13 47 89 be
       -0.015603865 -0.18131159 0.08275592 -0.26812038
0000e0 5c 26 8f ba 3f 9c 6f 3e 5f 49 c4 3d ef a9 f2 3d
       -0.0010921466 0.23399447 0.09584307 0.118488185
0000f0 5f 7a fe bd 29 4c 87 bc 80 88 99 3e ad 6f 08 be
       -0.12425684 -0.016515808 0.29986954 -0.13323851
000100 6d 85 af 3d 61 a7 d1 3d 24 b3 d9 be e5 0c 05 bf
       0.08570371 0.10237003 -0.42519486 -0.519728
000110 6a 17 15 bb 4e df 19 bc 5b eb c4 bd 00 fc 6c be
       -0.0022749552 -0.009391619 -0.09615203 -0.23143005
000120 c1 6c 5e bd 6f 00 4a 3e 9e 01 95 be d3 35 f9 bd
       -0.054302935 0.19726728 -0.29102796 -0.12168469
000130 de 59 90 bb 58 66 91 3d e1 45 c3 be e4 f5 31 be
       -0.0044052443 0.07099599 -0.3813925 -0.17378956
000140 5a 67 53 3c c3 05 41 3d 7c 10 82 be b5 ae 20 3c
       0.012903059 0.047124635 -0.25403202 0.009807278
000150 55 a8 e7 3e d8 e9 59 3d 63 af 3e 3e 66 19 a9 bb
       0.45245615 0.053201526 0.18621592 -0.0051604984
000160 44 1e 84 be ba 86 34 bf 65 77 01 3e 89 63 b5 3d
       -0.2580434 -0.70518076 0.12643202 0.088568754
000170 27 fb ef bd 23 a6 d3 bc 31 0e 27 3e e8 98 44 3e
       -0.117178254 -0.025836056 0.16314007 0.19198954
000180 96 ef 68 3e 18 5e 22 3e 8c 0b a5 3e e9 9c 83 be
       0.22747645 0.15856206 0.32235372 -0.2570565
000190 60 29 30 be a2 99 2b be 7a 13 27 3e ef da 45 3e
       -0.17203283 -0.16757825 0.16316023 0.19321798
0001a0 c7 09 34 be e4 cf 95 3c 1b 20 c7 be 15 e7 0a be
       -0.17581855 0.018287607 -0.38891682 -0.13564713
0001b0 08 b0 5c 3e cb 31 31 be 8f 6d 9d 3e 86 f0 6b 3e
       0.21551526 -0.17304151 0.3074765 0.23040971
0001c0 de ca d8 be 2d 3e 1c be 5d 4b 34 be e8 b3 16 3e
       -0.42342275 -0.15258093 -0.17606874 0.14717066
0001d0 f3 93 eb 3e 94 e2 5c 3e 3c 98 05 be f4 9e 18 bd
       0.46011314 0.21570808 -0.13046354 -0.037260965
0001e0 80 95 d7 be 9d ac ce 3c a0 fc 0f be 6a ff 33 be
       -0.42106247 0.025228793 -0.14061213 -0.17577901
0001f0 da bb ed 3d 98 e0 23 be 26 63 c4 3d d1 d0 6b 3e
       0.116080955 -0.16003644 0.095892236 0.23028876
000200 cf c1 5a be 6c d1 07 be 47 c5 69 be 96 f5 2e be
       -0.21362995 -0.13263482 -0.22829162 -0.17085871
000210 d4 c9 37 3e 61 61 a9 3d 39 df 8f be 98 2e 88 3e
       0.17948085 0.08270527 -0.28099993 0.26598048
000220 2c 35 12 be e6 f9 54 bc 7c 73 15 bd 3c 7d 87 bd
       -0.14278096 -0.012999034 -0.036487088 -0.066156834
000230 93 b3 9f 3d 57 c9 1c be c6 8a 51 3e 04 44 03 be
       0.07797923 -0.1531118 0.20463094 -0.12818915
000240 f7 9e 85 bd 24 50 36 3d 91 a6 d4 be 46 57 3e bd
       -0.06524461 0.04451002 -0.4153333 -0.04646995
000250 32 0c 78 3e 6c a0 67 3e fb 8e 2f be d3 89 69 3d
       0.24223402 0.2261979 -0.17144386 0.057016205
000260 4c 23 96 3c 5b 6d c4 be 76 e3 c4 bb 8f 52 1a 3e
       0.018327378 -0.38364682 -0.006008561 0.15070556
000270 72 8c a2 be 77 b7 6a bc 43 e1 d1 be 52 44 be be
       -0.31747776 -0.014325968 -0.40992174 -0.371615
000280 23 f3 ef bd 24 94 11 be b2 f7 cb 3e e7 42 92 bd
       -0.117162965 -0.14216667 0.39837414 -0.07141667
000290 fe 96 ea be b4 ad f6 bc dd d7 0b bd e0 37 1f be
       -0.45818323 -0.030112125 -0.03414141 -0.15548658
0002a0 be 70 28 3e 0b 5b 00 3e b8 95 df 3d 15 b9 bd 3e
       0.16449258 0.1253473 0.109172285 0.3705527
0002b0 87 cc 0a 3e 3d 06 d0 bd 28 fa ef be 74 b4 df bd
       0.13554583 -0.1015744 -0.46870542 -0.109230906
0002c0 db 34 5b 3d 49 84 80 3d 1f 72 e4 bb dc 0b 8a bd
       0.053517204 0.062752314 -0.006971612 -0.06740543
0002d0 4d aa 0a 3e 8d 4e 43 be 22 41 30 bf 84 84 02 be
       0.13541527 -0.19072933 -0.68849385 -0.12745863
0002e0 8b 50 ba bc 91 af 4f bd f6 a5 10 be f2 26 ee 3d
       -0.022743484 -0.050704543 -0.14125809 0.11628522
0002f0 69 1a a0 be b2 ed 24 3e 33 cc cc be 97 7c 09 bf
       -0.3127015 0.16106299 -0.39999542 -0.53705734
000300 12 b9 6a be 47 4e aa bd 9c 9f 80 bd 7c 91 e9 3e
       -0.22922161 -0.083157115 -0.06280443 0.45618808
000310 60 95 dd 3e 0a 95 6f 3e 43 42 03 bf 30 85 21 be
       0.43278027 0.23396698 -0.5127298 -0.15773463
000320 a1 da 1a 3e e1 e1 88 be 98 23 02 3e 40 49 ad bc
       0.15122463 -0.26734832 0.1270889 -0.021153092
000330 a5 01 e5 bd 3a c2 86 be 51 f9 7c bd 15 ec 59 3d
       -0.11181954 -0.26320058 -0.061761204 0.05320366
000340 f9 12 4e bd f6 79 d5 3d 7f 6b a0 bd d4 b0 43 be
       -0.050311062 0.10423653 -0.07833003 -0.19110423
000350 79 af 5e 3e 5e cd 9d 3e 23 cd c7 bd ac f5 05 be
       0.21746625 0.30820745 -0.097559236 -0.13081998
000360 18 a6 2a 3e bb 12 ed be f8 dc 0e 3e 3a d1 a3 3e
       0.16664922 -0.46303353 0.1395148 0.31995565
000370 8a f5 58 be 1b 8c 22 bd e8 3e d1 be 50 46 ca 3b
       -0.21187416 -0.039684396 -0.40868306 0.0061729327
000380 92 12 22 3e 30 a1 ad 3d 88 63 18 3e 80 71 16 bd
       0.15827397 0.0847801 0.14881718 -0.036729336
000390 7e c6 3f bd 4e 68 79 bc c7 c4 e8 3d ae c6 40 be
       -0.046820156 -0.015222622 0.11365657 -0.1882579
0003a0 7c 2c 9b bd 79 14 86 bd 17 f7 8f bd 7a 8d 40 be
       -0.07576844 -0.065468736 -0.070295505 -0.18803969
0003b0 0a a7 39 3d cf a6 ab bd 7d 59 e2 bd 2e f3 81 3d
       0.045325316 -0.083814256 -0.11052225 0.06345211
0003c0 96 0e e8 3c e3 62 c0 bc 03 d9 24 3e f5 3a 28 3e
       0.028327268 -0.023484653 0.16098408 0.1642874
0003d0 3a 4d 5b 3d 30 69 bf be 44 63 01 3e ea 64 47 3d
       0.053540446 -0.3738494 0.12635523 0.048680224
0003e0 7f 3a 8b bd de b7 0d bd 4b 75 24 be ba e9 14 3e
       -0.067982666 -0.034599178 -0.16060369 0.14542285
0003f0 a8 6c 1c bd 95 43 38 3d 38 83 e7 be 85 97 13 3d
       -0.03818956 0.044986326 -0.452173 0.036033172

l3/b f4 [9]
000000 f0 c0 1d be 44 52 bd be 0f 65 7a be 25 16 bd bd
       -0.15405631 -0.36976826 -0.24452613 -0.09232739
000010 a4 a7 99 bc bb 59 aa bc d4 ee 7e bd b9 d1 9d be
       -0.018756695 -0.02079474 -0.062239483 -0.30824068
000020 fa f1 5c be
       -0.21576682

l0/b f4 [81]
000000 75 3a 55 3e 88 1c a1 be 94 db 97 be 5d c8 9a be
       0.20823081 -0.3146708 -0.29659712 -0.3023099
000010 7f 4a a8 bd ff 9e d4 be 3d 79 0e bf de 71 0f be
       -0.08217334 -0.41527554 -0.55653745 -0.1400828
000020 e4 eb aa bc 22 be 25 bd 20 30 d7 be ba 35 2f be
       -0.020864435 -0.040464528 -0.42028904 -0.17110339
000030 ce ab e7 bd 9a 20 45 be 1d fb 1b bf 15 b2 b8 bc
       -0.11312066 -0.19250718 -0.60930043 -0.022545854
000040 d0 27 93 3e 88 60 b2 be 9d a5 90 be e3 ba 1a bd
       0.28741312 -0.34839272 -0.28251353 -0.037775885
000050 77 51 bb bc 3c 5c b9 3e 31 37 36 be 13 74 d6 be
       -0.022865994 0.36203182 -0.17794491 -0.41885433
000060 d0 b6 ae be dd 35 87 be 19 3f 94 be 24 53 df bd
       -0.3412385 -0.26408282 -0.2895439 -0.1090453
000070 f0 1a 0d be 26 03 dd be 0d a0 a2 be 0b 17 48 be
       -0.13779807 -0.43166465 -0.31762734 -0.1954004
000080 f1 c0 56 be a1 94 82 be 5f 4b bb be 48 c1 dd be
       -0.20972039 -0.2550402 -0.3658094 -0.43311524
000090 55 5e 88 3d 69 e1 4d bf 66 46 73 be cd 47 80 be
       0.066586174 -0.80422074 -0.23757324 -0.2505478
0000a0 ad ac 82 be 99 3c 1e 3c 83 a6 3c be b1 a5 3a be
       -0.25522366 0.009658002 -0.18422894 -0.18227269
0000b0 60 f4 b0 be a8 fb c5 3d b0 9d 1b be dc f3 de be
       -0.34561443 0.0966714 -0.15196872 -0.43545425
0000c0 78 f2 1e bf bb 70 75 be 56 16 28 be 6e ae 86 be
       -0.6208873 -0.23968785 -0.1641477 -0.26304954
0000d0 07 df e0 be c0 ee e8 be a0 7d ec be 53 35 ac be
       -0.43920156 -0.45494652 -0.46189594 -0.33634433
0000e0 43 77 bf be 8a df ee be 5c 67 c6 3d e4 66 dd bd
       -0.37395677 -0.46654922 0.09687683 -0.108106405
0000f0 97 a4 34 be c9 11 d4 be 01 2c 88 bc 68 a1 77 be
       -0.17640911 -0.4141982 -0.016622545 -0.24182665
000100 65 84 fc be 4d 78 a4 3e bb 2b 62 be 23 63 89 be
       -0.4931976 0.32123032 -0.22086994 -0.26833448
000110 da 63 8a be 18 99 52 bf cf 02 3c be 4d d4 f6 be
       -0.27029306 -0.8226485 -0.18360446 -0.48208848
000120 3f 0a be be e5 b8 96 bd 96 89 21 be 8d b4 cb bd
       -0.37117192 -0.073594846 -0.15775141 -0.09946547
000130 73 1b db be d9 2a e4 bd cf 11 21 bd cf 46 72 be
       -0.4279438 -0.11140985 -0.039323624 -0.23659824
000140 33 6b 88 be
       -0.26644287

l1/W f4 [81, 81]
000000 91 32 74 be ea 8b 55 be 97 6c 32 be f0 94 d9 3b
       -0.23847415 -0.20854154 -0.17424236 0.006640069
000010 c9 ce 9a 3d f5 41 45 3e fe 65 49 3e 7d 6a db be
       0.075589724 0.19263442 0.19667813 -0.42854682
000020 7b 9c a6 be 59 c8 8a be a0 3b 7a be ab 5c e9 bd
       -0.3254126 -0.27105978 -0.24436808 -0.11394628
000030 4b 76 52 be 56 ed 47 be 3c 6f 65 be 1e eb 60 3e
       -0.20552938 -0.1952413 -0.22405714 0.2196469
000040 4c 4d b5 3c a8 f5 a3 bb 93 8a 2e be 4a 85 d5 3d
       0.022131585 -0.0050036497 -0.1704505 0.104258135
000050 7a 22 eb bd 73 b2 c4 bd 38 19 99 3b 12 7e 13 3e
       -0.11481185 -0.09604349 0.0046721958 0.14403561
000060 34 7d c5 39 01 39 13 be ba e3 b2 3e d0 86 d4 be
       0.00037668052 -0.14377214 0.34939367 -0.41509104
000070 e5 a3 62 be 56 29 8e bd 0b 4c 13 be 9f 4f 8a bd
       -0.22132833 -0.06941478 -0.14384477 -0.06753468
000080 3c ab 81 3e 48 b3 d1 3b fa 98 0b 3e 1d ac bc be
       0.25325954 0.006399546 0.13632575 -0.36850062
000090 d1 60 56 bd c4 c7 8b bd aa 37 0a be ad cf aa bd
       -0.052338425 -0.06825212 -0.13497797 -0.08340392
0000a0 db 2c 3b 3b 80 27 d2 3d ce ad 07 be e3 01 89 3d
       0.0028560671 0.1026144 -0.13249895 0.06689813
0000b0 92 01 c6 3d 5f b2 2e 3d 7a 40 be 3c 76 22 36 bd
       0.09668268 0.042650577 0.023224104 -0.04446646
0000c0 04 b6 8c 3e cf 33 d6 3d 7f 44 40 bd eb 17 3b bd
       0.27482617 0.104591005 -0.046940323 -0.045677107
0000d0 7c da 7a 3d a6 07 03 3e 02 23 bd 3d d1 65 07 be
       0.06124352 0.12795886 0.09235193 -0.13222434
0000e0 18 fb 8a 3d b1 ba 87 3e 9b 0b b5 3d e2 08 79 be
       0.067861736 0.26509622 0.08840104 -0.24319795
0000f0 a2 fd 44 3e f7 8f 22 be 97 0d 1d be 8b 39 1f bd
       0.19237378 -0.1587523 -0.15337215 -0.038873237
000100 72 77 82 3e b6 ce 80 3c 12 30 28 3e 9f 78 ca bb
       0.25481755 0.015723567 0.16424587 -0.00617893
000110 04 f8 85 3c 3b 3c 44 be 68 e3 f7 bd 18 26 c2 3d
       0.016353615 -0.19163601 -0.12103921 0.09479922
000120 32 87 7a be d2 72 cd 3d 02 6d be 3d 63 b3 d8 be
       -0.24465635 0.10031666 0.09298135 -0.4232436
000130 4a 8a 20 be dc dd 23 3d 1c 6a 57 3d c4 5c 0b 3d
       -0.15677753 0.040006503 0.05259143 0.034024015
000140 1d a4 2c be b0 90 99 be b5 05 25 bf 0b f0 bf bd
       -0.16859479 -0.299932 -0.64461833 -0.093719564
000150 b0 34 07 3e 32 c8 06 be 8e 81 a5 3e aa 9b f9 3d
       0.13203692 -0.13162306 0.32325405 0.12187894
000160 59 b2 35 3e 17 4c 82 be c3 ee b6 bd c3 45 83 3e
       0.17743815 -0.25448677 -0.08932259 0.2563916
000170 e1 99 c6 3e a3 65 b4 3e d1 6d f1 3d 7a 99 5e bd
       0.38789275 0.35233793 0.11788524 -0.054345585
000180 aa d7 48 bd 42 64 39 3e 70 74 b2 bc 69 df 38 3e
       -0.0490338 0.18104652 -0.021784037 0.18053974
000190 eb d2 0d be 38 a3 39 3e 84 8a 84 be 1c 09 98 3e
       -0.1384999 0.1812867 -0.2588693 0.2969445
0001a0 ac b4 20 be 2d 9e 1f 3d 55 9c b4 3d 14 61 a8 3d
       -0.15693921 0.038969208 0.088188805 0.08221641
0001b0 01 34 6b be 85 75 35 be 4f 93 82 bd 0b 66 82 3d
       -0.22969057 -0.17720611 -0.06375753 0.063671194
0001c0 8c 74 9f bd cf 94 d8 3d 29 6d 2c 3e 56 9c 54 bd
       -0.077859014 0.10575258 0.16838516 -0.051906906
0001d0 40 9c 19 be bc 26 83 be 5f e8 b3 3e 3c 03 0c 3e
       -0.15001011 -0.2561549 0.35138223 0.13673109
0001e0 d2 b2 8a 3d 39 0e d4 bc 8b 48 9a be ba a5 60 bd
       0.067723885 -0.025885688 -0.3013347 -0.05484555
0001f0 f2 ef 0f 3e 8e 20 3f be e3 e4 a1 bd e5 37 bf bd
       0.14056376 -0.18664762 -0.07904985 -0.09336833
000200 9b 3d a0 be fc 97 db bd bb 3c 8c 3c f9 39 93 3e
       -0.31297 -0.10722348 0.017118802 0.28755167
000210 90 63 60 be 25 fd 40 3e 40 62 d7 be ab 2a 00 3e
       -0.2191298 0.18846567 -0.42067146 0.12516277
000220 3a 4d 93 bd 3e 58 b6 3c 38 7a d1 3e d0 66 09 3e
       -0.07192464 0.022258874 0.40913558 0.13418126
000230 98 c1 e0 be 66 9c ce be 98 d6 5f 3e d8 c8 2c be
       -0.438977 -0.40353698 0.21859205 -0.16873491
000240 40 83 57 be 95 e3 29 3e 50 74 23 3e 79 b9 b5 3d
       -0.21046162 0.16590722 0.15962338 0.08873267
000250 e5 4c 9c be 47 08 ec 3d 9b 44 12 3c ec bc 2b 3e
       -0.30527416 0.11525016 0.00892749 0.16771287
000260 2a be 79 3e a4 1b 27 3e 78 4f 93 be 1f 5d 75 3c
       0.24388948 0.16319138 -0.28771567 0.014975815
000270 14 77 65 be 14 0f 45 be 2c 65 5f 3e 38 25 25 3e
       -0.22408706 -0.19244033 0.21815938 0.16127479
000280 eb 9b d3 bc 2a d5 31 bc 8e 57 44 3e 01 7b 6e bd
       -0.025831183 -0.010854045 0.19174024 -0.058222774
000290 41 6a fa 3d f7 ca 59 bd dc 1c a2 3e 02 f1 5e 3e
       0.122272976 -0.053172078 0.31662643 0.21771625
0002a0 be 04 e6 3d c4 b1 be 3d 60 4d c8 be f6 54 85 3d
       0.11231373 0.0931125 -0.39121532 0.06510346
0002b0 99 c2 48 be 24 cf 75 bd 47 77 1f be b7 52 a4 bd
       -0.19605483 -0.060011998 -0.15572844 -0.08023589
0002c0 8c 26 d9 bd c5 f8 58 3e 51 15 b7 3e 15 be 53 3e
       -0.10603055 0.21188648 0.3575845 0.2067798
0002d0 2c 3f 82 bd b4 59 7b 3c 00 c7 7c 3d d0 e7 87 be
       -0.06359705 0.015341211 0.06171322 -0.26544046
0002e0 55 15 ac be fa 64 85 bd 99 ca 3b bc 22 a5 28 be
       -0.33610025 -0.065134004 -0.011461877 -0.16469243
0002f0 a6 45 a2 be 96 40 f3 bd f7 6d 12 3e ff 6c 27 be
       -0.31693763 -0.11877553 0.14299761 -0.16350172
000300 74 3c 1b 3e 61 3c d0 3a a4 63 09 bd bc 2c 12 bc
       0.1515978 0.0015887135 -0.03354229 -0.008921798
000310 39 0b bc 3c 18 0c 80 3e 5d 31 14 bc 16 0c ad 3e
       0.02295457 0.25009227 -0.009044972 0.33798283
000320 d3 64 86 be 2c 8f 7e bb 7f c6 c2 bd 80 9f 07 bc
       -0.26248798 -0.0038842661 -0.095105164 -0.008277774
000330 7f 27 cb bd 72 d3 02 be f6 8e 99 3e 6d 34 71 be
       -0.09919643 -0.12775972 0.29991883 -0.23555155
000340 7c 72 0e 3e 48 06 3f be fb 6d 8f 3d 52 96 0e 3e
       0.1391086 -0.1865474 0.07003399 0.1392453
000350 7d 18 7c bd 63 42 2a bd 96 96 9a 3d b3 cc 90 3d
       -0.06154679 -0.041567218 0.07548253 0.07070293
000360 c1 ad af be 51 df e7 bd 9d 54 e3 3c a6 a9 a5 be
       -0.3431225 -0.11321891 0.027750308 -0.32355994
000370 e7 83 5d bd 52 6b bb 3d c0 2a 8f 3d 7a 80 59 bd
       -0.05408087 0.09151329 0.06990576 -0.05310104
000380 87 48 81 bd f0 a2 21 bd 43 ea 48 be 90 22 a4 bd
       -0.063126616 -0.03946203 -0.19620614 -0.08014405
000390 fb 0b 05 be 44 f2 0f be 9b ee 18 3e f1 67 0d 3c
       -0.12992851 -0.14057261 0.14934771 0.008630739
0003a0 c5 5b 89 3d 0e bb d1 3d 9e 4b 28 be c6 fb 35 3d
       0.06706957 0.10240756 -0.16435096 0.044429563
0003b0 25 98 31 bd c2 99 af be 16 00 65 bd 4a 41 09 3d
       -0.043357987 -0.34296995 -0.055908285 0.03350953
0003c0 52 e7 a1 bc 11 0f 75 3e 50 31 30 3d c3 6d 13 3e
       -0.019763622 0.23931529 0.043015778 0.1439734
0003d0 95 f8 50 be 14 92 29 3d 33 6b 33 3e d1 9d 98 3d
       -0.20407327 0.041399077 0.17521362 0.07451976
0003e0 3f 1a 9a be ab 42 f1 3e cb 00 12 be e7 e0 b8 bc
       -0.3009815 0.47121176 -0.14258115 -0.02256818
0003f0 b3 1a a6 3e d5 d8 13 be 35 f7 55 3e a8 af 56 3c
       0.32442245 -0.14438184 0.20895083 0.013103403

l2/W f4 [81, 81]
000000 49 b6 40 be 31 e8 71 be 82 3a 06 3d cb 42 17 3e
       -0.18819536 -0.2362373 0.03277064 0.14771573
000010 e2 f3 ca be b6 c8 81 3e c4 11 d3 3d 96 1a a3 bd
       -0.39639193 0.25348443 0.10306123 -0.07964055
000020 07 bd 05 3e 7b f7 82 bc 72 1f c0 3c 07 1b 80 3c
       0.1306039 -0.015987149 0.023452494 0.015637888
000030 2e 72 80 3c 74 bc a3 bd b1 45 37 bd 36 ca 43 3d
       0.015679445 -0.07994929 -0.044744197 0.047800265
000040 b7 5a 1b be ee d8 e2 3b bb 81 28 3e 6b d6 8a bc
       -0.15171324 0.0069228327 0.16455738 -0.016947946
000050 b8 c3 7b 3e 16 85 99 3d 2a d6 80 3e f1 44 34 be
       0.2458638 0.07496087 0.25163394 -0.17604424
000060 33 9e 6d bd 59 e6 5b be 5c 1f 06 bf 1e cd 51 bd
       -0.0580122 -0.2147459 -0.523916 -0.051221006
000070 74 2b 21 3e 1c b9 55 be 92 8b 6e bd 54 ef ec bd
       0.15739232 -0.20871395 -0.058238573 -0.11569086
000080 4e 0a 1e be 76 a4 27 bd da 9c 12 3e 09 ac 11 bf
       -0.15433618 -0.040928327 0.14317647 -0.5690313
000090 35 5e 8e 3d e4 f6 a9 3d 81 c8 c1 be f4 26 b2 3e
       0.06951562 0.08299044 -0.37848285 0.34795344
0000a0 09 eb ce bd 62 95 12 3e 07 ca 6f 3e 4a 14 04 bd
       -0.10103423 0.14314798 0.23416911 -0.03224591
0000b0 34 72 a0 be 47 53 68 3e c0 5d b0 3d 6e db 46 3c
       -0.3133713 0.22688018 0.086116314 0.012137277
0000c0 3b 2f 03 be ea 1e 3b be 4d 47 48 3e 6a 0d 0e be
       -0.12810986 -0.18273512 0.19558449 -0.13872305
0000d0 66 98 02 be 04 f4 29 be dd 5c bc bd d2 2c 72 bd
       -0.12753448 -0.16596991 -0.091974 -0.059124775
0000e0 5e 2c 9d 3e af 02 4b bf ab 1e af 3e fd be 9d be
       0.30697912 -0.7930097 0.34203085 -0.30809775
0000f0 53 ba 45 be 7d 4e 8d bc c4 1f 1f be 1f 85 ea bd
       -0.19309358 -0.01724934 -0.15539461 -0.11451172
000100 32 5f cf 3d 8c 26 00 3d 30 3f e6 bd 3d 10 07 bf
       0.10125579 0.03128676 -0.11242521 -0.5275915
000110 f8 8a dd 3d f4 85 11 3d 13 e9 60 3e 9d 48 04 be
       0.10817522 0.03552814 0.21963911 -0.12918325
000120 66 90 d6 bd 24 08 b6 bd 77 40 1c 3d 98 ff 16 be
       -0.104767606 -0.088882715 0.038147416 -0.14745939
000130 03 21 c4 be 36 b0 92 bd 00 a9 9e bd 8e 86 cb be
       -0.38306436 -0.07162516 -0.07747078 -0.39751095
000140 61 d8 6a 3d a2 1f 3a 3d 27 5c ce be de e5 04 3e
       0.05733526 0.045440324 -0.40304682 0.12978312
000150 54 bf 10 3e 3c 6c a3 bb 17 62 88 be 48 67 49 bd
       0.14135486 -0.004987268 -0.26637337 -0.049170762
000160 05 8b 5c be 4d 59 b4 bd db 83 5e 3e 44 ed dd 3c
       -0.21537407 -0.08806095 0.21729986 0.027090676
000170 04 84 22 bd a9 bb 8a 3d 9b 8c 19 be 25 6e ea bd
       -0.03967668 0.067740746 -0.14995043 -0.1144679
000180 13 04 01 be dc 0b 86 3d a8 77 80 3d 8a a2 1d 3e
       -0.1259921 0.06545231 0.062728226 0.15394035
000190 d3 e6 b5 be 4e 62 42 3e ea 07 e0 3e 2f 36 88 3e
       -0.35527667 0.18982813 0.43756038 0.2660384
0001a0 df 8c 71 3a 57 ee 96 3d be d5 13 be 6a 6b 82 3e
       0.0009214412 0.073696785 -0.14437005 0.25472575
0001b0 0e c5 41 be 54 63 95 3d 38 e9 b2 bc 20 33 56 be
       -0.18922827 0.07294336 -0.021839723 -0.2091794
0001c0 01 ab c9 bc 6f af 26 3e 92 2a 1c 3e 7b 48 bb bc
       -0.024617674 0.1627786 0.15250614 -0.02286171
0001d0 ec 3d a4 be 48 fa 72 bc de f6 64 3d 26 83 e4 bd
       -0.32078493 -0.0148301795 0.055899493 -0.11157827
0001e0 25 c3 09 be 8c f2 20 bf 73 d2 89 be 85 ac c8 be
       -0.13453348 -0.628701 -0.26918373 -0.39194122
0001f0 bc 08 f2 3d 0a 61 25 be 61 aa bb bc dd d1 0e bd
       0.11818072 -0.16150299 -0.022908391 -0.03486811
000200 23 18 60 be 26 7f 27 be e1 3c 52 3e e0 fa 8e be
       -0.21884207 -0.16357097 0.20531036 -0.27925777
000210 a7 98 3f bd 8e 8b be b9 b9 2c 58 3e e3 09 42 3e
       -0.04677644 -0.000363436 0.2111081 0.18949084
000220 51 6f 37 3e e4 76 f3 bd f1 e3 6d 3d 49 23 2b be
       0.17913558 -0.11887911 0.05807871 -0.16712679
000230 1e 6f 18 3e 2e 16 15 be f6 9f 29 3c 8d 15 50 3e
       0.14886138 -0.14559242 0.010353079 0.20320721
000240 95 83 96 be 90 6a 06 be f4 a3 27 3d 34 b7 0d 3d
       -0.29397264 -0.13126588 0.040927842 0.034598544
000250 12 2e 89 3e 1f 07 88 3c ff 90 7f be 81 ac 24 bd
       0.2679296 0.016604958 -0.24957655 -0.040203575
000260 a1 1b 08 be 26 ae 08 bd 08 2b 48 be a4 8d ce bd
       -0.1329179 -0.033369206 -0.19547665 -0.100856096
000270 ca 69 c8 3d ca 7b 56 bd 16 39 48 bd f2 26 a6 3d
       0.09785803 -0.05236415 -0.048882566 0.08112897
000280 20 bd c3 3e 92 0f a3 3e 2c ba 72 be ac 28 ea 3d
       0.38230228 0.31847817 -0.23703831 0.11433539
000290 32 10 11 3e 13 08 8a bc 9e 20 d5 3d 2a 6e a4 3c
       0.14166334 -0.016849553 0.10406612 0.020072062
0002a0 4c 12 45 be 7a 35 61 be 22 80 00 be 15 bd 64 bc
       -0.19245261 -0.21993056 -0.12548879 -0.013961096
0002b0 cc 0d 6e 3e 7b cc 9e bd 98 7f 86 bd 93 b0 e5 bd
       0.2324745 -0.07753845 -0.06567305 -0.112153195
0002c0 66 88 d0 bc 40 43 cf be 48 4e 86 bd 94 cb 3e be
       -0.025455665 -0.40480995 -0.065579 -0.18632346
0002d0 0f a7 99 3d 5d bf 51 be 03 20 29 be 4e 87 d1 be
       0.07502567 -0.20483156 -0.16516118 -0.40923542
0002e0 da 44 05 3c 96 66 18 be c9 c3 95 be d5 7a 02 be
       0.008134091 -0.14882883 -0.29250935 -0.12742169
0002f0 15 c4 fe bd c1 24 d6 bd 8d 25 70 bd 67 a7 47 3e
       -0.124397434 -0.10456229 -0.05862956 0.19497453
000300 22 90 88 3e 1c 10 27 be 49 69 7e 3d d5 85 86 3d
       0.26672465 -0.16314739 0.062112126 0.06568495
000310 bf 46 93 bc 42 f2 ad 3e e0 7d 20 bf 1a 36 55 3e
       -0.01797807 0.3397389 -0.6269207 0.2082142
000320 05 76 90 3d 42 fa c3 be 47 47 d0 bd a2 00 64 be
       0.070537604 -0.3827687 -0.10169845 -0.22265866
000330 dd e0 24 be 28 ee 64 3e 03 5c 44 be 72 74 fe bd
       -0.16101404 0.22356474 -0.19175725 -0.12424554
000340 7b 07 1e 3e 7a c7 8d be 2a 82 d8 3d 09 2d 2d be
       0.15432541 -0.2769125 0.10571702 -0.16911711
000350 47 9c 9a 3d e0 36 35 3d 11 66 bf be d6 f3 b1 be
       0.07549339 0.044241786 -0.37382558 -0.34756345
000360 c1 c0 c7 bd 05 e8 06 be 85 d8 8b 3e a2 f0 97 be
       -0.09753562 -0.13174446 0.2731363 -0.29675776
000370 06 5d ba be 76 f6 51 be 21 44 65 3e 90 96 be be
       -0.36399096 -0.20504174 0.2238927 -0.37224245
000380 65 78 df be d4 eb b6 bd ab 34 1e be 54 22 55 be
       -0.4364654 -0.089316994 -0.15449779 -0.20813876
000390 60 d8 02 be 92 21 99 be 95 45 6d be 27 cc 26 be
       -0.12777853 -0.29908425 -0.23171075 -0.16288815
0003a0 77 37 85 be c4 40 c7 bb d6 bd 8d be c6 f3 0a 3d
       -0.2601888 -0.0060807187 -0.27683896 0.033923887
0003b0 69 6c d9 be 61 1d bd 3c ef 7d 4f bd 99 ac 03 3e
       -0.42465523 0.023085298 -0.05065721 0.1285881
0003c0 77 26 6f bd 79 d8 28 be a3 af 07 3d f5 50 6a 3d
       -0.058386292 -0.16488828 0.033126485 0.057206113
0003d0 7e cb 07 be 89 76 02 be cd 76 12 be a2 b1 64 be
       -0.1326122 -0.1274053 -0.14303131 -0.22333387
0003e0 38 b4 ec bc 56 4b 35 3e ca fd 4e 3d 37 61 bc be
       -0.028894529 0.1770452 0.050535 -0.3679292
0003f0 5a 5b 41 bd 85 df 00 be 7a 9e 67 3c c4 c5 8b bd
       -0.04720626 -0.12585266 0.014136905 -0.0682483

l1/b f4 [81]
000000 a2 6e 09 be 7c 18 51 be ec f8 42 be 7c 7c 85 be
       -0.1342111 -0.20419496 -0.19040269 -0.26071537
000010 aa 0e df be 09 c7 5c be f6 f6 7c be ab 57 1f be
       -0.43565875 -0.21560301 -0.24703583 -0.15560786
000020 85 64 b1 be 3c 3f 0b bd 6c a0 88 be b6 0d f7 bd
       -0.34647003 -0.033995852 -0.26684892 -0.12063162
000030 b4 2c 62 be 3b 53 de bd dd 17 ea bd 8c ce 60 bd
       -0.22087365 -0.10855719 -0.11430333 -0.05488448
000040 96 d4 01 bf 69 af d4 bd da cf 5d 3d 67 d5 e3 bd
       -0.50715005 -0.10385019 0.0541533 -0.11124688
000050 65 ef 8e be c0 c8 3e be c3 92 d4 be e5 ad d7 be
       -0.2791702 -0.18631268 -0.4151822 -0.42124858
000060 23 c7 cc be 63 d7 d7 be 02 de cf bc b3 bb a1 be
       -0.3999568 -0.42156515 -0.025374416 -0.31588516
000070 63 89 9e bd b5 d7 5b 3c 9a ce 8b be 54 e1 d3 bb
       -0.07741048 0.013418128 -0.27306062 -0.00646607
000080 9d 81 4c 3d de 80 98 be e1 88 e9 bd 62 cc 90 3d
       0.049928296 -0.29785818 -0.11403061 0.07070233
000090 83 3d 13 be be cd 12 be d3 72 47 bf c7 8d 94 be
       -0.14378934 -0.14336297 -0.7790958 -0.29014418
0000a0 75 fc 07 3e 70 b9 33 be 81 be 8d be 68 42 1f be
       0.13279898 -0.17551208 -0.27684405 -0.15552676
0000b0 70 f9 89 be 06 34 2c 3e 99 4e 19 be ae d7 32 be
       -0.26948118 0.1681672 -0.14971389 -0.17465088
0000c0 b2 fd 36 bd eb d8 d2 be 8c 3a 6e be c3 a6 75 be
       -0.044675536 -0.4118112 -0.23264521 -0.23989396
0000d0 83 23 67 be da ed b5 bd 2b f0 c1 be 16 2c 41 bd
       -0.2257214 -0.08883257 -0.37878546 -0.047161184
0000e0 a2 7f 72 bd ce 89 1c be 86 1a 1f 3a a5 01 e8 be
       -0.05920375 -0.15286943 0.0006069321 -0.45313755
0000f0 34 80 a4 bd 25 d6 93 be 77 64 71 be 14 24 f7 be
       -0.08032265 -0.28874317 -0.2357348 -0.48269713
000100 f1 41 a4 3d 1a 93 2e bd 7a b2 0e bf f4 f3 2b be
       0.0802039 -0.042620756 -0.55741084 -0.1679228
000110 85 53 f2 bd 35 dc 46 be d2 40 69 bd 40 2b be bc
       -0.11832336 -0.1941994 -0.056946583 -0.023213983
000120 ed f8 a7 3e 5c 7a dc bd c4 82 df be 48 31 75 be
       0.32807103 -0.10765526 -0.43654454 -0.2394458
000130 0f 3e 8e 3c 12 84 24 3c 0b 52 d2 3d fd cf 60 be
       0.017363576 0.010041254 0.10269555 -0.21954341
000140 d2 e9 62 bd
       -0.05539877

l2/b f4 [81]
000000 d6 0a d7 bd f6 88 04 be e9 65 64 be 6b f5 f4 bb
       -0.10500114 -0.12942871 -0.223045 -0.007475545
000010 d3 33 85 3d cf 00 b0 be 2e 5e b7 be 75 e5 24 be
       0.06504025 -0.34375617 -0.3581404 -0.16103156
000020 33 0f 1f be 1c 6b 2b 3e ef 91 d6 be d4 46 91 3d
       -0.15533142 0.16740078 -0.41908213 0.070935875
000030 e3 32 d8 bd 4c da 35 be 2d 1a 94 3c 57 42 6b 3e
       -0.10556581 -0.17759055 0.018078888 0.22974525
000040 dc 16 55 bc bf a3 94 be 81 38 66 be cb 81 bc be
       -0.013005938 -0.29031178 -0.22482492 -0.36817774
000050 00 ce 39 be 1e 6b c3 3d 79 80 54 be c8 e7 98 be
       -0.18144989 0.09541915 -0.20752133 -0.29864335
000060 ab 7e 0f be be 8d d5 bd 91 ac 7a be 4c 27 80 be
       -0.14013164 -0.10427426 -0.24479891 -0.2502998
000070 0a c3 77 be ef af 5e be 06 62 23 bd 8e 62 1e be
       -0.24195495 -0.21746801 -0.039888404 -0.15467283
000080 4f 5d 8a be 31 41 68 be ca dc c8 bd cf 4c fc bd
       -0.27024314 -0.22681119 -0.09807737 -0.123193376
000090 07 a7 6a be c4 b8 0d 3e 04 85 7e be 66 46 07 be
       -0.22915278 0.13840014 -0.24855429 -0.13210449
0000a0 80 4a 36 3d f7 eb 23 be b0 8d 92 be c1 28 91 bd
       0.044504642 -0.16007982 -0.28623724 -0.07087851
0000b0 8f 11 b9 bd 8a 70 4a be 16 09 38 be 65 ac d0 bd
       -0.09036552 -0.19769493 -0.17972216 -0.10189132
0000c0 50 59 60 be c3 96 a1 be ef 0b ae be c3 b6 2f be
       -0.2190907 -0.31560335 -0.3399348 -0.17159562
0000d0 4b d8 15 be 6a 8e 8c be 19 50 16 bd c6 bb e8 3d
       -0.1463329 -0.27452403 -0.03669748 0.1136394
0000e0 dd fd c4 3d 99 6a 26 3d 72 1b 94 bc 5b db 69 bd
       0.09618733 0.040629003 -0.018079493 -0.05709396
0000f0 06 e3 cc be 14 16 e8 bd dc 53 90 be 39 58 30 bd
       -0.40016955 -0.11332336 -0.2818898 -0.043052886
000100 7c eb ad bd 92 4e 18 be 1e 8d a7 be 9f 40 47 be
       -0.08492181 -0.14873722 -0.3272485 -0.19458245
000110 b4 aa aa be 19 dc 55 be 22 a3 98 be 0b f1 ae be
       -0.3333336 -0.20884742 -0.2981196 -0.34168276
000120 fb 0b 00 be d4 76 80 be 4b 8f 4c be d3 fc 04 be
       -0.1250457 -0.2509066 -0.19976537 -0.1298707
000130 58 c6 f7 bd bf 35 67 be 95 21 a1 be 7e 6f a8 bd
       -0.12098378 -0.22579096 -0.31470934 -0.082243904
000140 cd 52 3a be
       -0.18195648

l0/W f4 [81, 9]
000000 3b fc f9 3e 25 5f 30 3d 8e a0 a7 3d c3 2b 4a 3e
       0.4882525 0.043059487 0.0818492 0.19743256
000010 cf a3 c1 3d 19 c2 bd 3e 87 24 f9 3e ff 31 89 3d
       0.09455072 0.37062147 0.4866068 0.06698989
000020 c4 a1 35 3f f2 c9 b9 3d 11 62 99 3f a3 a0 c1 3d
       0.7094996 0.09071721 1.1983052 0.09454467
000030 f9 a5 5c be 18 45 2f 3f 64 90 2a be ea 95 50 3d
       -0.21547689 0.68464804 -0.16656643 0.05092422
000040 b9 42 21 3f 98 55 bf 3e 20 0f a1 bd 03 f7 72 3e
       0.62992436 0.3736999 -0.07864213 0.2372704
000050 6c cf 61 3e 25 96 2d bf e4 6d 51 3e 1e 3d 04 3e
       0.22051781 -0.6780723 0.20452076 0.1291394
000060 4e dc 24 bf b3 f4 cd 3d 68 00 93 be a9 25 f8 3e
       -0.6439866 0.10056438 -0.28711247 0.48466232
000070 d2 ff d4 3d 44 fe 41 3d 6b 93 2f be dd 9d fe 3d
       0.10400356 0.047361627 -0.17146079 0.12432454
000080 a5 70 b6 be a3 4f 89 be 7e 95 c7 bb b9 05 b5 be
       -0.35632816 -0.2681857 -0.006090819 -0.3535593
000090 46 06 f2 3e 1d 09 41 3c e1 2b f9 bb b7 40 a5 bc
       0.4727041 0.011781958 -0.0076041077 -0.02017246
0000a0 d3 6a 02 bf c8 63 94 bc ca bd 93 bc 8b 5f d9 bd
       -0.5094425 -0.018113986 -0.018034834 -0.106139265
0000b0 f4 9a e5 be 46 f7 95 be fa df ec be 4a f0 dd 3e
       -0.44844782 -0.29290217 -0.4626463 0.43347389
0000c0 dd b3 1a 3f ac c2 83 be 47 de bb 3d 81 82 aa be
       0.604307 -0.2573446 0.091732554 -0.33302692
0000d0 2e f2 50 bf 0f e0 ae 3d 8a 6f a2 bd a8 b7 13 bf
       -0.81619537 0.085388295 -0.07931431 -0.5770211
0000e0 ce 72 0d bf e7 55 58 3e 53 d3 c0 be 07 41 95 3d
       -0.55253303 0.21126519 -0.37661228 0.072877936
0000f0 0f ed 22 3f f4 78 79 be 02 e4 9e be 39 3c c9 be
       0.6364297 -0.24362546 -0.3103333 -0.3930376
000100 dc a0 96 be 3b 67 7a be 7d 24 b4 be 85 3c 50 be
       -0.294196 -0.24453442 -0.35184088 -0.20335586
000110 b9 c5 38 bd f9 30 b0 be 85 d9 33 3f 00 82 cb be
       -0.045110438 -0.34412363 0.70253783 -0.3974762
000120 d4 b3 c5 3e f8 23 26 3e 2a 0d 4f 3e e3 ed 49 be
       0.3861376 0.16224658 0.20219865 -0.19719653
000130 a4 3d db 3c 24 b6 85 3d 55 91 ae bd d0 a3 5f bf
       0.026762791 0.06528881 -0.08523814 -0.87359333
000140 0a 10 9e 3e c6 ad 33 3e 96 97 b4 bd 89 d1 39 3e
       0.30871612 0.17546758 -0.08817975 0.18146338
000150 c8 f3 03 3f 94 9d bd be c0 0f 16 be 8f b2 0d bb
       0.51543856 -0.37034285 -0.14654446 -0.0021621322
000160 48 15 2f 3d b8 f3 9e 3e 03 c4 e5 3d 33 9a c7 be
       0.042744905 0.31045318 0.11219027 -0.38984832
000170 94 c7 e8 be 09 43 eb bc a8 f7 0d 39 b3 3a a7 bd
       -0.45464766 -0.028718488 0.00013539067 -0.08165493
000180 c2 d3 59 bf bb 49 03 bf 6a db 3e bf 46 b2 f1 3e
       -0.8508874 -0.5128438 -0.7455355 0.47206324
000190 69 b3 19 3e 57 9f a8 bd 74 51 e7 3c 2c c5 3e 3f
       0.15009846 -0.08233517 0.028237082 0.7451961
0001a0 bd a2 26 3f 25 dc c6 3e 4f 6e 02 3d b0 cf d9 bc
       0.6509207 0.38839832 0.03184348 -0.02658829
0001b0 b1 75 f9 3e bf be 04 3f 6c 91 d4 3e 9f 8f 14 3e
       0.48722604 0.51853555 0.41517198 0.14507912
0001c0 35 1f 15 3f c4 af ff bd 61 ac 6b be fd 54 d1 3e
       0.58250743 -0.124846965 -0.23014976 0.40885153
0001d0 f9 e8 97 3e db 99 53 3f 4c 52 dd be de 9e 09 3e
       0.29669932 0.8265664 -0.4322685 0.1343951
0001e0 20 39 74 3e a3 73 e2 3e 60 58 0b 3f ee 83 c5 3c
       0.23849916 0.4422885 0.54431725 0.02411076
0001f0 d8 58 8d be 8a 72 22 3f 86 00 2b be 02 74 55 3d
       -0.27606845 0.6345602 -0.16699418 0.052112587
000200 9a d3 61 bf fd b7 5d 3d db cc 2d bf 3e 90 59 bd
       -0.88213503 0.054130543 -0.6789071 -0.053116076
000210 c9 67 4e bf 06 f1 8a 3e 4a 7a b9 bb bf c2 37 3e
       -0.80627114 0.2713701 -0.00566033 0.17945383
000220 6c 3f f5 3e 34 ad b6 3e f5 51 e5 3e 4c 38 e3 3e
       0.4789995 0.35679018 0.4478909 0.4437889
000230 4a 9d 24 ba a3 66 0f 3e 0b 01 65 be 14 e8 1c 3e
       -0.00062795414 0.14003997 -0.22363679 0.15322906
000240 b2 23 56 3f f3 43 1a 3e 0e c0 d1 3e 6c b3 a4 3e
       0.83648217 0.15064983 0.4096684 0.32168138
000250 00 86 ae 3e de 7c 21 3f 0a f6 ec 3e 6d 7e 82 3e
       0.3408661 0.6308116 0.46281463 0.2548708
000260 74 99 31 3e f6 ce 8d be b1 ab 8e 3e 71 38 d0 be
       0.17343694 -0.2769696 0.27865365 -0.4066806
000270 5f 04 ab be bd 42 0d bf 5c e2 09 bf dd dd 6b 3e
       -0.33401772 -0.5517996 -0.5386102 0.23033853
000280 a9 77 fb 3c 03 c2 a4 bd a7 56 3d 3d c6 49 96 be
       0.030696707 -0.08044817 0.046225216 -0.2935316
000290 93 11 6a 3d 99 3c ab 3c 69 e2 07 be ef e8 6a 3f
       0.057145666 0.020902919 -0.13269962 0.9176168
0002a0 4e 85 10 3e 65 8f 92 bd f3 58 90 3d 49 49 20 3c
       0.14113352 -0.071562566 0.07048216 0.009783098
0002b0 ab f1 f6 3c 62 a1 09 be 82 13 4a 3e 08 48 bb be
       0.030144533 -0.13440469 0.19734004 -0.36578393
0002c0 04 81 b7 3e 5f 0e 87 be 6f 98 39 be d2 de 8f 3e
       0.3584062 -0.26378152 -0.18124555 0.28099686
0002d0 99 54 1f be 32 d7 63 3d 43 34 ef 3e 8f c0 18 be
       -0.15559615 0.055625148 0.4671956 -0.14917205
0002e0 9c ba 63 bd 57 b4 bd 3e b7 2b de 3e d4 16 a8 3e
       -0.055597886 0.3705165 0.43392727 0.32829916
0002f0 1b 13 a3 be ad 46 da 3e c4 cd 50 3f 15 42 e4 3e
       -0.31850514 0.42632046 0.81563973 0.44581667
000300 77 a9 e3 3e 3f 02 d9 3e e7 74 48 3f d7 c3 d4 3e
       0.4446523 0.42384526 0.7830338 0.41555664
000310 d0 ab d1 3e 53 0d e5 3e dc 42 32 3d ab 85 bb 3e
       0.40951395 0.44736728 0.043520793 0.36625418
000320 a1 19 e0 be cf 78 8e be 12 44 a9 3c 2c 00 73 3e
       -0.43769553 -0.27826545 0.020662341 0.23730534
000330 50 c5 3e 3e 34 ac f0 3e 36 4f 32 3e 08 55 70 3e
       0.18629956 0.4700638 0.17413029 0.23469937
000340 ee fb 15 3e 64 c7 d9 bd 36 2c 9f be c6 9f 5f bf
       0.14646885 -0.10633734 -0.31088418 -0.8735317
000350 7e 59 b3 be 51 ef 32 be 2e 17 80 3c f2 78 d1 3e
       -0.35029215 -0.17474104 0.015636053 0.40912586
000360 46 8a 8d bc 72 b6 17 be 1e 17 ce be 82 62 58 3f
       -0.017277848 -0.14815691 -0.40252012 0.8452531
000370 f3 48 de be 78 c3 de be ad 0b 74 be eb f0 be bc
       -0.4341503 -0.43508506 -0.23832579 -0.023308238
000380 df 8b fa be 58 d2 6c 3d fb 6f 49 bc f1 79 1f 3f
       -0.48934838 0.057817787 -0.012294765 0.6229544
000390 33 97 9f bd 08 ae da 3d 32 30 03 bf 3c d4 b3 bc
       -0.07792511 0.10677725 -0.51245415 -0.021951787
0003a0 74 f6 5d be 15 1d 2d 3f 1c fe ae be 6e d1 de bc
       -0.21676046 0.676225 -0.34178245 -0.027199473
0003b0 ce f8 cf bc 80 3f 6b 3e da 14 98 3e 33 04 9d 3e
       -0.025387194 0.22973442 0.29703408 0.30667266
0003c0 52 4c e2 3e 16 9b f8 be 4f a8 af 3e 44 70 0f 3f
       0.44198853 -0.4855582 0.34308097 0.5603068
0003d0 7a 96 a5 be cf 3f 65 be e9 59 d8 3e ed c2 6d bd
       -0.32341367 -0.22387622 0.42256096 -0.058047224
0003e0 4b cb a9 be ab b5 51 3d ca 77 7e 3d df 59 31 3e
       -0.33162913 0.051198643 0.06212596 0.1731944
0003f0 f7 24 ec 3e a5 8d 20 3e ca e3 e1 3d e1 75 d0 bd
       0.46121952 0.15679033 0.110297754 -0.101787336
