chainerrl/TicTacToe/result_150000/model.npz (npz, 56590 bytes, 8 tensors)

l3/W f4 [9, 81]
00000000: 4af8 f03d ce52 61bd 321b dbbe 921f 1d3d
00000010: 2861 873c 0cd9 24be 1bcc 80bc 019e 49be
00000020: 08b2 7f3e d9bb 013c 57da 30bf 2a8a e0bd
00000030: 4994 c0be 56c0 8f3d 44b9 8d3d 3139 d43d
00000040: 338c 28bd cff3 343e 64c1 39bf a896 5e3e
00000050: 87b1 18be e1fa 133c 00b7 493d 408a db3c
00000060: 6fe6 00bf 1f67 963b 9827 e1bc 93d4 483e
00000070: e4a0 d5bd 10dd 0c3e b68d e73d 14d1 383e
00000080: 6930 22bb 9d23 8d3d bd4d abbe ede6 793d
00000090: 3c2c 6e3e 470e ca3e 8f31 43bd 3b81 dbbd
000000a0: 8b30 99bc 9582 20bf 613b a6be b863 a43e
000000b0: 2b1c fa3d 7e86 34bf d063 443e 58ab 2dbc
000000c0: b17b 083e d209 243e 778c 833e 2cd0 6cbe
000000d0: 1c95 17bd 76d6 41be ff23 703d 63a0 aabe
000000e0: 4637 a93c 5e1e 7b3e c9f4 df3d 5ff7 ff3d
000000f0: d4f9 f0bd ee37 0dbd 0133 a43e 2003 17be
00000100: f2e2 ca3d ca78 203e 13ea dfbe bb33 f9be
00000110: 7796 af3c 918e 793c 96b2 64bd 543b 62be
00000120: ada8 25bd 9fe7 263e f422 83be 5a4b f1bd
00000130: bffe 2c3b af8d ed3d dc9b b8be 4e65 64be
00000140: 688a 103d c9ed 523d e742 8abe 8233 d23c
00000150: 2038 f83e e8c0 483d 9ada 3a3e a376 923c
00000160: 112b 73be f561 34bf a0be cc3d 9d35 b43d
00000170: 4199 1ebe 0864 87bc 7bf9 413e 3dd5 493e
00000180: 017b 4a3e 12eb 053e 295c 933e 62f5 70be
00000190: 22a0 02be 270f 7bbe 060d 083e 1eb0 6c3e
000001a0: 4d73 17be 2b09 763c 8aa2 a8be da4c e4bd
000001b0: bcd3 453e 8884 02be 7810 a23e 010c 5b3e
000001c0: 6811 d2be cd10 0bbe 5a4a 4fbe 430a 0f3e
000001d0: 5032 ee3e 3309 613e db54 05be 7d62 02bd
000001e0: cb4b d3be 2bbf bc3c 20eb 08be 810f 1abe
000001f0: b05d ad3d b443 0bbe 3aaa be3d 07e4 6b3e
00000200: c2dd 65be 3393 d8bd 2c8d 62be 4146 3abe
00000210: 6d4f 343e 6590 a43d 45a5 83be da76 933e
00000220: 5209 0cbe 6a9f 4b3c b94e a7bb 3489 5cbd
00000230: 1ad3 8d3d 4412 12be 31eb 373e 54b8 a1bd
00000240: a63b 9cbd 4ea7 243d 826e d6be 5f1e 20bd
00000250: 0611 523e 6448 643e c2bc 4ebe dcdb 063d
00000260: e1cc 50bc cf5f d0be 6c77 963c 868b 1c3e
00000270: d64f 9bbe a9a3 f2b9 bed3 c7be 89c6 d2be
00000280: b750 f0bd b55f 27be 1d23 cb3e a05d aebd
00000290: 893d e1be 8e84 07bd ccf6 0bbd 8ed2 13be
000002a0: f1c9 273e 7432 003e dd11 483d a91d b93e
000002b0: 6e92 073e b993 eabd a030 efbe e708 a6bd
000002c0: 2029 973d c09a 813d a1e1 2bbd e5b0 79bd
000002d0: e060 ce3d 3370 4dbe 3a30 2ebf c524 06be
000002e0: c894 34bd 9c32 85bd 483c ddbd 5662 ca3d
000002f0: 5d42 91be 96d3 1f3e 3926 bcbe fbd9 13bf
00000300: 7180 69be 8957 aabd 6485 95bd 115b e53e
00000310: 3827 da3e c56d 663e 3aae 0dbf 9c78 49be
00000320: 00ac 1a3e 8b13 5fbe 13f5 013e cc8c f3bb
00000330: 966a f5bd dc7e 89be bdac 1abd 0138 8e3d
00000340: 8063 b7bc b447 e53d c863 62bd 0c6d 0fbe
00000350: 5ebe 4d3e 63bb 9d3e 8fcd b6bd b7ff ddbd
00000360: 6584 183e 21c0 fbbe 30c4 073e 0742 ac3e
00000370: 022e 62be 769e c5bc 508c dabe cf2e 3ebc
00000380: e561 3a3e 5256 a03d 1ad4 ae3d d055 56bd
00000390: 1845 3a3c d809 17bd d0e9 d93d e9d8 52be
000003a0: f0e7 91bd 0cb6 67bd 7acd cbbd 6546 57be
000003b0: 240e 763b 64e2 b4bd 9bb1 6dbd ea67 8b3d
000003c0: 1cba a3bb 6c9d f4bb c002 e33d 0b98 263e
000003d0: 29b3 b43d 6ed9 cdbe 654e e53d d74c a63c
000003e0: 3890 b5bd 527a 18bd 8d5f e1bd 217d 0c3e
000003f0: 122d 98bd bbf9 a03c af88 e8be f214 673c
0.117661074 -0.05501061 -0.42794186 0.038360186 0.01652582 -0.16098422 -0.015722325 -0.1968918
0.24970257 0.0079183215 -0.6908316 -0.10963853 -0.37613133 0.07019107 0.06920102 0.10362471
-0.04114933 0.1767113 -0.72560716 0.21737158 -0.14911471 0.009031982 0.049246788 0.026799321
-0.50351614 0.0045899297 -0.0274847 0.1961234 -0.10431078 0.13756204 0.11306326 0.18048507
-0.0024748093 0.06891558 -0.33457747 0.061011244 0.23259062 0.39464018 -0.047654685 -0.10718008
-0.018699905 -0.6269925 -0.32467178 0.3210733 0.12212404 -0.7051772 0.191787 -0.010599934
0.13328435 0.16019371 0.25693104 -0.23126286 -0.037007436 -0.18929467 0.05862808 -0.3332549
0.02065624 0.24523303 0.10935361 0.12498354 -0.11766401 -0.034477167 0.32070163 -0.14747286
0.09906568 0.15671077 -0.43733272 -0.4867228 0.021434052 0.015231744 -0.055834375 -0.22092944
-0.040444065 0.16299294 -0.25612605 -0.1178195 0.0026396958 0.115992896 -0.3605641 -0.2230427
0.035288244 0.0514963 -0.27004167 0.025659326 0.4848032 0.049012095 0.18247452 0.017878836
-0.23746897 -0.7046197 0.09997296 0.087992884 -0.15488149 -0.01652719 0.18942825 0.1971025
0.19773485 0.13077953 0.2878125 -0.23531106 -0.12756398 -0.24517499 0.13286218 0.23114058
-0.14790078 0.015016834 -0.32936507 -0.11147471 0.19319052 -0.12745869 0.3165319 0.21391298
-0.41028905 -0.13580628 -0.20243207 0.13968758 0.4652276 0.21976165 -0.13020651 -0.031832207
-0.41268763 0.023040375 -0.13370943 -0.15044977 0.08465135 -0.13600045 0.09309812 0.23036204
-0.22447875 -0.10574951 -0.22124165 -0.18190862 0.17608424 0.080353536 -0.25712028 0.28801614
-0.1367543 0.012428144 -0.00510582 -0.053841785 0.0692503 -0.1426478 0.17960812 -0.07896486
-0.076285645 0.040198617 -0.41881186 -0.039091464 0.20514306 0.2229324 -0.20189193 0.032924518
-0.012744159 -0.40698096 0.018367492 0.15287599 -0.30334347 -0.00046279773 -0.39028734 -0.41167095
-0.11734145 -0.16345103 0.39675227 -0.08513951 -0.4399226 -0.0330854 -0.03417091 -0.14435789
0.16385628 0.12519246 0.04884516 0.3615544 0.13239452 -0.11453957 -0.46716785 -0.08107167
0.07380891 0.06328344 -0.041963223 -0.060959715 0.10077071 -0.20062332 -0.6804234 -0.13099964
-0.0440872 -0.065037936 -0.10802513 0.09882037 -0.28370944 0.15608057 -0.36747912 -0.57754487
-0.22802903 -0.08317477 -0.07300833 0.4479604 0.42608047 0.22502811 -0.55343974 -0.19674915
0.15104675 -0.21784799 0.12691145 -0.007432556 -0.1198322 -0.268546 -0.037762392 0.06944276
-0.022386312 0.11195317 -0.05527094 -0.14006442 0.2009215 0.30807027 -0.08925926 -0.10839789
0.14894255 -0.4917002 0.13258433 0.33644125 -0.22087863 -0.024123412 -0.42685175 -0.01160784
0.18201406 0.07828964 0.08536549 -0.05232793 0.011369012 -0.036874622 0.10640299 -0.20590557
-0.07124317 -0.056570098 -0.09951301 -0.21022947 0.003754505 -0.08832243 -0.058030706 0.068069294
-0.004996551 -0.007465055 0.11084509 0.16268937 0.088232346 -0.40204948 0.11196593 0.020300312
-0.08865398 -0.03722603 -0.11004553 0.13719608 -0.074304715 0.01965033 -0.4541678 0.014104115

l3/b f4 [9]
00000000: fcdf 2abe e1e9 c8be da96 8cbe b39d fdbd
00000010: b221 2abd 5f3f 6bbd 7e92 b7bd e0de 9abe
00000020: 2a8d 75be
-0.16687006 -0.39240935 -0.2745884 -0.12383594 -0.04153604 -0.057433482 -0.08963488 -0.30248165
-0.23979631

l0/b f4 [81]
00000000: 3e13 4b3e a791 b5be 8a78 9abe b726 aabe
00000010: 8622 cdbd 3ade cebe f053 0cbf 9dfc 14be
00000020: 240f 22bd f73d 32bd de89 e1be b554 21be
00000030: 25ab c0bd 6110 4fbe 368c 26bf dc8f 1fbd
00000040: 24eb 853e 6845 b7be fe3b 7abe 1663 20bd
00000050: 2a5c 81bd 61ea b83e 019f 40be b2e7 c8be
00000060: a7e8 bcbe c351 7abe a6db a0be 47bc f1bd
00000070: 37d6 15be 2623 ebbe 7877 acbe ba20 3bbe
00000080: 4ee6 6abe ca40 95be a58d d7be 0c0d febe
00000090: 52e5 843d db60 57bf cc7b 97be e3df 95be
000000a0: c967 87be a135 a4ba 56eb 50be 6186 33be
000000b0: 323b b4be e649 ec3d 067c 2dbe 2fc7 d9be
000000c0: 0b14 31bf 0146 86be 6df5 25be fad9 99be
000000d0: 551d dabe 1801 e2be ab13 f4be dfd8 b4be
000000e0: e91a c9be 4dfd 02bf c10a d83d 730c e0bd
000000f0: 8767 17be 10ed e9be e743 88bd 86ab 65be
00000100: 3d1c e9be 4ee1 a93e a9ab 6fbe b7d9 9abe
00000110: 79a4 7abe aaa0 63bf a803 69be c9d8 fdbe
00000120: e72b c5be 8e12 c5bd c272 23be 58e5 b8bd
00000130: 971f d8be 1e8a dabd 64d6 68bd 6142 8abe
00000140: 7f26 77be
0.19831559 -0.35462686 -0.3017009 -0.33232662 -0.100163504 -0.4040392 -0.5481558 -0.1454949
-0.03956522 -0.043516126 -0.44050497 -0.1575497 -0.09407643 -0.20221092 -0.65057695 -0.038955554
0.2615596 -0.3579514 -0.24436948 -0.039156996 -0.06316407 0.36116317 -0.18810655 -0.3923927
-0.3689625 -0.24445252 -0.31417578 -0.11803489 -0.14632498 -0.45925254 -0.33684897 -0.18274203
-0.22939417 -0.29150993 -0.42100254 -0.4961933 0.06489052 -0.84132165 -0.29586637 -0.29272375
-0.2644637 -0.001252819 -0.20402274 -0.1753173 -0.35201412 0.115375325 -0.16941842 -0.42534778
-0.6917121 -0.26225284 -0.16206904 -0.30049115 -0.42600504 -0.4414146 -0.47671255 -0.3532171
-0.39278343 -0.51167756 0.10548926 -0.109398745 -0.14785586 -0.45688677 -0.06653576 -0.22428712
-0.45529357 0.33179706 -0.23405327 -0.30244228 -0.24476804 -0.8891703 -0.22755301 -0.49579456
-0.38510057 -0.0962268 -0.15961745 -0.09028119 -0.422116 -0.10670875 -0.056845084 -0.27003768
-0.24135779

l1/W f4 [81, 81]
00000000: 8715 74be c9d6 66be 16bc 3dbe d006 523c
00000010: dcd3 ab3d 43a8 653e 2c70 4c3e dcc5 e1be
00000020: 086f b1be eca8 8fbe 7aa5 94be 43aa 1bbe
00000030: 0944 5cbe 5166 36be 31b8 4abe 807d 713e
00000040: c985 943c 695f f43b fde7 5bbe 4d18 f83d
00000050: de46 b8bd 9a84 a3bd af8d c63c 39c9 2b3e
00000060: b22c b3bc 4069 2ebe b713 b33e 0706 d9be
00000070: 6c99 75be f7d2 47bd 1c08 25be b246 3fbd
00000080: 4e47 853e 0f0d b1bb 8656 d93d 9dfd b7be
00000090: 41c0 bcbc c0f7 a9bd 36e4 01be 74df cdbd
000000a0: 3dad de3b c9fb b13d b1fc 28be 96d7 933d
000000b0: 167f 8f3d c707 5d3d 59fa 793d 9406 45bd
000000c0: 4d48 843e 47b3 ce3d d273 0ebd 7e15 5cbd
000000d0: 0c7b 9a3d ddd0 073e 0330 e73d 83ff f0bd
000000e0: abf0 a93d 7333 8a3e 0ae2 e23d 5a85 70be
000000f0: c60d 3c3e aa88 11be 2611 14be 5317 31bd
00000100: b06b 7f3e a24d af3c 6a62 3a3e 44ad a5ba
00000110: bc99 043d 403a 3abe 2354 0dbe af15 e73d
00000120: fbdb 8ebe c6ba 023e bda9 dd3d 556d ccbe
00000130: 7435 1dbe fce2 af3d b747 273d e9c4 d13c
00000140: 79e3 29be f4e6 92be 50f2 2bbf ebd0 7abd
00000150: 385d 203e 633f 00be dcaf a13e 5d2b 003e
00000160: 700c 2f3e 46b6 82be 5c43 b8bd f2c0 9e3e
00000170: 3d84 d33e fb11 be3e 5dbc 093e 81ee cdbd
00000180: 2505 73bd a9f2 153e 906a 83bd 09d3 373e
00000190: 161b 16be 177e 3b3e e522 77be 664d a13e
000001a0: 2153 1cbe 21f0 a33b 22d7 ec3d f6ec a03d
000001b0: c4d9 71be 34a8 39be d029 a8bd 7899 3e3d
000001c0: ed6a b8bd 8287 043e 1ac3 2f3e 376a 88bd
000001d0: 1dcc 2bbe a2a9 81be 1941 ad3e cf0b 0f3e
000001e0: a3bd 933d 8183 cb3c 268b a7be 989e eebb
000001f0: a162 d43d 9d0e 3abe 6932 89bd f1c3 24be
00000200: e470 b2be da9f 03be a3d0 a43d 1440 933e
00000210: 9a95 3fbe eddb 5e3e 7bcc d3be 977a d93d
00000220: 9a09 84bd df92 2bbc 8a53 e63e e67f f53d
00000230: ee3f d1be 4e84 dabe 8670 6a3e cd7a 4dbe
00000240: de4e 4ebe 1a3c f33d c6db 193e ee1b e13d
00000250: 8b76 9cbe be18 bd3d 7a62 8d3c c80f 0d3e
00000260: acbf 9a3e cb32 1a3e 1d83 99be 1f6e 263a
00000270: 1503 57be 24c9 55be 9fe3 873e 0e71 1a3e
00000280: 3f20 49bd e14b 2dba 9782 583e 3c53 30bd
00000290: bb16 063e 80ff 62bd e1c1 a03e 6ca3 4d3e
000002a0: 5613 9d3d c4ee ca3d 8c5b cbbe d568 703d
000002b0: d0a6 41be 99e0 9dbd db71 43be e980 84bd
000002c0: e9b8 e9bd 9302 473e 33a5 b73e e8bf 4f3e
000002d0: f0c9 abbd ac56 ecbb 9e26 803d fd91 86be
000002e0: c809 babe 07ea 41bd 0305 0bbd 02b2 30be
000002f0: 75c9 9dbe 85f2 0cbe 154e 113e 49f5 2bbe
00000300: b1c9 343e 7eb5 5b3a 9c1d 59bd 1132 f1bc
00000310: 9210 9f3b d090 3a3e 867e 9bbc 08a8 b03e
00000320: c05c 97be 5b39 cfbc 2a10 a1bd 2ba3 16bb
00000330: cf7b bdbd eda0 08be c699 993e 26b2 80be
00000340: e95e e23d d181 7bbe 69dc 8f3d 8791 113e
00000350: a51f 26bd a77c b5bd 410f a13d be23 a83d
00000360: bd4e cabe d398 e7bd dabe 0c3d 7f36 acbe
00000370: 82ca fabc a680 8d3d 7d5c c13d d4b5 a8bd
00000380: 7ebc 90bd 17bb f2bc 555f 83be c71c fbbd
00000390: 6008 26be 5b3e 00be 2ef5 2c3e 85ab 653c
000003a0: a5de 613d aa63 d93d d174 50be 4ac1 cd3c
000003b0: b477 86bd a73d a3be 2fa0 12bd 4b61 413d
000003c0: 635f 32bc 7357 673e c85b 26ba 56de 1f3e
000003d0: 2ae7 37be e1b0 2b3d ca20 4f3e 18f4 613d
000003e0: 2a57 a4be f529 fb3e 6745 e2bd f7b7 e3bc
000003f0: 9fe2 a33e ea0d 3abe 9eb6 483e b45b 45bb
-0.23836337 -0.22542872 -0.1852878 0.012819007 0.08390018 0.22427468 0.19964665 -0.44096267
-0.34655023 -0.28058565 -0.290325 -0.15201668 -0.21510328 -0.17812468 -0.19796826 0.2358303
0.0181302 0.007457663 -0.21475215 0.1211401 -0.08997892 -0.07984276 0.024237482 0.16775979
-0.021871898 -0.17032337 0.3497598 -0.4238741 -0.23984307 -0.048785176 -0.16116375 -0.04669828
0.26030964 -0.005403168 0.10612206 -0.3593568 -0.023040893 -0.08299208 -0.12684712 -0.10052386
0.006795554 0.08690602 -0.16502644 0.07218854 0.070066616 0.053962495 0.061029766 -0.048101977
0.2583641 0.10092788 -0.034778424 -0.053731434 0.075430006 0.13263269 0.112884544 -0.11767485
0.08297857 0.26992378 0.1107827 -0.2348837 0.18364629 -0.1421229 -0.14459667 -0.043235134
0.24943423 0.021399323 0.18201604 -0.0012640138 0.032373175 -0.18186283 -0.13801627 0.11283433
-0.27902207 0.12766561 0.10823391 -0.39927164 -0.15352422 0.08588216 0.040839877 0.02560659
-0.1659068 -0.28691828 -0.67166615 -0.061234396 0.1566056 -0.1252418 0.31579483 0.12516542
0.17094588 -0.2552969 -0.08997223 0.3100658 0.41311827 0.37123093 0.13450761 -0.10055257
-0.059331078 0.14643349 -0.064168096 0.17951597 -0.1465877 0.18309818 -0.24134405 0.31504363
-0.15266086 0.005002991 0.11564471 0.07857697 -0.23618227 -0.1813057 -0.082111 0.046533078
-0.090047695 0.12942317 0.17164269 -0.06660884 -0.16777082 -0.25324732 0.33838728 0.13969348
0.07213905 0.02484298 -0.3272335 -0.0072820894 0.103703745 -0.18169637 -0.06699068 -0.1609037
-0.34851754 -0.12853947 0.08047607 0.28759825 -0.18709412 0.21763583 -0.41366944 0.10619085
-0.06447144 -0.0104720285 0.4498561 0.11987285 -0.40869087 -0.42679065 0.22894487 -0.20066376
-0.20147273 0.11876698 0.15025243 0.10991655 -0.3055919 0.09233235 0.017258871 0.13775551
0.3022436 0.15058438 -0.29982844 0.0006348807 -0.2099727 -0.2087751 0.2654085 0.1508219
-0.049103018 -0.0006610733 0.21143566 -0.04304813 0.13094608 -0.055419445 0.31397918 0.20081872
0.07669704 0.09908822 -0.39718282 0.058693726 -0.1891129 -0.07708854 -0.19086401 -0.064699
-0.11412222 0.19434576 0.35868225 0.2028805 -0.08388126 -0.0072124805 0.06257366 -0.26283255
-0.36335588 -0.047342326 -0.033940326 -0.17255405 -0.30817762 -0.13764389 0.14189942 -0.16792788
0.17655064 0.00083812315 -0.053006753 -0.029442819 0.0048542703 0.18219304 -0.01898123 0.34503198
-0.2956295 -0.025295904 -0.07864411 -0.002298544 -0.0925213 -0.13342638 0.30000132 -0.25135916
0.11053259 -0.2456124 0.07024462 0.1421567 -0.040557522 -0.08861666 0.078642376 0.08209942
-0.39513198 -0.11308446 0.034361698 -0.33635327 -0.030614141 0.06909303 0.09441469 -0.08237806
-0.07067202 -0.029630227 -0.2565867 -0.12261348 -0.16214132 -0.12523787 0.16890404 0.014017944
0.05514397 0.106147125 -0.20357062 0.025116581 -0.065658 -0.31882975 -0.035797294 0.047211926
-0.010887 0.22591953 -0.0006346074 0.15612158 -0.17959276 0.04191673 0.20227352 0.055164427
-0.3209775 0.49055448 -0.11048394 -0.027797682 0.32008836 -0.1816937 0.19600913 -0.0030114474

l2/W f4 [81, 81]
00000000: ec3c 5abe 4b8a 8fbe a844 cd3c 3b3d 0f3e
00000010: 534a d3be ec9b 6e3e 2003 073e 2c03 4cbd
00000020: 8511 2b3e 5f51 75bd 03ad 243d c80e 56bc
00000030: 9171 5dbc 3387 d1bd 3681 4ebd c77c a93d
00000040: 1d29 20be 75e8 59bc b6ce 1c3e f9e8 0ebd
00000050: 7700 883e 6e78 8c3d 06e2 5d3e c736 4dbe
00000060: 2c11 2abd e448 86be 2b77 f9be 40b8 8ebd
00000070: b3c9 543e b961 7dbe dfe6 84bd cbb0 fabd
00000080: 2b1c 0fbe 97d9 a5bd 2cdd ef3d 68d8 19bf
00000090: 8df4 923d b47e 083e 7c21 cabe ccec c03e
000000a0: de45 34be 8ed0 003e a0bc 873e 3138 82bc
000000b0: adde bcbe 1a06 6a3e 8c7f 5d3d b5a0 32bb
000000c0: 9aef 1fbe 760d 6cbe 4d17 223e 1054 23be
000000d0: b26f 31be 1bd8 5fbe 8459 f7bd 82c5 d2bc
000000e0: afd5 a43e 1b3a 45bf d138 b43e 0a5a 95be
000000f0: dfe0 5abe 926f 4ebc f8ce 33be acb7 c2bd
00000100: a1e9 053e 2142 833d 953a dbbd b00b 17bf
00000110: da61 623d 865a 113d 1469 403e 40c5 cbbd
00000120: 61a5 d6bd eb6b 7abd 4167 933d 70ad 12be
00000130: 10ad d6be 2107 d4bd 03f4 6cbd 2bf5 c9be
00000140: 0cb5 353d 48ca 463d 443d bebe 8ed6 013e
00000150: 242e b53d 12ba 133c fc4a 75be 1516 e5bc
00000160: 803f 71be 1482 dfbd 11fc 903e 7524 c73b
00000170: 668c f8bc bba1 9b3d 0bd5 27be 5ca0 12be
00000180: 5039 9fbd 049e 873d 7fb2 9a3d 77bd e53d
00000190: 8ef7 9ebe 3d97 283e b315 dc3e 9b51 803e
000001a0: bea5 fa3c e2e0 733d 7f8e 18be b26d 533e
000001b0: d9b0 4dbe 6ab3 9d3d a003 3b3c eacb 7bbe
000001c0: 97ea 28bc d31e 353e b3c9 173e 3bbb 2cbd
000001d0: 5225 b7be e5a8 1bbd bbf2 7c3d 9894 a9bd
000001e0: 309a 0cbe b679 23bf 5d79 a1be e90e cdbe
000001f0: 39f4 0e3e f510 55be f522 50bd b625 e6bc
00000200: d7ff 6cbe f51c 1dbe d23f 773e 6282 85be
00000210: bbac 98bd 7e64 04bd bf94 5e3e 0f6a 323e
00000220: e863 593e ede9 c4bd 68a8 c73c 2027 1abe
00000230: 3d6e 123e c224 45be 4f4e 753d 477d 383e
00000240: 2878 8abe ad49 3ebe cc50 af3d 8e52 bc3b
00000250: 8883 863e 1755 473d 86e2 6bbe f137 b7bc
00000260: 2342 06be 6b64 92bd d344 51be 23a7 bbbd
00000270: 16d0 c93d 5d15 f8bd eea2 ebbc 0d85 e43d
00000280: 8e5b cb3e cd1e b03e 5014 80be 0184 123e
00000290: 3ae2 003e e18d a9bc b032 e23d 4175 073d
000002a0: c543 2abe 6de9 80be 4220 f1bd 21c4 2fbb
000002b0: 47b8 803e 2611 3cbb d51a 90bd be29 a5bd
000002c0: 273d 72bd 72a3 d4be 7d56 96bd a951 58be
000002d0: c22e a03d 644c 58be 5733 34be ca9f c5be
000002e0: 8f73 c7bc f976 30be 8a17 89be 32fc 10be
000002f0: 7bfa fdbd 1b0a cdbd ae42 81bd a6de 623e
00000300: 9750 7b3e 3cc3 33be 5b89 413d a4b9 6f3d
00000310: 516d 89bb a32c b73e c49c 29bf 7eee 683e
00000320: 1300 7f3d fcbc b3be 5a73 a5bd 279e 5abe
00000330: 84d7 1fbe 6a52 7c3e e642 6fbe f636 debd
00000340: d3c8 293e 6dd9 85be 0263 003e 6ae5 77be
00000350: 365e d23d ede2 a63b be9e c0be f820 a3be
00000360: dded eebd 667e 10be 1337 953e 81ba 99be
00000370: c1c3 bcbe ca2b 6cbe 2fea 7b3e fe23 cdbe
00000380: f1ad efbe dd39 afbd c19f fdbd be55 5abe
00000390: abb8 f8bd 3bd3 9abe 161c 50be 43e8 1abe
000003a0: 9f6e 73be da82 9b3c ce6d 83be da5c c33c
000003b0: 7789 d9be 8399 81bc 7f9b 82bd db10 e93d
000003c0: c9ac cebc dd46 40be 66ba 6cbb 3b88 e33c
000003d0: 97c8 a9bd 481a 18be c4ae 11be c3e0 68be
000003e0: 550b 0abd 19ae 5a3e b269 cb3c 147c dcbe
000003f0: 368c 70bc bf18 21be a154 b83c 6971 bfbd
-0.21312302 -0.28035197 0.025057152 0.13988201 -0.41267642 0.23301667 0.13184786 -0.049807712
0.16705902 -0.059892055 0.04020406 -0.013065048 -0.013515846 -0.10230865 -0.050416194 0.082757525
-0.15640683 -0.013300051 0.15313229 -0.03489015 0.26562855 0.06858908 0.21668252 -0.20040427
-0.041520283 -0.26227486 -0.4872373 -0.06968737 0.20780067 -0.2474431 -0.06489348 -0.12240752
-0.13975589 -0.080981426 0.11712107 -0.60095835 0.071755506 0.13329583 -0.39478672 0.37680662
-0.17604777 0.12579557 0.26511097 -0.015895935 -0.36888638 0.2285389 0.054076716 -0.0027256433
-0.15618744 -0.2305201 0.15829201 -0.15950036 -0.17327765 -0.21859781 -0.120776206 -0.025728945
0.32194278 -0.77041787 0.35199597 -0.29170257 -0.21374844 -0.012599843 -0.17559421 -0.09507689
0.13077404 0.064090975 -0.10704533 -0.5900221 0.0552691 0.03548672 0.18790084 -0.09949732
-0.10480762 -0.061138075 0.071974285 -0.14323974 -0.4192891 -0.10352922 -0.057849895 -0.3944486
0.044362113 0.048532754 -0.37156117 0.12679502 0.08846691 0.009016531 -0.23954386 -0.027964631
-0.2355938 -0.10913482 0.2831731 0.006077344 -0.030340385 0.07599207 -0.16389863 -0.14318985
-0.07774603 0.06621936 0.07553577 0.11217778 -0.31048244 0.16463943 0.42985305 0.2506226
0.03059661 0.059540637 -0.14898108 0.20647314 -0.20086993 0.07700236 0.0114144385 -0.24589506
-0.010309837 0.1768754 0.14823036 -0.042170744 -0.3577066 -0.038002867 0.061754923 -0.08280295
-0.13730693 -0.6385759 -0.31537905 -0.40050438 0.13960351 -0.2080725 -0.050814588 -0.028094154
-0.2314447 -0.15343077 0.2414544 -0.26076037 -0.07454821 -0.0323224 0.2173643 0.1742327
0.21229517 -0.0961493 0.024372295 -0.15053988 0.14299865 -0.19252303 0.059889134 0.1801654
-0.27044797 -0.18582793 0.08560333 0.005747146 0.26272225 0.048665132 -0.2303563 -0.022365542
-0.13111167 -0.071480595 -0.2043641 -0.09162738 0.09854142 -0.1211345 -0.028764214 0.1115819
0.39718288 0.343985 -0.25015497 0.14308168 0.12586299 -0.020697536 0.11044824 0.033070806
-0.16627415 -0.2517809 -0.11773731 -0.0026819783 0.25140592 -0.0028696745 -0.07036368 -0.08064602
-0.05914035 -0.4153095 -0.07340715 -0.21124901 0.07821418 -0.2112289 -0.1759771 -0.38598472
-0.024347095 -0.17232884 -0.2677577 -0.14158705 -0.12401291 -0.10011693 -0.06311546 0.22155246
0.24542461 -0.17554945 0.047250133 0.05852665 -0.0041939397 0.35776243 -0.6625483 0.22747228
0.06225593 -0.3510512 -0.08078642 -0.21349393 -0.15609556 0.24640813 -0.23365363 -0.10850327
0.16580515 -0.26142445 0.12537768 -0.24208608 0.102718756 0.0050929696 -0.3762111 -0.3186109
-0.116664626 -0.14110717 0.2914358 -0.30025104 -0.36868098 -0.23063579 0.24601053 -0.40066522
-0.46812394 -0.085559584 -0.12383986 -0.2132177 -0.121445976 -0.3023928 -0.20323214 -0.15127663
-0.23772667 0.018983293 -0.25669712 0.023847986 -0.4248769 -0.01582027 -0.06377315 0.11380168
-0.025228875 -0.18777032 -0.0036121844 0.02777492 -0.082902126 -0.14853776 -0.14226824 -0.2274199
-0.033702213 0.21355475 0.024830673 -0.43063414 -0.014681866 -0.15732096 0.022501292 -0.09347803

l1/b f4 [81]
00000000: a9fd 0cbe e7d3 53be 5cf6 31be 95d0 81be
00000010: 7a1f debe dd16 5abe 4cd3 91be 4ab2 1bbe
00000020: 0eaf b0be ffd0 20bd 8660 90be fed8 0fbe
00000030: d748 67be a44a 0abe 4232 8cbd 4630 fcbd
00000040: 101c fcbe dc5a 2ebe c7ed c73d dd3f fabd
00000050: 3ae6 9abe bd68 37be 98a9 dcbe f8dc d6be
00000060: 201b d0be 100e d9be 5901 4dbd 0c57 b4be
00000070: d300 c0bd ee7c 4c3c c508 80be f137 32bc
00000080: 086a a93d dc2d 96be 894c f2bd 85f0 6e3d
00000090: 48c7 19be 08ed 00be dff9 4dbf e7fd 8dbe
000000a0: 0923 d13d 7456 2ebe a517 94be fc8a 25be
000000b0: b675 83be 7efc 153e 66e0 e3bd c297 3dbe
000000c0: dd40 093c 57ab d9be 649f 98be 5c5e 79be
000000d0: fe87 53be b2ba 80bd 9e5b c7be 169a 33bd
000000e0: 9d7d 95bd d79b 0abe b5fb 473b 6d01 d6be
000000f0: 9e03 c4bd d240 9cbe cc64 74be b911 efbe
00000100: ddc8 a73d cb72 bfbd c926 13bf 32b5 43be
00000110: c90a 0bbe cab3 42be 4f6a 7bbd 9f03 bcbd
00000120: 76d6 a93e d2e1 eebd 91bd f7be a6fa 6dbe
00000130: bda2 e2b9 6262 1bbc 86f2 e63d 510c 84be
00000140: c8ad 97bd
-0.13768639 -0.20686303 -0.17379135 -0.25354448 -0.4338339 -0.21297784 -0.2848152 -0.1520473
-0.34508556 -0.039261814 -0.28198642 -0.1404762 -0.2258638 -0.13505036 -0.068455234 -0.12313895
-0.4924016 -0.17026848 0.09762149 -0.12219212 -0.30253774 -0.17911048 -0.4309814 -0.4196546
-0.40645695 -0.4239354 -0.050050113 -0.35222661 -0.09375157 0.012480957 -0.2500669 -0.010877595
0.08272177 -0.29331863 -0.11831004 0.058334846 -0.15017426 -0.1259042 -0.804594 -0.27732775
0.102117606 -0.17025167 -0.2892429 -0.161663 -0.25675744 0.146471 -0.11126785 -0.18514922
0.008377281 -0.42513534 -0.29809105 -0.24352401 -0.20657346 -0.06285609 -0.38937086 -0.04384812
-0.072993495 -0.1353601 0.003051502 -0.41797963 -0.095710024 -0.30518204 -0.23866576 -0.4669321
0.081926085 -0.09348067 -0.57481056 -0.1911209 -0.13578333 -0.19013897 -0.06138068 -0.09180378
0.33171433 -0.116641656 -0.48386815 -0.23240146 -0.0004322733 -0.0094839055 0.112767264 -0.25790647
-0.07406193

l2/b f4 [81]
00000000: 09b2 13be a60d d8bd 71ea 3cbe b9e5 27bd
00000010: 7b00 6f3d 9763 b2be bf40 c9be 1449 52be
00000020: a2dd 31be b666 333e b16e dbbe ae28 753d
00000030: 22e7 fcbd 6a29 5ebe 0c32 6abc c3fc 2e3e
00000040: 851b 51bc 7d60 aabe 6b5b 89be 3b50 c3be
00000050: 4360 18be 76d5 a13d aa0c 4fbe d741 a1be
00000060: cab8 2abe 43e4 d2bd 4cc6 55be c57f 99be
00000070: 2c76 89be bab0 61be 4e5a 24bd 09a6 2cbe
00000080: c73f 96be d2f2 70be 71d6 19be 17f1 debd
00000090: f797 93be 4e2f e73d 90bb 85be 7a53 04be
000000a0: 1851 7e3d b76a 14be 83cd 85be 5314 a7bd
000000b0: fe14 9fbd ff43 69be 98b0 7cbe c58f 07be
000000c0: 1415 42be c0d2 b5be 4ce3 cdbe 67f3 40be
000000d0: 7d69 f9bd 5913 88be e472 18bd 89d1 043e
000000e0: ee75 d93d bd72 603c 9603 efbb 3f2c 7abd
000000f0: 0f00 f0be f6c4 15be 10c9 8ebe c21b 94bd
00000100: 6438 02be ab00 31be b700 b4be d64d 50be
00000110: 4981 acbe a685 64be 4e75 a4be ec65 b1be
00000120: b52f 01be cd00 91be 066d 51be f344 01be
00000130: b8b8 3cbe 69da 83be a566 95be 4243 b8bd
00000140: f368 54be
-0.14423384 -0.10549478 -0.18448807 -0.040990565 0.058350068 -0.34841606 -0.3930721 -0.2053569
-0.17369702 0.1751965 -0.42857888 0.05985325 -0.123487726 -0.21695486 -0.014294159 0.17088608
-0.012762909 -0.3327674 -0.2682756 -0.38147148 -0.14880471 0.079020426 -0.20219675 -0.31495544
-0.16672054 -0.10297444 -0.20876426 -0.29980293 -0.2684797 -0.22040072 -0.040125184 -0.16860212
-0.29345533 -0.23530129 -0.15023209 -0.10885828 -0.28826877 0.112883195 -0.2611966 -0.12922469
0.062089056 -0.14493833 -0.26133355 -0.081581734 -0.07767676 -0.22779845 -0.2467674 -0.13238437
-0.18953353 -0.35512352 -0.40212476 -0.1884285 -0.121783234 -0.2657726 -0.037218943 0.12970556
0.106181964 0.013699231 -0.0072941286 -0.061077353 -0.46875045 -0.14625916 -0.27887774 -0.07231857
-0.12716824 -0.17285411 -0.35156795 -0.20342192 -0.33692387 -0.22316608 -0.32120746 -0.34648073
-0.12615855 -0.28320923 -0.20451745 -0.12623958 -0.1842984 -0.2575257 -0.29179874 -0.089972034
-0.2074316

l0/W f4 [81, 9]
00000000: 6698 f93e 464e 843d c0fe bb3d ec90 543e
00000010: 100a 0b3e d2ca d83e e03a f03e 59bf ac3d
00000020: 08ab 313f 09a1 343d 5358 9a3f 2937 013e
00000030: 85ec 59be 126d 363f 98d8 1fbe 8c42 603c
00000040: 5588 2f3f 40d6 be3e 8cd0 80bd 8e7a 873e
00000050: 8fa6 623e 75ec 2bbf dc85 553e 3807 143e
00000060: dcc3 21bf 5f23 d83d f7ae 6ebe 7dae f13e
00000070: d552 a23d ab63 453d 7f05 48be 549c 033e
00000080: c4f9 cdbe 81f0 8dbe 4022 43bd 651e c2be
00000090: 9c5e e93e c91e e33b b433 7cbc fd7d 1ebc
000000a0: a5c4 02bf 176c 3cbd f192 1f3b 9898 09be
000000b0: d709 debe 22c0 98be 02ea e6be 9791 f13e
000000c0: 0adf 133f c3a8 88be 78e2 ca3d b2ad 9dbe
000000d0: be87 50bf 627b 963d c9c7 b1bd e557 15bf
000000e0: 31cf 11bf 9a9a 4d3e adaa c2be 5e3f 413d
000000f0: 13e2 253f 5773 70be 2919 9dbe 0372 d3be
00000100: 34cb 90be 813a 8cbe 843a 97be 1050 46be
00000110: 7a5d 2fbc 6590 a4be 41ce 223f 2803 d5be
00000120: 576f a93e 1b5a 133e 0176 423e 0b6c 2fbe
00000130: 882e 043d a418 4e3d 395e b3bd e690 4fbf
00000140: fa10 a93e 453d 443e 5ca2 a3bd 37b2 273e
00000150: 4597 023f b900 b6be 56d9 22be 4c8b 143d
00000160: 9f78 9a38 cb8e 983e 8c4a be3d e1bc c4be
00000170: bb4c dfbe 1c5a 6bbd 63ff 63bc a753 d3bd
00000180: c3f3 54bf 6575 15bf 3fb6 43bf 5b39 e93e
00000190: 54b8 cd3d 0b5c c9bd b22b 053d e0f7 363f
000001a0: feeb 223f 013b b33e 624e 833d 1674 18bd
000001b0: 45c2 ff3e a3cd 0f3f 7952 dd3e 66f6 db3d
000001c0: 82a7 173f 4f59 19be 234f 4fbe 2883 d93e
000001d0: 03ef 963e 62ca 5a3f 7fe3 c7be dbd2 163e
000001e0: 1d43 8b3e 8b92 d03e 022d 0b3f 5aba 4e3c
000001f0: db75 97be b4f0 1e3f 007b 28be bd0a aa3d
00000200: 2f5f 64bf a221 0c3d ff74 34bf d793 97bd
00000210: dc97 55bf 5f38 6e3e d93e 08bd 0736 543e
00000220: dcac f23e 4a04 c63e dc59 df3e e9e1 e53e
00000230: c4db e53b ce6d f63d bde5 58be 2752 363e
00000240: d298 553f 1fa0 443e 6823 c63e 963d a43e
00000250: 18c5 af3e 5b87 223f f074 e83e cc2d 953e
00000260: 15de 5e3e d2aa 8fbe 9dca 763e feac d0be
00000270: a7d7 bebe d2a5 05bf 439f 06bf 7f34 8c3e
00000280: d65c a73b e467 92bd a157 6c3d eed0 87be
00000290: f71d 8b3d cc9a d93d 02da febd a8a8 5f3f
000002a0: f2ff 293e 81f6 febd b2de 863d e232 773c
000002b0: f965 1f3d 28e4 0abe a2ad 3e3e a7a9 babe
000002c0: b817 a43e 77da 99be 1475 24be f23e 823e
000002d0: 8d3f 3dbe d41e c63c eb64 ea3e 9430 0abe
000002e0: 8650 49bd e3c8 d03e f1b8 cd3e a59b a33e
000002f0: e5ae acbe 2dad db3e ed8e 4e3f 763f e63e
00000300: dd97 d73e 5fbb d93e da9d 423f ef74 ed3e
00000310: 0b33 dc3e b02d ec3e 4dd9 163d 306a b53e
00000320: 475e e4be b219 74be b925 69bc 3163 643e
00000330: c46a 3d3e edf4 e73e 5081 353e 241e 8c3e
00000340: 84a5 e53d 3df0 cbbd d027 9bbe a8fb 5dbf
00000350: 126c bebe cf5f 27be 93cc 383c 65a4 ca3e
00000360: 2612 37bc 4fd2 17be 804a c2be 7122 523f
00000370: b85b c7be ddaa d9be 43c6 75be 2cf6 ffbc
00000380: 8ca9 fabe 48f0 923d a4cc 3a3d 7341 193f
00000390: 45da e2bd 4d08 023e 0c90 f9be 8d98 a1bb
000003a0: b419 53be 14b1 2e3f a726 a2be 4a2d 43bc
000003b0: 3ea9 a9bb 80c5 6d3e b341 9b3e fe9a a13e
000003c0: ae3c e83e 16f1 f5be 6db0 b53e 832b 193f
000003d0: c634 99be ac1d 8dbe 747d dc3e b708 8abc
000003e0: fc00 aebe 3e59 813d b466 8c3d 4bd4 283e
000003f0: 0fd0 f43e 52c7 153e 3c2c 263e a370 cfbd
0.48749083 0.06460242 0.09179449 0.20758408 0.13578057 0.4234224 0.46919918 0.08434934
0.694016 0.044098888 1.2058204 0.12618698 -0.21281631 0.7126018 -0.15609968 0.013687741
0.685674 0.37272835 -0.06289777 0.2646069 0.2213385 -0.6715768 0.20851845 0.14455879
-0.6318948 0.105536215 -0.23308931 0.47203436 0.07925955 0.048190754 -0.19533347 0.12852603
-0.4022962 -0.27722552 -0.047640085 -0.37913814 0.45579994 0.00693116 -0.015393186 -0.009673593
-0.51081306 -0.04600152 0.0024349059 -0.13437116 -0.43366882 -0.29834086 -0.4510041 0.4718139
0.57762206 -0.26691255 0.09906477 -0.30796582 -0.81457126 0.07347752 -0.08680684 -0.5833724
-0.56956774 0.20078507 -0.3802084 0.047179572 0.64798087 -0.23481499 -0.30683258 -0.41297922
-0.28280032 -0.27388385 -0.2953683 -0.19366479 -0.010703439 -0.32141414 0.6359597 -0.4160397
0.33092758 0.14389841 0.18990327 -0.17131059 0.03227094 0.050316468 -0.08758206 -0.8108047
0.33020765 0.19163997 -0.07989952 0.16376577 0.5101207 -0.35547426 -0.1590322 0.036265656
7.36576e-05 0.29796442 0.092915624 -0.38425353 -0.43613228 -0.057458982 -0.013915869 -0.1031869
-0.8318445 -0.58382255 -0.7644996 0.4555157 0.100449234 -0.09832009 0.032512374 0.7147198
0.63641346 0.35005954 0.06411435 -0.037220083 0.49952903 0.5617315 0.43226984 0.10740356
0.5923997 -0.14975475 -0.20245032 0.42482877 0.29479226 0.8546506 -0.39040753 0.14728872
0.2719964 0.40736803 0.5436555 0.012617672 -0.29582104 0.62086034 -0.16453171 0.083028294
-0.8920774 0.034211762 -0.7049102 -0.07401245 -0.83434844 0.23263691 -0.03326306 0.20723735
0.47397506 0.38675147 0.43623245 0.44898918 0.0070147235 0.12032662 -0.21181388 0.17804776
0.8343631 0.19201706 0.38698888 0.32078236 0.34330058 0.63487786 0.45401716 0.29136503
0.21764405 -0.28060013 0.24100728 -0.40756983 -0.37273905 -0.52206147 -0.52586764 0.273838
0.0051075025 -0.07148722 0.057700757 -0.26526588 0.06792825 0.10625228 -0.124439254 0.87366724
0.16601542 -0.12449361 0.065854445 0.015087815 0.038915608 -0.13563597 0.18620923 -0.3645756
0.32049346 -0.30049488 -0.16060287 0.25438648 -0.18481274 0.024184622 0.4578012 -0.13495094
-0.04914906 0.40778264 0.40180162 0.31954685 -0.33727184 0.4290556 0.8068684 0.44970292
0.4210805 0.42525765 0.7602211 0.46378276 0.43007693 0.46128607 0.036828328 0.35432577
-0.44603178 -0.23837927 -0.014230185 0.22303464 0.18497759 0.4530405 0.1772511 0.27366745
0.1121321 -0.09957931 -0.30303812 -0.8671212 -0.37191826 -0.16345142 0.011279243 0.39578548
-0.0111737605 -0.1482632 -0.37947464 0.82083803 -0.38937163 -0.4251317 -0.24001412 -0.031245314
-0.4895748 0.07174736 0.045605317 0.5986549 -0.11076788 0.12698479 -0.48742712 -0.0049315155
-0.20615274 0.6823895 -0.31670114 -0.011912653 -0.005177646 0.23219872 0.30323562 0.31563562
0.45358795 -0.48035496 0.35486165 0.5983202 -0.29923075 -0.275617 0.43064463 -0.016849859
-0.33985126 0.0631585 0.068555266 0.16487233 0.47814986 0.14626816 0.16227812 -0.101289056
