chainerrl/TicTacToe/result_60000/model.npz (npz, 56624 bytes, 8 tensors)

l3/W f4 [9, 81]
00000000: 787b 243e 506a a5bc e3a6 e7be 7524 843d
00000010: 9c2f 7cbd 6510 1bbe 8b94 d23d 7a63 31be
00000020: f58a 3b3e 1d2f 19bd dd5f 1bbf ea27 96bd
00000030: df13 d2be f3b2 3d3d 894d a73d 653f 7e3d
00000040: 2b09 b23c a9db 1e3e 7937 1dbf 3cca 353e
00000050: aa5f 8cbd a1e4 853d 6017 bbbc 8dd6 0d3e
00000060: d4f8 13bf 1fe0 4abd 090d cebd fcfe 703e
00000070: d9e2 4cbe f9cd 973d 7614 0a3e 2f32 473e
00000080: 9ae1 75bc 560a 273e bd89 73be a336 6a3d
00000090: 1dee 8b3e 2b5c b33e 63b1 193d 90bb babd
000000a0: 2dc0 8bbc 99a6 25bf fa1f b3be e300 7f3e
000000b0: 007d 173e ff49 20bf 910e 2e3e 794f 6e3d
000000c0: e6d4 163e 8b2a 8c3e ef53 853e fcdc 69be
000000d0: 3ea7 f6bc d28e 11be f168 443d dbab 03be
000000e0: 40e1 94bc 5ef4 5b3e 3312 fc3d 3a71 a53d
000000f0: 486f 60be 3b16 70bd 0114 573e 5f93 e6bd
00000100: 3400 0f3d 65e4 de3d 2d06 bdbe 9922 00bf
00000110: cf65 9bbc 8b90 2ebd d3bd 02be 1eda 66be
00000120: 4cd8 afbc e0f7 6c3e 7051 9ebe 2448 e7bd
00000130: eac0 0cbd a515 7d3d 98d9 aebe 6e0b 36be
00000140: 7ec7 f53c cd30 1f3d 4679 a0be fc5e ae3d
00000150: 9dde dd3e bd0e a63b 2c78 4a3e 3865 afbc
00000160: c0d3 77be 8a95 3abf 8f0f a73d 025f 133d
00000170: a73b debd e437 54bc 59f3 283e 1d0c 423e
00000180: 6e54 7c3e a805 193e 19bd 9f3e cc45 95be
00000190: 7451 0bbe 81eb 87bd a462 473e 73ed 4b3e
000001a0: 6d75 39be e82e 4f3d 06ae f4be d782 6bbe
000001b0: d597 7d3e c91b 76be d930 7c3e e4f5 863e
000001c0: 1d80 aabe 3dd7 52be 4bc2 3dbe c1d9 2f3e
000001d0: 0248 e43e 8f3a 7f3e 79d6 32be 31ee 83bd
000001e0: 9792 b1be cd33 b3bc 817a 4bbe ce60 11be
000001f0: 3cd5 cf3d 339a 0fbe 6b08 b43d 760b 763e
00000200: cd08 60be 23de 0bbe 332c 92be 2580 14be
00000210: 13e9 243e d57f 593d 9b4b 94be c674 d53d
00000220: 9c0c 44be f382 6bbd 542a 7ebd f0a5 a1bd
00000230: 31c8 043e d256 2abe 657b 1f3e 4ed2 11be
00000240: 6c51 b1bd 1c4b 8dbb 315a a5be bc0b 09bd
00000250: 39e2 5c3e 58c1 543e 4804 49be fd76 863c
00000260: 5f81 05bc 740c b1be a5a6 0bbd 7994 373e
00000270: f1e3 adbe 55e4 b93c 365c cbbe 6c8b d5be
00000280: 5032 84bd dada f5bd 9a93 ab3e 8a16 e3bd
00000290: 5693 f4be 6a63 3b3d 29d5 dbbc 5313 18be
000002a0: 42eb 293e e2f0 163d 0069 fc3d b9db b63e
000002b0: 5d72 2d3e 3943 5ebd 8fff e2be 67ba edbd
000002c0: df41 a73a 98a9 43bc 4fcb 103d 5b58 45bd
000002d0: 2491 223e 5a54 60be cd47 30bf c0a8 d7bd
000002e0: 0784 163d 71bd 47bd 44ef 36be adcf c73c
000002f0: f473 b6be 146a 273e 5a94 dfbe 9d11 fcbe
00000300: 69d1 3abe 1cea 97bd 6453 f6bc e7c2 f33e
00000310: 2ae5 e13e 2367 823e 8ed1 e8be eaac ddbd
00000320: 05c7 d43d 5f5d b3be cdd3 143e aea2 43bd
00000330: bc21 cdbd 69f8 a1be ccb2 99bd 8e6b fb39
00000340: f6a7 f9bc 7e2e e43d 19e1 2abe 12bd 30be
00000350: 86b4 7f3e 7ab9 9e3e c241 f0bd 29c4 2fbe
00000360: f183 2b3e 346a c4be fd4e ba3d ae7c 9a3e
00000370: 3376 51be 0801 90bd 6d41 b5be ede7 0d3e
00000380: 5127 f93b 127d 383d bec1 463e 93da 03bd
00000390: 0859 24be 9fee 4abd 7a28 c03d c109 23be
000003a0: dbff 88bd 7cd7 0cbe 2b6a 1bbd a2f1 6fbe
000003b0: 9527 8e3d 70f6 83bd f77a e4bd 3a59 953d
000003c0: 5364 e03d 20a1 bcbd ff48 873e c982 183e
000003d0: 2109 4a3d e9a9 ccbe 9bed 1e3e 5411 b33d
000003e0: db50 84bd 689a babd 7716 3bbe 1a50 283e
000003f0: 8777 6a3a e6ba 943d 9189 d9be 146e 283d
0.16062725 -0.020192295 -0.45244512 0.06452266 -0.06156884 -0.15142973 0.102822386 -0.17323104
0.18314727 -0.037398446 -0.6069315 -0.07331832 -0.41030785 0.046313237 0.081690855 0.062072176
0.021732887 0.15513481 -0.6141277 0.17752928 -0.06854184 0.06537748 -0.022838295 0.13851376
-0.57801557 -0.049530145 -0.1006108 0.23534769 -0.2000841 0.07412333 0.13484368 0.19452737
-0.015007401 0.16312537 -0.23783012 0.057181012 0.27330104 0.35031256 0.037522685 -0.09117806
-0.01705941 -0.6470733 -0.34985334 0.24902682 0.14793777 -0.6261291 0.16997744 0.05818126
0.14729652 0.27376208 0.260406 -0.22838205 -0.030109044 -0.14214638 0.047951642 -0.12858526
-0.018173814 0.21479937 0.12308159 0.08078237 -0.2191745 -0.05861495 0.21003725 -0.112585776
0.034912303 0.108834065 -0.36918774 -0.5005279 -0.018969445 -0.042618316 -0.12767725 -0.22544143
-0.021465443 0.23141432 -0.30921507 -0.112930566 -0.034363665 0.06178822 -0.34150386 -0.17777798
0.030002352 0.0388649 -0.31342524 0.085142106 0.43333903 0.005067675 0.19772404 -0.02141057
-0.2420187 -0.7288443 0.081572644 0.03597928 -0.108512215 -0.0129527785 0.1649908 0.18949933
0.24641582 0.14943564 0.31198958 -0.29154813 -0.1360529 -0.06636716 0.19471222 0.19914798
-0.181112 0.050581843 -0.4778902 -0.2299913 0.2476495 -0.24034037 0.24628009 0.26359475
-0.33300868 -0.2058992 -0.18531148 0.1717291 0.44586188 0.24924682 -0.17464627 -0.06441916
-0.34682152 -0.021875286 -0.1987095 -0.14197084 0.10148093 -0.14023666 0.08790668 0.2402781
-0.21878357 -0.13658957 -0.28549346 -0.14502008 0.16104536 0.053100426 -0.28963932 0.104226634
-0.19145435 -0.05749793 -0.062052086 -0.07892978 0.12966992 -0.16634682 0.15574415 -0.14240381
-0.08658108 -0.0043119323 -0.32295373 -0.033458456 0.21570672 0.2077688 -0.1963054 0.01641416
-0.00814852 -0.34579813 -0.03409447 0.17927732 -0.33962968 0.022691885 -0.3971879 -0.41707933
-0.06454909 -0.12004633 0.3351105 -0.11088283 -0.47768658 0.045749106 -0.026835041 -0.14851122
0.1659365 0.036850818 0.12324715 0.3571451 0.16938157 -0.054263327 -0.443356 -0.11607819
0.001276072 -0.01194229 0.03535014 -0.048179965 0.15875679 -0.21907178 -0.6885956 -0.105302334
0.036747005 -0.04876465 -0.1786471 0.02439102 -0.3563534 0.1634906 -0.4366787 -0.49232188
-0.18243946 -0.074177 -0.03006906 0.47609636 0.4412015 0.25469312 -0.45472378 -0.10823996
0.103895225 -0.35032174 0.1453392 -0.047762565 -0.100162 -0.31634834 -0.07504806 0.00047954585
-0.030475598 0.1114168 -0.1668743 -0.17259625 0.24971208 0.31000882 -0.11731292 -0.17164673
0.1674955 -0.38362277 0.09097097 0.30173248 -0.20455246 -0.07031447 -0.35401478 0.13858004
0.007603564 0.04504115 0.19409844 -0.03219087 -0.16049588 -0.049543973 0.0938272 -0.1592169
-0.066894256 -0.13754076 -0.037943047 -0.2343202 0.069411434 -0.064434886 -0.11156266 0.07292409
0.10956635 -0.0921042 0.2642288 0.1489364 0.049325112 -0.3997338 0.15520327 0.087435395
-0.064607345 -0.09111482 -0.18270288 0.16436806 0.00089442026 0.072622105 -0.42487767 0.041120604

l3/b f4 [9]
00000000: aed3 1dbe e25c 9dbe 2a22 51be 5eba 83bd
00000010: c385 8c3d a52b dabc bb84 d0bc a958 83be
00000020: 6769 42be
-0.1541278 -0.30734926 -0.20423189 -0.06432031 0.068614505 -0.02663214 -0.025453916 -0.2565358
-0.1898552

l0/b f4 [81]
00000000: 099f 823e 2840 9cbe abbb 82be 753e 82be
00000010: fd26 d8bd 159a bdbe 6312 fcbe 6ae5 21be
00000020: 2a30 2ebd 4072 41bd 948f d0be b8d8 4bbe
00000030: 8ce4 a8bd 0e20 20be 27d1 0dbf 70aa 143b
00000040: ca89 8d3e 38a4 93be 7143 88be a2d6 a93b
00000050: 793a 2b3d f8cc bf3e 2ec3 4ebe 2a67 cabe
00000060: 5eba b7be ef18 67be a381 76be 8770 88bd
00000070: f2cd 2abe 105e aabe 1685 8cbe 8cdf 2ebe
00000080: ada2 47be 5901 2bbe 0832 94be c616 c7be
00000090: c20e 993d a4f9 39bf 371a 51be 1bcd 1dbe
000000a0: f765 15be c323 a83b b5b2 0cbe 1758 59be
000000b0: 640d b7be 43d1 543e 6dd1 ddbd f46c e1be
000000c0: 4c14 d5be 8f1d 58be 2006 f5bd 2574 70be
000000d0: e72e debe 11fe e5be 2e17 d1be 0b71 adbe
000000e0: c61c a2be b352 c5be f3de 863d d8c2 d8bc
000000f0: 2edd 18be 53c5 90be 271c 633d f5b7 63be
00000100: 2787 dabe a879 8f3e 746e 2fbe 2905 88be
00000110: 23e0 85be f44c 1ebf c80e d4bd 76a1 a7be
00000120: 3c61 82be d423 09be 2c5d ecbd 183d acbc
00000130: 003d b6be 765a 77bd f43a bfba f649 90be
00000140: dedb 99be
0.2551196 -0.30517697 -0.25533804 -0.25438276 -0.105543114 -0.37031618 -0.49232778 -0.15810171
-0.0425264 -0.047228098 -0.4073454 -0.1990689 -0.08246717 -0.15637228 -0.55397266 0.0022684596
0.27644187 -0.28836226 -0.26613954 0.005183057 0.04180381 0.37461066 -0.20191643 -0.39531833
-0.35884374 -0.22568105 -0.2407289 -0.06662088 -0.16680124 -0.3327489 -0.27445287 -0.17077464
-0.1949565 -0.16699733 -0.2894442 -0.38884562 0.07473518 -0.72646546 -0.20420156 -0.15410273
-0.14589678 0.0051312163 -0.13740046 -0.2122501 -0.35752404 0.20782952 -0.108309604 -0.44028437
-0.41617048 -0.21105026 -0.11964059 -0.23481806 -0.4339516 -0.449204 -0.40837997 -0.33875307
-0.31662577 -0.38539657 0.06585493 -0.026460096 -0.14928123 -0.28275546 0.05544677 -0.22238143
-0.42681238 0.28022504 -0.17131978 -0.26566437 -0.26147565 -0.6183617 -0.10354382 -0.32740372
-0.2546481 -0.13392574 -0.115412086 -0.021025226 -0.35593414 -0.060389005 -0.0014589713 -0.28181428
-0.30050558

l1/W f4 [81, 81]
00000000: cd68 5dbe 39fb 3ebe f9cc 06be f3eb e83c
00000010: abf6 863d 8f13 253e 058c 313e 6357 b4be
00000020: 4583 83be 06bc 73be 5c22 2cbe 5bc6 56bd
00000030: 493c 1bbe 5fd6 57be 35db 38be 9612 5d3e
00000040: 1951 783d ec32 283c 0c1c 71bd cb4b f83d
00000050: 4453 b4bd c18f ebbd 49e1 25bd e7c5 9b3d
00000060: 6723 a53c 4681 b8bd ffef a73e ee1e b6be
00000070: 2607 7ebe 16c0 86bd f94d 14be e56e eebc
00000080: 7c2f 663e 6638 edbb e145 0a3e 795f b7be
00000090: 60a7 bebd a5d5 1fbd de23 49be a9a7 01bd
000000a0: abb6 313c 1115 003e 3674 9abd a9f9 e13d
000000b0: 45cd 1e3e 38a8 033d c613 05bd f0de c2bd
000000c0: 57e6 933e a7f0 013d 4584 71bd 9da6 14bd
000000d0: fac8 883c 18e8 c43d cefb 173d 9d6c eabd
000000e0: 3539 b33c 5dab 693e 7904 d93d 3dc3 5ebe
000000f0: 597c 253e 7df5 48be 55b7 0fbe 1145 77bd
00000100: 6b9a 623e a2d3 98bb f850 0a3e 1719 9e3d
00000110: cb9c a7bd 5ca6 2cbe 218f 3dbe 8af0 ee3d
00000120: af14 3abe 0d94 eb3c 08be 243d d8d6 d8be
00000130: eac6 35be 4cd2 3cbc 105a 653d 54b5 923d
00000140: 56de 26be 9a8e a6be 6d48 12bf e492 04be
00000150: c01e a53d e8c2 02be 2341 873e 2de3 3b3e
00000160: 3770 473e ec02 83be 37c2 50bd 04fc 743e
00000170: a361 923e cc9e 963e 1117 123e f9d6 f2bc
00000180: e787 98bd 4a09 413e ecef 58ba 41fb 343e
00000190: af3e e8bd acd5 fd3d 9d16 a8be df68 3f3e
000001a0: 986e 3cbe b66c 8d3d 519c ba3d 322a ed3d
000001b0: 9a24 bbbd f556 48be d3ac 00bd a4cf fb3c
000001c0: 33d8 36be dc94 253d ce00 293e 8ee9 80bd
000001d0: 4c20 f6bd 7168 80be caf2 c13e 607a e13d
000001e0: 958c 383d 9969 7fbc b79d b0be 825c f3bd
000001f0: 03a6 0d3e 67a9 27be ea67 9fbd 94f0 f7bc
00000200: ce87 64be 2155 e2bd 4c1d 0cbd 8924 6a3e
00000210: 128c 5dbe 6641 f13d b975 99be 98e7 e73d
00000220: a897 e0bd d3f8 f73d b943 7d3e c1a6 493d
00000230: 343a dfbe aae6 b0be 261e 1e3e 47ae 0ebe
00000240: ef70 73be 26a9 2c3e 5f95 013e c4f3 d63c
00000250: f024 a4be 8d90 363e 8bc6 20bd 256a 373e
00000260: aa8a 083e 49b7 4b3e 33d2 80be 5af3 d13b
00000270: 70d4 5dbe c42f 10be 2dfa 423e 6bb2 d23d
00000280: afea 403d 85a1 fabb bdb9 2f3e f577 80bd
00000290: cada 5e3d 3634 b3bd d603 d53e 343a 493e
000002a0: 407e 253e 91af 0d3e f1ae a0be 9b61 a83d
000002b0: f4c2 79be 7b2e 70bc a63c c2bd c1ea 2ebe
000002c0: fc3c 2abe 319d 5a3e 1f20 563e 3db7 383e
000002d0: 702c 57bd 2042 863d 72eb 7f3d 3b21 80be
000002e0: abad 6cbe fabc 83bd c560 a63d 871a 64be
000002f0: 8962 8fbe 5cbd c0bd 58c3 143e 7746 57be
00000300: c600 193e 0c61 1cbd 1f0f 34bd d528 eebc
00000310: d356 763d e63f 8a3e c21e 4ebd 0bce 733e
00000320: adcf 2abe 7b0b 633b 13c6 1cbe 0924 053c
00000330: b28b 08be a331 20be 05aa 6c3e 17fe 62be
00000340: 0533 193e 77d3 04be bafa 1d3e 784d 543e
00000350: 0d4e 26bd edb4 93bd 3be4 903d 771c 54b9
00000360: 805d 89be 73d2 06be 4c37 c53c 1aaa 9bbe
00000370: e686 cabd be51 5c3d 8dd2 153d 4bb8 fdbc
00000380: 749e debd 668d 26bd 99df dbbd dcdf 35bd
00000390: 7eda 42bd 84ba 45be f2cd 1f3e 7ca5 463c
000003a0: ae00 1e3d 90f1 a13d 441e 92bd 04ec 683d
000003b0: 0e91 9cbc dedf c1be a1c0 3fbd 1bbd 183c
000003c0: a726 e53c 7ff0 843e da91 c53d dd11 023e
000003d0: e6c1 55be feaf fe3d 0f97 0a3e 2928 963c
000003e0: 5ad7 7abe fd95 bb3e 8461 83be 9603 3dbd
000003f0: 5d27 aa3e e3ef c2bd e93c 613e 40fb 9f3c
-0.2162201 -0.18650521 -0.13164128 0.028432822 0.06590017 0.16120742 0.1733857 -0.3522292
-0.25686088 -0.23802194 -0.16809982 -0.05243526 -0.15159716 -0.2107787 -0.18052371 0.21589121
0.060624216 0.010266047 -0.05886464 0.12123831 -0.08804944 -0.11502028 -0.04049805 0.07606106
0.020158483 -0.09009032 0.3280029 -0.35570472 -0.24807414 -0.06579606 -0.14482869 -0.029105613
0.22479051 -0.0072393892 0.13503219 -0.35815027 -0.09309268 -0.039022107 -0.19642588 -0.031654034
0.010846774 0.12508036 -0.07541697 0.11033947 0.15507992 0.032142848 -0.03248956 -0.09515178
0.28886673 0.031723645 -0.058964033 -0.036291707 0.016697396 0.09614581 0.037105374 -0.114464976
0.021877864 0.22819276 0.10596556 -0.21754165 0.16160716 -0.19624896 -0.1403478 -0.0603686
0.22129218 -0.0046639005 0.1350745 0.07719629 -0.08184203 -0.16860336 -0.1851163 0.11666973
-0.18171953 0.02875712 0.04022029 -0.42351413 -0.17751661 -0.011524748 0.055994093 0.07163492
-0.16295752 -0.3253067 -0.5714176 -0.1294666 0.08062506 -0.12769663 0.26416883 0.1834838
0.194764 -0.25588167 -0.050966468 0.23924261 0.28590116 0.29418027 0.14266612 -0.029643523
-0.07447796 0.188512 -0.0008275497 0.17673971 -0.11340081 0.1239427 -0.32829753 0.18692349
-0.18401563 0.069055006 0.09111846 0.11580314 -0.091378406 -0.19564421 -0.031414818 0.03073866
-0.17855911 0.040425166 0.16504213 -0.06294547 -0.12017879 -0.25079682 0.37880546 0.11009669
0.045055944 -0.015589141 -0.34495327 -0.11882879 0.1383286 -0.16373216 -0.07783492 -0.030266084
-0.2231743 -0.11051393 -0.034207627 0.228655 -0.21635464 0.11780052 -0.29972628 0.1132347
-0.10966426 0.12108006 0.24732865 0.049231295 -0.43599093 -0.34550983 0.15441188 -0.13933669
-0.2377355 0.168614 0.12654637 0.026239283 -0.3205943 0.17828579 -0.039251845 0.17911585
0.13334146 0.19894136 -0.2516037 0.0064071836 -0.2166307 -0.14080721 0.19040747 0.10287937
0.04709881 -0.007648649 0.17160697 -0.0627288 0.054407872 -0.08750193 0.4160449 0.19651109
0.16161442 0.13836505 -0.3138347 0.08221742 -0.24390775 -0.014659519 -0.09484224 -0.17081739
-0.16624826 0.21349026 0.2091069 0.1803865 -0.052532613 0.06555581 0.062480398 -0.25025353
-0.23113124 -0.06432529 0.08123926 -0.22275744 -0.28004864 -0.094111174 0.14527643 -0.21022974
0.14941701 -0.03817849 -0.043959733 -0.029072205 0.060141396 0.27001876 -0.0503223 0.23809068
-0.16680785 0.0034644294 -0.15309934 0.008126267 -0.1333454 -0.15643935 0.23111732 -0.2216724
0.14960869 -0.12971292 0.15427676 0.20732677 -0.04060178 -0.07212243 0.070747815 -0.000202285
-0.26829147 -0.13166218 0.02407422 -0.30403215 -0.09889011 0.053788893 0.03657775 -0.030971667
-0.10870066 -0.04066219 -0.10736007 -0.044402942 -0.04757165 -0.19309431 0.15605906 0.0121244155
0.038574867 0.079074025 -0.07134679 0.056865707 -0.019112136 -0.3786611 -0.046814565 0.00932243
0.027972532 0.25964734 0.096469596 0.12702127 -0.20874748 0.124359116 0.13534187 0.018329697
-0.24496213 0.3663787 -0.25660336 -0.046145998 0.33233157 -0.09518411 0.21995892 0.019528985

l2/W f4 [81, 81]
00000000: eb0f e5bd ef73 64bd fc81 2f3d d45f ae3d
00000010: 5629 cebe eb9d 863e 98ce d43d 7472 21be
00000020: 3c4e d7bb 1f31 243d 7ba4 0c3d d039 c53d
00000030: 0512 f83c dcfc 14bd ee5e a3bc 10b7 643d
00000040: 7e15 e4bd 2142 993d 2984 f43d ece3 a8bd
00000050: 7296 343e b4c7 bfbb da50 623e 0da4 1abe
00000060: f18d 03bb f9fa fabd 25e0 01bf ff10 e3bb
00000070: 95bd d53d 464a 10be 3365 fc3b add0 22be
00000080: 1ae8 19be 6b71 01bc 2b62 a93d 3a98 f2be
00000090: 625b 033e 88f2 973d ba00 afbe 0271 b93e
000000a0: aa1e 95bd ae89 1b3e 7d24 323e 7234 8bbd
000000b0: 9a24 55be 3752 993e 8cca fe3d 0a6c 033e
000000c0: b65b 85bd 2813 e4bd c1cc 783e 4d7c 91bd
000000d0: 45af 9abd 9ce0 c6bd 92f9 32bc cefa a0bd
000000e0: 8b46 7f3e 64c0 2cbf b5fc 773e b9f3 a2be
000000f0: 0a84 46be 9c94 973b 1d98 8ebd f96b 40bc
00000100: 3699 b73d 8428 66bd f5e4 0bbe 95dc dabe
00000110: 5d38 493e 8845 883d a384 253e db57 42be
00000120: 5c4c adbd e9c4 0abe 88f3 e03b ad9d f3bd
00000130: bb6d 7fbe eef6 40bd 09d0 f6bd 9a08 b8be
00000140: 4376 983d a9e5 033e 6dc8 cdbe a0bd ca3d
00000150: 22b3 133e b42b bc3b 43c7 68be 58cb 37bd
00000160: f493 82be b6bd bcbd 27b7 cf3d 633a b7bc
00000170: 76e6 76bc 3c8e ea3d 9a13 18be 67d6 4cbc
00000180: 2cf0 31be b7f0 5b3d 6133 d73c 9e71 533e
00000190: d825 babe c117 433e 0ff5 c63e 534e 6d3e
000001a0: fad3 5b3d d71a a33d cdbd 38be 8924 423e
000001b0: 11fc 78be fb04 193c 3ce0 18bd 5db4 31be
000001c0: 9f0c e83c 21aa 3d3e e725 ee3d 2411 c43c
000001d0: 1a89 95be e929 483d 65a3 263e 7f8f 18be
000001e0: cdd3 90bd b67c 07bf 3487 2ebe 36c2 e2be
000001f0: 63a8 833d 030e d5bd c3c2 b6bc a154 53bc
00000200: 7041 60be 1fd2 2fbd 228f 193e bd19 7ebe
00000210: 52fd eabc d7b1 86bd 515e 0d3e 125f 403e
00000220: 74f9 7a3e 1f07 96bd 9c8f a43d 0b94 16be
00000230: f895 143e bdfa bfbd c177 04be 09ce 6d3e
00000240: ea8e 62be 9d00 06be 9ade 2cbd b376 b03d
00000250: 87a0 843e 4ddc 23bb f165 76be a812 9cbd
00000260: 916f 9cbd cd6a 803c a34e 38be 987f f9bd
00000270: 992c c33d de8e 65bc 8bee dfbd a084 ba3c
00000280: d8c2 993e a9bd 5a3e d53b 08be af79 413c
00000290: 69a4 0a3e 3704 57bd 58cb ff3d 8347 58bb
000002a0: 82d7 55be 1a49 3ebe ba53 0abe 2be5 323d
000002b0: e904 0f3e 2e16 5abe 7fa1 9bbd 9be6 b1bd
000002c0: 1a45 073c ccbf a1be 39bc 40bd ada8 0dbe
000002d0: 36bc dd3d 0f53 28be c3dd c6bd cbf3 d3be
000002e0: e73e 993d 1fe6 24bc 4b3b 79be 6dc9 13bc
000002f0: 9aad d8bd 3c7a c0bd fcbe b93b a121 293e
00000300: 617b 883e 3770 d6bd 1216 893d 3369 e33b
00000310: ef51 65bd 172c c03e e585 efbe 6f4b 3d3e
00000320: 948b ff3d 8671 a8be d3c8 03be 2d47 38be
00000330: d807 14be 6d2d 683e 6ea4 42be a02f 90bd
00000340: 37e5 673e f85c 90be 4d3d 073d 80ec 99bd
00000350: 3cea 0b3d a7eb 253c d047 c8be 5f5e c2be
00000360: f580 efbd 20e5 05be 4676 713e f25a 83be
00000370: 243a abbe c6fb 6ebe 30b1 1b3e f59d 8cbe
00000380: af1e d6be e835 f7bd 3688 46be d537 94be
00000390: 6f56 3abe 9145 9cbe be79 5abe ace2 debd
000003a0: 601e 72be a689 c0bc 55e7 2bbe 67d1 003d
000003b0: 5a0c dfbe bc04 b53d 25a0 c0bb 3d66 a73d
000003c0: b0a0 86bd 4fe7 45be 1949 a93d 5702 f93d
000003d0: a8bf 2bbe c742 9fbc 2bf2 dcbd a69a 48be
000003e0: c85e bb3c 30a5 c83d bd86 bbbb 35f0 9abe
000003f0: 4fed debd 145e 92bd 5442 063b 99ea 47bd
-0.11184677 -0.055774625 0.042848572 0.085143715 -0.40265912 0.26292357 0.10390967 -0.15766317
-0.0065706056 0.040085908 0.03433655 0.096301675 0.03028203 -0.036373958 -0.019942727 0.055838645
-0.11136912 0.07483316 0.1193927 -0.08246598 0.17635515 -0.005852664 0.22101155 -0.15101643
-0.0020073617 -0.122549005 -0.5073264 -0.0069295163 0.104365505 -0.14090833 0.0077024936 -0.15899916
-0.15029946 -0.007900576 0.08270677 -0.47381765 0.12827829 0.07419306 -0.34180242 0.3621903
-0.07281239 0.1518924 0.17396732 -0.067971125 -0.20814744 0.29945537 0.124409765 0.12834182
-0.06511633 -0.11136466 0.24296857 -0.071037866 -0.07552961 -0.097108096 -0.01092376 -0.07860337
0.24929254 -0.67481065 0.24217494 -0.3182657 -0.19386306 0.00462587 -0.06962607 -0.011744493
0.089647695 -0.056190982 -0.13661559 -0.42746416 0.19650407 0.06653887 0.16163878 -0.18978827
-0.0846183 -0.13551678 0.0068649687 -0.11895309 -0.24944203 -0.04711049 -0.12051398 -0.35944062
0.07444432 0.12880577 -0.40191975 0.09899449 0.14423802 0.0057425145 -0.22732262 -0.044871658
-0.25503504 -0.09215872 0.101423554 -0.022366708 -0.015069595 0.1145291 -0.14851227 -0.012502289
-0.17376775 0.05369636 0.026269617 0.2064881 -0.36356997 0.1905203 0.3885884 0.2317441
0.053668953 0.07964104 -0.18041153 0.1895925 -0.24314906 0.009339566 -0.03732322 -0.1735396
0.02832633 0.1852193 0.11628323 0.023933955 -0.29206163 0.048868094 0.16273268 -0.1489849
-0.07071648 -0.5292467 -0.17043763 -0.44288796 0.064286016 -0.10403063 -0.022309666 -0.012898595
-0.21899962 -0.042924996 0.14996007 -0.24814506 -0.028685246 -0.06576889 0.1380551 0.18786266
0.24509221 -0.07325577 0.08035204 -0.14704911 0.14510334 -0.093739964 -0.12936307 0.23223127
-0.2212483 -0.13086171 -0.042204477 0.0861639 0.25903723 -0.0025003136 -0.24062325 -0.07620746
-0.07638467 0.015675927 -0.17998748 -0.1218254 0.09529991 -0.014011113 -0.1093417 0.022768319
0.30031466 0.21361412 -0.13304074 0.011808797 0.1353928 -0.052494254 0.124899566 -0.0033001609
-0.20882991 -0.18582574 -0.13508502 0.043675583 0.13966717 -0.21297523 -0.07599162 -0.08686563
0.008256221 -0.31591642 -0.047054503 -0.13833876 0.10826914 -0.16437934 -0.097102664 -0.41396937
0.07482701 -0.010064631 -0.24339025 -0.009020192 -0.10579987 -0.09398314 0.005668519 0.16516735
0.2665663 -0.10470622 0.06693663 0.006940031 -0.05598634 0.37533638 -0.4678184 0.18485807
0.12477794 -0.32899112 -0.12869577 -0.17995901 -0.14456117 0.22673579 -0.19008037 -0.07040334
0.22646032 -0.2819593 0.033017445 -0.07515812 0.03415893 0.010126985 -0.3911729 -0.37962624
-0.116945185 -0.13075686 0.23580274 -0.25655323 -0.33442795 -0.23338231 0.1520431 -0.27464262
-0.41820285 -0.12070829 -0.19387898 -0.28948846 -0.18197034 -0.30521825 -0.21335503 -0.10883078
-0.236444 -0.023503136 -0.16787465 0.0314497 -0.4356411 0.08838794 -0.0058784657 0.08173797
-0.065736175 -0.19326518 0.082658954 0.121586494 -0.1677233 -0.019441022 -0.107883774 -0.19590244
0.022872344 0.09797132 -0.005722849 -0.30261388 -0.10885107 -0.0714685 0.0020486312 -0.048807714

l1/b f4 [81]
00000000: 4117 8bbd 83eb 75be a44c 65be f564 5bbe
00000010: dac9 c6be 0dcd 48be 65ca 3bbe eda1 1bbe
00000020: cb9c b4be b09f 243d 5d87 73be 6669 45bd
00000030: a376 16be f7ef 77bc c0a4 0dbe 7ef5 783d
00000040: b158 febe 5fd6 3ebd cf3e d23b 402e 01be
00000050: 4553 6cbe 6548 09be 419d a3be 2d57 a5be
00000060: dea5 a7be e9c3 d6be c29a 6c3d 6440 7abe
00000070: 01da a2bc a6d4 713c 297c acbe 44c5 c0bd
00000080: c9fe d93d e228 86be 734c acbd cdb6 e63d
00000090: 257b 0abe 1400 50be 8ba0 31bf c91f 73be
000000a0: 63f3 193e 30d2 a5bd 9f78 7abe 46ca adbd
000000b0: 9292 8ebe 588f 8c3e 2d35 37be 96cc 42be
000000c0: 2080 3abe 4467 cebe 9216 f9bd 1676 81be
000000d0: bac1 36be 9cd3 5dbd 98d0 b1be f92f a0bd
000000e0: f5a1 47bd 0ced 3cbe c341 e2bc 7aa2 dfbe
000000f0: 9930 4dbd 4b79 90be ace0 56be 6cad ffbe
00000100: cca8 563d ba8f 9c3d c7ca dabe 2bb4 00be
00000110: ddea c4bd 5fba f4bd a836 41bd 0f9b 413d
00000120: 8227 c73e ab8d d4bd 8fb0 8dbe 6a07 7cbe
00000130: 1f13 913d efdb 903d 3b22 423d cb73 cdbd
00000140: cfe4 a4bd
-0.06791545 -0.24015622 -0.22392517 -0.21425231 -0.38825876 -0.1960947 -0.18338926 -0.15198489
-0.35275874 0.040191352 -0.23782106 -0.04819622 -0.14693694 -0.015132896 -0.13832378 0.060780995
-0.4967704 -0.04659116 0.006416179 -0.12615299 -0.2307864 -0.13406523 -0.31955913 -0.32293072
-0.32743734 -0.41946343 0.057764776 -0.24438626 -0.019879343 0.014760172 -0.33688477 -0.094126254
0.106442995 -0.26203066 -0.08413019 0.11265335 -0.13523538 -0.2031253 -0.69385594 -0.23742594
0.15034251 -0.08096731 -0.24460076 -0.08485846 -0.278462 0.27453113 -0.17891379 -0.19023356
-0.18212938 -0.4031316 -0.12162508 -0.25285405 -0.17847338 -0.054156885 -0.34729457 -0.0782165
-0.04873844 -0.18449801 -0.027619248 -0.43678647 -0.050095174 -0.2821754 -0.20984143 -0.49936998
0.05240707 0.07644601 -0.42732832 -0.12568729 -0.09615109 -0.1194961 -0.047171265 0.047267016
0.3889733 -0.103785835 -0.27673766 -0.24612203 0.07083725 0.07073199 0.047395926 -0.100318514
-0.08051454

l2/b f4 [81]
00000000: 2485 1abd b03c 9dbd 6fab 37be 2bb9 773d
00000010: 6f8b df3c ce67 a5be 762b 9bbe a1c5 07be
00000020: f03e 0dbe 8c61 253e df08 a5be 4c03 cb3c
00000030: 1eff 3fbd b9c0 f0bc f348 c43d c613 5f3e
00000040: b53b bfbc 3a20 8dbe 6be9 38be 4293 acbe
00000050: c43f 53be 80bc 833d 1b60 05be 61dc 84be
00000060: bae4 f8bd 0e38 81bd ff9d 7fbe d1e3 09be
00000070: 0333 25be 183d 43be bae3 133d 9b44 a5bd
00000080: 021e 47be 1bd3 2bbe b970 18bd a4e9 23be
00000090: 8079 08be 4e37 1d3e ad44 40be 2406 03be
000000a0: 51b7 083c c95b 30be 8fc1 92be 81cb 5abc
000000b0: f11c 78bd 6611 12be 1f02 19be ac5f a2bd
000000c0: bcff 6bbe 5687 68be 48f3 81be da76 e2bd
000000d0: b736 14be 7f69 6abe d1ba 1b3d 14a5 f23d
000000e0: f753 6c3d b9fe 623d 7eb4 c8bb 7194 85bd
000000f0: 631c 96be 65f2 55bc 5b97 7cbe d172 9c3b
00000100: 770f 04bd b4d0 09be 0dfe 37be 9514 0bbe
00000110: 73cd 75be 58dd 1fbe 167d 54be 4b23 88be
00000120: fb7c 9abd a4b7 0bbe 6013 05be 517f eebd
00000130: e58d d2bd 8699 3dbe 42f4 d1be ee9d c3bc
00000140: ed16 91bd
-0.03772463 -0.07677591 -0.1793649 0.060479324 0.027288167 -0.3230576 -0.30306596 -0.13258983
-0.1379354 0.16150492 -0.3223333 0.024781846 -0.046874158 -0.029388772 0.095842265 0.21784887
-0.0233439 -0.2756365 -0.18057792 -0.337061 -0.20629793 0.06432438 -0.13024943 -0.25949386
-0.12153001 -0.0630952 -0.24962614 -0.13465811 -0.1613274 -0.19066274 0.03610585 -0.08069726
-0.19445041 -0.16779749 -0.037216876 -0.16007096 -0.13327599 0.15353128 -0.18776198 -0.12795311
0.008344487 -0.17222513 -0.28663298 -0.013354183 -0.060574476 -0.1426445 -0.14942215 -0.07928404
-0.23046774 -0.22707877 -0.2538092 -0.110578254 -0.14473997 -0.22891806 0.03801996 0.118478924
0.057697263 0.055418704 -0.006125032 -0.065224536 -0.29318532 -0.01305828 -0.24667113 0.0047744294
-0.03224131 -0.1345852 -0.17968006 -0.1358207 -0.24004154 -0.1561178 -0.20750841 -0.26589426
-0.075433694 -0.13644272 -0.12995672 -0.116453774 -0.102809705 -0.18515596 -0.41006666 -0.023879018
-0.07084451

l0/W f4 [81, 9]
00000000: 66e6 e73e ea2d 253d 3c47 bd3d 85b8 5e3e
00000010: 3301 bf3c 7504 bc3e 991d 0c3f f122 d7bb
00000020: 9c5d 293f 2f73 8c3c fd10 983f f089 833d
00000030: 0c5b 6fbe cc87 1f3f 5b7d 80be 547c 96bc
00000040: dee7 0c3f e3f3 9d3e 05db 84bc c393 623e
00000050: 2985 663e 0c97 31bf 1e8c 1e3e 6dd7 de3d
00000060: fd6f 2bbf 1fba 463d c2f6 a1be adf4 083f
00000070: 9041 703d 2802 ea3d 94b0 13be d5e9 c63d
00000080: d563 9ebe d94e 50be f353 573d b4f8 bbbe
00000090: c21c 063f a28e 223c 4963 133d 9ce9 86bc
000000a0: 3617 07bf c31f 1d3c 5eb0 91bc 0154 2bbe
000000b0: e14e f5be 713a 9ebe 1e04 e7be 6df5 d23e
000000c0: 117c 263f 8940 31be 8f97 9f3d 8674 c7be
000000d0: 5cd9 58bf 6b2b 043d 56a7 87bd ecd1 08bf
000000e0: 7487 fdbe b79d 5c3e 26e9 a0be ba21 123e
000000f0: c16a 303f c225 63be 3ded a2be 5480 ccbe
00000100: f93c a4be 7642 5abe a23f d0be af6b 42be
00000110: 1f94 58bd 77ba afbe 152c 433f 6e60 d4be
00000120: fb97 be3e 3f70 b83d bbba 053e c3dd 5ebe
00000130: d5f7 1a3b 2335 7b3c 7211 d1bd 5cf1 81bf
00000140: 8de9 b13e 7ca8 803e e3bb d4bd 6f4b 323e
00000150: 46c2 133f ee8b cbbe f5e6 2abe bcc1 8c3c
00000160: 471a 4c3d 8ff7 9e3e 679a 123e ed04 dfbe
00000170: d8d1 f1be 1ba2 1bbd c5fa 6a3d 5812 42bd
00000180: cb0c 54bf 96c2 00bf c6a8 1ebf e7a2 ef3e
00000190: 8340 083e d28c dcbd 58df 46bb dab9 443f
000001a0: 86a6 3c3f ce67 c03e e053 7d3d 4214 21bd
000001b0: d8b4 063f 5f4d ff3e c016 de3e 003c 2b3e
000001c0: ac77 133f 93bf f9bd 8c13 5cbe acf9 a73e
000001d0: 420f 6c3e 0f55 5c3f e31d f7be 2cf8 c53d
000001e0: 85c9 613e 1711 cf3e 3845 083f 4586 8bbc
000001f0: 794b 90be 64be 2c3f a4b5 27be c4fc cb3d
00000200: 8b18 6abf 75f9 143e 27dc 25bf 5415 7d3d
00000210: 921f 45bf f270 a93e 6b00 c73d c719 d53d
00000220: e6ef fb3e 991b bc3e 1909 f63e bf25 b23e
00000230: 1379 203d a209 003e 7c87 55be e5f8 de3d
00000240: 970e 653f 7931 063e e4d9 c73e 7405 923e
00000250: 8be6 9e3e 4e71 243f 1bcf cf3e bb48 8c3e
00000260: 05bc 313e a022 5dbe b000 393e 46f0 efbe
00000270: c405 a1be 6655 11bf ac45 0dbf 79d9 883e
00000280: 096e 8cbd 0356 8bbd 41ab 14bc 6b7a c5be
00000290: 63aa ee3c 6355 a4bd 0b55 49be 3c32 6c3f
000002a0: 15b3 e33d 4f54 acbd af64 f93d 12dd ce3a
000002b0: 742b 503c 077d 0dbe 8339 4b3e a8e8 b8be
000002c0: 3d4e 9b3e f44d 74be e5b0 65be c9e6 763e
000002d0: b1fb 10be 73ab cf3d 5994 043f 9a59 57be
000002e0: f628 f8bd 22f1 ad3e aa05 e13e d395 863e
000002f0: 84ec 50be 64e7 e23e dede 593f 839f ce3e
00000300: c2ee da3e f5aa c43e 0bb0 4a3f c8aa cc3e
00000310: 662b af3e a8a8 e53e fc1b 86ba 24d8 c93e
00000320: d91f dbbe 604b 9abe 1a71 133d c7c6 7b3e
00000330: 24f2 0c3e 02ea f03e 9847 363e 5dae ac3e
00000340: 6242 403e 9e13 e7bd f397 aebe 721f 6fbf
00000350: 1a09 a6be fe0b 00be b9fe cf3d 1e59 003f
00000360: 8551 45bc 4447 2dbe ba7d c1be ece2 873f
00000370: c7d7 efbe 2841 01bf 2f55 90be a7ed 0dbd
00000380: 6b45 f6be 106b 483d 6a15 85bd 0b1a 1e3f
00000390: a211 b8bd 053d c23d 18e5 16bf 4ca9 a1bd
000003a0: 96fc 39be c125 333f 4153 a4be 964c f83c
000003b0: fd34 b8bd a645 4f3e 824b 9f3e 0b4b ab3e
000003c0: beef ef3e 34c4 01bf c158 a53e 1dac 013f
000003d0: 3977 a1be 1195 8fbe 3f6a c83e 06e6 afbd
000003e0: aa83 d6be 1093 56bc 318a af3c 00f8 f43d
000003f0: d420 f73e 2fb5 5f3e 60b7 4c3d 45a0 fdbd
0.45292968 0.04032699 0.092421025 0.21750076 0.023316002 0.3672215 0.5473266 -0.0065654446
0.6615846 0.017144768 1.1880184 0.06422794 -0.23374575 0.62316585 -0.2509564 -0.018369831
0.550413 0.30850133 -0.016217718 0.22126679 0.22511734 -0.69371104 0.15483138 0.10880933
-0.66967756 0.048517343 -0.31633574 0.53498346 0.058656275 0.114261925 -0.14422828 0.09712569
-0.3093554 -0.20342578 0.052570295 -0.36713183 0.5238763 0.009921702 0.035983358 -0.016468816
-0.5276979 0.009590092 -0.017784294 -0.16731264 -0.47911742 -0.30903962 -0.4512033 0.4120287
0.6503306 -0.17309774 0.077925794 -0.38956088 -0.84706664 0.03226797 -0.06623714 -0.53445315
-0.49517405 0.21544538 -0.31427878 0.14270678 0.68912894 -0.22182372 -0.31821623 -0.39941657
-0.32077768 -0.21314415 -0.40673548 -0.1898639 -0.052875634 -0.3432195 0.7623914 -0.4147982
0.37225327 0.09005784 0.13059513 -0.21764283 0.0023646255 0.015332493 -0.102084056 -1.0151782
0.34748498 0.25128543 -0.10387399 0.17411588 0.5771831 -0.39755195 -0.16689666 0.017182223
0.049829748 0.31048247 0.14316712 -0.43558446 -0.4723041 -0.037996393 0.05736806 -0.047380775
-0.8283202 -0.50296915 -0.6197628 0.46803972 0.1330586 -0.10769047 -0.0030345526 0.76846087
0.73691595 0.37579197 0.061847568 -0.03932596 0.52619696 0.49863717 0.43376732 0.16722107
0.5760448 -0.12194743 -0.21491832 0.32807672 0.23052695 0.8606729 -0.4826499 0.09666476
0.2204953 0.40442726 0.5323062 -0.017031798 -0.2818258 0.67478013 -0.16377884 0.099603206
-0.914437 0.14548285 -0.6478905 0.06178792 -0.770013 0.33093983 0.097168766 0.10405307
0.49206465 0.36739805 0.48053816 0.34794423 0.039177965 0.12503675 -0.20852464 0.108873166
0.8947539 0.1310481 0.39033425 0.28519785 0.31035265 0.6423539 0.40587696 0.2739924
0.1735688 -0.2159524 0.18066669 -0.46863002 -0.3144971 -0.5677093 -0.55184436 0.26728418
-0.06856925 -0.06803515 -0.009074033 -0.3856996 0.029133981 -0.08024099 -0.19661348 0.9226415
0.111181416 -0.08414518 0.12177407 0.0015782437 0.0127056725 -0.13817225 0.19846158 -0.36115003
0.3033313 -0.23857862 -0.22430761 0.24111475 -0.14158513 0.10140123 0.5178886 -0.21030274
-0.12117188 0.33973032 0.43949634 0.26286182 -0.20402724 0.44317162 0.85105693 0.40356073
0.42760283 0.3841168 0.7917487 0.39974046 0.34212798 0.44855237 -0.0010231729 0.39422715
-0.42797735 -0.30135632 0.035996534 0.24587546 0.13764244 0.47053534 0.17800748 0.3372678
0.18775323 -0.112830386 -0.34100303 -0.93407357 -0.3242882 -0.12504575 0.10156006 0.5013598
-0.012043362 -0.16921717 -0.37791234 1.0616126 -0.46844313 -0.50490046 -0.2818999 -0.03465047
-0.48099837 0.048930228 -0.06498225 0.6175849 -0.08987738 0.09484295 -0.5894332 -0.07893619
-0.1816276 0.6997948 -0.32094768 0.030309957 -0.08994482 0.20241413 0.31112295 0.3345569
0.46862596 -0.5069001 0.32294276 0.5065325 -0.31536272 -0.28043416 0.3914356 -0.08588795
-0.41897327 -0.013096586 0.0214282 0.11961365 0.48267233 0.2184646 0.049979568 -0.123840846
