chainerrl/TicTacToe/result_60000/target_model.npz (npz, 56579 bytes, 8 tensors)

l3/W f4 [9, 81]
0.15828171 -0.016152075 -0.45436075 0.06634182 -0.057969797 -0.15262729 0.09772838 -0.17298786
0.18527018 -0.038962558 -0.60906523 -0.07918635 -0.41040298 0.044812575 0.083863474 0.06284018
0.023203045 0.15650578 -0.6172706 0.17698391 -0.071562454 0.07117737 -0.022101926 0.13654783
-0.579594 -0.050547782 -0.10425171 0.23572618 -0.20281927 0.07208815 0.13558976 0.19410348
-0.012847275 0.16432986 -0.23900017 0.055046353 0.2769521 0.35263345 0.037629895 -0.088369206
-0.024214236 -0.65009016 -0.34712243 0.24978498 0.1448769 -0.62704474 0.17232272 0.056537677
0.15309814 0.2708475 0.26112145 -0.22706224 -0.034567587 -0.14107567 0.049788374 -0.12734374
-0.017492786 0.21423578 0.120726466 0.07974691 -0.21842977 -0.058926236 0.20547873 -0.11495334
0.035706833 0.10763885 -0.36890045 -0.5020072 -0.02159291 -0.044605806 -0.12956601 -0.22138406
-0.02011073 0.23294984 -0.3109833 -0.11386816 -0.037165638 0.059685588 -0.33969727 -0.17792791
0.024662284 0.03967508 -0.3155289 0.08466316 0.43079427 0.0044848872 0.19766587 -0.018588396
-0.24127306 -0.7272092 0.07802359 0.03734305 -0.1041745 -0.010047863 0.16387221 0.18560483
0.2455731 0.148606 0.3109262 -0.28866667 -0.13527581 -0.06621655 0.19516082 0.19947897
-0.1819417 0.051880434 -0.47427532 -0.2316186 0.24850246 -0.24101377 0.24184167 0.26475087
-0.3301875 -0.20259014 -0.18569139 0.17127953 0.4481382 0.24661312 -0.17754567 -0.06293662
-0.3487257 -0.019675177 -0.19776136 -0.1459333 0.10611721 -0.1425332 0.088917024 0.24008703
-0.21748286 -0.13779075 -0.2836667 -0.14523856 0.16338803 0.054639053 -0.28623858 0.10410492
-0.19309328 -0.058333278 -0.06343136 -0.07813457 0.12790735 -0.16455008 0.15481992 -0.14105247
-0.08798436 -0.0075782454 -0.3236516 -0.033140715 0.21578054 0.2143832 -0.19610077 0.016635982
-0.008249167 -0.34797376 -0.03384262 0.17845649 -0.3373688 0.020861309 -0.39714256 -0.42248416
-0.06714494 -0.11699081 0.33253542 -0.115855016 -0.47668925 0.04812364 -0.028575975 -0.14709492
0.1662237 0.037239343 0.11797606 0.35629445 0.16774352 -0.05261983 -0.44060546 -0.118163906
0.003748294 -0.013104435 0.035654746 -0.049164586 0.1583336 -0.2206353 -0.6914386 -0.10796347
0.037612222 -0.048809845 -0.18230717 0.021791048 -0.35764927 0.16133702 -0.43902063 -0.49185696
-0.18030238 -0.071913876 -0.029259082 0.47612706 0.43770292 0.25869852 -0.45528838 -0.107015766
0.10381339 -0.34761196 0.14789996 -0.050228786 -0.09922339 -0.3184146 -0.07521303 -0.003275237
-0.029509682 0.1105885 -0.16793987 -0.1719279 0.24827734 0.30648103 -0.11975748 -0.17441392
0.16823722 -0.37923008 0.09055327 0.30305356 -0.20602268 -0.06859375 -0.3545175 0.13989078
0.007980318 0.044098813 0.19216178 -0.03278388 -0.15933213 -0.05273613 0.09159206 -0.15793084
-0.064932354 -0.13871533 -0.0380985 -0.23288535 0.06398359 -0.06306673 -0.112213105 0.072065145
0.10819471 -0.09143538 0.2656664 0.1513253 0.04759235 -0.39833286 0.1562527 0.09243316
-0.063638605 -0.08872119 -0.18610662 0.15980563 0.002740055 0.07701171 -0.42864004 0.045745127
00000000: 9a14 223e 5b51 84bc f9a1 e8be 38de 873d
00000010: bd71 6dbd 544a 1cbe d125 c83d bb23 31be
00000020: 77b7 3d3e 3497 1fbd b3eb 1bbf 742c a2bd
00000030: 5720 d2be 648d 373d 9dc0 ab3d 5ab2 803d
00000040: 5014 be3c 0d43 203e 7205 1ebf 453b 353e
00000050: 568f 92bd 71c5 913d 190f b5bc 32d3 0b3e
00000060: 4660 14bf 310b 4fbd ec81 d5bd 3462 713e
00000070: dbaf 4fbe f4a2 933d 0bd8 0a3e 10c3 463e
00000080: 607d 52bc 1646 283e 76bc 74be 4978 613d
00000090: aacc 8d3e 5f8c b43e ce21 1a3d eafa b4bd
000000a0: ef5c c6bc 4f6c 26bf 08ba b1be a2c7 7f3e
000000b0: 9c5a 143e 0186 20bf 5e75 303e 0d94 673d
000000c0: c2c5 1c3e 86ac 8a3e b6b1 853e 0183 68be
000000d0: be96 0dbd 2476 10be e5ee 4b3d 6666 02be
000000e0: 084d 8fbc a060 5b3e 703f f73d 5952 a33d
000000f0: 0eac 5fbe a35c 71bd 0469 523e a86c ebbd
00000100: 5441 123d c271 dc3d 85e0 bcbe 8b83 00bf
00000110: 9de3 b0bc 94b4 36bd f4ac 04be 81b2 62be
00000120: 42bf a4bc 678a 6e3e 3439 9fbe b633 e9bd
00000130: ff3a 18bd e078 743d cdec adbe bc32 36be
00000140: 8f08 ca3c 5682 223d 018d a1be e163 ad3d
00000150: 1191 dc3e f6f5 923b ec68 4a3e b146 98bc
00000160: 4910 77be 622a 3abf d5ca 9f3d 07f5 183d
00000170: 7159 d5bd cb9f 24bc 1ece 273e 310f 3e3e
00000180: 8477 7b3e 2c2c 183e b831 9f3e 1ecc 93be
00000190: be85 0abe 8b9c 87bd 3dd8 473e 3744 4c3e
000001a0: ed4e 3abe 9480 543d 37d4 f2be 6d2d 6dbe
000001b0: 6e77 7e3e 50cc 76be 58a5 773e 6d8d 873e
000001c0: 560e a9be ca73 4fbe e225 3ebe e763 2f3e
000001d0: 5f72 e53e 2688 7c3e 88ce 35be eae4 80bd
000001e0: 2d8c b2be d62d a1bc f481 4abe 8a6f 15be
000001f0: fb53 d93d 39f4 11be 211a b63d 60d9 753e
00000200: d4b3 5ebe 0519 0dbe c33c 91be 6bb9 14be
00000210: 314f 273e 33cd 5f3d dd8d 92be f634 d53d
00000220: 3fba 45be e0ee 6ebd 4de8 81bd 0405 a0bd
00000230: 25fa 023e d17f 28be 1d89 1e3e 0f70 10be
00000240: 2531 b4bd ee52 f8bb aab5 a5be 8fbe 07bd
00000250: 93f5 5c3e 4587 5b3e a4ce 48be 2f48 883c
00000260: 8427 07bc 9e29 b2be 8f9e 0abd 4cbd 363e
00000270: 9abb acbe 56e5 aa3c 4556 cbbe d84f d8be
00000280: 4983 89bd e198 efbd 1542 aa3e 6545 edbd
00000290: 9d10 f4be 4b1d 453d 2a18 eabc 0da0 16be
000002a0: 8c36 2a3e 4888 183d 6f9d f13d 3a6c b63e
000002b0: f5c4 2b3e e487 57bd 0a97 e1be ebff f1bd
000002c0: f0a5 753b fcb3 56bc b60a 123d ce60 49bd
000002d0: 3422 223e 38ee 61be 1f02 31bf f41b ddbd
000002e0: 460f 1a3d d5ec 47bd bbae 3abe 2483 b23c
000002f0: ce1d b7be 8835 253e 50c7 e0be add4 fbbe
00000300: 30a1 38be 9547 93bd beb0 efbc edc6 f33e
00000310: 991a e03e 2274 843e 8f1b e9be 152b dbbd
00000320: 1d9c d43d 32fa b1be 1673 173e b3bc 4dbd
00000330: a235 cbbd 3d07 a3be 4a09 9abd 5ca5 56bb
00000340: 4abe f1bc 397c e23d 6ef8 2bbe de0d 30be
00000350: 6a3c 7e3e 15eb 9c3e 6943 f5bd 9099 32be
00000360: 6146 2c3e 722a c2be fe73 b93d d629 9b3e
00000370: 9cf7 52be e17a 8cbd 5183 b5be 873f 0f3e
00000380: e1bf 023c f5a0 343d 0fc6 443e 6448 06bd
00000390: f627 23be d701 58bd 9e94 bb3d 9fb8 21be
000003a0: 41fb 84bd 640b 0ebe 2c0d 1cbd 7f79 6ebe
000003b0: d409 833d 2129 81bd fccf e5bd e496 933d
000003c0: 3095 dd3d 7942 bbbd 6d05 883e 05f5 1a3e
000003d0: 32f0 423d 49f2 cbbe b500 203e 994d bd3d
000003e0: f554 82bd 75b3 b5bd bc92 3ebe 16a4 233e
000003f0: 7f92 333b 51b8 9d3d b576 dbbe 3e5f 3b3d

l3/b f4 [9]
-0.15284689 -0.30447984 -0.20407395 -0.059064984 0.06576252 -0.025805881 -0.024885038 -0.2563164
-0.19532491
00000000: e583 1cbe c8e4 9bbe c3f8 50be 20ee 71bd
00000010: 80ae 863d db66 d3bc b5db cbbc e73b 83be
00000020: 4103 48be

l0/b f4 [81]
0.25630528 -0.30266488 -0.2575953 -0.25300625 -0.106139876 -0.3704492 -0.49304086 -0.1546768
-0.042238854 -0.042639658 -0.40873855 -0.19923955 -0.08260725 -0.1516418 -0.55572337 0.004718451
0.27811795 -0.29125094 -0.2642991 0.0045195 0.045126293 0.37226158 -0.20084658 -0.39357945
-0.35984826 -0.2237286 -0.24227953 -0.06322479 -0.16980396 -0.33320495 -0.2709291 -0.16828597
-0.18950006 -0.16755465 -0.2910818 -0.387855 0.07238884 -0.7269339 -0.20481355 -0.15499145
-0.15073434 0.0016233617 -0.14451542 -0.20967104 -0.35600153 0.20632814 -0.1078896 -0.43968183
-0.417576 -0.20988911 -0.12179864 -0.23077708 -0.4367664 -0.44981954 -0.4093267 -0.34134775
-0.3154991 -0.3836287 0.06288354 -0.026256701 -0.14814295 -0.28279045 0.053092163 -0.21737666
-0.42772606 0.28484336 -0.17212494 -0.268786 -0.2607963 -0.61614335 -0.105015814 -0.32634532
-0.25506198 -0.13354734 -0.10910927 -0.026173528 -0.35293257 -0.059601273 -0.005931401 -0.279321
-0.30055937
00000000: 723a 833e e4f6 9abe 88e3 83be 098a 81be
00000010: dd5f d9bd 84ab bdbe da6f fcbe 9863 1ebe
00000020: a602 2dbd eca6 2ebd 2e46 d1be 7405 4cbe
00000030: fd2d a9bd fd47 1bbe e343 0ebf 3c9d 9a3b
00000040: 7a65 8e3e d81e 95be 3652 87be 5018 943b
00000050: 59d6 383d 1299 be3e baaa 4dbe 3f83 c9be
00000060: 083e b8be 1c19 65be 2018 78be 007c 81bd
00000070: 17e1 2dbe d799 aabe 38b7 8abe 2853 2cbe
00000080: 4e0c 42be 7293 2bbe ac08 95be ee94 c6be
00000090: 9a40 943d 5718 3abf a5ba 51be 14b6 1ebe
000000a0: 1a5a 1abe fbc6 d43a dafb 13be 01b4 56be
000000b0: d545 b6be af47 533e 39f5 dcbd fa1d e1be
000000c0: 85cc d5be 2ced 56be 9171 f9bd d450 6cbe
000000d0: d89f dfbe bf4e e6be 4593 d1be 22c5 aebe
000000e0: 1989 a1be fb6a c4be 16c9 803d 4b18 d7bc
000000f0: c9b2 17be e9c9 90be 2b77 593d fd97 5ebe
00000100: e9fe dabe fdd6 913e 8541 30be 529e 89be
00000110: 1887 85be 92bb 1dbf 8812 d7bd bc16 a7be
00000120: 7c97 82be a2c0 08be ae74 dfbd de69 d6bc
00000130: 94b3 b4be 7720 74bd 335c c2bb 2a03 8fbe
00000140: ebe2 99be

l1/W f4 [81, 81]
-0.21698648 -0.18638836 -0.13082321 0.028280219 0.064721204 0.16050789 0.17267157 -0.35163268
-0.25845462 -0.23933421 -0.16831043 -0.052142967 -0.1515209 -0.2111537 -0.18069814 0.214682
0.059885338 0.009485219 -0.05829449 0.12063084 -0.08782273 -0.115736626 -0.04044456 0.0762196
0.01810699 -0.0898196 0.32822397 -0.35630202 -0.24838571 -0.065106064 -0.14443275 -0.029526956
0.2250381 -0.0076230536 0.1342 -0.35944948 -0.09217802 -0.03911516 -0.19722828 -0.030980585
0.010975232 0.1256531 -0.074982144 0.109522685 0.15451063 0.03172839 -0.034244157 -0.09426565
0.28915364 0.031360075 -0.058103994 -0.036023706 0.01612644 0.09792306 0.037035566 -0.11239636
0.024088342 0.22919513 0.105648264 -0.21585861 0.16160063 -0.19628629 -0.14032196 -0.059299063
0.22182317 -0.004641535 0.13705868 0.07673325 -0.08264366 -0.16939707 -0.18418485 0.1165065
-0.18054682 0.027739627 0.041566923 -0.42341402 -0.17743142 -0.0115048075 0.056552876 0.07021894
-0.16291387 -0.32473674 -0.5716053 -0.12885606 0.08130366 -0.1265817 0.26401594 0.18466006
0.19518815 -0.2558188 -0.05009554 0.23867168 0.28457117 0.29467082 0.1423217 -0.03003848
-0.07457154 0.18879583 0.0016728939 0.17727482 -0.11354771 0.12759012 -0.32780626 0.18697225
-0.18308458 0.06920895 0.09233863 0.116001084 -0.09138871 -0.19499977 -0.031787213 0.030882152
-0.17994168 0.03969834 0.16689128 -0.06414233 -0.11894717 -0.2517203 0.38175815 0.11246568
0.043774776 -0.014919827 -0.34202787 -0.11878298 0.14054812 -0.1606566 -0.076606706 -0.030197544
-0.22375861 -0.109628685 -0.034764104 0.23087542 -0.21714643 0.118260674 -0.30187404 0.112476915
-0.10898846 0.11987134 0.24746293 0.051522076 -0.43706697 -0.346006 0.15466265 -0.13878202
-0.23909672 0.16668272 0.12607102 0.026592467 -0.32194576 0.17736302 -0.03757768 0.1823404
0.13292004 0.19843054 -0.25041708 0.007360899 -0.2167206 -0.13869026 0.19157523 0.103288665
0.049655095 -0.007632516 0.17206268 -0.062525384 0.05497254 -0.08716375 0.41735756 0.19732513
0.16119215 0.13809095 -0.31154722 0.08327317 -0.24338162 -0.01544864 -0.0941633 -0.17126922
-0.16618907 0.21478489 0.20919482 0.1810142 -0.052443285 0.06717189 0.0638496 -0.24836652
-0.23192684 -0.06386725 0.081955075 -0.22215326 -0.27971247 -0.094084755 0.1452862 -0.21111728
0.15008277 -0.03786785 -0.044334657 -0.029042479 0.059846204 0.27211237 -0.05106204 0.24010523
-0.1664568 0.0035382097 -0.15384617 0.009301786 -0.13337038 -0.15469381 0.23186792 -0.22276393
0.1512927 -0.13057701 0.15409015 0.20840165 -0.03971994 -0.07206685 0.07109857 -0.0015616912
-0.26928115 -0.13103844 0.023708787 -0.3043048 -0.09846674 0.05281979 0.03767921 -0.029533785
-0.10835924 -0.04170194 -0.10859891 -0.04430688 -0.046390627 -0.19413626 0.15578566 0.012212044
0.038883008 0.07828894 -0.07116668 0.058893494 -0.018128753 -0.37848702 -0.046398826 0.008639427
0.02996542 0.26101723 0.09596084 0.12726033 -0.20922025 0.124751836 0.13628416 0.018579468
-0.24311252 0.36573738 -0.25731763 -0.044496074 0.33299682 -0.094049305 0.22030663 0.020446325
00000000: b431 5ebe 97dc 3ebe 85f6 05be ebab e73c
00000010: 8d8c 843d 2e5c 243e d1d0 303e 3309 b4be
00000020: 2a54 84be 0714 75be 9259 2cbe dd93 55bd
00000030: 4b28 1bbe ad38 58be ef08 39be 99d5 5b3e
00000040: 544a 753d e467 1b3c 34c6 6ebd 4d0d f73d
00000050: 67dc b3bd 5307 edbd 32a9 25bd 0619 9c3d
00000060: 1c55 943c 57f3 b7bd f90c a83e 386d b6be
00000070: d358 7ebe 5456 85bd 2ee6 13be 84e2 f1bc
00000080: 6370 663e cfca f9bb ba6b 093e c309 b8be
00000090: d4c7 bcbd 3837 20bd 36f6 49be ffca fdbc
000000a0: 76d1 333c 35ab 003e 3d90 99bd 6e4d e03d
000000b0: 0938 1e3e a1f5 013d 9a43 0cbd 590e c1bd
000000c0: f20b 943e 6c73 003d 74fe 6dbd 988d 13bd
000000d0: 991b 843c e38b c83d 9bb2 173d 1030 e6bd
000000e0: ea54 c53c 21b2 6a3e 1e5e d83d 0a0a 5dbe
000000f0: a37a 253e 46ff 48be 8fb0 0fbe 93e3 72bd
00000100: 9d25 633e 0518 98bb 1c59 0c3e 5226 9d3d
00000110: 1441 a9bd 6d76 2dbe f49a 3cbe f69a ee3d
00000120: 44e1 38be 373e e33c 1442 2a3d b9c9 d8be
00000130: 95b0 35be a97e 3cbc fda3 673d f3ce 8f3d
00000140: e5d2 26be e543 a6be ba54 12bf d8f2 03be
00000150: 8982 a63d a29e 01be 192d 873e 8717 3d3e
00000160: 67df 473e affa 82be fb30 4dbd 5966 743e
00000170: 50b3 913e 18df 963e c8bc 113e 4213 f6bc
00000180: f7b8 98bd b253 413e 0145 db3a 8887 353e
00000190: b48b e8bd fca6 023e 39d6 a7be a775 3f3e
000001a0: 867a 3bbe 6cbd 8d3d 091c bd3d fa91 ed3d
000001b0: 012a bbbd 05ae 47be 4f33 02bd 91fc fc3c
000001c0: a242 38be ba9a 223d 8ce5 2a3e 0e5d 83bd
000001d0: 939a f3bd 7ce1 80be ce75 c33e 6854 e63d
000001e0: 2e4d 333d 4a72 74bc 471e afbe 7e44 f3bd
000001f0: d9eb 0f3e 2a83 24be fae3 9cbd d760 f7bc
00000200: fa20 65be 0185 e0bd ce64 0ebd 9b6a 6c3e
00000210: a25b 5ebe a732 f23d 3c8f 9abe 4c5a e63d
00000220: 5735 dfbd 1b7f f53d ec66 7d3e d008 533d
00000230: 3ec7 dfbe b327 b1be e35f 1e3e e01c 0ebe
00000240: c5d5 74be e0ae 2a3e c318 013e 72d8 d93c
00000250: 13d6 a4be a79e 353e 0eeb 19bd 71b7 3a3e
00000260: 311c 083e 6031 4b3e ab36 80be b233 f13b
00000270: 01ec 5dbe d204 0ebe 4c2c 443e 0289 d33d
00000280: 2463 4b3d 2f1a fabb 3331 303e 4f0d 80bd
00000290: e32a 613d e882 b2bd e4af d53e 990f 4a3e
000002a0: 8e0f 253e b767 0d3e 1e83 9fbe 208b aa3d
000002b0: 0839 79be 4b1c 7dbc b0d8 c0bd 3361 2fbe
000002c0: 782d 2abe 92f0 5b3e 2b37 563e c95b 393e
000002d0: c5ce 56bd 6a91 893d 94c3 823d cb53 7ebe
000002e0: 3b7e 6dbe d5cc 82bd 10d8 a73d 257c 63be
000002f0: 7936 8fbe 82af c0bd e8c5 143e 212f 58be
00000300: 4caf 193e 521b 1bbd 4298 35bd 7eea edbc
00000310: 4b21 753d 5052 8b3e 6e26 51bd 25de 753e
00000320: a773 2abe 4fe1 673b da89 1dbe 8566 183c
00000330: 3f92 08be 0e68 1ebe c96e 6d3e 3a1c 64be
00000340: 79ec 1a3e fbb5 05be cfc9 1d3e 3e67 553e
00000350: 60b1 22bd c997 93bd 219c 913d a9b1 ccba
00000360: 38df 89be f12e 06be ee38 c23c d7cd 9bbe
00000370: eea8 c9bd 9059 583d 8455 1a3d d6f0 f1bc
00000380: 73eb ddbd a7cf 2abd 1b69 debd 227b 35bd
00000390: 1904 3ebd a8cb 46be 4786 1f3e 0615 483c
000003a0: ca43 1f3d f455 a03d d6bf 91bd 4e3a 713d
000003b0: c082 94bc 0dc9 c1be b20c 3ebd 628c 0d3c
000003c0: 0a7a f53c 0da4 853e 1e87 c43d 8850 023e
000003d0: d53d 56be e47d ff3d 138e 0b3e f833 983c
000003e0: 7df2 78be ee41 bb3e 23bf 83be 8441 36bd
000003f0: 8f7e aa3e ec9c c0bd 1098 613e 0d7f a73c

l2/W f4 [81, 81]
-0.112960435 -0.055346332 0.04348977 0.08499864 -0.40240267 0.2642591 0.10522006 -0.15795887
-0.0076259747 0.04044427 0.03502018 0.09715844 0.030479932 -0.03430259 -0.018376311 0.057669688
-0.111062646 0.07385001 0.11806508 -0.0831917 0.17509925 -0.005623814 0.2206796 -0.14846162
-0.0023733862 -0.12184843 -0.5078463 -0.00652819 0.1061808 -0.14048198 0.0073507098 -0.15796365
-0.15014 -0.00832188 0.08146528 -0.47387388 0.12694186 0.0731222 -0.34215742 0.3621734
-0.07262775 0.15526906 0.17287111 -0.067154676 -0.20647341 0.30058634 0.124746196 0.1277603
-0.06677457 -0.11424668 0.24165389 -0.070635416 -0.074161336 -0.096979655 -0.013118154 -0.07851888
0.24865755 -0.67555857 0.24277346 -0.31833473 -0.19287811 0.0038861842 -0.068960674 -0.011365422
0.09032135 -0.054516155 -0.13669305 -0.4273505 0.19624984 0.06424398 0.16216671 -0.1886747
-0.08193685 -0.136001 0.007445355 -0.1198712 -0.24897411 -0.04671628 -0.120237015 -0.36037678
0.07448362 0.12904803 -0.40199724 0.09957899 0.14437978 0.0063816705 -0.2270051 -0.045923326
-0.25589153 -0.091734245 0.10200036 -0.02171412 -0.015387422 0.115167536 -0.1472481 -0.011346995
-0.17413308 0.05458628 0.027660977 0.20647132 -0.3629043 0.19085416 0.38969415 0.23272146
0.05400479 0.07903989 -0.17956656 0.19020106 -0.24226849 0.009462762 -0.0371786 -0.17456312
0.027704906 0.18558335 0.11545083 0.024078252 -0.29232153 0.048056796 0.16457058 -0.14816338
-0.070352264 -0.52906066 -0.16972746 -0.4431063 0.06329568 -0.1041762 -0.021515414 -0.01403154
-0.21975707 -0.041945137 0.14958015 -0.24940284 -0.028051835 -0.06462562 0.13835031 0.18874557
0.24540037 -0.07243726 0.08109121 -0.14705406 0.14675888 -0.0936707 -0.13070695 0.2328161
-0.22159141 -0.13067155 -0.042384088 0.0854442 0.2605601 -0.0014270297 -0.23968603 -0.075771764
-0.07601229 0.01477224 -0.1785673 -0.1207454 0.0959273 -0.01351635 -0.10812995 0.024518162
0.2997106 0.21436702 -0.13254657 0.01353674 0.13658309 -0.05315279 0.124607325 -0.0036834765
-0.20893818 -0.18508327 -0.13593777 0.04329216 0.14000255 -0.21202691 -0.07480164 -0.087829664
0.007833142 -0.31712523 -0.046776894 -0.13730986 0.11072933 -0.16516276 -0.09671848 -0.4143036
0.07477357 -0.011919194 -0.24267703 -0.008641313 -0.10429991 -0.09422061 0.0036674687 0.16602565
0.26561642 -0.10593395 0.06665265 0.008061554 -0.05726233 0.3772537 -0.46683073 0.18528903
0.12375903 -0.32748723 -0.126584 -0.17902881 -0.14482453 0.22785577 -0.18971881 -0.071499325
0.22699206 -0.2808815 0.032551877 -0.07434613 0.033729136 0.011043641 -0.39302287 -0.38027865
-0.117092855 -0.1280091 0.23403096 -0.25484696 -0.33719778 -0.23512317 0.14960872 -0.2725744
-0.41928855 -0.121460564 -0.19344202 -0.28869227 -0.18304397 -0.30592242 -0.21102247 -0.10750794
-0.23620693 -0.024744602 -0.1679143 0.029488677 -0.43629676 0.08859729 -0.007735476 0.08064205
-0.06818022 -0.19360267 0.0824573 0.122428454 -0.16704689 -0.018479604 -0.10843946 -0.19625147
0.023410793 0.09788289 -0.0063219713 -0.3030181 -0.10942925 -0.071462095 0.0016223826 -0.049287144
00000000: cd57 e7bd d6b2 62bd 5422 323d c413 ae3d
00000010: b907 cebe f84c 873e 9d7d d73d f8bf 21be
00000020: 50e3 f9bb e4a8 253d 5271 0f3d 01fb c63d
00000030: 0db1 f93c df80 0cbd eb89 96bc 0d37 6c3d
00000040: d074 e3bd ad3e 973d 1bcc f13d 6960 aabd
00000050: 384d 333e f947 b8bb d5f9 613e 5306 18be
00000060: d08a 1bbb ab8b f9bd 3702 02bf 6dea d5bb
00000070: 5275 d93d 82da 0fbe 39de f03b 39c1 21be
00000080: 4dbe 19be 7f58 08bc 45d7 a63d 999f f2be
00000090: 0cfd 013e 18c1 953d 422f afbe cb6e b93e
000000a0: dcbd 94bd dafe 1e3e 2005 313e 6488 89bd
000000b0: c46d 53be 74e6 993e ef7a ff3d 99d3 023e
000000c0: 1bc1 88bd 2afa e9bd 1e74 773e 4da9 90bd
000000d0: e6e1 97bd 459d c6bd 87ed 56bc 82ce a0bd
000000e0: 16a0 7e3e 68f1 2cbf 9b99 783e c5fc a2be
000000f0: d781 45be 5aaf 7e3b 413b 8dbd 0936 3abc
00000100: 66fa b83d 554c 5fbd 43f9 0bbe afcd dabe
00000110: b8f5 483e 5992 833d 080f 263e f133 41be
00000120: 82ce a7bd d943 0bbe 2af8 f33b 087f f5bd
00000130: 12f3 7ebe 9259 3fbd d33e f6bd 4e83 b8be
00000140: de8a 983d 2b25 043e 95d2 cdbe 12f0 cb3d
00000150: 4bd8 133e 551d d13b 0674 68be 191a 3cbd
00000160: 3704 83be 2adf bbbd 91e5 d03d cfe1 b1bc
00000170: 871b 7cbc f5dc eb3d 35c8 16be bfe8 39bc
00000180: f14f 32be dd95 5f3d 4699 e23c 386d 533e
00000190: 98ce b9be 466f 433e fe85 c73e 894e 6e3e
000001a0: 2034 5d3d aadf a13d 4ce0 37be 11c4 423e
000001b0: 3b15 78be b309 1b3c 9648 18bd adc0 32be
000001c0: 66f5 e23c 9009 3e3e 7c71 ec3d c13f c53c
000001d0: 2bab 95be 34d7 443d 3185 283e 24b8 17be
000001e0: d914 90bd 8570 07bf 09cd 2dbe d4de e2be
000001f0: 2aa1 813d 555a d5bd 1841 b0bc 8be4 65bc
00000200: ff07 61be aace 2bbd 8a2b 193e 7563 7fbe
00000210: f6cc e5bc 705a 84bd b4ab 0d3e 8546 413e
00000220: 3c4a 7b3e fc59 94bd 2613 a63d 5795 16be
00000230: f647 163e 6dd6 bfbd 0bd8 05be 5867 6e3e
00000240: dce8 62be c3ce 05be f09a 2dbd 5efd ae3d
00000250: 2268 853e 2c0b bbba 4170 75be 3a2e 9bbd
00000260: 55ac 9bbd 4407 723c 59da 36be 5d49 f7bd
00000270: 8875 c43d ae73 5dbc 3c73 ddbd 50da c83c
00000280: ab73 993e 0783 5b3e 4aba 07be 34c9 5d3c
00000290: 70dc 0b3e bdb6 59bd 2032 ff3d 7b66 71bb
000002a0: e4f3 55be 7886 3dbe 4533 0bbe 1f53 313d
000002b0: d45c 0f3e 951d 59be 9a31 99bd 0ae0 b3bd
000002c0: 9456 003c 3d5e a2be 2199 3fbd f59a 0cbe
000002d0: 0fc6 e23d 6d20 29be 5714 c6bd 9a1f d4be
000002e0: e322 993d b948 43bc 5480 78be 4b94 0dbc
000002f0: 319b d5bd bcf6 c0bd ea59 703b a102 2a3e
00000300: e0fe 873e e6f3 d8bd 2f81 883d 9c14 043c
00000310: e88b 6abd 6627 c13e 7004 efbe 68bc 3d3e
00000320: 6075 fd3d 68ac a7be 3c9f 01be 5453 37be
00000330: e24c 14be 0653 693e a645 42be 3d6e 92bd
00000340: 9b70 683e b3cf 8fbe 1e55 053d c942 98bd
00000350: 9027 0a3d 63f0 343c 4b3a c9be e2b3 c2be
00000360: 61ce efbd d114 03be d0a5 6f3e 4d7b 82be
00000370: 30a5 acbe 21c4 70be 0733 193e df8e 8bbe
00000380: fdac d6be 51c0 f8bd aa15 46be 79cf 93be
00000390: e16f 3bbe dda1 9cbe 4616 58be 1f2d dcbd
000003a0: 3be0 71be 31b5 cabc baf1 2bbe 3d92 f13c
000003b0: 4a62 dfbe 7f72 b53d e079 fdbb a927 a53d
000003c0: 12a2 8bbd c73f 46be 5fdf a83d c5bb fa3d
000003d0: 570e 2bbe 8a62 97bc 8215 debd 25f6 48be
000003e0: fec7 bf3c d376 c83d 8a28 cfbb 3025 9bbe
000003f0: 711c e0bd b85a 92bd 20a6 d43a 51e1 49bd

l1/b f4 [81]
-0.06701093 -0.23731299 -0.2208579 -0.214568 -0.38889042 -0.19433108 -0.18218589 -0.15568355
-0.3551565 0.04146122 -0.2405509 -0.048968185 -0.14761244 -0.016481148 -0.13727145 0.059897244
-0.4975286 -0.04887673 0.007980534 -0.1204947 -0.230185 -0.13392308 -0.31754413 -0.324918
-0.32556835 -0.42095608 0.05778857 -0.24224791 -0.019002719 0.014177973 -0.33535975 -0.095065914
0.10688432 -0.26181066 -0.07953514 0.11329321 -0.1348595 -0.20210221 -0.69164515 -0.23969303
0.14749184 -0.08542703 -0.24244629 -0.0877411 -0.27899975 0.27513948 -0.17822435 -0.18819769
-0.18216725 -0.40335414 -0.11818012 -0.25297278 -0.1776239 -0.05415404 -0.34687763 -0.07464304
-0.04822196 -0.18659164 -0.03262004 -0.43843743 -0.050727993 -0.282527 -0.21012585 -0.5000587
0.050645456 0.07400097 -0.42866433 -0.1286145 -0.0996023 -0.11731093 -0.04325321 0.0514478
0.39304996 -0.102811545 -0.27521744 -0.2486916 0.06971646 0.06827418 0.049754035 -0.096725255
-0.08052556
00000000: 073d 89bd 2d02 73be 9328 62be b7b7 5bbe
00000010: a51c c7be bafe 46be f08e 3abe 826b 1fbe
00000020: 13d7 b5be 3dd3 293d fa52 76be dd92 48bd
00000030: b727 17be 7903 87bc e390 0cbe d056 753d
00000040: 12bc febe f732 48bd c9c0 023c edc5 f6bd
00000050: 9eb5 6bbe 2223 09be 2595 a2be a75b a6be
00000060: e5b0 a6be 8e87 d7be b5b3 6c3d d60f 78be
00000070: 97ab 9bbc bb4a 683c 46b4 abbe ebb1 c2bd
00000080: 2be6 da3d 0c0c 86be 52e3 a2bd 4506 e83d
00000090: 9c18 0abe e2f3 4ebe a80f 31bf 1772 75be
000000a0: 1a08 173e 5ef4 aebd d743 78be 9bb1 b3bd
000000b0: 0ed9 8ebe 15df 8c3e 7280 36be e5b6 40be
000000c0: 0d8a 3abe 6f84 cebe 6b08 f2bd a685 81be
000000d0: 0ae3 35be a0d0 5dbd f299 b1be 73de 98bd
000000e0: 6484 45bd e111 3fbe 979c 05bd df7a e0be
000000f0: 28c8 4fbd 61a7 90be 3b2b 57be d903 00bf
00000100: 9c71 4f3d d28d 973d e479 dbbe 85b3 03be
00000110: 4afc cbbd b640 f0bd 472a 31bd eeba 523d
00000120: d83d c93e dc8e d2bd 4de9 8cbe 03a9 7ebe
00000130: 81c7 8e3d 55d3 8b3d e3ca 4b3d e417 c6bd
00000140: 96ea a4bd

l2/b f4 [81]
-0.035740618 -0.076135606 -0.1790739 0.060468566 0.028316177 -0.32125124 -0.30419233 -0.1358717
-0.14059472 0.16038889 -0.32323238 0.024402767 -0.04650545 -0.02669225 0.09375455 0.21639502
-0.022963054 -0.27503923 -0.18136647 -0.335489 -0.20543052 0.0661178 -0.12931964 -0.26162794
-0.12083484 -0.06492748 -0.24985477 -0.13693883 -0.15855499 -0.19321789 0.036907975 -0.08419964
-0.19451143 -0.16884457 -0.04004001 -0.15773459 -0.13226204 0.1519124 -0.18634264 -0.1282644
0.011176957 -0.17162997 -0.2849604 -0.010961689 -0.05944761 -0.14193487 -0.14651261 -0.07461746
-0.22883028 -0.23132724 -0.25513396 -0.11043629 -0.14365149 -0.22993454 0.04164953 0.1166493
0.05428501 0.05621963 -0.0075433734 -0.061770197 -0.29259974 -0.017047426 -0.2519001 0.0070724394
-0.032242853 -0.13375494 -0.18020324 -0.13544118 -0.23831683 -0.15565546 -0.2030881 -0.26696566
-0.07433527 -0.13879912 -0.13056542 -0.11926497 -0.10468081 -0.18689698 -0.41155213 -0.02423675
-0.07045484
00000000: c164 12bd fcec 9bbd 265f 37be e3ad 773d
00000010: 54f7 e73c 0b7b a4be 19bf 9bbe f321 0bbe
00000020: 10f8 0fbe fc3c 243e b77e a5be 50e8 c73c
00000030: 807c 3ebd b5a9 dabc 6302 c03d a896 5d3e
00000040: 041d bcbc f1d1 8cbe 22b8 39be 37c5 abbe
00000050: 615c 52be c568 873d 5e6c 04be 19f4 85be
00000060: 4278 f7bd b3f8 84bd eed9 7fbe b139 0cbe
00000070: 3d5c 22be e9da 45be d12c 173d dc70 acbd
00000080: 012e 47be 97e5 2cbe fe00 24bd 2d85 21be
00000090: b36f 07be ed8e 1b3e 9bd0 3ebe be57 03be
000000a0: 8e1f 373c c4bf 2fbe 54e6 91be a898 33bc
000000b0: 567f 73bd 6057 11be 6707 16be 0ad1 98bd
000000c0: 7c52 6abe 0ce1 6cbe eba0 82be 6c2c e2bd
000000d0: 6019 13be f673 6bbe b398 2a3d d4e5 ee3d
000000e0: f559 5e3d 8e46 663d 672e f7bb bf02 7dbd
000000f0: a2cf 95be 0ba7 8bbc 0df9 80be ecbf e73b
00000100: 1511 04bd 0ef7 08be 3387 38be 18b1 0abe
00000110: 5409 74be 2564 1fbe 54f6 4fbe b9af 88be
00000120: 173d 98bd 5b21 0ebe f1b2 05be 3141 f4bd
00000130: e462 d6bd ec61 3fbe f6b6 d2be 268c c6bc
00000140: a14a 90bd

l0/W f4 [81, 9]
0.4537294 0.041753065 0.093390726 0.21781656 0.025229549 0.3637946 0.54670995 -0.007897516
0.6609021 0.014925546 1.186596 0.06384267 -0.23279029 0.6254397 -0.2545317 -0.019652221
0.55086625 0.30994883 -0.016333396 0.22313787 0.22676478 -0.6925921 0.15121053 0.10818041
-0.6664039 0.04623202 -0.31517315 0.5354125 0.059117757 0.11495474 -0.14470182 0.09831618
-0.30979404 -0.20455757 0.051971145 -0.36899272 0.52196866 0.010349867 0.037996918 -0.016276175
-0.5259621 0.0093176365 -0.020803146 -0.16879238 -0.4807514 -0.30418736 -0.4519865 0.41316646
0.6517184 -0.17504561 0.07471706 -0.39084238 -0.8458021 0.031231439 -0.06893682 -0.53346074
-0.49641794 0.21613644 -0.31264153 0.14635518 0.6893401 -0.22547735 -0.31927833 -0.39789954
-0.31898084 -0.21408617 -0.4118404 -0.18877557 -0.051551763 -0.3436431 0.76472026 -0.41874856
0.37209523 0.091719314 0.12995628 -0.22067524 0.004788343 0.013874675 -0.10047267 -1.0143182
0.34564403 0.25298068 -0.10183952 0.17623813 0.57962334 -0.4035309 -0.17051584 0.017303329
0.04911097 0.30968547 0.14350472 -0.43733627 -0.47127554 -0.03707795 0.056647662 -0.04699297
-0.8293 -0.50205827 -0.6199796 0.4683909 0.13094963 -0.10728288 -0.0026536747 0.76934576
0.73648787 0.37442854 0.06437959 -0.038970925 0.521891 0.49802986 0.4328267 0.16731882
0.5813255 -0.12125735 -0.21294528 0.3278738 0.22723928 0.86026764 -0.48691982 0.09614303
0.22097662 0.40765852 0.53113556 -0.01707753 -0.28170636 0.6741949 -0.16303214 0.10013208
-0.9145783 0.14423424 -0.6487994 0.06114314 -0.76810354 0.3313457 0.09613377 0.1056988
0.4943999 0.36553752 0.48316935 0.34491163 0.035861388 0.12417075 -0.20836794 0.11102998
0.8956624 0.12848434 0.39203647 0.28571594 0.31113365 0.6384977 0.4040663 0.27503824
0.17257208 -0.21258645 0.18163197 -0.46935934 -0.3171331 -0.5685269 -0.54927343 0.2651474
-0.07080407 -0.066078275 -0.009805517 -0.38770142 0.029121088 -0.08239056 -0.19689116 0.9233623
0.11275513 -0.0828557 0.12071536 -0.0019659987 0.013189004 -0.13744435 0.20013134 -0.36041772
0.30063134 -0.23827724 -0.22326252 0.23957914 -0.14258164 0.099303685 0.5183305 -0.21313855
-0.118036635 0.3396609 0.44285136 0.2625732 -0.20428447 0.44134513 0.85022974 0.40195853
0.42878285 0.3856179 0.79392886 0.39934343 0.3422942 0.44982445 0.00059221487 0.3943928
-0.42923474 -0.30150747 0.03553313 0.24518599 0.13732088 0.470409 0.17954412 0.33366132
0.18596561 -0.10885542 -0.3422709 -0.9339717 -0.32483068 -0.12656967 0.1036327 0.5006463
-0.011442615 -0.16466662 -0.3772814 1.0622414 -0.47055516 -0.50604093 -0.28130427 -0.037259135
-0.48004952 0.051424634 -0.06668138 0.6190765 -0.08972167 0.094900176 -0.5891927 -0.08224944
-0.18281564 0.7007162 -0.32067212 0.028880218 -0.09010089 0.19955038 0.31351435 0.3371274
0.46620676 -0.50602674 0.3228287 0.5105505 -0.31498748 -0.2797667 0.38966712 -0.08901506
-0.42058688 -0.012094223 0.019898662 0.12029689 0.47843608 0.2170683 0.05079971 -0.126372
00000000: 384f e83e 4305 2b3d a343 bf3d 4e0b 5f3e
00000010: 33ae ce3c 4943 ba3e 2ff5 0b3f 9564 01bc
00000020: e130 293f 478a 743c 61e2 973f f2bf 823d
00000030: 9460 6ebe d11c 203f fb51 82be b2fd a0bc
00000040: 9205 0d3f 9db1 9e3e 9dcd 85bc 417e 643e
00000050: 0735 683e b74d 31bf efd6 1a3e b18d dd3d
00000060: 7299 2abf c95d 3d3d 605e a1be cb10 093f
00000070: 7625 723d 646d eb3d b72c 14be fe59 c93d
00000080: 539d 9ebe 8a77 51be b2df 543d 9dec bcbe
00000090: bd9f 053f 7d92 293c a8a2 1b3d 9d55 85bc
000000a0: 74a5 06bf 00a9 183c 5c6b aabc e9d7 2cbe
000000b0: 0c25 f6be 72be 9bbe c66a e7be 8e8a d33e
000000c0: 04d7 263f 283f 33be 4205 993d 7e1c c8be
000000d0: 7d86 58bf 13d9 ff3c bf2e 8dbd e290 08bf
000000e0: 7e2a febe df52 5d3e 8d12 a0be 22de 153e
000000f0: 9878 303f 89e3 66be 7378 a3be 7db9 cbbe
00000100: 7551 a3be 6839 5bbe bfdc d2be 624e 41be
00000110: f127 53bd fdf1 afbe b5c4 433f 3666 d6be
00000120: 4483 be3e 56d7 bb3d 4213 053e b1f8 61be
00000130: 88e7 9c3b 9b52 633c 9dc4 cdbd 2ed5 81bf
00000140: 41f8 b03e af86 813e 3d91 d0bd c577 343e
00000150: 3262 143f 9a9b cebe b49b 2ebe b6bf 8d3c
00000160: 9628 493d 188f 9e3e e7f2 123e 8aea dfbe
00000170: 074b f1be 0cdf 17bd 6107 683d b37b 40bd
00000180: 014d 54bf e486 00bf fcb6 1ebf efd0 ef3e
00000190: a917 063e 20b7 dbbd 46e9 2dbb d8f3 443f
000001a0: 788a 3c3f 19b5 bf3e 72d9 833d fa9f 1fbd
000001b0: a69a 053f c5fd fe3e 769b dd3e a055 2b3e
000001c0: bfd1 143f c655 f8bd 540e 5abe 13df a73e
000001d0: 6ab1 683e 803a 5c3f 8e4d f9be a3e6 c43d
000001e0: b247 623e 9eb8 d03e 80f8 073f 2de6 8bbc
000001f0: d13b 90be 0998 2c3f e6f1 26be 0c12 cd3d
00000200: ce21 6abf 24b2 133e b817 26bf 3b71 7a3d
00000210: 6fa2 44bf 25a6 a93e c8e1 c43d 9d78 d83d
00000220: fc21 fd3e bc27 bb3e f961 f73e 4298 b03e
00000230: 64e3 123d 3c4d fe3d 685e 55be b063 e33d
00000240: 224a 653f 6691 033e 01b9 c83e 5c49 923e
00000250: e94c 9f3e 9674 233f c7e1 ce3e d0d1 8c3e
00000260: bcb6 303e 43b0 59be bbfd 393e de4f f0be
00000270: 455f a2be fb8a 11bf 2f9d 0cbf 66c1 873e
00000280: b901 91bd 0c54 87bd 52a7 20bc cd80 c6be
00000290: 598f ee3c 62bc a8bd d69d 49be 7961 6c3f
000002a0: 29ec e63d 40b0 a9bd 9d39 f73d fcd7 00bb
000002b0: b116 583c 36be 0cbe 3bef 4c3e ac88 b8be
000002c0: 5aec 993e f3fe 73be ee9e 64be 3c54 753e
000002d0: ec00 12be bb5f cb3d 4fb1 043f fe40 5abe
000002e0: 31bd f1bd 09e8 ad3e 6abd e23e ff6f 863e
000002f0: f32f 51be fdf7 e13e a8a8 593f 82cd cd3e
00000300: 6d89 db3e b66f c53e ec3e 4b3f be76 cc3e
00000310: 2f41 af3e 644f e63e de3e 1b3a daed c93e
00000320: a8c4 dbbe 305f 9abe 308b 113d 0912 7b3e
00000330: d89d 0c3e 73d9 f03e 6ada 373e a8d5 aa3e
00000340: c56d 3e3e 97ef debd 223e afbe c518 6fbf
00000350: 3550 a6be 7b9b 01be 623d d43d 5b2a 003f
00000360: ce79 3bbc 5e9e 28be 072b c1be 87f7 873f
00000370: 9bec f0be e68b 01bf 1d07 90be 099d 18bd
00000380: 0dc9 f5be a3a2 523d 3f90 88bd cc7b 1e3f
00000390: ffbf b7bd 065b c23d 55d5 16bf 6572 a8bd
000003a0: 0634 3bbe 2362 333f 232f a4be 3596 ec3c
000003b0: d186 b8bd ef56 4c3e f484 a03e f69b ac3e
000003c0: a7b2 ee3e f88a 01bf ce49 a53e 70b3 023f
000003d0: 0a46 a1be 953d 8fbe 7382 c73e 874d b6bd
000003e0: 2a57 d7be d926 46bc 8502 a33c 375e f63d
000003f0: 93f5 f43e 2747 5e3e 5b13 503d a967 01be
