chainerrl/TicTacToe/result_110000/model.npz (npz, 56582 bytes, 8 tensors)

l3/W f4 [9, 81]
00000000: 1815 293e 51fb 55bd 5ba3 e6be 831b fa3c
00000010: 62d1 a2bc 3ca6 37be 7c6f 9c3c 5a05 31be
00000020: 6864 713e 6f13 633b 27cb 25bf 3a97 b5bd
00000030: 9ab3 bcbe fa4e cf3c 77b6 8b3d f1a1 8f3d
00000040: 245b 09bd 5402 2f3e b48b 25bf 8576 4e3e
00000050: 2cad 1abe 34e4 a43c b991 b93b d18a 723d
00000060: 86a3 fbbe c653 3a3c ecf9 a1bd 77f9 583e
00000070: 9c15 ecbd c9fb 073e 002d e03d 477b 3c3e
00000080: cbd8 abbc baea 1c3e 35e9 9bbe 3477 473d
00000090: 59f8 5c3e 27c2 b73e 2c1c e0bc be72 c2bd
000000a0: 2a89 823b aa11 22bf 50aa a5be 903b 973e
000000b0: 8427 1e3e 9681 2ebf 78e0 2e3e e43d 80ba
000000c0: 7381 0c3e 1579 403e 81de 853e cf87 5fbe
000000d0: 2f21 9fbc a4df 3bbe ddd6 833d c82b 71be
000000e0: d0bd 083d 5c7c 733e 5913 cb3d 855c 063e
000000f0: 4ba2 08be 565d 04bd ee88 8a3e ab19 cfbd
00000100: e7b6 b33d dd1f 043e e0d9 cfbe 68c4 00bf
00000110: 121f 023b 084e b7bc cd9a b2bd e2ea 5dbe
00000120: f006 f1bc 3a4f 543e c509 8ebe c276 e6bd
00000130: 107a 30bc 7823 973d b726 c7be 21bc 3fbe
00000140: e75c bc3c 1289 5d3d 4f0d 8bbe 0080 4d3c
00000150: 4b8b e33e 9b32 683d 6234 4f3e 2429 bb3b
00000160: aad5 71be 5fe4 36bf df9b f93d 9e29 b13d
00000170: 682c 04be cb16 14bd 90d3 2a3e cb34 5c3e
00000180: 6424 583e 0eaf 0a3e bf64 aa3e 56d6 85be
00000190: 75ef 12be 014c 29be fd45 243e 317c 533e
000001a0: 34eb 24be e132 5b3b acee c9be 9084 14be
000001b0: 982b 653e 59e3 4fbe 9574 9e3e 33ac 843e
000001c0: bf22 cfbe e534 39be 1d3f 44be 2a71 fa3d
000001d0: 6075 e83e b4fc 6f3e 0ee9 05be 26cb 51ba
000001e0: f557 cabe fb60 343c a995 0bbe 5c66 2dbe
000001f0: 6e6b d63d 703b 18be 84f9 fa3d 8202 5d3e
00000200: f826 49be aecf 16be 567f 77be 32b0 33be
00000210: 242a 3e3e 3506 973d ac6e 92be 79af 813e
00000220: 6ee1 1dbe 4ddc 8cbc d8b3 ebbc 5900 8abd
00000230: 042e df3d 3a9d 23be 6b0f 563e 7c37 16be
00000240: 7eaf b1bd ca25 763d 7712 d6be 84fd 17bd
00000250: 3f1d 7d3e 7b5c 7e3e c4d0 46be 8a7a 5b3d
00000260: 6a59 6c3c c731 ccbe fb80 da38 996b 0d3e
00000270: 9cbc 9fbe 7eb1 cbbc 13d8 dbbe 3169 d2be
00000280: 78cd b5bd 6153 12be 50ff c63e aa1c 91bd
00000290: 3f00 edbe b8ce 6439 3969 c0bc 4491 05be
000002a0: 02d7 173e 6693 063e 11b5 c93d 0dc4 b93e
000002b0: 94ef 223e 6d4a b5bd 16e5 f3be cf2e 09be
000002c0: 2591 333d dd9a 293d 165f 58bb 4f42 80bd
000002d0: a2a9 003e 1b3c 4cbe 129a 2dbf deb6 02be
000002e0: 07b6 1abd b839 7cbd 5270 1ebe 77fd 893d
000002f0: 718d 9fbe 9f2e 263e 2aa0 c8be 98d8 09bf
00000300: 77ba 55be 5633 96bd 5168 ddbc 6490 f63e
00000310: 63fd ec3e fcab 773e 99fd 01bf b15d 2abe
00000320: f979 2b3e c9d8 a0be c32c 093e fdb0 2abd
00000330: 8a32 f5bd 47a4 89be f040 62bd b8b8 603d
00000340: 8749 4cbd 6063 f13d 6a6a a9bd 74e2 3abe
00000350: 83cc 5a3e bf66 a23e af4d e7bd ffb0 12be
00000360: ed48 2f3e b861 e8be 3ed2 0f3e 2d1d a53e
00000370: 3c51 68be 7e78 50bd 8cf8 c3be c901 973c
00000380: 0da9 fa3d 560c a33d 0e44 1c3e 5bbf 58bd
00000390: a123 a9bd af1d e7bc e2dd fc3d 142a 3dbe
000003a0: 8956 91bd 66da b0bd 6338 64bd 14ef 45be
000003b0: f920 033d ace7 cabd 48bb c9bd 9b3b 903d
000003c0: a889 d73c 1bb2 60bd b27b 183e d7af 183e
000003d0: 52f7 6f3d d0ad bfbe 41c2 023e c2d5 0e3d
000003e0: 0e09 b8bd 7f90 46bd 8fc5 20be 7417 0c3e
000003f0: 41fe cbbc 12ac 113d b843 e3be 748d 903c
0.16511953 -0.052241627 -0.45046505 0.030530697 -0.019875232 -0.17934507 0.019096129 -0.17287198
0.23573458 0.0034649034 -0.6476311 -0.08866735 -0.36855775 0.025306214 0.06821912 0.0701331
-0.033534184 0.17090732 -0.64666295 0.20162399 -0.15105122 0.020128347 0.0056631234 0.059214417
-0.49148196 0.011372512 -0.07908997 0.21188913 -0.11527559 0.13279642 0.10946083 0.18406402
-0.020977398 0.15323916 -0.3045136 0.048697665 0.21579112 0.35890314 -0.027357183 -0.094945416
0.0039836364 -0.63308203 -0.323565 0.2953763 0.15444762 -0.6816648 0.17077816 -0.000978407
0.13721256 0.18796189 0.2614632 -0.2182915 -0.019425003 -0.18347031 0.06437466 -0.23551857
0.033384144 0.23777908 0.099158 0.13121231 -0.1334316 -0.032315575 0.27057594 -0.10112318
0.0877512 0.1290278 -0.40595913 -0.5029969 0.0019854945 -0.022376075 -0.08720932 -0.21671632
-0.029422253 0.20733348 -0.2774183 -0.1125312 -0.0107712895 0.07379812 -0.38896725 -0.18724109
0.022993518 0.0540858 -0.2715859 0.012542725 0.4444221 0.056688886 0.20234826 0.0057116915
-0.23616663 -0.71442217 0.12187933 0.08650516 -0.12907565 -0.03615455 0.16682267 0.21504514
0.21107632 0.1354334 0.33279988 -0.26140088 -0.14349158 -0.165329 0.16042323 0.20652844
-0.16105348 0.0033447074 -0.39439905 -0.14503694 0.22379911 -0.2030157 0.3094832 0.25912628
-0.40456197 -0.18086584 -0.19164701 0.122286156 0.4540205 0.23436242 -0.13077185 -0.0008002989
-0.3952023 0.01100945 -0.1363131 -0.16933578 0.10469709 -0.14866424 0.122546226 0.21582988
-0.19643772 -0.14727661 -0.24169669 -0.17547682 0.18570763 0.07374231 -0.2860006 0.25329188
-0.15418026 -0.017194891 -0.02877228 -0.067383476 0.10897449 -0.15977946 0.20904319 -0.14669603
-0.086760506 0.060094632 -0.41810963 -0.037107006 0.24718188 0.24839966 -0.19415575 0.05358366
0.014425615 -0.39881727 0.000104190745 0.13810576 -0.31198585 -0.024864908 -0.4293829 -0.4109588
-0.08877081 -0.14289619 0.38866663 -0.07085545 -0.4628925 0.00021820783 -0.023487674 -0.13043696
0.14828113 0.13142166 0.09848989 0.36282387 0.15911704 -0.08852086 -0.47635716 -0.13396762
0.043839592 0.041407455 -0.003301566 -0.06262647 0.1256471 -0.19944803 -0.6781322 -0.12765071
-0.03777125 -0.061578482 -0.15472534 0.06737798 -0.311626 0.16228722 -0.39184695 -0.5384612
-0.20871912 -0.0733401 -0.027027281 0.48157036 0.4628707 0.241867 -0.50777584 -0.16637303
0.16745748 -0.31415394 0.13395981 -0.041672695 -0.1197253 -0.26883146 -0.05523771 0.05486366
-0.04987481 0.117865324 -0.0827225 -0.18250448 0.21367078 0.31719014 -0.11294114 -0.14325331
0.17117663 -0.45387053 0.14045045 0.32248822 -0.22687238 -0.05089616 -0.38275564 0.018433468
0.12239275 0.07961337 0.15260336 -0.052916866 -0.08258749 -0.028212396 0.12347008 -0.18473083
-0.070965834 -0.08635406 -0.055717837 -0.19329482 0.032013867 -0.09907469 -0.09850174 0.07042619
0.026310757 -0.054857355 0.14890936 0.14910828 0.058585472 -0.37437296 0.12769414 0.034871824
-0.08986102 -0.048477646 -0.15700363 0.13680822 -0.024901511 0.03556449 -0.44387603 0.017645575

l3/b f4 [9]
00000000: 306e 19be 3bb4 babe aac8 7abe b6bd 7cbd
00000010: 4fc8 4f3b eaad 95bc 5d83 56bd cadf a1be
00000020: 54a0 50be
-0.1498344 -0.3646563 -0.2449061 -0.06170436 0.0031705087 -0.018271405 -0.05237137 -0.3161605
-0.2037366

l0/b f4 [81]
00000000: ce05 6f3e 5b3a 99be 8a43 90be 245f 9dbe
00000010: 185f b4bd 2b30 d2be 995c 0abf ea01 3abe
00000020: a1c5 51bd a08e 2bbd c79a dabe 1f07 17be
00000030: aca2 debd eac7 1bbe 043c 1abf 8c71 77bb
00000040: 5acf 933e 632b a2be 10ab 88be a78e 0abd
00000050: 1f1e 4f3b d072 b23e ee8a 34be 0a70 d3be
00000060: 70b0 b4be dbd8 85be ad75 94be 9833 d7bd
00000070: e278 20be 01ea d0be 304f a0be c976 39be
00000080: 7eb2 5ebe 9dd3 84be 9a74 b9be eb1f e5be
00000090: a02e 963d 877d 49bf 65b2 81be 8caa 6dbe
000000a0: 7a62 64be 977d 9fbc 1e00 36be a6bb 3ebe
000000b0: 79e1 aabe 5ad9 fb3d c17d 17be f0a2 d4be
000000c0: 0795 14bf 10e7 6bbe ed73 11be 7867 8fbe
000000d0: 0689 e4be 9e3c eabe 8ed0 debe f94f b7be
000000e0: 09ac b9be a8e9 efbe 70b3 b63d 2ba8 b6bd
000000f0: 7f33 23be 9423 cfbe 5f30 efbb e77d 81be
00000100: 5b3e f3be fcf3 9b3e 7a18 61be e065 88be
00000110: 3f01 8cbe d5bc 4dbf be8a 30be 5dcb edbe
00000120: 813e afbe b7f6 bdbd 245c 1dbe bf1b d0bd
00000130: f8c8 cfbe bbb6 c0bd 58cc e3bc c88b 75be
00000140: d660 8abe
0.23342058 -0.29927334 -0.28176528 -0.3073665 -0.088072 -0.41052374 -0.5404754 -0.18164793
-0.051213864 -0.041884065 -0.4269621 -0.1474881 -0.10870871 -0.1521298 -0.60247827 -0.0037756888
0.28869134 -0.31673726 -0.2669301 -0.03382745 0.0031603647 0.3485322 -0.17631122 -0.41296417
-0.3529086 -0.2614201 -0.2899603 -0.105078876 -0.15671113 -0.4080353 -0.31310415 -0.18111719
-0.21747777 -0.25942698 -0.36221772 -0.44750914 0.07333112 -0.78707165 -0.25331417 -0.2320959
-0.22303191 -0.019469066 -0.17773482 -0.1862627 -0.33375147 0.12297316 -0.14794065 -0.4153056
-0.580399 -0.23037362 -0.14204378 -0.28008628 -0.4463579 -0.45749372 -0.4351849 -0.35803202
-0.36264065 -0.46857953 0.08920944 -0.08918794 -0.15937613 -0.4045683 -0.0072994675 -0.25291368
-0.4750851 0.30459583 -0.21981993 -0.26640224 -0.273447 -0.8036626 -0.17240426 -0.46444216
-0.34227374 -0.09275573 -0.1536718 -0.10161542 -0.40583014 -0.09409853 -0.0278074 -0.23979104
-0.27027005

l1/W f4 [81, 81]
00000000: 6f4b 68be 6a9a 58be 8c71 25be 1ac1 f73b
00000010: 6188 963d cd80 3b3e dc21 503e 228d d3be
00000020: 6a8b a7be 00f3 86be 2688 62be 0dda ffbd
00000030: e99e 51be f0a0 41be 7f71 68be 47c6 603e
00000040: da3a 883c 4ec9 4e3b 9acd 22be d6fc cd3d
00000050: ff42 e4bd 6ee2 dbbd a242 3dbc 8b17 0f3e
00000060: 56cf 013c 4759 06be 8d86 b43e 5a78 d2be
00000070: eed9 5dbe 2ab5 97bd 45fd 02be 82a2 80bd
00000080: 4c60 793e c948 fabb 6ea9 063e 24b7 c5be
00000090: d604 75bd 2145 95bd 161c 0bbe 8b99 9abd
000000a0: a48b fb3b 7bb2 c93d c97b e9bd b026 953d
000000b0: 973e 003e 792b 313d 6c37 453c 9c23 6cbd
000000c0: 781c 8b3e fe98 be3d 8ccb 4ebd ba83 0ebd
000000d0: 2fa3 703d 491e fa3d 5e27 b53d c8cf 03be
000000e0: 84f7 933d 0f8d 8e3e ae6b c03d eeab 6abe
000000f0: 3903 363e 92e0 1fbe ddaa 22be a564 29bd
00000100: efc3 7d3e 472f 213c 1f8e 343e a0e7 173c
00000110: 7aae 123b 230b 3bbe bab8 03be 4bb8 cf3d
00000120: fbb4 71be 9ed3 903d 0d5d a83d ca3c d9be
00000130: bea2 1abe e27b 353d 9d0e 323d 29de 1d3d
00000140: e351 2dbe d9a2 9ebe a667 23bf 4479 a2bd
00000150: 01a7 0d3e 5e43 14be 3fc0 a23e 27e5 133e
00000160: 3c84 393e f3a2 7dbe 1ed4 c2bd 2f53 803e
00000170: 78e5 bf3e 75ba b63e e5cc ee3d 6705 43bd
00000180: 1729 72bd 6a5f 473e eda8 17bd 8fcc 383e
00000190: 60f0 14be 79cc 2b3e 6391 88be c0fb 8d3e
000001a0: b74d 2fbe dc7a 283d f534 c43d b4d8 ad3d
000001b0: d09d 5dbe fb32 3bbe 8c45 4dbd a07c 353d
000001c0: 67e6 98bd a25e c93d b49f 2b3e a765 6ebd
000001d0: d053 09be a9bc 84be a142 b03e 5663 0c3e
000001e0: 36bb 803d 46a5 41bc dc6c 9cbe 7bc4 6abd
000001f0: fd96 103e 9f8d 3cbe 3181 97bd aa99 b9bd
00000200: 5565 9bbe 41ee c0bd 2559 5fbb c69d 8b3e
00000210: 3ded 61be 1bbd 403e 5421 d1be beff 103e
00000220: e64f a6bd ddb5 bf3c 7910 c73e f170 0c3e
00000230: 6a08 e3be 210f d0be 2220 473e e9af 20be
00000240: c67e 66be 467d 193e 8795 223e 7c1d b33d
00000250: 5404 a1be e316 f63d 5e6b 0c3c a960 363e
00000260: aac9 6a3e 28a7 263e 7557 8cbe 944b 2abc
00000270: 5f96 5bbe af4f 43be a795 653e 8d8a 193e
00000280: 4886 c0bc 624b 16bc 3556 453e 915c 9bbd
00000290: 74a7 db3d 5ef6 6dbd 172b b13e bf46 653e
000002a0: 927d 073e c18e 923d ae84 c2be c462 833d
000002b0: 8d65 5ebe 913f 4ebd a545 2bbe 8978 b3bd
000002c0: b519 f1bd b0ab 513e b008 b73e b503 3f3e
000002d0: d408 82bd 72f5 e23c e4a8 943d 40a5 87be
000002e0: 8a59 abbe 8915 95bd 6c00 24b8 9e65 34be
000002f0: 6e3e 99be 68aa d7bd 6145 103e ff4b 2abe
00000300: f92d 0f3e c5ba 8fbb 6f3a 31bd a146 a6bc
00000310: b2c6 de3c a24b 783e af00 84bc e41f a53e
00000320: ea6b 83be 82c7 2cbc e667 c5bd 978b 99bc
00000330: 4c58 d5bd b900 09be c409 943e 59b0 6ebe
00000340: 4091 013e 70b6 3cbe f583 a33d 9146 263e
00000350: 49b6 2abd 87bc 0cbd 41f3 9d3d 325e 7c3d
00000360: 99df b0be c9b1 ebbd 1100 623b 6369 a6be
00000370: 54d3 47bd ed6f c93d 0699 7b3d dd24 4ebd
00000380: ee46 80bd cf02 57bd ee6a 38be 407b a9bd
00000390: 57c2 09be 6a5e 21be bce5 203e b13d 1e3c
000003a0: 4c85 623d e861 d23d 8d11 13be 3617 d33c
000003b0: 2f1a 05bd e1e4 aebe b450 75bd ffb7 243d
000003c0: bbb5 82bc 115c 7c3e 9178 653d 9679 0d3e
000003d0: 93a5 57be 4319 5c3d e3bc 323e 2dc6 913d
000003e0: b47d 93be a77c e93e c52a 1fbe 953a a4bc
000003f0: 0946 a33e 5dee 13be d784 493e c363 9d3c
-0.22685026 -0.21152654 -0.16156596 0.0075608613 0.07350231 0.18310852 0.20325416 -0.41318613
-0.32723552 -0.2635727 -0.22122249 -0.12492762 -0.20470776 -0.18909049 -0.22699545 0.21950637
0.016629625 0.0031553092 -0.15898743 0.1005799 -0.11145591 -0.107365474 -0.011551531 0.13973825
0.007922968 -0.13119994 0.35258904 -0.41107446 -0.21665165 -0.07407601 -0.12791927 -0.06280996
0.2435314 -0.007638071 0.1315057 -0.38616288 -0.059819065 -0.07288576 -0.13584933 -0.07548817
0.0076765586 0.098484956 -0.11400563 0.0728277 0.12523876 0.04325435 0.012037139 -0.057651147
0.27170157 0.09306525 -0.050487086 -0.034793593 0.058749374 0.12212808 0.08845399 -0.12872231
0.07224944 0.27841994 0.09395538 -0.22917148 0.17774667 -0.1561301 -0.15885492 -0.041355748
0.24781774 0.009837932 0.1763234 0.009271532 0.0022381828 -0.18265967 -0.12863436 0.10142573
-0.23604195 0.07071613 0.08220873 -0.4242919 -0.15101144 0.044307597 0.043470968 0.038541947
-0.16925769 -0.30983618 -0.6383003 -0.07933286 0.13833238 -0.14478824 0.31787297 0.14442883
0.1811685 -0.24769191 -0.095131144 0.25063464 0.37479758 0.3568913 0.11660174 -0.047612574
-0.059121218 0.19469991 -0.037026335 0.18046783 -0.14544821 0.16777219 -0.2667342 0.27731133
-0.1711949 0.041132793 0.09580413 0.084885985 -0.21642232 -0.18281166 -0.050115153 0.044308305
-0.07465821 0.09832503 0.1676014 -0.058202412 -0.13410878 -0.25925186 0.34425834 0.13709769
0.06285708 -0.011819189 -0.30551803 -0.057316285 0.14120097 -0.18413399 -0.07397688 -0.09062512
-0.30350748 -0.09420443 -0.0034080234 0.2726881 -0.22063155 0.18822138 -0.4084574 0.14160058
-0.08120708 0.023402149 0.38879755 0.13714959 -0.44342357 -0.40636542 0.19445851 -0.15692104
-0.22509298 0.14989194 0.15877353 0.08745858 -0.31448615 0.12016084 0.00857052 0.1781031
0.22928491 0.16274703 -0.27410474 -0.010393996 -0.21444081 -0.19073366 0.22420369 0.14994259
-0.02350153 -0.009173246 0.19271167 -0.07586015 0.107252985 -0.058096282 0.34603187 0.22390269
0.13231495 0.071561344 -0.37991852 0.064153224 -0.21718426 -0.05035359 -0.16725786 -0.08763225
-0.11772481 0.2047565 0.35748816 0.18653758 -0.0634934 0.027704928 0.07258776 -0.26493263
-0.3346675 -0.07279498 -3.910104e-05 -0.17616889 -0.29930443 -0.10530549 0.14088966 -0.16630553
0.13982381 -0.0043862783 -0.043268617 -0.02029735 0.027194355 0.24247602 -0.016113607 0.32250893
-0.2566827 -0.010545613 -0.09638958 -0.01874332 -0.10417232 -0.13379182 0.289137 -0.23309459
0.12653065 -0.1842897 0.07984153 0.16237856 -0.041677747 -0.03435948 0.077124126 0.06161327
-0.3454559 -0.11508519 0.0034484903 -0.3250228 -0.048785523 0.09835801 0.06142523 -0.050328124
-0.06263529 -0.052492913 -0.1800954 -0.08275461 -0.13453041 -0.15758672 0.15712637 0.009658263
0.055302903 0.102725804 -0.14362164 0.025767904 -0.032495674 -0.34158996 -0.059891418 0.040214535
-0.015955796 0.24644496 0.056023184 0.13815913 -0.21059255 0.05373503 0.17454867 0.07117877
-0.2880684 0.45602915 -0.15543659 -0.020047465 0.3188937 -0.14446397 0.1967958 0.01921261

l2/W f4 [81, 81]
00000000: f3e1 30be 035c 65be 059f fc3c 3a15 083e
00000010: 30ad c9be 82e4 783e 64c3 ed3d f980 bdbd
00000020: b311 f33d 3dac c6ba d0f1 9d3c 0734 893c
00000030: a97b fd3c 7327 a0bd 2de9 f4bc bc9a 2f3d
00000040: 2298 15be f2b0 813c bae4 1f3e b716 d7bb
00000050: 5efc 613e 386b 9e3d c0aa 7a3e 4c00 2fbe
00000060: 7662 a4bd 2bdf 43be 5149 09bf fef4 03bd
00000070: 269c 243e 01c5 50be 652e 48bd d931 efbd
00000080: ee07 25be 6c04 27bd 1b77 e53d 678b 0bbf
00000090: e603 923d db0d 963d 48ae bebe 0ee5 b73e
000000a0: 9e2e d0bd e433 0c3e 23b2 503e a54e 0ebd
000000b0: c93d 95be 335b 753e c878 b43d 1b86 0e3d
000000c0: b78f e3bd 3b37 2abe 12ea 513e c54d 18be
000000d0: fab3 e9bd eca7 33be 7829 a6bd 86bc 69bd
000000e0: 7efb 973e 6b40 49bf 13aa ae3e bced a5be
000000f0: 3b6f 4bbe 2eb2 86bc 5d88 1cbe f0b2 c0bd
00000100: e978 cc3d 05cf 573c 2c5f c8bd fb75 f6be
00000110: 0156 f43d 88dc 2c3d e386 543e c157 fbbd
00000120: 123f ebbd 7b03 c6bd 3d70 2a3d ca87 0ebe
00000130: 6980 babe d8ec 97bd 916c 8ebd 8e07 d2be
00000140: 2ab6 423d 6874 923d fd38 cabe 10f9 fe3d
00000150: 1eb1 ea3d a8b6 3bbb f9e6 7dbe 2fc6 50bd
00000160: 24da 63be ba01 e5bd cb58 593e eb0a 103d
00000170: 0430 10bd 7965 a03d 12df 17be d11c e7bd
00000180: 1085 03be af03 9c3d b600 8e3d 9d78 2e3e
00000190: 7c1d b8be 49b0 4e3e cf46 e13e 7b64 863e
000001a0: ac5f 9e3c a52b a23d 1f1f 0dbe edf1 7d3e
000001b0: 8447 4dbe a746 873d fcfb 92bc 8e38 6cbe
000001c0: c89f d5bc 867f 253e f766 233e 3416 3abc
000001d0: 3f1e a0be 799a 50bc d59e 723d 8931 f2bd
000001e0: fb04 f0bd 3f66 1fbf 1d19 89be c42f cfbe
000001f0: e98e d43d 9438 1abe ad1a a7bc 6077 20bd
00000200: d538 54be b657 22be 7840 363e e84c 86be
00000210: 4a72 3abd c08b 03bd c8c8 513e d248 3b3e
00000220: d741 3a3e e983 e5bd fcbd 7c3d 97fb 2bbe
00000230: 7e91 1d3e 7001 14be 0e0a 09bb 8242 5e3e
00000240: 4885 92be cc6a 02be 79cc 933c 0fd6 f83c
00000250: 1486 8c3e 4cbb dabb 7f67 83be b98b 20bd
00000260: 4030 dabd e32a aabb 4303 3cbe 2518 00be
00000270: 30d0 f43d d593 34bd 5c20 2cbd 120a 8c3d
00000280: 97d1 c03e ca2a 993e 74e8 6bbe 279d d93d
00000290: d369 223e cd41 553b d76f d63d b11c d23c
000002a0: b19b 48be 5034 53be 0430 02be 22bf 95bb
000002b0: 3d37 603e bfda dbbd 23d2 a9bd 83af d2bd
000002c0: aec5 dfbc 3a32 c8be 2f14 97bd 979a 39be
000002d0: 7275 a03d c2b8 46be 688e 24be 7ba2 d5be
000002e0: fff7 e23c 7d75 15be b406 8fbe 10d9 c3bd
000002f0: 0b7a cebd ad36 d9bd 2637 4cbd fd7a 3a3e
00000300: 044d 873e 1b07 19be cac1 543d 84d8 5d3d
00000310: 146c b5bc 141e b03e 9fbe 1bbf 21e8 5d3e
00000320: 97c5 883d 00e5 c5be 13ab abbd 1dd1 58be
00000330: e011 25be d328 6a3e 5963 2bbe b6f1 f8bd
00000340: c192 153e 2519 90be e5aa f93d f3ac 17be
00000350: 2c08 9c3d 073a 7a3d ccd2 c1be 7b23 babe
00000360: 6ccf dbbd f48e 0abe 791c 833e 0b87 90be
00000370: 1a26 bfbe e97d 50be 0da6 453e 03e8 afbe
00000380: 3e84 dabe 90ff eebd bf2c 2fbe 8522 4bbe
00000390: 21b1 09be a5d2 a1be 99f7 71be 4e78 2ebe
000003a0: ae71 85be ebe8 01bc e631 82be d24c 203d
000003b0: f5a7 e7be f0e6 453d 1319 5abd 1d65 003e
000003c0: 3963 a1bd 9a80 2cbe 3d51 453d aef7 8b3d
000003d0: d888 fcbd 79b1 cebd 2756 09be 1ec0 65be
000003e0: 7dde e3bc dfb7 273e d607 d53c 64b0 b0be
000003f0: 0cfa 7cbd cc16 06be dc4b 703c ba74 99bd
-0.17273693 -0.22398381 0.030837545 0.13289347 -0.39389944 0.24305919 0.116095334 -0.09253115
0.1186861 -0.0015157532 0.019280344 0.016748441 0.030942755 -0.07820024 -0.029896343 0.042872176
-0.14608815 0.015831444 0.15614596 -0.006563987 0.22068927 0.07735294 0.24479198 -0.17089957
-0.080265924 -0.191281 -0.53627497 -0.032216065 0.16075191 -0.20387651 -0.04887237 -0.116794296
-0.16116306 -0.0407757 0.11204358 -0.54509586 0.0712965 0.073268615 -0.3724234 0.35916942
-0.101651415 0.1369167 0.20380454 -0.03474297 -0.291487 0.23960571 0.088121 0.03479586
-0.11111396 -0.16622631 0.20499447 -0.14873417 -0.11411281 -0.17544526 -0.08113378 -0.057064556
0.2968406 -0.7861392 0.3411413 -0.3240794 -0.1986665 -0.016442385 -0.15286393 -0.094091296
0.09983999 0.013171916 -0.097837776 -0.48136887 0.119304664 0.042202502 0.2075458 -0.12272597
-0.11486639 -0.096686326 0.041610945 -0.13918987 -0.36426094 -0.07418221 -0.06954301 -0.4102139
0.047537006 0.07151109 -0.39496604 0.12449849 0.11459564 -0.0028642807 -0.2479514 -0.050970253
-0.22251183 -0.1118197 0.21225278 0.035166662 -0.03520204 0.078318544 -0.14831188 -0.11284793
-0.12843728 0.0761789 0.06933729 0.17038198 -0.35959995 0.20184435 0.43999335 0.26248536
0.01933273 0.07918481 -0.13781403 0.24799319 -0.20046812 0.06605273 -0.017942421 -0.23068449
-0.026077166 0.16161928 0.15957247 -0.011357833 -0.31273076 -0.012732142 0.059233505 -0.11825854
-0.117197 -0.6226539 -0.26776972 -0.4046613 0.103788204 -0.15060645 -0.020398462 -0.039176345
-0.20724805 -0.15853772 0.1779803 -0.2623055 -0.04551915 -0.032115698 0.20486748 0.18289497
0.18189178 -0.112068005 0.06170462 -0.16795193 0.15387532 -0.14453673 -0.0020910534 0.21705058
-0.2861731 -0.12736052 0.018041836 0.030375509 0.27446043 -0.0066751596 -0.256649 -0.03919575
-0.10653734 -0.005193101 -0.18360619 -0.1250921 0.11953771 -0.044086296 -0.042023048 0.06837858
0.37659904 0.29915458 -0.23037893 0.106256776 0.15860681 0.003254044 0.104705505 0.025648447
-0.19590642 -0.20625424 -0.12713629 -0.004569904 0.21896072 -0.10735082 -0.082920335 -0.102873825
-0.02731594 -0.3910082 -0.073768966 -0.18125378 0.07834901 -0.19406417 -0.16069949 -0.41725525
0.027706144 -0.145956 -0.27934802 -0.09562886 -0.100818716 -0.10606132 -0.04985728 0.18210979
0.26425946 -0.14944117 0.051942624 0.054161564 -0.022146262 0.34397948 -0.6083774 0.21670581
0.06678312 -0.38651276 -0.08382239 -0.2117352 -0.161201 0.22867136 -0.16737117 -0.12155478
0.14606763 -0.28144184 0.12190799 -0.14812069 0.07618746 0.061090495 -0.37856138 -0.36355194
-0.10732922 -0.13531095 0.2560766 -0.2822803 -0.37333757 -0.20360531 0.19301625 -0.34356698
-0.42679018 -0.116698384 -0.17106913 -0.19837387 -0.13446476 -0.31606022 -0.23629607 -0.1703808
-0.26063293 -0.007929067 -0.25428694 0.03913576 -0.4524533 0.048315942 -0.05324657 0.12538572
-0.07880253 -0.16845933 0.048173178 0.068343505 -0.123307884 -0.10092444 -0.13411771 -0.22436568
-0.027816052 0.16378735 0.026004713 -0.34509575 -0.0617619 -0.13094634 0.014666524 -0.07492967

l1/b f4 [81]
00000000: ae13 01be fb25 6cbe 616f 4abe 7924 81be
00000010: 1cf9 d7be 1128 5cbe 90cb 74be 99ec 20be
00000020: 7bd7 b5be 2c56 d2bc 9a5b 7ebe 080f eebd
00000030: d8b7 3ebe 4fc6 93bd f668 f4bd 97dc 41bd
00000040: dd58 04bf 1391 bcbd 7245 703d ce06 debd
00000050: 9bdf 90be 460d 3ebe 6947 c9be bfdc d3be
00000060: 4492 c3be af72 cfbe ba79 1abd 6223 9dbe
00000070: e400 56bd 18dd e23c c543 96be 7f20 c1bb
00000080: dfa0 323d 2765 90be 1fae fcbd b547 923d
00000090: 2fb9 1ebe 153e 1abe d6db 44bf ad2d 8fbe
000000a0: 2184 143e a2fd 2cbe 9e3c 86be 9259 09be
000000b0: 8594 8dbe 119f 4d3e f610 1cbe b7f6 31be
000000c0: e8fb 59bd 7da6 cebe c8ed 57be a551 78be
000000d0: a58d 67be 8526 adbd f756 c4be ded7 4bbd
000000e0: 0f21 83bd 2d45 11be 1a13 3539 edb4 e8be
000000f0: e5af abbd b13f 95be d245 5fbe 6135 f7be
00000100: 8177 693d 2f23 e5bc 4754 04bf 5598 00be
00000110: 484a 04be dd21 33be 670d 45bd 2b70 2dbc
00000120: 152b a93e ace2 fdbd 8c03 dcbe f277 75be
00000130: f6ae 463d 9c6a 85bb 7fc0 dd3d a43d 46be
00000140: ee9a 4abd
-0.12605163 -0.23061363 -0.1976905 -0.2522314 -0.42182243 -0.21499659 -0.23905778 -0.15715255
-0.3551596 -0.025675856 -0.2483963 -0.11623961 -0.18624818 -0.07215559 -0.11934082 -0.04732951
-0.51698095 -0.09207358 0.05865998 -0.10841142 -0.28295597 -0.18559751 -0.39312294 -0.41379353
-0.3819753 -0.40517184 -0.037713744 -0.30691057 -0.052246943 0.027693316 -0.2934858 -0.0058937664
0.04361045 -0.28202173 -0.123378985 0.07142583 -0.1550033 -0.15062745 -0.76897943 -0.27964535
0.14503528 -0.16893628 -0.26218122 -0.13413075 -0.27652374 0.2008021 -0.15240845 -0.1737927
-0.053218752 -0.40361395 -0.210868 -0.24249895 -0.22612627 -0.08454613 -0.383476 -0.049766414
-0.0640279 -0.14186545 0.00017268621 -0.45450535 -0.083831586 -0.29150155 -0.21803978 -0.48282912
0.056998733 -0.027970878 -0.516911 -0.1255811 -0.12918961 -0.17493387 -0.048108485 -0.010585825
0.3304068 -0.1239675 -0.42971456 -0.23971537 0.0485067 -0.0040715467 0.10827731 -0.19359452
-0.04946416

l2/b f4 [81]
00000000: 06b2 c2bd 6f5e d9bd d0be 50be 054b 163c
00000010: 3109 853d e694 b1be 2f06 bdbe 4242 20be
00000020: 452a 06be bdc8 193e f0e5 d4be 2afe 743d
00000030: 2b68 b4bd 3516 1ebe a7b4 0f3d be62 703e
00000040: d593 c7bc 1eac 96be 642b 5cbe 0803 b6be
00000050: f0eb 39be 9cf7 a03d 67aa 4abe d0d1 9cbe
00000060: d4d1 f4bd f177 c5bd 3f71 63be b918 6bbe
00000070: 0efd 6abe 0178 55be 157d e5bc c5e3 0abe
00000080: 3d2a 80be 3ab7 5abe 1fa9 d5bd c6c8 f3bd
00000090: 56ee 5bbe 5c41 033e 4ae1 76be 84ed fcbd
000000a0: 9ced 223d 22b3 13be 9046 94be f7a0 93bd
000000b0: 2822 8dbd 341e 41be c3c8 3fbe 7309 bdbd
000000c0: 6b24 6dbe f323 98be 8a18 abbe 6590 1cbe
000000d0: b73c 04be 9c6f 87be 92f8 10bd dd9d 103e
000000e0: 5990 993d 7e50 1d3d 72c5 ea3b ad08 59bd
000000f0: 0d60 cfbe 7a53 bebd 7f2b 90be 84ec 1ebd
00000100: d089 92bd 0d09 0cbe d2fb a3be e07a 49be
00000110: 9c14 a2be 75d1 55be 1956 96be b83e a5be
00000120: b9b7 02be 0a31 67be 4f0c 44be 2cba 08be
00000130: 4cd1 fcbd 3374 59be 7242 a6be 02ca a1bd
00000140: 4206 24be
-0.095066115 -0.10613715 -0.20385289 0.0091731595 0.06495894 -0.34683913 -0.3691878 -0.15650275
-0.13102062 0.15017982 -0.41581678 0.059812702 -0.08808931 -0.15438159 0.035084393 0.23475167
-0.024362484 -0.2942819 -0.21500927 -0.35549188 -0.1815641 0.07859728 -0.19791566 -0.30628824
-0.11954084 -0.09642018 -0.22211169 -0.2295865 -0.22948095 -0.20846559 -0.028013745 -0.1356345
-0.25032225 -0.21358958 -0.10432648 -0.11903529 -0.21477637 0.12817901 -0.24109378 -0.1234999
0.039777383 -0.14423802 -0.28960085 -0.07208436 -0.068912804 -0.18859178 -0.18728928 -0.09230318
-0.23158424 -0.29714927 -0.3341716 -0.15289457 -0.12913786 -0.2645234 -0.035393305 0.1412272
0.07498235 0.03840684 0.0071646506 -0.05298679 -0.40502968 -0.09293266 -0.28158185 -0.038799778
-0.07155192 -0.13675328 -0.3202806 -0.1967578 -0.3165635 -0.20880683 -0.29362562 -0.32274413
-0.12765397 -0.225773 -0.1914532 -0.13352269 -0.12344608 -0.21235733 -0.3247257 -0.07899858
-0.16018012

l0/W f4 [81, 9]
00000000: 6ded fa3e 81af 453d 6d31 8e3d 9406 5b3e
00000010: df4b 9e3d 8efc cd3e c574 f83e 4596 443d
00000020: 434d 323f cda3 c23d 565e 993f 34d3 cc3d
00000030: 4406 57be 4f03 253f 2c28 3cbe c184 363d
00000040: 4120 183f 3a7a be3e a93a 8bbd af09 663e
00000050: 0d8c 583e 3018 2cbf c3f3 3d3e ba15 e43d
00000060: bcd4 2fbf d7ff c13d fe86 9cbe 4194 f63e
00000070: af85 ca3d 3ac4 903d cd11 23be 357a e43d
00000080: 462b b7be 2589 6ebe e567 aa3b 4f0e b9be
00000090: 8941 f93e 02e1 e3b8 7205 ed3b b9bf 0bbd
000000a0: bba8 01bf fa6c 12bb d12e a1ba 3c4e f0bd
000000b0: 9d78 f4be 21ec 9dbe 3537 f7be 12f3 e33e
000000c0: 148a 143f ed8a 8abe 8998 dd3d 6110 aabe
000000d0: 549e 57bf 8353 bd3d ec13 b8bd c28c 15bf
000000e0: 909b 12bf fd3e 693e 5834 bdbe 14bc 663d
000000f0: facc 233f c7ae 85be 59a6 8abe 4f8b c1be
00000100: 3c42 99be 12cf 85be 9f4f b8be ef1b 36be
00000110: 4c40 b5bc 754e b2be 2c05 343f ad54 d5be
00000120: b8f2 c03e dc01 e93d 42c2 513e 604c 3ebe
00000130: 2bb7 0a3d 20ff 693d b40d b6bd d614 66bf
00000140: bd9d aa3e 00a0 593e a45b b2bd bda9 383e
00000150: 2577 023f 6dc6 c6be 0ae4 2ebe 1ebe 013d
00000160: 9dd4 4f3d 1efe a53e e424 df3d 697c cebe
00000170: bae5 e2be 02fc 16bd 7851 8e3c b10f bbbd
00000180: f9f5 5cbf b8f9 ffbe def3 38bf 8e9a f83e
00000190: 545c 1e3e 3e03 e5bd cfb4 7f3d 98fd 3a3f
000001a0: 24cf 2c3f 2e48 c63e 0963 483d efe1 42bd
000001b0: 3b58 003f 88e7 063f 3937 d83e 2ff2 353e
000001c0: 5f0c 183f 59ab 17be e1d5 60be bdc9 bf3e
000001d0: 619c 8f3e a935 563f 7768 d4be ee41 0b3e
000001e0: fb7e 5c3e 7082 df3e 4878 0a3f 504a 05bb
000001f0: e46f 8dbe 6332 233f 0513 30be 3c09 b73d
00000200: 10c7 61bf 11aa 823d 194e 2dbf 23df 48bd
00000210: 8b7f 4bbf efed 973e 24eb a83c a746 223e
00000220: bb9e fb3e 5dc8 b63e d0a9 e43e ec35 ce3e
00000230: 279b e7bb 5853 023e 0186 59be 48a9 123e
00000240: 7b6a 5d3f 66d7 233e fdfb d63e b1f9 983e
00000250: a01b ad3e d30a 203f 4918 df3e 30af 943e
00000260: 06d2 3a3e 9bbc 8cbe 89db 773e d9c7 d7be
00000270: b9f3 acbe 0dc3 09bf 5822 08bf 82e6 893e
00000280: 5ede de3c 5519 4bbd 222d cf3c 082d 9dbe
00000290: f31e 7c3d bfce e83c 62c4 20be e96d 673f
000002a0: 8e76 133e 7229 b9bd 8a48 783d 1a88 b03b
000002b0: 114a 12bb 390f e9bd 6244 383e 5722 b9be
000002c0: 13d5 b53e 2677 89be f9fe 30be 8468 8f3e
000002d0: 4204 0cbe 1f20 643d 2c11 ee3e dce7 16be
000002e0: 005b 62bd 5287 c23e 696c e53e 8c6a a03e
000002f0: e407 a2be 2f36 e03e 3f00 533f e902 e83e
00000300: b31f d03e 901d db3e 9756 493f 7f72 da3e
00000310: 8011 d33e edde e73e 4321 003d 491f c23e
00000320: 301a e4be d476 85be ff3f 24bc b840 753e
00000330: 1103 423e bc40 fa3e ed93 3f3e 1837 903e
00000340: 644c 263e 9110 0ebe 5477 9bbe abcc 64bf
00000350: 8614 b1be de98 3dbe 2e6d 653d 59cf cd3e
00000360: e66f a1ba 87fd 30be 40ff c7be d051 603f
00000370: 0586 e7be 660c e6be 9d5a 64be 6e74 ffbc
00000380: acbc fbbe 23d6 313d e0e0 2abd e31b 183f
00000390: 738a aabd 32d0 e93d 65e8 05bf f263 f0bc
000003a0: 7972 56be 6ea4 303f 061f b4be 9686 cbbb
000003b0: d7f5 01bd 5260 5f3e d4a3 933e 7a6e 9e3e
000003c0: 57dc dd3e 76dd f9be 213d ac3e 77c3 0c3f
000003d0: 4e2e 9fbe 9c77 74be 8e22 d03e 126c 6cbd
000003e0: 2b89 b5be 23c4 143d 166c 943d 0a3e 3e3e
000003f0: b1cb e93e f2e1 2f3e 5f75 f03d fb0c e9bd
0.49009266 0.048263077 0.06943021 0.21389228 0.07729315 0.40231746 0.48526588 0.04799487
0.6964914 0.09503899 1.1981914 0.10001221 -0.20998484 0.64458174 -0.183747 0.044560198
0.59424216 0.37202626 -0.06798298 0.22464631 0.21147175 -0.6722441 0.18550019 0.111369565
-0.6868398 0.09472626 -0.3057174 0.48159984 0.09888779 0.07068677 -0.15924759 0.11156122
-0.35775203 -0.23294504 0.0052003735 -0.3614373 0.48682812 -0.000108661145 0.007233315 -0.034118388
-0.5064809 -0.0022342787 -0.0012297278 -0.11733672 -0.4774827 -0.30844215 -0.48284307 0.44521385
0.5802319 -0.27059117 0.108201094 -0.3321562 -0.84225965 0.09244444 -0.08988175 -0.58417904
-0.5726862 0.22777934 -0.36953998 0.05633171 0.63984644 -0.26109907 -0.27080038 -0.37801597
-0.29933345 -0.26134545 -0.35998246 -0.17784093 -0.022125386 -0.34825483 0.7032039 -0.41666165
0.3768518 0.11377308 0.2048426 -0.18583822 0.03386609 0.05712807 -0.088893324 -0.89875543
0.3332347 0.21252441 -0.08708885 0.180335 0.5096305 -0.38823262 -0.17079177 0.03167545
0.050739873 0.3242044 0.10895708 -0.40329292 -0.44315892 -0.036861427 0.017372832 -0.09133852
-0.86312824 -0.49995208 -0.7224711 0.48555416 0.15464908 -0.11182259 0.062428292 0.73043203
0.6750357 0.38726944 0.048922572 -0.04757875 0.5013463 0.5269704 0.42229632 0.17768167
0.59393877 -0.14811458 -0.21956588 0.37458602 0.28048995 0.8367563 -0.4148595 0.13599369
0.21532814 0.43654203 0.54089785 -0.0020338483 -0.27624428 0.6374876 -0.17194755 0.08937308
-0.8819437 0.06380094 -0.6769729 -0.049040925 -0.7949149 0.29673716 0.020619936 0.15847264
0.4914454 0.3569974 0.44660807 0.40275514 -0.007068056 0.12727106 -0.21242525 0.14322388
0.864906 0.16000137 0.41989127 0.29878 0.3381014 0.62516516 0.43573216 0.29039907
0.1824418 -0.27487645 0.2420484 -0.4214466 -0.33779696 -0.5381325 -0.53177404 0.26933676
0.027205642 -0.049584705 0.025290076 -0.3069842 0.061552953 0.028418897 -0.15699914 0.90402085
0.14400694 -0.09041108 0.060616054 0.0053873183 -0.002232198 -0.113798566 0.17994836 -0.36159012
0.35514125 -0.26848716 -0.17284764 0.28009427 -0.13673499 0.055694696 0.46497476 -0.14736885
-0.055262566 0.37993866 0.44809273 0.3133129 -0.31646645 0.4379134 0.8242225 0.4531472
0.40649185 0.42795992 0.7864775 0.4266548 0.4122429 0.45287266 0.03128172 0.37914494
-0.4455123 -0.2606722 -0.0100250235 0.2395047 0.18946482 0.48877513 0.18708773 0.28167033
0.16240078 -0.13873507 -0.30364478 -0.893748 -0.3458597 -0.18515345 0.056012325 0.40197256
-0.0012316674 -0.17284213 -0.39061928 0.87624836 -0.45219436 -0.44931334 -0.22300191 -0.031183448
-0.49167383 0.043417107 -0.041718364 0.5941755 -0.08327188 0.11416663 -0.5230773 -0.029344533
-0.20942105 0.690009 -0.3517992 -0.0062111123 -0.03172859 0.21814087 0.28835928 0.30943662
0.43332168 -0.48801774 0.33640388 0.54985756 -0.31090015 -0.23873752 0.40651363 -0.05772025
-0.35456213 0.036319863 0.07247178 0.18578354 0.45663217 0.17176035 0.11741137 -0.11379429
