chainerrl/TicTacToe/result_110000/target_model.npz (npz, 56606 bytes, 8 tensors)

l3/W f4 [9, 81]
00000000: 090b 293e 598f 69bd d31d e7be 3557 e83c
00000010: 26dd a5bc 1891 3bbe ef61 9a3c 46a7 30be
00000020: 10d9 6b3e 3fb1 be3b a868 26bf f4d4 b8bd
00000030: b6a2 bebe 226d e13c a8c0 8d3d cd7b 943d
00000040: d04f 08bd 75e9 2d3e d61c 26bf 64ba 4c3e
00000050: 96d9 1abe 4ba2 813c be8e b23b ea7b 663d
00000060: 625f fabe 80dd 133c 07a0 a0bd 09ee 4e3e
00000070: fb87 f3bd bd4f 073e 05bf e13d 9e14 3c3e
00000080: 275f 9abc 7f2e 1b3e 534d 9bbe 1b08 403d
00000090: 8497 593e 9556 b83e a050 d1bc 770c cfbd
000000a0: 635b 2e3a 0dc0 21bf 2847 a7be 550c 993e
000000b0: 9929 1e3e 6de3 2fbf 0033 283e b0ce 4a3b
000000c0: e748 093e 4af9 413e 603a 843e d4a0 61be
000000d0: be45 8ebc 8977 38be 86b5 833d f184 76be
000000e0: dc12 d23c bb73 763e 3760 c73d 0486 083e
000000f0: 906f 06be 6b76 00bd c78a 893e a417 c7bd
00000100: 845d b73d 0fbc 013e 337a d0be f523 01bf
00000110: 6191 4ebb 2011 b7bc 8033 b3bd 57d4 5ebe
00000120: a061 e1bc 71b3 523e f982 8dbe aac6 efbd
00000130: 98a0 1abc 681d 993d 26fb c9be fa7c 3dbe
00000140: ab76 933c 844e 683d 7e47 8bbe e406 863c
00000150: 1898 e33e 9d17 653d 460b 513e 032b 2b3c
00000160: aec8 76be d54e 37bf 17be e53d 40d1 ab3d
00000170: 677a 0dbe 21d8 12bd c9b9 2b3e f9e6 563e
00000180: a23f 5b3e 2233 0d3e 4edb aa3e af14 86be
00000190: c179 10be 4d26 30be 2d78 243e 8afd 553e
000001a0: 62fc 27be 2d34 beba 16fa c8be 1445 1cbe
000001b0: 5e33 693e eba5 50be dcdd 9c3e 6e7f 863e
000001c0: 2cfd ccbe f378 35be 461c 42be e99d 033e
000001d0: 1545 ea3e 3410 6f3e 8ef2 02be 076b 343b
000001e0: 1738 cabe 5a74 d23a c719 10be c35b 31be
000001f0: 207c dc3d 4cf8 28be 053b e93d 0abc 5c3e
00000200: be12 48be 8987 15be 18e2 73be 7fbf 2fbe
00000210: 9702 463e 40eb 913d 156b 8fbe 9c6c 7f3e
00000220: e1d8 20be 56e3 c4bc 59a2 00bd c2a1 8fbd
00000230: b703 de3d f4bb 1ebe 309a 523e 2f5a 1bbe
00000240: b257 a8bd 25ca 703d 9800 d9be af39 1bbd
00000250: 8b8a 773e 56cb 813e 69c0 45be af42 5b3d
00000260: 5ee1 c33c e8b6 cdbe f8df 38ba 2fe9 0d3e
00000270: b47a a2be c1e9 0dbd fe0d dcbe 726e d4be
00000280: f93a c0bd dc4c 1abe d1bf c73e 4845 8abd
00000290: fddf e9be 4146 9e3b 6390 debc 3d40 02be
000002a0: ac04 163e ff28 033e 7efc c63d b807 bd3e
000002b0: eae1 1b3e ee24 b7bd 2b79 f1be 152d 07be
000002c0: fe32 493d 3e94 2c3d 540e c3bb 03fd 85bd
000002d0: c20b 043e 1d64 49be 7d79 2dbf 9b08 07be
000002e0: 3535 0bbd 74b1 85bd f750 22be 95ff 8e3d
000002f0: 90dd a1be c700 2b3e 448f c5be 748f 09bf
00000300: 5d38 58be fdd3 90bd 3c5f d2bc 4a6b f83e
00000310: f878 eb3e cdaa 723e 2fab 02bf 7f15 28be
00000320: 6cbe 2a3e a846 a1be c161 0d3e 2e48 0ebd
00000330: ce81 fabd b775 8abe 1795 61bd fcca 3f3d
00000340: 10d3 5fbd 63d5 f13d 953b bbbd 58d4 39be
00000350: 2443 573e 42bb a33e d2ed e4bd 66a4 14be
00000360: d044 2f3e c172 e8be 4d60 0e3e 8719 a63e
00000370: 86f0 6fbe 5a05 57bd 40ff c7be f88a aa3c
00000380: 1033 fd3d 0a86 a23d 15fa 163e 0601 66bd
00000390: 300e a7bd c375 e2bc 474d fb3d 7399 39be
000003a0: 65ce 8cbd 8192 b3bd 964e 75bd 79ad 43be
000003b0: 31b9 f73c 9508 cdbd c2b5 c5bd bdb3 8a3d
000003c0: 62af db3c dc7f 4fbd 095c 1b3e e8bd 1f3e
000003d0: 0797 6f3d 447a c0be 9044 023e f809 133d
000003e0: a623 b9bd e72f 4abd 0c68 21be 3ae0 0d3e
000003f0: 0dc3 d9bc f174 0d3d 743f e2be a043 ae3c
0.16508116 -0.057021473 -0.45139942 0.028361896 -0.020247053 -0.18317068 0.018845527 -0.1725131
0.23032022 0.005819469 -0.6500344 -0.090249926 -0.37233514 0.027517859 0.06921512 0.072501756
-0.03327924 0.16983588 -0.6488775 0.19992977 -0.15122065 0.015824458 0.005449145 0.056270517
-0.48900896 0.009024978 -0.07843023 0.2020799 -0.118911706 0.13214011 0.11022762 0.1836724
-0.0188442 0.15154456 -0.3033243 0.04688273 0.21249205 0.36003557 -0.02555114 -0.10109799
0.0006651191 -0.6318367 -0.32671475 0.2989222 0.15445556 -0.687064 0.16425705 0.003094595
0.13406716 0.18942752 0.25825787 -0.22034007 -0.01736724 -0.18014349 0.06431107 -0.2407415
0.025643758 0.24067585 0.097351484 0.13332373 -0.13128495 -0.031362932 0.2686369 -0.09721306
0.089533836 0.12669395 -0.4071823 -0.5044549 -0.0031519758 -0.022347033 -0.08750057 -0.21760689
-0.027512372 0.20576264 -0.27638987 -0.11707814 -0.009437703 0.07476312 -0.39449424 -0.18504706
0.018000921 0.056715503 -0.27202982 0.016360708 0.44451976 0.055930723 0.20414457 0.0104472665
-0.2409999 -0.71604663 0.112178974 0.08389521 -0.13816224 -0.035850648 0.1677009 0.20986547
0.21410993 0.13789037 0.3337044 -0.26187655 -0.14108945 -0.1720211 0.16061468 0.20897499
-0.1640487 -0.0014511399 -0.392533 -0.15260726 0.22773501 -0.20375793 0.30638015 0.26269096
-0.40036905 -0.1772192 -0.18956098 0.12853207 0.4575583 0.23346025 -0.1278784 0.0027529614
-0.39495918 0.0016056404 -0.14072333 -0.1732016 0.107658625 -0.16500968 0.1138821 0.21556106
-0.195384 -0.14602484 -0.23816717 -0.17162894 0.19336925 0.071249485 -0.28011385 0.24943775
-0.15707733 -0.024034183 -0.031404827 -0.07013275 0.10840552 -0.15501386 0.2056663 -0.15171121
-0.082198516 0.05878653 -0.42383265 -0.03789681 0.24173944 0.25350446 -0.1931168 0.05353039
0.023911174 -0.4017861 -0.0007052417 0.13858484 -0.3173424 -0.034646753 -0.42979425 -0.41490513
-0.09386248 -0.15068382 0.39013532 -0.067514956 -0.45678702 0.0048301523 -0.027168458 -0.12719817
0.1465022 0.12808608 0.09716128 0.3691995 0.15222898 -0.08942591 -0.47162756 -0.13200791
0.049120896 0.042133562 -0.005952636 -0.06542399 0.1289511 -0.19667096 -0.677635 -0.13186876
-0.03398629 -0.06527987 -0.15851198 0.06982342 -0.3161435 0.16699515 -0.38585865 -0.5373452
-0.21115251 -0.070716836 -0.025680177 0.48519355 0.4599073 0.23697968 -0.51042455 -0.1641445
0.16674203 -0.3149922 0.13806821 -0.034736805 -0.122317895 -0.27042934 -0.055073824 0.04682444
-0.054644644 0.118082784 -0.09142224 -0.18147409 0.21021706 0.31978804 -0.11178173 -0.14515838
0.17116094 -0.4540005 0.13903923 0.3244135 -0.23431596 -0.052495338 -0.39061928 0.020818219
0.12363255 0.07935722 0.14743836 -0.05615332 -0.08157003 -0.027644044 0.12270599 -0.18124942
-0.06875304 -0.08768178 -0.0598894 -0.19109143 0.030239673 -0.100114025 -0.09653808 0.067725636
0.026817027 -0.050659046 0.15171827 0.15599787 0.05849364 -0.3759328 0.12721467 0.03589818
-0.090400025 -0.04936209 -0.15762347 0.13855067 -0.026582265 0.034535352 -0.44189036 0.02127248

l3/b f4 [9]
00000000: 2833 19be c780 bbbe a8f0 76be c80d 80bd
00000010: d137 033c 84a5 b6bc ae22 42bd 594f a2be
00000020: 6a29 52be
-0.14960921 -0.36621687 -0.2411524 -0.062526286 0.008008913 -0.02229572 -0.047396354 -0.31701162
-0.2052361

l0/b f4 [81]
00000000: 7ad9 683e ac5a 95be 0300 92be a3a5 9ebe
00000010: 264c b8bd d76a d2be a6f5 0abf 16f6 3ebe
00000020: 69ef 3bbd 3662 20bd fa6b d9be ba69 19be
00000030: 1dee d7bd 1770 14be 90b0 18bf 775f 97bb
00000040: 8096 933e f058 a1be 8054 88be cc88 04bd
00000050: 4c3a dd3b 57e7 b43e afa7 2fbe 2792 d2be
00000060: efa5 b4be 6ed9 83be 5237 96be 5e84 d0bd
00000070: a6d3 1ebe dd52 cfbe 1b72 9fbe a803 2cbe
00000080: 40b8 61be 1d1f 87be 3b78 b9be 28ea e6be
00000090: 7061 963d 2325 4abf 08b1 84be ec04 70be
000000a0: 62cc 60be 0051 99bc 5f1e 39be 637e 43be
000000b0: 3883 a8be 970c f43d 166a 17be c368 d5be
000000c0: 8cf8 13bf 9bd6 66be 7759 16be cf44 8fbe
000000d0: 4378 e2be 960b ebbe ae1b dfbe 862b b7be
000000e0: 9e8f b9be 5765 efbe ccb6 b33d 36aa b7bd
000000f0: 156b 26be 2c5d cebe 022a 2abc 63de 7ebe
00000100: d9d3 f5be 4dc3 993e 5f2d 65be b554 8bbe
00000110: d0d2 8abe 29f9 4dbf 2222 29be 39da eebe
00000120: 5768 aebe 7232 c5bd 2e8a 19be 4995 cdbd
00000130: 2263 d1be 81ae c2bd 99a5 13bd 5ce6 7bbe
00000140: 1823 88be
0.2273921 -0.2917074 -0.28515634 -0.30985746 -0.08998899 -0.41097137 -0.5428108 -0.18648562
-0.045882616 -0.03915616 -0.42465192 -0.14981738 -0.105434634 -0.14495884 -0.59644413 -0.0046195346
0.2882576 -0.31513166 -0.26626968 -0.032357022 0.0067513343 0.35332748 -0.1715381 -0.4112713
-0.35282847 -0.25751823 -0.2933908 -0.10181497 -0.15510425 -0.40492907 -0.31141743 -0.1679827
-0.22042942 -0.26390925 -0.3622454 -0.45100522 0.073428035 -0.78962916 -0.25916314 -0.23439378
-0.21952966 -0.018715382 -0.18077992 -0.19091181 -0.32912612 0.11916464 -0.14786562 -0.4168149
-0.5780113 -0.22542803 -0.14682566 -0.27982184 -0.44232377 -0.45907277 -0.43575805 -0.35775393
-0.36242384 -0.46757004 0.087751 -0.08968012 -0.16251786 -0.4030546 -0.010385992 -0.24889521
-0.4801319 0.30031815 -0.22380589 -0.27213064 -0.27113962 -0.80458313 -0.16516927 -0.46650866
-0.3406398 -0.09628762 -0.14994118 -0.100382395 -0.40895945 -0.0950594 -0.036046598 -0.24599594
-0.26589274

l1/W f4 [81, 81]
00000000: 2029 68be 2ed1 58be 23a5 25be 2116 f53b
00000010: a4fe 983d 057d 3d3e 1901 4e3e f00a d3be
00000020: 58e6 a7be a045 86be 2fe9 61be e4a3 00be
00000030: be55 52be 6646 41be 14d2 68be 9cfe 603e
00000040: 9071 8d3c 841f d23a ae3e 22be 6a37 cf3d
00000050: b91a e3bd 2c5a dbbd 7557 44bc c779 0e3e
00000060: 0ad8 043c 7495 07be ea49 b43e 115d d2be
00000070: 4c28 5fbe bed0 98bd 01d4 03be f0cc 7fbd
00000080: e8f0 783e d349 05bc 5267 053e 19a2 c5be
00000090: ef13 72bd b99a 96bd 4d4e 0abe b2c7 99bd
000000a0: e334 013c 099e cb3d 26a8 eabd b668 933d
000000b0: 94d8 ff3d f167 323d fc55 3d3c 452e 6cbd
000000c0: 8d18 8b3e 6a99 bf3d 05af 50bd fccf 06bd
000000d0: 962f 713d 35c5 fd3d c34a b53d 31d6 03be
000000e0: 2a7e 933d 5628 8e3e 557f c13d 7ae8 67be
000000f0: 61b0 373e 5cb7 1fbe 5dea 22be ee1c 29bd
00000100: 6aa9 7c3e 63d1 223c 8707 333e e152 1a3c
00000110: a55a cf3a 8e66 3abe 9e3e 02be 9922 d03d
00000120: 522f 71be 24e9 923d 0e28 a83d a58e d9be
00000130: 14e2 1abe 5a91 3a3d 80f7 313d 111b 1d3d
00000140: 8290 2dbe f71a 9ebe fc76 23bf 38b2 a3bd
00000150: 05c9 103e 8344 13be 7e05 a23e 8ecd 143e
00000160: e968 383e b24a 7bbe 92d6 c6bd ab14 833e
00000170: 7118 c23e a42d b73e 3307 f63d fef5 43bd
00000180: 6e88 6ebd 04af 4a3e ea95 1bbd 19f4 383e
00000190: 10ec 14be 08c7 293e b2f4 87be de44 8e3e
000001a0: 9b3e 31be c125 2a3d d5a6 c03d 090a af3d
000001b0: 5434 5abe ff4b 3abe d377 48bd bc49 3c3d
000001c0: e294 95bd 358d c93d 0457 2c3e 2829 5dbd
000001d0: 8165 07be ee3e 84be 0b1d af3e 6d81 093e
000001e0: d07f 8b3d b964 3abc 5668 9ebe b409 69bd
000001f0: 46fa 0f3e d9b1 3ebe 820c 98bd 1adf b6bd
00000200: 8c71 9abe 51cb c7bd ae9a 8a3a 9f90 8b3e
00000210: 1b09 60be c528 423e abd4 cfbe 614c 103e
00000220: 6296 a8bd 72e2 ba3c 57b1 c63e 31aa 0b3e
00000230: 782e e2be 7ff5 cdbe 53c4 453e 96e2 1bbe
00000240: 2e34 66be 31a7 1d3e 0aed 223e 8247 ac3d
00000250: 73c5 a0be abad fa3d 2efb a23b 2c5f 343e
00000260: 86c7 6b3e 9d09 273e 8461 8dbe ac37 22bc
00000270: cf06 58be b2f2 44be 90f0 643e da21 183e
00000280: a644 c9bc 1e6e 01bc 5d27 473e 86bd 9ebd
00000290: 79f5 d53d 9804 6ebd 8ec6 b03e 8374 653e
000002a0: 6603 093e c35c 873d dd28 c2be 95d8 853d
000002b0: fcb8 5fbe 40cd 4bbd 12d9 2abe 5004 b2bd
000002c0: b52d f6bd 5574 523e bfc7 b63e 12f4 3c3e
000002d0: 4532 83bd 3cfb e53c 3d86 913d ea9b 87be
000002e0: ec4a acbe 5da5 95bd 03a6 fc39 2276 32be
000002f0: 0ebd 98be 726a d3bd 784b 123e 81c8 28be
00000300: 247b 0b3e 04d5 c8bb 607a 2fbd 8819 b7bc
00000310: 5241 e33c 00a3 773e 7523 85bc 3098 a33e
00000320: 1f49 83be 8ca5 13bc 436e c4bd 5696 a1bc
00000330: 6fbe d3bd 37d9 07be e30a 943e 3365 6fbe
00000340: 27e8 013e 570a 3bbe 9879 a33d 551d 263e
00000350: d2be 2ebd 952d 11bd c535 9c3d c5d8 7c3d
00000360: 4601 b2be 1e47 edbd 7bfe ee3a 90f2 a5be
00000370: 09fa 43bd 05c2 c93d 1f75 793d 6b2b 59bd
00000380: 5e4f 7cbd 0b3e 5abd 2b64 37be b2b6 abbd
00000390: 1306 0cbe 8f39 21be 15fe 203e 9d9b 3e3c
000003a0: 85dd 5d3d 4dd0 d53d dc14 14be be2c c03c
000003b0: ff0a 08bd c30c aebe 6161 7bbd 4597 233d
000003c0: a2f7 8abc 2fee 7c3e e249 663d ab15 0d3e
000003d0: a44b 57be 7878 5f3d 7505 323e 4270 8d3d
000003e0: 38b2 92be 7864 e93e 0224 20be 793b 98bc
000003f0: 5efd a33e e3ff 13be 01d1 473e 9121 b53c
-0.22671938 -0.21173546 -0.16176276 0.0074794446 0.07470444 0.18504722 0.20117606 -0.41219282
-0.32792926 -0.26224995 -0.22061609 -0.1256252 -0.2054052 -0.18874511 -0.22736388 0.21972126
0.017266065 0.0016031121 -0.15844223 0.10117991 -0.11089081 -0.10710558 -0.011983742 0.13913642
0.008108148 -0.13240606 0.35212642 -0.4108663 -0.21792716 -0.074616894 -0.12873842 -0.062451303
0.24310648 -0.008135277 0.13027695 -0.38600233 -0.05910104 -0.0735373 -0.13506432 -0.07508792
0.007886144 0.09942252 -0.11457853 0.071977064 0.12492481 0.043556157 0.011556145 -0.057661314
0.27167168 0.09355433 -0.05094816 -0.032913193 0.058883272 0.1239113 0.0885215 -0.12874676
0.07201798 0.2776515 0.09448115 -0.22647277 0.17938377 -0.1559729 -0.15909715 -0.041287355
0.24674001 0.009937617 0.1748334 0.009419174 0.0015819861 -0.18203184 -0.12719199 0.10162849
-0.23553208 0.07173374 0.08210765 -0.42491642 -0.15125304 0.045548774 0.043448925 0.03835589
-0.16949657 -0.30879948 -0.6385343 -0.07992977 0.14139183 -0.14381604 0.31644815 0.14531538
0.1800877 -0.24540213 -0.09708895 0.25601706 0.37909272 0.3577701 0.12013092 -0.04784202
-0.05823558 0.19793326 -0.037984766 0.18061866 -0.14543176 0.1657983 -0.26553875 0.27786916
-0.17309038 0.04153991 0.09406821 0.08546836 -0.21309024 -0.18193053 -0.0489424 0.045968756
-0.07303788 0.09841386 0.16830069 -0.053994328 -0.13222314 -0.25829262 0.34201846 0.13428278
0.06811488 -0.011376553 -0.30938977 -0.05689402 0.14060315 -0.18622531 -0.07424261 -0.08929272
-0.30164754 -0.097555764 0.0010574663 0.27258775 -0.21878473 0.18960865 -0.4059194 0.14091636
-0.08231808 0.022813056 0.38807175 0.13639142 -0.44176078 -0.4022636 0.19313173 -0.15223154
-0.22480842 0.1539581 0.15910736 0.084120765 -0.31400642 0.12240156 0.0049737906 0.1761443
0.23025331 0.16312261 -0.2761346 -0.0099009685 -0.21096347 -0.19233206 0.22357392 0.14856663
-0.024568867 -0.007899789 0.1944861 -0.077509925 0.10447211 -0.05810985 0.34526485 0.22407727
0.13380203 0.0660949 -0.379218 0.0653545 -0.2184791 -0.04975629 -0.16684368 -0.08692229
-0.12020437 0.2055219 0.3569927 0.1845248 -0.064060725 0.0280739 0.07105682 -0.2648614
-0.3365091 -0.07306931 0.00048188874 -0.17427877 -0.29831737 -0.10323037 0.14286602 -0.16482736
0.13621193 -0.006128909 -0.042841315 -0.022351041 0.027741108 0.24183273 -0.016252259 0.31952047
-0.25641724 -0.009011637 -0.09591343 -0.019725006 -0.10339057 -0.13266455 0.28914556 -0.23378448
0.12686215 -0.18265663 0.079821765 0.16222127 -0.04266245 -0.03544386 0.07627443 0.061730165
-0.34766597 -0.1158583 0.00182338 -0.32411623 -0.047845874 0.098514594 0.06090271 -0.053019922
-0.061599128 -0.053281825 -0.17909305 -0.08384456 -0.13674192 -0.15744613 0.15721925 0.011633781
0.054166336 0.10440121 -0.14461082 0.023458835 -0.03321361 -0.3399411 -0.061372165 0.039939184
-0.016963784 0.24700235 0.056222804 0.13777797 -0.21024948 0.054558247 0.17384894 0.06906177
-0.28651595 0.45584464 -0.15638736 -0.018583046 0.3202924 -0.14453082 0.19513322 0.022110732

l2/W f4 [81, 81]
00000000: 4a3c 30be 674f 66be a8f6 fc3c fbb1 093e
00000010: 8e67 cabe c290 7b3e 0c8f ea3d bb25 c2bd
00000020: eaf8 f03d 092a 0fbb 382c a73c 0359 6d3c
00000030: c98c fa3c 292c 9dbd 26a8 e6bc 2239 2d3d
00000040: aa5a 16be 9e0f 7c3c 7217 233e 7dae dfbb
00000050: afe7 643e 48d2 993d 22b8 7c3e caab 2dbe
00000060: 7a41 a4bd e8c4 41be a6bf 08bf 86dc 0ebd
00000070: aa1e 283e 68bc 51be 3f21 41bd 2f8c f0bd
00000080: e5d5 23be f249 1fbd 6129 e43d 8d7f 0bbf
00000090: 91d6 903d 1847 973d b9cf bfbe 82e4 b73e
000000a0: 87de ccbd ecc6 0d3e 0e39 4d3e 33ba 08bd
000000b0: 3b30 94be 3277 753e 2563 b43d 0e95 023d
000000c0: 5c8b e4bd c343 2dbe a91e 523e 24d4 14be
000000d0: 152a edbd 66e6 34be 49af a6bd 87fb 6dbd
000000e0: cdf8 973e f192 49bf 3c3d af3e 8fac a6be
000000f0: 7e17 4dbe 710d 77bc 4a33 1dbe 1f03 c2bd
00000100: faff ce3d 3f59 623c caf1 ccbd 0556 f7be
00000110: 115e f03d 4067 2b3d 228d 553e 4f19 fabd
00000120: 3139 e5bd 2ace c4bd be55 2e3d 3912 0dbe
00000130: eabb babe a656 95bd 7f96 86bd b965 d2be
00000140: c98c 553d fba1 903d 6e81 cabe 7115 fd3d
00000150: b072 ea3d 7b24 81bb f048 7bbe 7bcb 53bd
00000160: 40df 63be 1a7a e9bd d9eb 593e d6fe 0e3d
00000170: f2bd 0ebd fd13 9c3d 3737 18be f3b9 e7bd
00000180: f007 04be 4b05 9d3d 36f8 903d 8651 2f3e
00000190: 8d88 b7be 8bcb 4d3e b693 e33e 6e08 873e
000001a0: 05aa 973c dc31 a23d 1270 0ebe 9104 7f3e
000001b0: c427 51be fd4a 873d cd63 8abc b4c0 6cbe
000001c0: 6b89 efbc 7b0d 263e 5974 253e 8db9 2abc
000001d0: 430a 9fbe 9268 1bbc 5267 7a3d 66f6 eebd
000001e0: 2cdf f1bd 33ea 1ebf a64c 89be f34c cdbe
000001f0: 552c d23d aa8e 1dbe f735 b5bc 27fa 1dbd
00000200: 8a36 53be 3526 24be b2a9 383e efaa 87be
00000210: 1340 39bd 0665 eebc 23d0 523e 220a 3f3e
00000220: b7d5 383e 535f e1bd f2d5 7e3d be97 2dbe
00000230: 3895 213e 6ee0 11be 4a68 9dbb c2bc 583e
00000240: cffb 91be 0980 01be b935 a93c d96c dc3c
00000250: f981 8b3e cbc8 86bb a8d9 83be 7390 24bd
00000260: 8138 dabd 9bff cabb d267 3cbe 1ea6 fbbd
00000270: b479 f03d 47c4 39bd 7bc5 2bbd b722 8b3d
00000280: 609b bf3e 4988 993e 7857 6dbe d950 db3d
00000290: ab20 213e c2b3 f83a 26a5 d53d 944e c03c
000002a0: 4be5 46be 8025 51be c349 00be 21cf d2bb
000002b0: a5ab 5f3e a70f dbbd be1a abbd a322 d2bd
000002c0: 1b25 d0bc 0d3b c7be 6d61 97bd 7346 3abe
000002d0: 015b 9f3d 8256 47be f771 26be 56c7 d5be
000002e0: 220f d43c b1a9 14be abaf 8ebe c613 c4bd
000002f0: d766 d1bd ceee d6bd 4381 4dbd 3482 3b3e
00000300: 35e4 863e 5ed3 18be b29f 553d c44d 5a3d
00000310: 3fc8 bdbc 18f0 ae3e b9e9 1bbf d56a 5c3e
00000320: e7f8 853d 50ea c5be 9f54 a8bd 4d05 58be
00000330: 5250 24be adb1 6b3e 640b 2cbe 9617 fbbd
00000340: a000 163e 5d49 8fbe 8f20 fc3d 6086 16be
00000350: ec6e 9c3d 5d1f 793d 1bdb c1be 168b babe
00000360: 2f0f dfbd 71a4 0bbe 1b3e 823e 2127 91be
00000370: 3e3f bfbe aee8 52be 5368 433e 2806 b0be
00000380: 2736 dabe 68da eebd 0b61 2ebe 140f 49be
00000390: c077 08be 970f a2be c624 73be b537 2fbe
000003a0: 1a0f 86be 951e 17bc 1b2d 82be e42c 163d
000003b0: 57c3 e7be 199c 423d 984d 5dbd 1140 fb3d
000003c0: 46ca 9fbd 4365 2abe bae1 443d b228 8b3d
000003d0: ba4a 01be 9803 d6bd aa04 0abe c194 66be
000003e0: b518 07bd 9ce5 253e b69c ca3c 0a31 afbe
000003f0: 4dbb 82bd e4f7 04be 185a 353c c5b5 97bd
-0.17210498 -0.22491227 0.030879334 0.134468 -0.3953213 0.2456694 0.11453065 -0.09479853
0.117662266 -0.0021845123 0.020406827 0.014486554 0.03058471 -0.076744385 -0.028156351 0.042290814
-0.14683023 0.015384583 0.15926912 -0.0068262205 0.22354005 0.07510811 0.24679616 -0.16960064
-0.08020301 -0.1892277 -0.5341743 -0.034878276 0.16417947 -0.20482028 -0.047150847 -0.11745488
-0.15999563 -0.03888888 0.11140705 -0.544915 0.07072175 0.07386607 -0.37463167 0.35916525
-0.10003381 0.13845414 0.20041296 -0.0333807 -0.28943047 0.2397125 0.08807973 0.03188043
-0.11159393 -0.1692038 0.20519508 -0.1453405 -0.11580292 -0.17666015 -0.08138902 -0.058101203
0.29682007 -0.7873984 0.34226406 -0.32553527 -0.20028493 -0.015078888 -0.15351596 -0.094732516
0.101074174 0.013815223 -0.10007055 -0.48307815 0.11736692 0.041846514 0.20854619 -0.122118585
-0.11192549 -0.09609635 0.04256224 -0.13776483 -0.36471492 -0.072919175 -0.065716736 -0.41093233
0.052136216 0.07062145 -0.39551872 0.12357605 0.11447656 -0.0039411164 -0.24539542 -0.051707726
-0.22253132 -0.11400242 0.21281375 0.034911 -0.034849115 0.07621 -0.14864813 -0.11314764
-0.12893653 0.07667025 0.070785925 0.17120942 -0.35846367 0.20097177 0.44448632 0.2637362
0.018513689 0.07919666 -0.13909939 0.24904086 -0.20425326 0.066061 -0.016893292 -0.23120385
-0.02924033 0.1621608 0.16157664 -0.010420215 -0.31062517 -0.009485381 0.06113369 -0.116680905
-0.11810145 -0.6207611 -0.2681629 -0.4009777 0.10262362 -0.15386453 -0.022120459 -0.038568642
-0.20626274 -0.160302 0.18033484 -0.264976 -0.04522712 -0.029100906 0.2058721 0.18656209
0.18050276 -0.1100451 0.062215753 -0.16952416 0.15779579 -0.1424577 -0.004803692 0.21165755
-0.28512427 -0.12646498 0.0206555 0.026907371 0.272476 -0.004113292 -0.25751996 -0.04017682
-0.106553085 -0.0061950213 -0.1839898 -0.12287544 0.11741963 -0.0453532 -0.04193638 0.06793731
0.3742323 0.2998679 -0.23177898 0.1070878 0.15735118 0.001897447 0.1043189 0.023474969
-0.19423406 -0.20424461 -0.12528138 -0.006433383 0.21842821 -0.10696345 -0.0835471 -0.10260513
-0.025408318 -0.3891224 -0.07391629 -0.18190937 0.077810295 -0.19466594 -0.16254412 -0.41753644
0.025886122 -0.14517857 -0.278684 -0.09574084 -0.10224693 -0.10494767 -0.0501721 0.18311387
0.26345983 -0.1492438 0.05215425 0.05329682 -0.023166774 0.34167552 -0.6090351 0.21525128
0.06541615 -0.3865533 -0.08219265 -0.21095772 -0.16046265 0.23016997 -0.1680122 -0.12260358
0.14648676 -0.2798566 0.123108976 -0.14699697 0.07638344 0.060820926 -0.37862477 -0.3643424
-0.10891568 -0.13636948 0.25438008 -0.28350165 -0.37352937 -0.20596573 0.19082765 -0.34379697
-0.4261944 -0.116627514 -0.17029206 -0.19634658 -0.13326931 -0.3165252 -0.23744497 -0.17111094
-0.26183397 -0.0092236 -0.25425038 0.036663905 -0.4526622 0.047512148 -0.054029077 0.12268079
-0.078022525 -0.16640191 0.048066832 0.067948714 -0.12626162 -0.10449904 -0.13478342 -0.22517683
-0.032982547 0.1620087 0.024732929 -0.342171 -0.06383381 -0.12985188 0.011068843 -0.07407717

l1/b f4 [81]
00000000: f8b0 fcbd e0b9 69be 9bc2 4cbe 1e67 80be
00000010: 0232 dabe 6e8c 5bbe 0c54 72be ea98 20be
00000020: b067 b5be 11e8 cfbc 5d10 80be 25f0 f0bd
00000030: 2daf 41be e871 89bd d62d edbd 0009 54bd
00000040: 7cf9 04bf b069 b7bd 7e13 6f3d 249e dbbd
00000050: e041 90be c13e 32be e7fa c9be b77b d4be
00000060: 7fdf c5be 573d cfbe 6fd3 1fbd a432 9cbe
00000070: bdcf 60bd b78e cf3c f011 96be c0f0 a3ba
00000080: 3867 3e3d 2e50 90be 2958 f5bd 937e 883d
00000090: 365b 1dbe 3b21 16be e4f1 44bf 4821 90be
000000a0: 74ef 143e 72e6 2cbe 1c67 87be cc37 09be
000000b0: 7c05 8ebe ddb9 4f3e a2dd 16be a049 31be
000000c0: 8ee3 4bbd 2a34 d0be e697 55be 50f7 74be
000000d0: 4814 63be 2c9f aebd 5bb1 c3be 98de 66bd
000000e0: 5950 76bd b9de 0ebe 6324 7d3b a638 e5be
000000f0: 05f3 b8bd 9a79 96be 3094 61be b66b f7be
00000100: 32e6 743d f2ae 05bd 1704 05bf 75e8 f3bd
00000110: 024e 07be 8e34 32be f0e6 41bd 7795 66bc
00000120: f083 ab3e 7e86 01be 28a5 dabe bd6c 79be
00000130: 3979 423d 672c 7abb 5d3e dc3d 5b18 48be
00000140: b9b5 44bd
-0.123384416 -0.22824812 -0.19996111 -0.25078672 -0.42616278 -0.21440288 -0.23664874 -0.15683332
-0.3543067 -0.025379213 -0.25012484 -0.11764554 -0.1891448 -0.06711179 -0.11581008 -0.051766396
-0.5194318 -0.08955705 0.0583682 -0.10723522 -0.2817526 -0.17406751 -0.39449236 -0.41500637
-0.38647076 -0.40476486 -0.03902 -0.30507386 -0.054885615 0.025336606 -0.2931056 -0.0012507662
0.046485156 -0.28186172 -0.11979706 0.06664767 -0.15366825 -0.14661114 -0.76931596 -0.28150392
0.14544469 -0.16884783 -0.26445854 -0.13400191 -0.2773856 0.20285745 -0.14732984 -0.17313242
-0.04977756 -0.40664798 -0.20858726 -0.23922467 -0.22175705 -0.085264534 -0.3822125 -0.056364626
-0.06013522 -0.1395215 0.0038626425 -0.44769782 -0.09030727 -0.2938965 -0.22029185 -0.48324364
0.059789844 -0.032637544 -0.51959366 -0.11909572 -0.13213351 -0.1740286 -0.04733938 -0.014073721
0.33499098 -0.12648961 -0.4270413 -0.24357887 0.04747889 -0.0038173439 0.10754082 -0.19540541
-0.048024867

l2/b f4 [81]
00000000: 88b3 b4bd ad6b e0bd d0ea 52be 7130 153c
00000010: 6e56 723d f52b b3be 61c2 bebe b062 1fbe
00000020: 3053 06be 0d24 173e 6826 d3be 009a 723d
00000030: fb3b bbbd 67c9 20be fa0d 0a3d ac04 733e
00000040: 0059 a1bc 576e 98be 8835 5cbe 89be b8be
00000050: 46d6 3cbe d3d9 a53d cdb9 4abe 17f2 98be
00000060: c5c2 f5bd 32dd c1bd 0eb9 62be d492 69be
00000070: 0f6f 6bbe 7a0c 5bbe 7c89 edbc df29 0fbe
00000080: ca4a 81be fafc 5abe 3527 debd 8ebe f0bd
00000090: 5d2e 5cbe ca74 033e ff51 7dbe 05b9 03be
000000a0: d95f 1e3d 0a37 11be 9286 92be 7a5c 92bd
000000b0: 66fd 8fbd fdc5 40be e41c 47be ecc7 c0bd
000000c0: c3e4 6bbe 0906 9cbe cc5d acbe 46fa 1bbe
000000d0: 3590 09be 4ba7 88be 2f4a 13bd d768 143e
000000e0: 9523 993d 2deb 153d eec5 d73a f0ad 66bd
000000f0: dbbc cfbe 3c50 babd d19e 8ebe 7e58 28bd
00000100: 15d5 8fbd 057b 06be a583 a4be b715 49be
00000110: bb47 a0be f825 55be b52c 97be e637 a5be
00000120: 2528 00be b006 69be 9ed4 45be f509 06be
00000130: e6c6 02be b533 56be 8e42 a4be a536 a1bd
00000140: 5a0f 23be
-0.08823305 -0.109580375 -0.20597386 0.009105788 0.059164457 -0.34994474 -0.37257674 -0.1556499
-0.13117671 0.14759846 -0.4124024 0.059228897 -0.091423 -0.15701829 0.033704735 0.23732251
-0.019695759 -0.29771683 -0.21504796 -0.36082867 -0.18441114 0.08098187 -0.1979744 -0.298722
-0.1200004 -0.09466018 -0.22140905 -0.22809917 -0.22991584 -0.21391478 -0.028996222 -0.13980816
-0.25252372 -0.21385565 -0.10847322 -0.117550954 -0.21502061 0.1283752 -0.2473831 -0.12863548
0.038665626 -0.14181152 -0.28618294 -0.07146545 -0.07030754 -0.18825527 -0.19444615 -0.09413132
-0.23036484 -0.30473354 -0.3366531 -0.1523219 -0.13433917 -0.26690134 -0.03595942 0.14493118
0.0747749 0.036601234 0.0016462186 -0.056318223 -0.40573773 -0.09097335 -0.27855542 -0.041100018
-0.07023064 -0.13132866 -0.32131687 -0.1963719 -0.31304726 -0.20815265 -0.29526296 -0.3226921
-0.12515314 -0.22756457 -0.19319388 -0.13089736 -0.12771186 -0.20918162 -0.32082027 -0.07871751
-0.15923825

l0/W f4 [81, 9]
00000000: ab4c f93e 88b3 473d 278f 963d 3104 5c3e
00000010: 02af 983d 6792 d03e 5f1d f83e 3167 393d
00000020: 2dc0 313f b4b8 b23d 87ea 993f ccb3 c53d
00000030: 9d7a 60be a114 273f d1b3 39be 909f 273d
00000040: 74c2 173f 96e0 be3e 66df 8bbd ca8b 633e
00000050: b321 563e 43ef 2cbf 8cee 463e 8ed0 e13d
00000060: 97a5 2ebf 40ee b53d 4478 9bbe 5d42 f73e
00000070: e88b c83d 8d75 903d bc90 1dbe 284a e83d
00000080: 9b4b b8be 27f9 6cbe 640a c53b bd64 babe
00000090: 375f fa3e c0b2 eb3b 03ae 853b c628 01bd
000000a0: e666 01bf c5bd bfbb f0ec dcba 7ba4 00be
000000b0: dbe0 f2be 2ec1 9dbe 83be f5be 541c e33e
000000c0: d0bc 143f b6bf 87be 3c7b da3d b83d aabe
000000d0: 364c 58bf 7d77 b83d 5e1c b5bd aebf 15bf
000000e0: 2f56 12bf 220f 6a3e ea51 bdbe b665 5f3d
000000f0: 157d 233f 1a79 85be c959 89be da1f c4be
00000100: 9283 94be 755e 83be 1a6d b8be e243 32be
00000110: 7cc4 cbbc fa13 b6be 443c 333f 6341 d3be
00000120: 3e42 be3e 5e62 f13d d1f6 583e b0db 3ebe
00000130: 369d d33c c8f4 713d 35d0 afbd e6c1 66bf
00000140: 5326 ac3e 07cc 573e ce67 a3bd ff42 343e
00000150: 5b61 023f e846 c9be d913 30be c080 0b3d
00000160: 6253 453d 0f11 a83e 1978 e13d 08fe c9be
00000170: c6f7 e0be a945 1abd 156b 883c b8b0 c2bd
00000180: ed60 5dbf 5094 01bf 90cb 39bf 59bb f53e
00000190: 1b08 1f3e c6bb e2bd af59 833d f70a 3c3f
000001a0: 36c9 2c3f e265 c83e 011d 3f3d 7a98 38bd
000001b0: fc07 003f 047d 063f 99cc d63e 6729 393e
000001c0: 7a2b 193f f921 18be 9199 67be 5f7f c13e
000001d0: 0d0c 903e ff86 573f 321c d5be 5dfe 013e
000001e0: 674f 5e3e 67b1 e13e 7a6c 0b3f 316a ddba
000001f0: 253a 8dbe 83a3 213f 2e4e 33be b826 be3d
00000200: 7583 62bf f158 773d ae3d 2ebf 807b 4fbd
00000210: 42ff 4cbf 779f 9a3e 8f2c dd3c 1d07 213e
00000220: b0c9 fc3e 41d7 b43e 2845 e53e 542a ce3e
00000230: 0479 41bc 2159 073e 40eb 58be 775b 143e
00000240: a447 5d3f 465f 2c3e f5c0 d53e 8cc9 983e
00000250: 759a ab3e f4ff 1f3f b009 e13e 5cd3 943e
00000260: 4cc6 373e 6e65 8cbe 1d60 773e 5217 d8be
00000270: ed81 adbe 7941 09bf 5fc7 08bf 163b 8a3e
00000280: 9466 ff3c 1b7d 50bd ed91 f53c f4b7 9cbe
00000290: eb17 7a3d 83da e93c 3f69 23be 1f84 673f
000002a0: 795f 0e3e b6eb b7bd b6fd 7d3d 03a3 b33b
000002b0: e58f 06ba c049 edbd 5080 343e a37d b9be
000002c0: 3331 b73e 1e48 87be f160 37be 4b50 913e
000002d0: c546 09be 5389 593d 7a77 ef3e 4c56 1abe
000002e0: 9ea6 65bd 444a c33e d462 e23e 8a97 a33e
000002f0: 15ad a2be ff1c de3e 5ff9 503f 9bac e83e
00000300: 47d1 cf3e 5b0f db3e dec6 493f 9d43 dd3e
00000310: a0d1 d23e cdd9 ea3e dda5 c93c 06f8 c03e
00000320: afab e5be 56cb 86be 8fe2 92bb 472b 753e
00000330: 7115 433e 3771 fb3e 8dde 403e 2835 8f3e
00000340: 6fb2 293e afff 0ebe 3818 9cbe 0861 65bf
00000350: de25 adbe 28f1 39be 5180 543d ca92 cd3e
00000360: c673 a639 b7c9 2bbe e2a7 c8be eebf 5f3f
00000370: e4d7 e6be 816b e8be 4067 65be eddc 14bd
00000380: a71c f8be 2057 2f3d a6ac 40bd 7598 193f
00000390: 6e34 b0bd a73c f93d b12d 06bf 9b6d 06bd
000003a0: 6ab6 56be c7bb 2f3f 49dc b0be 1f08 eabb
000003b0: 51aa 06bd 0a33 683e 979f 913e 2245 9c3e
000003c0: 3ab0 dc3e 6bde f8be a62e ad3e eac5 0d3f
000003d0: 7156 9fbe 0890 72be 5223 cf3e de0c 65bd
000003e0: 5a67 b8be b912 153d 7b1f 983d ae59 393e
000003f0: 4f53 e83e e982 2d3e e4a7 ee3d 9929 febd
0.48691306 0.0487552 0.07351523 0.21485974 0.07455255 0.40736696 0.48459908 0.045264427
0.6943386 0.087266356 1.2024697 0.09653434 -0.21921773 0.6526585 -0.18135001 0.040923655
0.59281087 0.3728072 -0.06829719 0.22221294 0.20911293 -0.67552584 0.19426936 0.11026107
-0.6822142 0.08883333 -0.30365193 0.4829282 0.0979231 0.07053671 -0.15387243 0.11342269
-0.35995182 -0.23141919 0.0060132015 -0.36404982 0.48900768 0.0071929395 0.0040795817 -0.031533025
-0.50547636 -0.0058514797 -0.0016855281 -0.12562744 -0.47437176 -0.30811447 -0.4799691 0.4435755
0.58100605 -0.2651345 0.10668036 -0.33250213 -0.8449129 0.090071656 -0.08843301 -0.58495605
-0.57162756 0.22857335 -0.36976558 0.05454036 0.63862735 -0.26068956 -0.26826313 -0.3830555
-0.2900663 -0.25658002 -0.36020738 -0.17408708 -0.024873964 -0.35562116 0.70013833 -0.41260824
0.37159914 0.1178634 0.21187903 -0.18638492 0.0258318 0.059071332 -0.08584634 -0.90139616
0.3362299 0.21073924 -0.079787835 0.17603682 0.509298 -0.3931191 -0.17195071 0.034058332
0.048175223 0.32825515 0.11009235 -0.39451623 -0.43939036 -0.03766409 0.016652623 -0.09506363
-0.8647602 -0.5061693 -0.72576237 0.47994497 0.15530436 -0.11070971 0.0641359 0.7345423
0.67494524 0.3914023 0.04665852 -0.045067288 0.50012183 0.5253451 0.4195297 0.180822
0.59831965 -0.1485671 -0.22617175 0.3779249 0.28134194 0.8419036 -0.41623074 0.12694688
0.21709977 0.4408066 0.544624 -0.001689261 -0.27583423 0.63140124 -0.17510292 0.09284729
-0.8848184 0.060387556 -0.68062866 -0.05065489 -0.8007699 0.30199787 0.026998786 0.1572537
0.49372625 0.35320476 0.44779325 0.4026667 -0.0118086375 0.13217594 -0.21183491 0.14488016
0.8643744 0.16833219 0.41748777 0.29841268 0.3351628 0.6249993 0.43952703 0.29067504
0.17946738 -0.27421135 0.24157758 -0.42205292 -0.33888188 -0.5361553 -0.53429216 0.26998204
0.031176843 -0.05090056 0.02997681 -0.30609095 0.061057966 0.028546577 -0.15958117 0.90435976
0.13903607 -0.08980505 0.062009536 0.005482079 -0.00051331363 -0.11586332 0.17627072 -0.36228666
0.35779724 -0.2642221 -0.17908074 0.2838157 -0.13405903 0.05310948 0.4677084 -0.15071982
-0.0560671 0.38142598 0.44216025 0.31951553 -0.31772676 0.43381497 0.8163051 0.45444188
0.40589353 0.42785153 0.7881907 0.43215647 0.41175556 0.45869294 0.024615223 0.37689227
-0.44857547 -0.26327008 -0.0044825743 0.2394229 0.19051148 0.49109814 0.18834896 0.27970243
0.16571973 -0.13964723 -0.30487227 -0.8960118 -0.33817953 -0.181584 0.051880185 0.40151054
0.00031748245 -0.16776167 -0.39190584 0.87402236 -0.45086586 -0.4539452 -0.22402668 -0.036343504
-0.4845936 0.0428077 -0.04703965 0.59998256 -0.0860375 0.12169772 -0.5241347 -0.03281937
-0.20968023 0.686459 -0.34543064 -0.0071420814 -0.03287727 0.2267572 0.2844207 0.30521494
0.431032 -0.4860719 0.33824652 0.5538012 -0.31120637 -0.23687756 0.40456635 -0.055920474
-0.3601635 0.03639481 0.074278794 0.18100616 0.4537606 0.1694447 0.11653116 -0.12410278
