chainerrl/TicTacToe/result_20000/model.npz (npz, 56606 bytes, 8 tensors)

l3/b f4 [9]
000000 d5 e4 96 bc f5 24 b8 39 79 40 c6 3d 79 36 bc 3c
       -0.018419662 0.0003512275 0.09680266 0.022975193
000010 7a f9 d0 3b ca f6 ca bd 7a 68 89 3d c7 8c 11 bb
       0.006377396 -0.099103525 0.067093804 -0.0022209154
000020 7c 79 67 3d
       0.05651234

l0/b f4 [81]
000000 6d 17 67 3e 2e 4a 58 bc 45 d4 8a be a6 a1 bb be
       0.2256753 -0.01320128 -0.27115074 -0.36646765
000010 5e 54 a8 be 29 c9 97 be 3f d5 94 be 92 a4 b4 be
       -0.32876867 -0.2964566 -0.29068944 -0.35281807
000020 ed 97 23 be 40 8b 50 3e 8c 49 91 bc 22 64 40 be
       -0.15975924 0.2036562 -0.017735265 -0.18788198
000030 0f 76 93 bc 23 18 6f be ae 7a 01 be 5b c0 0d be
       -0.01800063 -0.23349051 -0.12644455 -0.13842909
000040 9b d6 62 be 59 2f 87 be 0c 56 1a be 83 55 0f be
       -0.22152178 -0.2640331 -0.15071887 -0.13997464
000050 46 a7 11 be ac 52 46 bd 5d a4 a2 be a1 d3 64 be
       -0.14223966 -0.048418686 -0.31766024 -0.22346355
000060 82 9c 70 bd b6 13 45 be 2a c4 2c be 08 f4 80 be
       -0.058743007 -0.192458 -0.16871706 -0.2518618
000070 60 2f 01 bd 84 97 6c be 17 99 a3 3e 04 eb 43 be
       -0.03153932 -0.23104674 0.31952736 -0.1913262
000080 d0 18 21 bf bf ff 01 3c 47 94 a0 be ff e1 64 be
       -0.62928486 0.00793451 -0.31363127 -0.22351836
000090 20 fa 3b be e7 da a2 be 7c 32 55 be 2e ef b0 be
       -0.18357134 -0.31807634 -0.2082004 -0.3455748
0000a0 85 7c c2 be 4a 50 80 be 7c 32 9b be 89 34 40 bd
       -0.37985626 -0.25061256 -0.30311954 -0.0469251
0000b0 51 72 7b bc 36 b4 bd be 68 56 a9 be a8 fe ab bd
       -0.015347079 -0.37051553 -0.33073735 -0.08398181
0000c0 9f 5c 38 be 7d d7 da bd af 4d cb bd 1b e6 14 be
       -0.18004082 -0.106856324 -0.09926926 -0.14540903
0000d0 25 aa d4 be 99 d6 d3 be f4 f9 7d be 3c 34 ac be
       -0.4153606 -0.41374663 -0.24802381 -0.33633602
0000e0 6d 24 2f be 9c 86 16 be 04 f3 e7 bd 4f f1 83 be
       -0.17103739 -0.14699787 -0.113256484 -0.2577004
0000f0 c6 1c d3 bc 97 36 55 be d7 06 57 be 46 a9 46 be
       -0.025770556 -0.20821606 -0.20998703 -0.1940051
000100 ac 40 3c bd ad 57 b5 3b 04 e2 90 3d 1e 53 2d be
       -0.045960113 0.0055341334 0.07074359 -0.16926238
000110 2d 48 08 3e d3 3f d4 bd 17 f0 15 bd 75 30 c7 3c
       0.13308783 -0.10363736 -0.03660592 0.024315098
000120 0f 04 91 be ee 4b ba be e9 fc 24 be ca 4f 21 be
       -0.2832341 -0.36386055 -0.16112103 -0.15753093
000130 f5 ee 03 bd dc 20 67 be 10 ab 24 3e ec 9c 47 3d
       -0.03221031 -0.22571129 0.1608088 0.048733637
000140 ff 71 6e be
       -0.23285674

l2/W f4 [81, 81]
000000 24 d1 6d bd dc 56 d6 bc 19 b8 a8 3e a1 83 b5 bd
       -0.05806078 -0.026164465 0.32952955 -0.08862997
000010 bf 7f 73 3c ae 13 41 be 4e 00 48 3d ab 3d 25 3e
       0.014862 -0.18855163 0.048828416 0.16136806
000020 fd 70 02 3e 60 4f 7a be 34 0b e0 3d c3 54 2b bc
       0.12738414 -0.24444342 0.10939637 -0.0104572205
000030 26 66 d6 3c 24 b9 99 3e 62 f6 0e be f0 49 c3 3e
       0.026171755 0.30024064 -0.13961175 0.38142347
000040 b2 19 a6 be 62 d8 22 bd 53 d0 8b 3e b5 99 1b be
       -0.3244148 -0.03975714 0.27307376 -0.15195353
000050 11 8a cb 3d 63 4b 47 be a1 30 ad 3d 90 6d 65 3e
       0.099384435 -0.19462352 0.08456541 0.22405076
000060 4f 4c 8a bd 50 70 74 be 24 89 0b be a5 c5 a1 bd
       -0.06752836 -0.23870969 -0.13626534 -0.07899026
000070 46 c1 52 be 09 32 b5 3d f3 ea 96 bc dc 63 86 3e
       -0.2058154 0.08847434 -0.01842258 0.26248062
000080 e7 ce 52 3e 67 e1 c1 3b be a4 fc 3d 41 0c 61 bd
       0.2058674 0.0059167626 0.123361096 -0.054943327
000090 4e fa 63 bc 42 ca 2b bd 1d e0 45 3e 26 f6 64 3c
       -0.013914658 -0.041940935 0.19323774 0.013974702
0000a0 09 55 92 bd 80 62 57 3e 96 37 6b be 8d 7b 14 bd
       -0.071451254 0.21033669 -0.22970423 -0.03625064
0000b0 09 0d 09 3d e5 d9 b9 bd 0d ac 68 be 3d 47 0c 3d
       0.033459697 -0.09074763 -0.22721882 0.034247626
0000c0 4c 56 3e 3c 27 de 5a bd ad 3f 5c be 59 80 18 3e
       0.0116172545 -0.053434517 -0.21508665 0.14892711
0000d0 83 22 8b be a8 06 1a be 8d 91 2c bc 9f 46 07 3e
       -0.27174768 -0.15041602 -0.010532749 0.13210534
0000e0 a1 61 36 3e c5 5f 58 3d 18 98 c7 3e e2 a6 26 3d
       0.1781068 0.052825708 0.38983226 0.040686496
0000f0 d2 4b ac be cb f2 15 3e 69 d5 03 bd 28 09 0d bf
       -0.33651596 0.146434 -0.032185946 -0.55092096
000100 b7 fd 65 be c7 7a 65 3e 0d 67 fa 3d 6d 09 fa 3d
       -0.22460066 0.22410117 0.122266866 0.12208829
000110 c6 52 17 bd 80 c6 12 3e 5a 35 82 3d 60 6b d7 3d
       -0.036944173 0.14333534 0.06357832 0.10518527
000120 6a ba b5 3c fd d0 6d bc a5 ca ec 3d 69 be 8e bd
       0.022183616 -0.014515159 0.11562089 -0.069699116
000130 f7 90 43 bd 06 0a 21 be a0 ee e3 bd 63 f7 b7 3e
       -0.04774567 -0.1572648 -0.111294985 0.3593093
000140 1c 5e 26 bc dc 51 c1 3c f5 9a 9c bb 77 37 df bd
       -0.010154273 0.023598604 -0.0047792145 -0.10899251
000150 be c1 8a 3c 21 fd 98 bd ee 1d 92 bd 5d e1 c1 3b
       0.016938087 -0.074701555 -0.07134615 0.005916758
000160 41 0b f6 bd f8 f6 ac 3d 45 2f 86 bd 18 12 90 be
       -0.12013865 0.08445543 -0.06551985 -0.28138804
000170 e3 05 f8 3d 8a ab eb 3c f5 ea 68 be 52 db 28 bd
       0.12110498 0.02876832 -0.22745879 -0.041224785
000180 22 f1 00 be dc 55 95 bd ec 69 de bd 15 e7 27 be
       -0.12591985 -0.07291767 -0.10860047 -0.16396745
000190 83 31 08 be 57 89 56 be 04 d4 e8 3c d5 c0 65 bd
       -0.13300137 -0.20950828 0.02842141 -0.056092102
0001a0 1e 91 5a bd 45 76 21 bd 97 bc 1c be 87 7e d8 3c
       -0.05336105 -0.03941943 -0.15306316 0.02642752
0001b0 86 62 0b be 93 15 10 bb 9e 48 15 3e b0 36 a2 bd
       -0.13611802 -0.0021985515 0.14578483 -0.07920587
0001c0 f7 75 b8 bd 4e b0 81 3b c9 96 83 be 5a 40 52 3e
       -0.09006875 0.0039577847 -0.25700977 0.2053236
0001d0 28 65 eb 3d cc 84 94 3e 91 93 33 be 35 de 8a bd
       0.114939034 0.29007566 -0.17536761 -0.06780664
0001e0 74 87 7b 3b b0 d2 e6 bd 81 4f 0f 3e b4 56 c2 3c
       0.0038380297 -0.11270654 0.13995172 0.023722984
0001f0 55 c3 d6 bd 30 9c 23 bd 4a 15 ae 3d 91 cf 84 3e
       -0.104864754 -0.039943874 0.08500154 0.2593961
000200 eb 5f a7 3d 6f ba 3b be f4 79 c4 3d fa 90 c4 bc
       0.08172592 -0.18332838 0.09593573 -0.023994911
000210 85 36 9c bd 0a 73 6a bd 6c 60 3d be 19 27 29 be
       -0.07627586 -0.057238616 -0.18493813 -0.16518821
000220 eb 14 80 3d b6 48 37 3e 8e cc c6 bd 64 b1 b1 bd
       0.0625399 0.17898831 -0.097069845 -0.08676413
000230 47 82 25 3c 7a 4f 11 3d ba 7d 64 bc 73 6a 43 bd
       0.010101861 0.035476185 -0.013945991 -0.04770894
000240 7c 81 f8 3d 36 e8 23 be c5 f9 c2 bd 5a de 86 3d
       0.12134072 -0.1600655 -0.09520296 0.06585379
000250 f8 a8 41 be 93 ce 02 be 52 13 31 3c 9f 82 97 bd
       -0.18912113 -0.12774114 0.010807829 -0.07397961
000260 2d 51 9b 3d 54 96 92 be 35 af 02 bf 9f 19 2b 3d
       0.075838424 -0.28630316 -0.51048595 0.04177248
000270 ef be 77 3c 0c df ca 3d 5e ce 92 3e 86 f7 30 3e
       0.015121206 0.09905824 0.2867307 0.17281923
000280 e9 c3 6f 3d 04 4b ca bd 22 67 ca bd 98 93 85 3d
       0.058536444 -0.09877589 -0.09882952 0.06522292
000290 e5 96 f2 ba 74 13 04 be 6d 49 91 be d5 9a f0 bd
       -0.0018508105 -0.12898046 -0.28376332 -0.11748282
0002a0 12 6c 9c be d8 64 74 bc c3 25 80 be 42 6f 31 be
       -0.305512 -0.014916621 -0.2502881 -0.17327598
0002b0 26 5c 4d 3d cd 8c 02 3e 00 90 8e be db a7 dc 3c
       0.050136708 0.12749024 -0.27844238 0.026935508
0002c0 ba ca 8b bb 2e df d3 bd df 94 5b be 98 7d 59 3d
       -0.0042661102 -0.103453025 -0.21443509 0.05309829
0002d0 fd 93 98 3d 12 9f c2 bd a1 1a 08 bf 4b 4c 92 bd
       0.074501015 -0.095029965 -0.5316563 -0.07143458
0002e0 b7 16 ae be f1 75 21 be 21 f7 bb 3d 2e fe a6 bd
       -0.34001705 -0.15767647 0.091779955 -0.0815395
0002f0 1e b3 43 be 5e 1a 51 3d d7 3d 49 3d 21 58 57 3d
       -0.19111297 0.051050536 0.04913124 0.05257428
000300 8f 72 f3 3d 43 71 68 3e 75 d2 64 3d f9 0c 2a 3d
       0.11887085 0.22699456 0.05586477 0.041516278
000310 ee bf b0 bd d5 30 91 3d 55 40 92 3e 7c 36 81 bd
       -0.08630358 0.07089392 0.28564706 -0.0630922
000320 da 94 d1 3d 62 4a 9d bd 6a 8c a7 3b 75 9b c6 bc
       0.10233469 -0.07680203 0.005113174 -0.02424405
000330 a7 14 76 be 95 28 8a bd b2 cd e0 bd 1c 3b c4 bd
       -0.24031316 -0.06746022 -0.10976733 -0.09581587
000340 ad 1f 54 be 59 e5 dc bd 69 88 a3 bd 2c f6 ad bd
       -0.20715208 -0.10785932 -0.079850025 -0.08494219
000350 d3 9d 2e 3e 97 6c 9e 3e 77 40 47 be ea 66 af be
       0.17052393 0.30942222 -0.19458185 -0.34258205
000360 58 69 26 be f5 f2 aa 3e 8b 69 a2 bd cd 54 44 bd
       -0.16251123 0.33388487 -0.07930287 -0.047932435
000370 ac 5e 1e 3b b6 f2 00 3e 61 71 77 be 3d cc 2a 3e
       0.0024165316 0.12592587 -0.24164344 0.16679473
000380 39 45 30 3e be 88 31 be a8 f7 65 bc a0 52 ba 3d
       0.17213906 -0.17337319 -0.014036097 0.09097791
000390 50 40 10 3d 8a a7 64 3d 93 9f ae bd 3a 57 bc 3d
       0.035217583 0.05582384 -0.0852653 0.09196325
0003a0 3f 35 7c bd c2 c1 3f be f0 de 88 3e 7f fb 4a 3d
       -0.061574217 -0.18726256 0.26732588 0.04955625
0003b0 6d fe 37 bd 34 55 97 bd 16 d0 b1 bd 44 56 e5 3c
       -0.044920374 -0.07389298 -0.08682267 0.027995236
0003c0 03 1a ab bd 06 23 32 be 9a fa 9d bd 63 0b 1d be
       -0.08354571 -0.17396173 -0.07713814 -0.15336375
0003d0 16 89 63 3e cf 58 3e 3e 7f b7 be 3b 4d 74 e6 3c
       0.22220263 0.18588565 0.0058202143 0.028131628
0003e0 ea a8 a3 3d 95 e1 a1 3d b2 85 1a be 52 3d af 3e
       0.07991202 0.079043545 -0.15090063 0.3422647
0003f0 1c 05 6a 3e 43 e8 80 3e bc ca 79 bd f5 3c c3 3d
       0.22853512 0.25177202 -0.06098436 0.09533111

l3/W f4 [9, 81]
000000 5f c1 37 3d 55 cb ba 3d 55 70 d2 3c 4d 7f 9a be
       0.044862147 0.09120814 0.02568833 -0.30175248
000010 55 67 e6 3c cc 33 62 3d 56 cc c6 bd f8 0f a6 3e
       0.028125444 0.05522518 -0.09706943 0.32434058
000020 bc 42 ac bd 20 5c 9d 3d 64 26 b2 3d 09 bf 93 3d
       -0.08411166 0.07683587 0.08698729 0.072141714
000030 dd 8f 83 be c4 d0 f3 bd ae 99 42 3e 4c c5 c6 be
       -0.25695696 -0.11905053 0.19003937 -0.388224
000040 dc 94 d0 be d5 3c 63 be 8d b2 20 3e 59 56 da 3d
       -0.4073857 -0.22191174 0.15693112 0.10661001
000050 25 de 84 be 14 c9 9f 3e 34 aa e5 3d bc cf 13 3e
       -0.25950733 0.31208098 0.11214104 0.14434713
000060 bf 59 52 be a8 d5 25 3d e4 85 6f bc c2 c0 c0 bd
       -0.20542048 0.04048696 -0.014619324 -0.09411766
000070 63 14 3c be 65 49 9d be 87 ef 8b bd f8 bb 1f ba
       -0.18367152 -0.30720058 -0.068327956 -0.0006093378
000080 42 19 98 3e 3d c9 2d 3e d1 55 73 be a9 8b 80 3d
       0.2970677 0.16971298 -0.23763205 0.06276638
000090 f7 cd 50 b9 1c 14 22 3d c4 81 7a 3e 79 53 62 3c
       -0.00019913154 0.03956996 0.24463564 0.013813847
0000a0 1d 16 2c bd 18 67 ed 3d fb 87 a1 3d e5 1d 17 3e
       -0.042013276 0.11591929 0.07887264 0.14757498
0000b0 eb d4 06 bf 1f f1 54 be 3a 01 18 3e f6 9d a8 be
       -0.5266864 -0.20795105 0.14844218 -0.32933015
0000c0 1b 14 77 be a8 5f c4 3d 69 49 26 be 42 75 03 3e
       -0.24128763 0.095885575 -0.16238941 0.12837699
0000d0 e0 49 bf 3d cd 72 90 be 2a 21 4f bc 73 42 4e bd
       0.093402624 -0.28212586 -0.012642184 -0.05035634
0000e0 5e 5c 59 be ae 72 82 3e 9b 8b 84 3e 2d 48 8f 3e
       -0.21226642 0.2547812 0.2588776 0.27984753
0000f0 d2 84 3b be 85 4e ca 3d 6f 4e 3f 3d 8a b4 bc 3d
       -0.18312386 0.09878258 0.04670566 0.092141226
000100 2f fa 90 bc a3 d7 a1 be 37 80 a5 be ba 28 99 bd
       -0.017697422 -0.3160983 -0.32324383 -0.07478471
000110 ce c2 06 bf d8 d0 4b 3e 31 94 05 3e 13 02 43 be
       -0.52641 0.19903886 0.13044812 -0.1904376
000120 9d 78 84 be 70 f6 12 be 07 5f 96 bd 47 8d 25 3e
       -0.2587327 -0.14351821 -0.07342344 0.16167174
000130 4c 01 2d be 95 48 3b 3e 34 4e 3f bd e6 c4 3d be
       -0.16895026 0.18289407 -0.04670544 -0.18532142
000140 d6 46 d7 be 34 ba 02 3e 94 fd a3 3c ef 9d c2 bd
       -0.4204623 0.12766343 0.020018376 -0.0950278
000150 ee 3c 50 3e 29 89 56 3e 17 e2 55 bd ed e1 81 3d
       0.20335743 0.2095076 -0.05221757 0.0634192
000160 4a 99 1b be 48 97 96 bd 6a 43 aa 3a d0 30 4f 3e
       -0.15195194 -0.07353073 0.0012990062 0.20233464
000170 29 3e 26 bf 25 f9 0e be f2 93 49 be ae 02 35 3e
       -0.649386 -0.13962229 -0.19685343 0.17676803
000180 4d 8f 87 be 13 3f d7 be b7 d8 b6 3d 02 18 23 be
       -0.26476517 -0.4204031 0.08928054 -0.15927127
000190 06 54 55 3e b2 4a f6 bd 08 58 23 3d 9c 6b 4b be
       0.20832834 -0.12025966 0.039878875 -0.19865268
0001a0 45 48 91 bd 19 f2 37 be 12 ca e8 3c 4f 84 8f 3d
       -0.070938624 -0.17963447 0.028416667 0.07007658
0001b0 4d 20 3a 3e 9a 57 d8 bd 67 fd 00 be 0f b4 02 3d
       0.18176384 -0.10563584 -0.12596665 0.03191
0001c0 d0 74 03 be 5e 2a a1 bd 6c e9 12 be 0a 53 92 be
       -0.12837529 -0.07869409 -0.14346856 -0.2857898
0001d0 eb 48 92 be c2 03 5c be 6d 4a ac 3d 75 91 00 be
       -0.28571257 -0.21485808 0.08412633 -0.12555487
0001e0 a6 42 c8 bd bd 78 33 3e da c2 48 be 6c 7b 2a 3e
       -0.09778337 0.17526527 -0.1960558 0.16648644
0001f0 b7 da 8d 3d 09 2b 8d be ba 7c db 3d 36 7f 07 3e
       0.06926482 -0.27571896 0.10717149 0.13232121
000200 38 3e ff 3d b4 94 00 be 47 51 b8 3e ae 3f 25 be
       0.12463039 -0.12556726 0.3599951 -0.16137573
000210 0d 47 95 3e f7 30 83 be 9a 02 4f 3d f4 b1 cd be
       0.2915577 -0.25623295 0.05053959 -0.4017483
000220 23 46 67 3c 28 46 82 be f6 cd 4a be e7 e0 1c bd
       0.014115843 -0.2544415 -0.1980513 -0.03830042
000230 4a e0 3d 3e 5c 02 ae bd 63 e0 e0 bd 1a 25 18 3e
       0.1854259 -0.08496544 -0.10980298 0.14857903
000240 f4 34 25 bd 94 f8 e0 be a4 75 9a bd dc a0 28 3d
       -0.040333703 -0.4393965 -0.075419694 0.041169032
000250 d5 84 19 3e 23 1a ec bd 59 ee a9 3d 8b 41 01 3e
       0.14992078 -0.11528423 0.08297414 0.12622659
000260 94 ad 19 be 36 f7 55 3d e6 29 aa bd bf f9 c6 3e
       -0.15007621 0.05223771 -0.08308773 0.38862416
000270 ba 2e 9d be a2 d7 12 3e 28 2e ce bd f5 90 d7 bd
       -0.30699712 0.1434007 -0.10067397 -0.10525695
000280 5a 38 b6 bd 84 21 e6 bd ff 4e 45 3e 5e 5f 20 be
       -0.08897467 -0.11236861 0.19268416 -0.1566138
000290 18 03 be be d5 51 36 3e f1 f8 01 bf bf 68 32 3d
       -0.37111735 0.17804654 -0.5077048 0.043556925
0002a0 d7 b6 5e bd 5c 92 c7 3e 75 ea 7c be 67 f1 7b 3e
       -0.05437359 0.3897885 -0.24698813 0.24603806
0002b0 5a 7e 7e bd 5f d1 0c 3e 62 f5 0b be ae c3 83 be
       -0.062132217 0.13751744 -0.13667825 -0.2573523
0002c0 0e 81 b0 3d 02 72 37 3e 2c 0f cc 3b ec 7f 12 be
       0.08618365 0.17914584 0.0062273946 -0.14306611
0002d0 81 6c 36 bd c6 8f 8d 3b e2 35 df bc 13 ec 36 3e
       -0.04453707 0.0043201176 -0.027247373 0.17863493
0002e0 c5 0e 5a 3e ba f5 3d be 3c fd 85 3d 93 0a c2 3d
       0.21294697 -0.18550768 0.06542441 0.09474673
0002f0 11 50 2b 3e dd 53 5a be 1d 67 14 bd fd 1f 90 3d
       0.16729762 -0.21321054 -0.03623115 0.07037351
000300 2c 05 36 be 2e e4 0e 3d af 51 4c bd fd b5 8f 3c
       -0.1777541 0.034885578 -0.049882587 0.017542833
000310 7a 97 61 3e 88 32 a5 3c 2d 99 67 3d 4a 8c de 3d
       0.2203044 0.020165697 0.056542564 0.10866602
000320 01 9c 14 be 93 00 95 be e0 1d 0d be f3 1f cc 3c
       -0.14512636 -0.29102 -0.13780928 0.024917578
000330 69 2e 06 be a7 5b 00 bf 28 a4 95 3d 32 b5 d6 bc
       -0.13103642 -0.5013985 0.07306701 -0.026209448
000340 f8 86 18 be 4e 5e c1 3c f3 1a 6b 3d 1a 87 ab bd
       -0.14895236 0.023604538 0.057398748 -0.08375378
000350 3c bb 50 be 2d 09 be be 83 e1 45 be 75 a2 3d be
       -0.20383924 -0.37116376 -0.19324307 -0.18519004
000360 11 14 30 be 7d d6 0e be f0 0f ac 3b c5 d7 a3 be
       -0.17195155 -0.13949008 0.0052509233 -0.32000557
000370 73 2c 44 bd aa 54 59 bd 66 2a be 3d 31 68 4d 3d
       -0.047893953 -0.053059258 0.092854306 0.050148193
000380 00 6f 88 bd b2 01 1b 3d 9f 19 bf be 7f 92 11 be
       -0.066617966 0.037843414 -0.37324235 -0.1421604
000390 31 09 3f be 08 b1 f6 be 08 da 0c be 5b b1 0d bd
       -0.1865585 -0.4818194 -0.13755047 -0.034592967
0003a0 b6 74 b4 3e eb c6 44 3e 1b ac a7 3e f9 c1 20 3d
       0.35245293 0.19216506 0.32748494 0.039247487
0003b0 f7 6d 1e 3e 21 b5 83 be 05 02 20 be 0e f6 47 bc
       0.15471636 -0.25724128 -0.1562577 -0.01220466
0003c0 bd 4a 8c be a2 9e 08 bf cc c6 9b be 39 0c 5b bd
       -0.2740077 -0.53367054 -0.30425107 -0.053478453
0003d0 f1 0d 9a be 6d a3 a9 3c 7c b4 5f 3c dc 14 2f be
       -0.3008876 0.02070781 0.013653871 -0.17097801
0003e0 a5 0f ca be 39 f3 6e be b0 6b 74 3d 9c 37 91 3d
       -0.3946506 -0.2333497 0.05967301 0.07090685
0003f0 04 a4 61 be 83 6f 92 be c8 84 8a bc e0 ad a5 be
       -0.22035223 -0.28600702 -0.016909018 -0.3235922

l2/b f4 [81]
000000 f3 e0 46 bd 53 ed 52 be 0b 52 1d be 7a 5a d3 bc
       -0.048554372 -0.20598345 -0.15363328 -0.025799979
000010 d0 bb f8 bd 06 b3 05 3e 32 c9 4c be 78 11 f9 3d
       -0.121451974 0.13056573 -0.19998625 0.12161535
000020 4d 7b 41 be a6 f7 d1 ba ca 52 e7 bd d5 3b d3 bd
       -0.18894692 -0.001601924 -0.11295088 -0.103141464
000030 28 51 38 be b9 c0 50 bd 68 75 d5 bd 48 0c 62 bd
       -0.17999709 -0.050965045 -0.10422784 -0.055187494
000040 66 90 1f be d5 b0 c6 bd b3 29 80 bd 99 91 d5 3d
       -0.15582427 -0.09701697 -0.062579535 0.10428161
000050 68 eb cb 3d 7f 18 94 3d ef e8 8e bc 6e b8 a6 be
       0.099570096 0.07231235 -0.017445056 -0.32562584
000060 7f 68 d1 bd 36 fb 04 be 77 cf bf bd 22 b9 64 bd
       -0.10225009 -0.12986454 -0.09365743 -0.05584062
000070 b0 13 dd bd b5 b9 02 be 33 d0 02 be 24 54 2f 3d
       -0.10794771 -0.12766154 -0.12774734 0.042804852
000080 8c 17 39 bd 84 16 0d 3d 0d db 29 be 63 d0 58 3c
       -0.04518847 0.0344453 -0.16587467 0.013233277
000090 01 53 31 bc df a3 d8 3b b4 22 67 3d 96 b3 c2 bd
       -0.010823012 0.006611332 0.05642958 -0.095069095
0000a0 8b f5 84 be 24 ae 86 3c 96 6c 17 bd 66 06 ff bd
       -0.25968584 0.016440459 -0.03696879 -0.12452392
0000b0 9b 1b 6c ba 4c 6f d8 bd 5e d2 1d be 5f d3 c1 bd
       -0.0009006799 -0.10568103 -0.1541228 -0.09464144
0000c0 a0 22 4e be 9f c9 53 3d 72 04 86 bc 64 4a 6b be
       -0.20130396 0.051705953 -0.016359542 -0.22977597
0000d0 e2 8a bd b9 8b 4b 56 be 46 ed d1 bd 22 e8 7c bd
       -0.00036152365 -0.20927255 -0.102503344 -0.061744817
0000e0 c3 ef a4 bd 36 85 33 be 59 82 df bd 18 23 40 be
       -0.080535434 -0.17531285 -0.10913534 -0.18763387
0000f0 10 f1 d7 bc 2a 39 2b be 39 7b 5b 3e 5c b6 72 be
       -0.026360065 -0.16721025 0.21433724 -0.23702377
000100 cc 9b 38 be f6 ae 59 be 7c 1f 17 bc d3 58 54 be
       -0.18028182 -0.21258149 -0.009223815 -0.20737009
000110 62 59 11 be 96 62 1b 3e 35 9f 10 3e ca bc 89 be
       -0.14194253 0.15174326 0.14123233 -0.26901847
000120 01 bb 08 be 65 94 94 be a1 9e 7a 3d e4 0b 91 be
       -0.13352586 -0.29019466 0.061186437 -0.28329384
000130 8a ea e6 bd cd 76 ab be 16 ba 2d be 10 01 c2 3c
       -0.112752035 -0.33489075 -0.16965517 0.023682147
000140 12 bd 65 be
       -0.22435406

l1/b f4 [81]
000000 c6 9d e3 3c 6b 96 8e be 72 83 8c 3d f4 43 05 be
       0.027785193 -0.27849135 0.06861009 -0.13014203
000010 0a 52 4b 3e 39 7c 8e be 0c 9c 03 be 68 4d 56 be
       0.19855514 -0.2782915 -0.12852496 -0.20927966
000020 5e 77 98 bd 0b 01 dc bc e3 75 dc 3d 01 97 0f bd
       -0.074446425 -0.026855966 0.107646726 -0.035056118
000030 75 66 3f be 72 34 8f be 96 68 0f be 6d fa 96 bd
       -0.18691428 -0.279697 -0.1400474 -0.07371984
000040 da 81 33 be 84 d4 c3 bc f5 ae e9 bd ca 52 9a be
       -0.17530003 -0.023905046 -0.114103235 -0.30141288
000050 0a 46 3d be 0f 1e ad 3e 71 83 fa bd e5 98 63 be
       -0.18483749 0.33811995 -0.12232102 -0.22226293
000060 cb 13 84 be 68 b2 56 be f9 d8 6a be b4 83 e3 bc
       -0.2579635 -0.20966494 -0.22934331 -0.027772762
000070 c6 07 c4 bd ad e6 b7 bd b1 cf 27 be 6d 72 b0 be
       -0.09571795 -0.08979545 -0.16387822 -0.344623
000080 da e2 1c bd 12 5b d2 bd 90 24 69 be b3 9c 5d be
       -0.03830228 -0.102712765 -0.22767854 -0.21641807
000090 96 f6 a5 be c7 cd f2 bd 79 ab ee bd 19 31 80 be
       -0.32414693 -0.11855655 -0.116537996 -0.2503746
0000a0 aa 35 43 be 38 01 70 be 93 a3 06 be 27 a2 1b be
       -0.1906344 -0.23437965 -0.13148336 -0.15198575
0000b0 1f 06 19 be ec 3f c5 3c fc ca 7f be e9 e5 74 be
       -0.14943741 0.024078332 -0.24979776 -0.23915829
0000c0 f0 7f c4 bd 0d b7 52 be c5 05 78 be db e0 f7 bd
       -0.09594715 -0.20577641 -0.24220951 -0.12103435
0000d0 74 2c 16 bc 27 81 b5 3e 90 87 37 be 9f 15 c1 be
       -0.009165872 0.35450098 -0.17922807 -0.37711808
0000e0 39 7c 02 be 65 59 0c 3e 2c 94 9b bd 46 08 1e 3e
       -0.127427 0.13705976 -0.07596621 0.15432844
0000f0 09 8d 60 3e 13 66 01 bd d8 e0 06 be 9c d8 09 3e
       0.219288 -0.031591486 -0.13171709 0.13461536
000100 15 83 5d be b5 99 c6 3d 71 8f ed 3d 71 9a ac bd
       -0.21632035 0.09697286 0.11599625 -0.08427895
000110 a3 07 2c be 73 fa 08 be c6 61 8e bd 6b 36 aa bd
       -0.16799788 -0.13376789 -0.069522426 -0.08311161
000120 3b 51 b9 3d 92 78 22 bd 22 4c 22 be 99 6c 1f be
       0.090486966 -0.039665766 -0.15849355 -0.1556877
000130 13 2e a0 be 4e e1 7b bd 80 4c 52 be 3c 2f d5 bd
       -0.31285152 -0.061494164 -0.20536995 -0.104094
000140 15 f7 da bd
       -0.106916584

l0/W f4 [81, 9]
000000 63 d7 04 3d 9b 1c a7 be c3 c9 a7 bd e8 99 73 bd
       0.03243197 -0.32639012 -0.0819278 -0.05947295
000010 d2 19 fb 3e 2a ba 2c 3e 01 0e 1c 3f dd 54 df 3d
       0.49043137 0.16867891 0.6095887 0.10904858
000020 93 6c 76 3e 41 83 f8 3e 66 89 08 3f 7b 8b 50 3f
       0.24064855 0.4853764 0.53334653 0.8146283
000030 5d 76 d2 be 78 23 15 3e 9e 68 20 be 92 e0 00 be
       -0.4110593 0.14564312 -0.15664908 -0.12585667
000040 05 15 88 3e 3d 7f ff 3e 40 49 a3 3c 56 68 8e bc
       0.26578537 0.49901763 0.01993239 -0.017383736
000050 1d 74 6c bf 23 1b 0a 3e 03 ab 08 bf 09 f5 c9 3e
       -0.92364675 0.13486914 -0.53385943 0.3944476
000060 91 45 8c bd 74 aa d7 be 48 a9 39 be 7c d0 7b be
       -0.06849206 -0.42122233 -0.18130982 -0.24591249
000070 3f db 07 3f bc 71 91 bd de b8 5d be ce e6 ad 3e
       0.5306892 -0.07101771 -0.21652552 0.33965153
000080 ca 93 0e bf c7 c7 a1 bd 8b 4f 5a 3f 80 36 4d 3d
       -0.5569426 -0.07899433 0.8527762 0.050100803
000090 f7 f6 56 3f dc 21 84 be ea 23 15 3e e8 90 f0 be
       0.8397059 -0.25807083 0.14564481 -0.46985555
0000a0 8b df 17 3f 22 e5 89 be a6 3e 56 3b cb 77 93 bd
       0.59325475 -0.26932627 0.003269115 -0.07200583
0000b0 f2 9f bb be df 71 f3 3d 13 4f 51 3e d8 8a 32 3d
       -0.36645466 0.118869536 0.2044032 0.043589443
0000c0 85 3f a1 be eb 3a 6d be 16 45 16 be aa 2c 81 3d
       -0.31493774 -0.23167007 -0.14674792 0.06307347
0000d0 a2 8a 6c bf 00 c4 1a 3e a0 84 28 3f 2f d8 6f 3f
       -0.92399037 0.1511383 0.6582737 0.93689245
0000e0 97 0c a5 3e cd 4e d6 bd b7 8a df bd 2c a8 a5 be
       0.32236168 -0.10464249 -0.1091513 -0.32354867
0000f0 07 89 38 3e cc e2 17 be 6b 3a 5a 3e 24 c1 f5 3d
       0.18021022 -0.1483261 0.21311347 0.11999729
000100 29 0d b7 3e ad 03 d8 be 97 79 b8 3c f0 69 ef 3e
       0.35752228 -0.42190304 0.022518916 0.4676051
000110 90 43 ad be 8c 62 e1 bd 41 8a b6 3e 9a 36 d9 be
       -0.3384061 -0.110051244 0.35652354 -0.4242447
000120 f5 fc 05 3d 20 b7 87 be fe a4 d6 be c4 33 7a 3d
       0.03271194 -0.265069 -0.41922754 0.061084524
000130 3d 95 a7 3e f9 bc 01 bf 5e 54 0b 3f 0a 84 f7 3e
       0.32731047 -0.50678974 0.5442561 0.48342925
000140 72 52 0e 3f 35 5d 47 3e 2c 0b 11 be 4c d4 cb 3e
       0.5559455 0.1946915 -0.14164418 0.39810407
000150 1a d9 c8 3e 16 69 c7 bd d8 0a 08 3e 2b 82 75 bc
       0.39228135 -0.097368404 0.13285387 -0.014984648
000160 2a bb 24 bf dd 8a c2 3e 5d 95 06 3f c9 8a 7e 3e
       -0.6434809 0.3799657 0.5257166 0.2485763
000170 7f 52 df be 5f c8 80 bd 19 e0 a8 3e 3d d2 8d 3d
       -0.43617627 -0.06288218 0.32983473 0.069248654
000180 5d 9c 15 be c1 a4 5b be 42 f5 c4 be c1 5d 85 be
       -0.14610429 -0.21449567 -0.38468367 -0.2604809
000190 f6 24 6a 3c d1 4b f2 bd fb 50 bf be 17 d8 6d 3e
       0.014291039 -0.11830867 -0.3736647 0.23226963
0001a0 d7 7a 49 bd 8c c1 f6 be b7 30 8d 3e fa 91 57 bd
       -0.049189415 -0.4819454 0.2757623 -0.05262945
0001b0 34 45 20 3f d0 b2 10 3f d4 4c 02 3f 00 6e 6a 3d
       0.62605596 0.56522846 0.5089848 0.05723381
0001c0 13 47 5e 3f df 43 2c bd 05 a2 79 3e 94 66 93 3c
       0.868272 -0.042056914 0.24378212 0.017993249
0001d0 a8 ca a9 3e 56 c7 b6 bd 45 3b 34 3f 2f ae 20 3f
       0.33162427 -0.08924739 0.7040294 0.62765783
0001e0 0b 7a cd 3d f3 9a 23 3e 0c a0 17 3e d3 71 bb 3d
       0.100330435 0.15977077 0.14807147 0.091525696
0001f0 87 38 c5 be 4f f0 bc 3e df 1e d5 3e 2e 87 13 3f
       -0.3851969 0.3690209 0.41625115 0.5762814
000200 21 02 e0 3d 4e 79 c2 be 92 30 70 3e e8 b7 8d 3d
       0.10937906 -0.37983173 0.23456028 0.06919843
000210 b6 45 45 bd d9 34 11 be 9b b0 de be ed df fd 3e
       -0.048162185 -0.14180316 -0.43494114 0.49584904
000220 e1 53 05 bf 11 fb 35 3e eb 10 43 3f 90 41 ca 3e
       -0.52081114 0.17771555 0.7619769 0.39503145
000230 07 d8 86 be 42 61 cc 3d 81 68 67 be 58 9d e8 be
       -0.2633669 0.09979488 -0.22598459 -0.45432544
000240 e7 84 e3 be bb e2 8d 3e 8d d0 4e be d0 52 ea bc
       -0.44437334 0.27712044 -0.20196743 -0.028603941
000250 1c b7 ff bd b1 59 e1 bd a4 25 24 bf 9f 0b 74 bf
       -0.12486097 -0.110034354 -0.64119935 -0.9533023
000260 ce a1 f6 be 1a 0c 9c be c5 53 96 3a 1e c2 4b 3e
       -0.48170322 -0.30477983 0.0011469057 0.19898269
000270 da bb a5 3e 0d d1 99 be 98 de db 3e fb 58 4c 3e
       0.32369882 -0.30042306 0.42943263 0.19955818
000280 3c 8b 23 3f c1 6f 10 3e 16 55 07 be 96 6c 1b 3f
       0.6388433 0.1410513 -0.13216051 0.60712564
000290 ce 7b 27 3e b5 38 f3 bd 81 6a f7 be 5d 3e 5c 3e
       0.16355821 -0.118760504 -0.48323444 0.21508165
0002a0 a2 0f 89 bd 15 05 17 be 07 44 dc be 7e 98 d9 3d
       -0.06692435 -0.14748032 -0.4302065 0.10624789
0002b0 c7 31 a7 be ca 96 59 be d8 23 8d 3e c3 23 09 be
       -0.32655165 -0.21248928 0.2756641 -0.13392548
0002c0 63 c2 4c bf 6a 32 bc be ad b4 e2 be 74 d8 35 3e
       -0.7998411 -0.36757213 -0.4427847 0.17758352
0002d0 c1 59 4e 3f dd fb 81 3e 3c a7 f4 bd d9 77 4a 3d
       0.80605704 0.2538747 -0.1194596 0.049430702
0002e0 0f e9 dc 3e 96 67 e8 bd 0b f2 24 be 79 01 1e bd
       0.4314656 -0.113478824 -0.16107957 -0.038575623
0002f0 b4 0c 99 3e 5d 6b f9 bd bd e9 0d 3e e9 12 16 3f
       0.29892504 -0.12178681 0.13858695 0.58622605
000300 21 80 0a 3e 47 d9 28 be 86 5d 02 3f 75 b8 f2 be
       0.1352544 -0.16489135 0.50923955 -0.47406355
000310 c1 ab b7 3e 06 71 fa 3c a7 a5 d2 be b3 a8 3a 3d
       0.35873225 0.030571472 -0.41142008 0.04557104
000320 34 74 34 3e 25 96 6c bf 91 57 18 3d 67 24 c6 3e
       0.17622453 -0.924166 0.037192885 0.38699648
000330 ea e2 55 be 02 71 94 3c 95 6f d3 3e e4 b5 a7 bd
       -0.20887342 0.018120293 0.41296068 -0.0818899
000340 46 20 8a be 58 53 10 be 92 a3 a3 be 9f 55 b3 be
       -0.26977748 -0.14094293 -0.31960732 -0.3502626
000350 a7 91 70 3e 22 06 89 be a0 af 95 3d 55 9c e1 be
       0.23493062 -0.2676249 0.073088884 -0.44064584
000360 f7 d4 0f bf 75 98 fd be 4f aa 0f bf 5a 94 92 be
       -0.56184334 -0.49530378 -0.56119245 -0.28628808
000370 17 b2 37 3e 97 9a 48 3e 3c 1f 4a bd f7 b6 b1 be
       0.1793903 0.19590221 -0.049346194 -0.34709904
000380 4b 6c 1c 3e 83 21 a4 be 55 4a b3 3e 2e 41 91 be
       0.15275685 -0.32056817 0.35017648 -0.2837004
000390 d7 88 3b 3e 41 f7 fe 3e 84 d1 2b 3e 4f d1 29 3e
       0.18313919 0.49798015 0.16779143 0.16583751
0003a0 53 d3 19 3e 2e e1 10 be 06 eb 00 be de cc 94 3d
       0.1502202 -0.14148399 -0.12589654 0.07265638
0003b0 c9 c1 1d be 58 a4 fe bd 10 ab e9 bd 0b 25 59 be
       -0.15405954 -0.1243369 -0.11409581 -0.21205537
0003c0 95 a2 38 3f 4d 91 f2 bd 86 ed 70 be 57 53 fe be
       0.7212308 -0.1184412 -0.23528108 -0.49672958
0003d0 b6 e6 04 be f0 ee d6 3d 5c 83 de bd 9d a1 9b be
       -0.12978634 0.104947925 -0.108648986 -0.3039674
0003e0 11 0b 0b be fc 47 df bc 4d ac 81 3f ad 99 8e be
       -0.1357844 -0.027256005 1.0130707 -0.2785162
0003f0 1a b9 61 3e 06 9b 82 bd 1b 25 8a 3e 97 e7 49 3f
       0.22043267 -0.063772246 0.26981434 0.78869003

l1/W f4 [81, 81]
000000 7a e2 46 3e ce 57 16 3e 5a 6e d2 3d 4b 63 8e 3e
       0.19422331 0.14681932 0.10274954 0.2781013
000010 8d aa a7 be af 3b 3e bd 2b 84 dd 3e 78 90 92 3a
       -0.32747307 -0.046443637 0.432649 0.0011181971
000020 ce 1d 34 be 4d 25 30 3e 7e 47 41 be 9a 51 88 3c
       -0.17589495 0.17201729 -0.18874928 0.016640473
000030 f4 ad 73 3e 73 ed 8c 3e ba 69 9c 3d 99 60 1e be
       0.23796827 0.2752491 0.07637353 -0.15466537
000040 fa 35 09 bd 58 18 41 3e 54 2d 1f 3e 8f 6e 01 bc
       -0.03349874 0.18856943 0.15544635 -0.007899894
000050 5c bb 77 bd b0 d1 3b be 58 35 bf 3c b6 e2 67 bd
       -0.060481414 -0.18341708 0.023340866 -0.056612693
000060 f9 33 e2 bd 99 39 48 3e 50 a3 24 bd 33 f1 a9 bd
       -0.11045069 0.19553222 -0.04019481 -0.08297958
000070 7f ad a6 bb 42 41 0b 3e 81 91 79 3a 48 fc 35 bb
       -0.0050866003 0.13599113 0.0009520278 -0.002776878
000080 fd 7b 73 bd 49 63 4f be ee f9 68 39 c3 c6 8b be
       -0.059444416 -0.20252718 0.0002221835 -0.2730008
000090 20 0f 25 bd 76 7b d5 3c 0a 42 a3 3d 15 db 54 be
       -0.040297627 0.026059847 0.0797158 -0.20786698
0000a0 20 63 5e 3e 68 fb 15 3d 3d e6 35 be c4 18 f9 bb
       0.217175 0.036616713 -0.1776361 -0.0076018292
0000b0 22 c4 5e 3d 6c ed e0 be 9e f5 09 3e 8f ac ae bd
       0.054386266 -0.4393114 0.13472602 -0.08529007
0000c0 40 ad 1d be 3b 0e 03 be fe 3e 1b 3c 6a 4e 70 3e
       -0.15398121 -0.12798397 0.009475468 0.23467413
0000d0 a1 e5 5e bd c9 dc b1 3d cd 9b 17 bd b0 1e 46 be
       -0.05441821 0.086846896 -0.037013818 -0.19347644
0000e0 54 5a 2e be e7 fc 9b bc 07 28 9b be 27 17 23 3e
       -0.17026645 -0.019041492 -0.30303976 0.159268
0000f0 50 2d da bd b5 bb d4 bd 04 f0 57 3d 23 07 2b be
       -0.10653174 -0.10387365 0.05271913 -0.16701941
000100 ef 63 10 be 96 d3 61 be de 14 66 be 4a 97 a3 bd
       -0.14100622 -0.2205337 -0.22468898 -0.079878405
000110 b0 59 2b be db 53 e1 bd 17 61 91 be 3d 05 1a be
       -0.16733432 -0.11002322 -0.28394386 -0.15041061
000120 2e 57 50 be 84 86 04 be dc 01 0d 3c 5b 4f 15 3d
       -0.20345756 -0.12941939 0.0086064 0.036452632
000130 35 94 a4 be 29 41 2c 3e 56 e2 15 3e 76 38 4e be
       -0.32144323 0.16821732 0.14637122 -0.20138726
000140 7b 1c 71 be f6 33 30 be 3e 2e 3f bd 13 d0 4d bd
       -0.2354602 -0.17207322 -0.04667496 -0.050247263
000150 38 c4 67 be b1 1c b9 3c ed 99 66 3d 10 2f af 3c
       -0.22633445 0.022596689 0.05629914 0.021384746
000160 02 cf 4d 3e e0 08 02 3e b3 5e 5b be 72 11 ed bc
       0.20098498 0.12698698 -0.21422844 -0.028938983
000170 f6 b2 41 3d 13 96 8a 3d 1b 2e 2e 3e 63 4c 45 3e
       0.04728981 0.06766906 0.17009775 0.1926742
000180 5e 0a b9 3d 1c 85 3f 3e 72 bc 27 bd 0a 36 ed 3c
       0.090351805 0.18703121 -0.0409512 0.028956432
000190 72 82 c9 3d 9f ed 7d 3d 80 e6 a1 3e 19 1b f6 3e
       0.098393336 0.06199419 0.3162117 0.4806755
0001a0 36 5f 40 3c b1 dc c1 3d 73 63 cf bd 12 02 65 bd
       0.01174145 0.09465922 -0.1012639 -0.055910178
0001b0 a5 0d a1 be 84 dd 90 3d 60 5d 26 be b9 52 9f bc
       -0.31455722 0.07073501 -0.16246557 -0.019448625
0001c0 88 ef 2c be 09 d1 8f 3d 17 98 87 bd 05 c3 71 3d
       -0.16888249 0.07022292 -0.06620806 0.059023876
0001d0 7b 1b 20 bd 81 b1 ee bd 21 58 b4 3d bd ec 5f 3e
       -0.039088707 -0.1165495 0.08805872 0.21867652
0001e0 a2 15 95 bd 29 51 44 3e 29 87 8d bd 32 e2 2d bd
       -0.07279517 0.19171585 -0.069105454 -0.042452045
0001f0 d9 fe 5d be a0 42 44 be b1 90 90 3d b2 b3 17 3d
       -0.21679248 -0.1916604 0.07058848 0.037036605
000200 8c 98 16 bc 80 e8 ef be a6 cb a2 3d 34 4b 16 3e
       -0.009191643 -0.4685707 0.07948999 0.14677125
000210 24 55 e9 bd 8d d5 85 3e 06 be 20 3d a5 07 03 3d
       -0.113931924 0.2613949 0.03924372 0.031989712
000220 92 cc 2f bd 89 c4 b5 3e 13 37 39 3e 53 25 16 3e
       -0.042919703 0.35501507 0.18087415 0.14662676
000230 cf db b5 be 6d 93 60 3d 49 13 80 bd 39 b8 81 3d
       -0.35519263 0.054828096 -0.06253678 0.06333966
000240 f0 d1 12 be 7b 9e 43 be 80 bf b2 3d b7 07 1e 3d
       -0.14337897 -0.19103424 0.08727932 0.038581576
000250 a2 66 9e be 17 d8 8d 3d 5b fe fa 3a bc 89 4d be
       -0.30937678 0.069259815 0.001914929 -0.20072073
000260 46 49 6f 3e 9f 9d a7 3d 2c e8 cd bc 7c a5 8d 3e
       0.23367795 0.08184361 -0.025135122 0.27665317
000270 6c 46 75 bc 75 0b 79 3d 87 20 d8 bc 5d 8d e6 3c
       -0.014970403 0.060801942 -0.026382698 0.02814358
000280 17 8b 33 3e d0 0f a2 3e 46 e0 80 3c c6 3d a9 bc
       0.17533527 0.3165269 0.015731942 -0.020659339
000290 f3 69 7d bd 99 79 e2 3d 88 70 4c be 8d 8f 9a be
       -0.06186862 0.11058349 -0.19964802 -0.30187646
0002a0 76 06 3d be 4b 98 6c 3e ac f4 d6 bc 5f be 4f 3d
       -0.18459496 0.2310497 -0.026239716 0.05071866
0002b0 8d 1a 88 3d 32 30 54 be 58 47 68 3d 95 d7 52 be
       0.06645689 -0.2072151 0.056708664 -0.2059005
0002c0 1a cc 73 3e a1 8d 82 3c c9 99 95 be 43 01 2b 3e
       0.23808327 0.015936675 -0.2921889 0.166997
0002d0 04 cc 6a bd 8f e4 20 be 1c 51 64 3c bd b9 3f 3e
       -0.05732347 -0.15712188 0.013935354 0.18723197
0002e0 54 1b 49 3e 19 c5 99 3e 6e 94 ad be 07 3f a1 3e
       0.19639331 0.30033186 -0.33902305 0.314934
0002f0 cf 62 d9 bd 12 42 83 be 2f a9 a5 bb b6 d0 12 be
       -0.10614549 -0.25636345 -0.0050555686 -0.1433743
000300 00 5f 8a 3e f7 bd 08 be b5 81 b2 bd e0 f0 ba be
       0.27025604 -0.13353716 -0.08716146 -0.36511898
000310 93 e1 e6 3e 68 da 3e 3e 4b 28 9a 3e a4 1c 98 be
       0.45093974 0.18638003 0.30108866 -0.2970935
000320 0b 59 2d 3d 16 57 10 be 85 a5 b9 bd 49 cf 52 be
       0.042321246 -0.1409572 -0.090647735 -0.20586886
000330 84 e4 cb 3d 1a 7c 8e bc 9b 6e 50 bc 2d 8d 95 bd
       0.09955695 -0.01739316 -0.012721683 -0.07302318
000340 6d f1 bc 3d d8 ae bb bc e6 1f 24 3e 11 08 01 3d
       0.09225736 -0.02291052 0.16027793 0.031501833
000350 e9 6b 2e be 96 2d ab bd c0 50 e7 3d 41 e1 99 3d
       -0.17033352 -0.08358304 0.11294699 0.07513667
000360 b9 a5 87 bd 80 92 2f bd 9f c7 5e 3e 72 47 2f bd
       -0.06623406 -0.042864323 0.21755837 -0.042792745
000370 9d 32 ee bd 4e a0 63 bd ec 46 91 3e 3e 2a 24 be
       -0.116307475 -0.0555728 0.28374422 -0.16031739
000380 16 86 1e be 30 09 f8 3d 73 7a 06 be 46 48 10 bd
       -0.15480837 0.121111274 -0.13132648 -0.035225175
000390 ff 52 e8 3d a0 e7 6e bd 37 dc 90 be a9 bd 03 be
       0.11343955 -0.058326364 -0.2829301 -0.12865318
0003a0 b6 cc 24 bd 9e 04 c5 3c c8 79 cb bd 67 6b 15 3d
       -0.04023429 0.024050053 -0.09935337 0.03647938
0003b0 88 28 fa bc 93 62 86 be 7c 9a 81 be 85 59 8c 3c
       -0.030536905 -0.2624708 -0.25313175 0.01713253
0003c0 85 f0 1d 3e 3d 1d 56 3e fb 68 47 be b1 b9 df bd
       0.15423782 0.20909591 -0.1947364 -0.1092409
0003d0 94 e7 27 3d f6 84 9c be 63 df 7e 3e 16 ec 0f be
       0.040992334 -0.3057019 0.24889903 -0.14054903
0003e0 bd 92 cc bc 48 dc ab be 71 e2 b4 3e 34 b7 1c be
       -0.024972314 -0.335665 0.3532901 -0.15304261
0003f0 e3 c0 48 3e 37 4c ab 3d ee 5a f3 3b 04 f1 6a be
       0.1960483 0.08364146 0.007426611 -0.22943503
