chainerrl/TicTacToe/result_20000/target_model.npz (npz, 56607 bytes, 8 tensors)

l3/b f4 [9]
00000000: 535f 7bbc 3573 bb3b e943 c73d f9d5 8c3c
00000010: 5cc8 d83b 57b8 bfbd df9b 863d b38b 7bbb
00000020: e087 503d
-0.015342551 0.005720521 0.0972975 0.017191874 0.0066156816 -0.09361332 0.06572699 -0.0038382828
0.05091083

l0/b f4 [81]
00000000: 7472 653e 71da c0bb 6dc7 88be 70b6 babe
00000010: 6441 a9be a45e 98be f748 93be 6f9f b4be
00000020: 005f 28be 4eec 503e 0c0b cebc d28d 3fbe
00000030: 49a9 83bc e8d0 6bbe cf5d efbd befd 02be
00000040: 71b0 60be 522d 87be 9f44 1cbe 4969 11be
00000050: 002d 13be 4967 41bd 2b7c a1be 9d62 61be
00000060: d7c0 68bd 3ff9 48be c3f6 28be 15a8 83be
00000070: b11c 1cbd 33e1 72be c0b1 a33e d56d 46be
00000080: a02b 20bf d485 da3b 4048 9fbe ff0f 63be
00000090: 1197 3abe 463d a3be 8a29 57be 156b b0be
000000a0: 7950 bfbe 468f 81be 9ecd 9dbe b04f 45bd
000000b0: 8d42 6bbc aef5 bbbe 7d50 a8be 8331 b4bd
000000c0: 7194 33be 496b ddbd 0694 c8bd c192 11be
000000d0: 4714 d3be 5c69 d3be 04a7 7dbe 8f3a aebe
000000e0: 89bb 29be 72d8 17be d6ea f1bd 35f2 81be
000000f0: 0fa4 c8bc e45f 53be 009b 55be c904 49be
00000100: a896 49bd 03f0 c33b 91e9 923d ce1a 2fbe
00000110: 9ec1 063e 7723 d5bd 062f 25bd 22f5 ed3c
00000120: 0739 92be 0172 b9be 39a6 26be 7ac4 23be
00000130: 588f 00bd 2dbb 63be 74ac 1b3e 493e 343d
00000140: 9a42 6dbe
0.22406942 -0.0058854152 -0.2671465 -0.36467314 -0.33057702 -0.29759705 -0.28766605 -0.35277888
-0.1644249 0.20402643 -0.025151752 -0.18706444 -0.016071932 -0.2302891 -0.116878144 -0.12792107
-0.21942307 -0.26401764 -0.15260552 -0.1420032 -0.14372635 -0.04721764 -0.31540045 -0.22010274
-0.05682453 -0.1962633 -0.16500382 -0.25714174 -0.0381133 -0.23718719 0.3197155 -0.19377835
-0.62566566 0.0066687856 -0.3110981 -0.22174071 -0.1822169 -0.31882685 -0.2101194 -0.34456697
-0.37366083 -0.2530462 -0.30820936 -0.0481717 -0.014359129 -0.36710876 -0.32873908 -0.08798506
-0.17537095 -0.10811479 -0.09793858 -0.14216138 -0.41226408 -0.4129132 -0.24770743 -0.34029052
-0.16575445 -0.14828661 -0.118123695 -0.25380102 -0.024492292 -0.20642048 -0.20859909 -0.19630732
-0.049215943 0.0059795394 0.071734555 -0.17100069 0.13159797 -0.10407155 -0.04032805 0.029047552
-0.28559133 -0.3621979 -0.16274346 -0.15992919 -0.031386703 -0.2223937 0.15202504 0.044004712
-0.23169938

l2/W f4 [81, 81]
00000000: aa6d 6cbd e40a c9bc 07ec a83e f912 b1bd
00000010: f2a2 8c3c 8baa 3fbe cd25 4c3d 2764 233e
00000020: ce35 033e 5dbc 79be 6b9e e03d 0752 1abc
00000030: 9e3d d43c d3bd 993e b67e 0dbe 3481 c33e
00000040: 386e a6be 3c75 25bd f5e8 8b3e c25b 1cbe
00000050: 7c57 c93d 0d0b 45be 8bd3 ab3d 1830 643e
00000060: 11c4 85bd 0059 73be b6c1 0bbe a242 a1bd
00000070: 9ee3 53be a14a b33d 0a6b 8dbc 776a 853e
00000080: b4eb 533e aa59 b93b 865b fd3d df3b 59bd
00000090: 99c1 65bc 6c59 27bd 3143 493e 717a 5b3c
000000a0: 554e 8ebd 6436 5a3e 70c1 6bbe 40ac 14bd
000000b0: 8dcf 073d f664 b9bd ccf3 66be 5131 0e3d
000000c0: c560 4e3c 6d53 69bd 627d 59be 5f9f 173e
000000d0: 85aa 8abe cb3a 19be 54e7 41bc 84c7 063e
000000e0: 8900 373e e8cc 523d d898 c83e a6d3 243d
000000f0: ef17 abbe 3993 173e ca6e f9bc 64e2 0cbf
00000100: df18 66be d225 673e 341c ff3d e922 fc3d
00000110: 9bdf 1fbd 9da5 123e ecd5 7f3d 8620 df3d
00000120: 831c c53c 7ba8 5bbc e387 ed3d d9db 8cbd
00000130: 2652 42bd 26b2 1fbe a2ba e5bd f5bb b73e
00000140: a833 30bc 3e1a b03c 0457 bbbb a8b8 dcbd
00000150: 6758 5f3c 129c 99bd 079f 98bd d54b b63b
00000160: 2c3d f9bd 7e7c af3d 03c3 86bd 91ea 8fbe
00000170: b375 f53d 1917 ea3c 695d 69be 7e3d 33bd
00000180: c834 01be 57c3 91bd 08d2 e1bd a7a3 24be
00000190: dcaa 07be 23a7 57be e360 ee3c 7f20 6bbd
000001a0: 2a82 5abd d892 29bd cb84 1cbe d282 e43c
000001b0: 1f78 0bbe a661 ddba 3496 163e 0e22 a0bd
000001c0: 8a69 b8bd 082b 453b be74 83be ee14 553e
000001d0: e7f5 df3d 4eab 953e e90e 33be 5289 8dbd
000001e0: 4a12 923b f56b e4bd 6f35 103e 52cb b13c
000001f0: a13d d1bd f5cc 19bd c7a3 b33d 6a9d 843e
00000200: 4113 a73d 5e87 36be 027e c93d 3733 cdbc
00000210: d8b5 9fbd 6190 6cbd 3380 3cbe f9e8 29be
00000220: 42cb 7e3d e701 3a3e a70f c4bd 8b8e b3bd
00000230: f76a 5c3c 4ebf 1c3d b900 67bc b839 4bbd
00000240: 0913 f73d 5428 25be c24b c7bd dc20 873d
00000250: 55be 42be 5f54 03be bb29 4f3c cdfc 95bd
00000260: 9777 9d3d 7565 93be 0de6 02bf 8515 343d
00000270: beb1 ba3c 3445 cf3d 2aa1 933e bf55 333e
00000280: 39cc 713d aa4d cebd 388c c9bd 4452 903d
00000290: fe5c 41bb 3b50 03be 5221 92be 43eb edbd
000002a0: aa30 9cbe 1231 62bc 3af6 7ebe e6f1 30be
000002b0: 32f4 4e3d 0573 043e 944a 8fbe 00dd cf3c
000002c0: a297 89bb 3cbe d3bd 3e68 5abe cf7e 5f3d
000002d0: 27d9 963d 9662 c4bd 240a 08bf c1cd 8dbd
000002e0: 50ba adbe 062e 22be 0d08 be3d 6738 a5bd
000002f0: f4bc 43be b90c 4a3d f74c 553d 4608 583d
00000300: a471 f33d 441c 6b3e 01a1 683d 070a 2d3d
00000310: ebbf adbd 9e5b 953d 12b6 913e fc77 82bd
00000320: 4163 d63d 5ba0 9ebd b4db 7b3b 4d0e e0bc
00000330: d9a6 77be 8366 8abd 3aae e2bd c618 c8bd
00000340: 5726 53be 3c4c dabd 5e21 a2bd 12b4 aabd
00000350: 0488 2c3e 2021 a03e 3068 48be c3e8 afbe
00000360: e944 27be 2471 ac3e 6c78 a1bd e8de 46bd
00000370: 2074 473b e1e4 fc3d 72ce 76be 0875 293e
00000380: cf25 2f3e b709 31be dc90 75bc 5524 ba3d
00000390: 3968 1d3d 1143 5f3d 0ad9 adbd c0ec bf3d
000003a0: 32ae 7ebd 190c 3ebe 95f6 883e cefb 543d
000003b0: 3423 3bbd fe56 97bd 8cf9 b3bd 82f2 e63c
000003c0: 1415 b0bd 6e37 33be 0f1b 9bbd 3675 1ebe
000003d0: f49b 613e 08b8 3f3e 73c1 d03b 3491 063d
000003e0: e293 aa3d c7c5 a23d 9100 1bbe ec57 b03e
000003f0: 795c 693e bb17 803e b178 7dbd c5f1 c53d
-0.05772177 -0.024541326 0.32992575 -0.08646197 0.017167542 -0.187174 0.049840737 0.15956174
0.12813494 -0.24388261 0.10967716 -0.009418971 0.025908288 0.30027637 -0.13817868 0.38184512
-0.32505965 -0.040395007 0.2732617 -0.15269378 0.098311394 -0.19242497 0.08389958 0.22283971
-0.06531537 -0.2376442 -0.13648114 -0.07874037 -0.20692298 0.08754469 -0.017262954 0.2605779
0.20695382 0.0056564407 0.12370972 -0.053035613 -0.014023208 -0.040856764 0.19654538 0.0133958915
-0.069485344 0.21309811 -0.2302301 -0.036297083 0.03315692 -0.0905246 -0.22553939 0.034715
0.012596314 -0.056964327 -0.21239236 0.14806889 -0.2708322 -0.14963834 -0.011834938 0.13162047
0.17871298 0.051464945 0.3917911 0.040240906 -0.33416697 0.14802255 -0.030448336 -0.55032945
-0.22470425 0.22573021 0.12456551 0.12311346 -0.039031606 0.14320989 0.06245987 0.10894875
0.024061447 -0.013406868 0.11598184 -0.0687787 -0.047441624 -0.15595302 -0.11217238 0.35885587
-0.010754503 0.021496888 -0.00571716 -0.10777408 0.013631917 -0.07500471 -0.07452207 0.005563239
-0.12169871 0.08568667 -0.06580164 -0.28108647 0.1198534 0.028575467 -0.2278954 -0.043759815
-0.1261779 -0.07117336 -0.110263884 -0.16078053 -0.13248771 -0.21059851 0.029098934 -0.057404038
-0.05334679 -0.041399807 -0.15285031 0.027894411 -0.13620041 -0.0016890063 0.14705735 -0.078189954
-0.09004505 0.0030085463 -0.25675005 0.20808765 0.10935574 0.29232258 -0.17486157 -0.069109574
0.0044577466 -0.11153404 0.14082883 0.021703396 -0.10216833 -0.037548978 0.087714724 0.25901347
0.08157969 -0.17825076 0.09838487 -0.025048835 -0.07798356 -0.057754878 -0.18408279 -0.16592778
0.06220556 0.18164788 -0.09573298 -0.08767422 0.013453237 0.03826838 -0.014099293 -0.04961559
0.120641775 -0.16128665 -0.097312465 0.06598064 -0.19017918 -0.12825154 0.012644227 -0.073236085
0.076888256 -0.28788343 -0.5113228 0.043965835 0.022789832 0.10120621 0.28833896 0.17513178
0.059032653 -0.10073407 -0.09841198 0.07046941 -0.002950489 -0.12823574 -0.28541046 -0.11617138
-0.30505878 -0.013805645 -0.24898615 -0.17279777 0.05052585 0.12934501 -0.27986586 0.025373936
-0.0041989842 -0.10339019 -0.21328828 0.054564293 0.07365637 -0.09589116 -0.53140473 -0.0692401
-0.33931208 -0.15837869 0.09278879 -0.080673985 -0.19115049 0.04932854 0.052075353 0.052742265
0.118869096 0.22960001 0.05679417 0.04224589 -0.08483871 0.07292865 0.2845922 -0.063705415
0.1046815 -0.07745429 0.0038430514 -0.02735057 -0.24184741 -0.06757834 -0.11068387 -0.0977035
-0.20620094 -0.10659072 -0.079165205 -0.08335127 0.16848761 0.31275272 -0.19570994 -0.3435727
-0.16334881 0.3368007 -0.07884297 -0.048552424 0.0030434206 0.12348343 -0.2410219 0.1654855
0.17104267 -0.17288862 -0.01498815 0.09088961 0.038429473 0.05450732 -0.084886625 0.09371328
-0.062177844 -0.18559302 0.26750627 0.051997952 -0.04568787 -0.07389639 -0.08787832 0.028191809
-0.0859777 -0.17501613 -0.075735204 -0.154744 0.22032148 0.18722546 0.006370717 0.03285332
0.08328988 0.07947879 -0.15136935 0.3444208 0.22789182 0.25018105 -0.06188268 0.096652545

l3/W f4 [9, 81]
00000000: 3701 2d3d 471d c23d 5abc d03c 8ded 99be
00000010: c122 eb3c bc69 693d e06b c1bd cff5 a83e
00000020: 2eae acbd 931e a83d fd1b a93d 1980 8f3d
00000030: ce12 85be 2e55 f6bd 13cd 473e 8e1d cbbe
00000040: 74b5 d1be f1f6 64be 9041 233e 99c2 d03d
00000050: a466 83be 95dd a13e c76c e63d 3dce 103e
00000060: a7af 4fbe f841 1d3d 444a 54bc 2bb7 bebd
00000070: 2b5c 3abe 692c 9dbe 228e 96bd 8864 5bbb
00000080: 3915 943e 00b3 273e 3163 74be e1ec 833d
00000090: 2ff4 d8ba c5bc 253d 79d2 803e 3ce8 863c
000000a0: 1311 41bd 1cfd e83d 8956 973d 1ae9 193e
000000b0: 8dc1 06bf fd1b 55be 0cb9 193e b75e a8be
000000c0: 9d83 79be 2c2c d03d 69ab 27be e56e 033e
000000d0: 293e cd3d 2bdd 90be a385 8ebc 058f 4dbd
000000e0: ce49 5bbe b1e4 803e b6d8 823e a08a 8e3e
000000f0: db57 3cbe a80f e13d 3a43 3f3d 2767 b63d
00000100: f683 97bc ba19 a3be 8a95 a4be b311 9ebd
00000110: f6c1 05bf 4fc3 513e ff9b 063e 0a73 49be
00000120: 83a2 84be a4f1 11be 05ce 8bbd 0a5d 253e
00000130: 8555 26be 661e 3a3e 1009 3cbd 0dd8 3ebe
00000140: 4f7c d9be ab8f 043e 991b a73c c85d cdbd
00000150: b35e 593e 8ad6 543e 0324 3dbd 2a74 883d
00000160: e3e6 1cbe 2c7a 97bd ad25 563b a3fb 543e
00000170: 5cfa 26bf 2c4a 0cbe f0df 45be 4760 343e
00000180: 12e8 87be 0921 dabe 1e8b c23d 5edc 22be
00000190: 093f 553e 81fd f6bd 799a 213d ee43 47be
000001a0: a6f1 8cbd db7a 3abe fe2c 013d 54bb 993d
000001b0: a75a 3b3e b3d3 d6bd aa88 01be a553 053d
000001c0: 626e 03be bf2b a9bd 4cf7 0dbe 0c31 91be
000001d0: 4308 91be 8221 5dbe b4f7 ae3d bdc0 03be
000001e0: 0a72 cbbd d2bc 373e 1f00 4abe c40d 303e
000001f0: cc03 923d 3944 8bbe 808d d73d dc64 033e
00000200: 0663 023e c64f 02be 7f9b b93e c55d 22be
00000210: 9c4b 933e 4a5d 84be c6a6 5c3d dc18 cebe
00000220: fe47 b03c 401e 84be db91 4cbe 8498 1cbd
00000230: 31f2 393e ad0b aabd 30ee e3bd 34a1 1a3e
00000240: 4b20 0cbd d562 e1be 2a6b 9abd 3bb2 2b3d
00000250: 03ca 1c3e dec6 eabd 012c a83d 7e2a 073e
00000260: 98a5 18be 2688 523d 2ada b3bd 499d cb3e
00000270: ff38 9cbe 4b09 113e 4dee cabd 57c4 d6bd
00000280: d51e b7bd 1bba debd 9119 473e 9b54 1fbe
00000290: 3b6e c0be ffba 333e 821d 02bf a6a6 2a3d
000002a0: 49bf 78bd ed3d c83e ea2d 83be 1a11 7c3e
000002b0: 82f0 82bd 8fa7 143e 53d5 0ebe db4d 83be
000002c0: 55d1 b03d 3a4e 383e fbaf 693a 5a5a 11be
000002d0: 04d5 42bd ffd9 083c 4820 04bd 2379 353e
000002e0: 2b0a 5d3e 118e 40be 1c72 6a3d 1f95 bc3d
000002f0: 14b2 303e 49cc 5dbe f8bf 44bd 57d6 8e3d
00000300: 7103 37be 94ae 0f3d 21b8 50bd 78db c13c
00000310: 3e6b 5c3e ec1d bd3c 08b5 6d3d aa1a de3d
00000320: 8e60 14be 1f60 94be 1cf6 05be 9b7a c63c
00000330: 91b9 05be 925a 01bf 8265 a53d 87ed f6bc
00000340: c2e2 17be b737 df3c da37 473d 70fb b8bd
00000350: 4016 4ebe 65a7 bfbe 4ae4 4abe 4a82 3cbe
00000360: 5612 2dbe b0e4 10be aad6 8c3b b52d 9fbe
00000370: 4fcd 28bd b9ad 4bbd e06a b83d ab67 503d
00000380: 1af2 87bd 54ca 183d ca80 c4be 8dce 0ebe
00000390: 3411 36be c998 f7be eba5 14be 08d2 14bd
000003a0: 680d b53e 7500 4c3e 17fe a63e 1fad 0f3d
000003b0: 9366 1d3e 680a 84be 5330 20be a9bc b1bc
000003c0: 2edf 8dbe cf95 07bf 56c2 9cbe e297 66bd
000003d0: b293 9abe 78f2 ba3c d397 833c 1e06 31be
000003e0: d80d ccbe 9c3d 71be 0e10 803d 9805 8f3d
000003f0: 4f40 61be 70c8 92be 90f7 b5bc af0d a3be
0.042237487 0.094782405 0.025480438 -0.3006405 0.028703095 0.0569856 -0.09444404 0.33000037
-0.0843166 0.082089566 0.082572915 0.070068546 -0.2599091 -0.120279655 0.19511823 -0.39670986
-0.4095875 -0.22359826 0.15942979 0.101933666 -0.25664246 0.31614366 0.112512164 0.14141174
-0.2028185 0.03839299 -0.012957159 -0.0931228 -0.18199222 -0.30697945 -0.073513284 -0.003347667
0.28922442 0.16376877 -0.23865964 0.064416654 -0.0016552265 0.040463228 0.25160578 0.01646816
-0.047135424 0.11376402 0.07389552 0.15030327 -0.52639085 -0.20811458 0.15011996 -0.32884762
-0.24366613 0.10164675 -0.16373982 0.12835272 0.10021622 -0.28293738 -0.017397707 -0.050185222
-0.21414873 0.25174478 0.25555962 0.27840137 -0.18392889 0.10989314 0.04669497 0.089063935
-0.018495541 -0.31855565 -0.3214534 -0.077182196 -0.52249086 0.2048466 0.13145445 -0.1967279
-0.25905237 -0.14252335 -0.068264045 0.16148773 -0.1624356 0.18175659 -0.04590708 -0.18637104
-0.42477652 0.1294543 0.020398902 -0.10027653 0.21227531 0.20784965 -0.04617692 0.066627815
-0.15322451 -0.07396349 0.0032676265 0.20799117 -0.6522577 -0.1370017 -0.19323707 0.17614852
-0.26544243 -0.4260333 0.09499191 -0.15904376 0.20824827 -0.12060071 0.039453957 -0.19459507
-0.06882028 -0.18210928 0.03153705 0.07506433 0.182963 -0.10489597 -0.1264979 0.032550473
-0.12835076 -0.08260297 -0.13863868 -0.28357732 -0.28326616 -0.21594813 0.08543339 -0.12866493
-0.099338606 0.17943123 -0.19726609 0.17192751 0.071296304 -0.27200487 0.10525036 0.12831444
0.12733087 -0.12725744 0.36251447 -0.15856083 0.28768623 -0.25852424 0.053869985 -0.4025334
0.021518704 -0.2580433 -0.19977514 -0.038231388 0.18158795 -0.08303008 -0.11129415 0.15100557
-0.034210484 -0.44020715 -0.07539971 0.04191802 0.15311436 -0.11463712 0.08211518 0.13199803
-0.14906919 0.051399373 -0.08781846 0.39768437 -0.30512235 0.14163701 -0.099087335 -0.104866676
-0.089414276 -0.108753406 0.19443347 -0.15559618 -0.375841 0.17551802 -0.50826275 0.041662835
-0.0607293 0.39109746 -0.25620967 0.24615899 -0.063935295 0.14517044 -0.13948564 -0.25645337
0.08633677 0.17998591 0.0008914468 -0.14194623 -0.04756643 0.008352756 -0.03225735 0.17721991
0.2158591 -0.18804194 0.05723773 0.0920813 0.17255431 -0.2165996 -0.04803464 0.06974476
-0.17872407 0.0350786 -0.05095685 0.023664221 0.21525285 0.023085557 0.058033973 0.108449295
-0.14489958 -0.28979585 -0.13082165 0.024228385 -0.13059069 -0.50528824 0.08076002 -0.030142559
-0.14832595 0.027248247 0.04863725 -0.09032333 -0.20125675 -0.374324 -0.19813648 -0.18409076
-0.16901526 -0.14149737 0.004298051 -0.3108956 -0.041211423 -0.04972622 0.0900476 0.050880115
-0.06637974 0.03730233 -0.38379508 -0.1394598 -0.1778 -0.48358753 -0.14516418 -0.036333114
0.3536179 0.1992205 0.3261573 0.03507721 0.1537116 -0.2578919 -0.15643434 -0.021696405
-0.27709335 -0.52962965 -0.30617017 -0.05629719 -0.30190808 0.022820696 0.016063606 -0.1728749
-0.39854312 -0.23558658 0.06253062 0.06983489 -0.21997188 -0.28668547 -0.022212774 -0.31846377

l2/b f4 [81]
00000000: ed21 37bd 52a0 4fbe 38a5 1cbe 5325 bebc
00000010: b504 fbbd bd9f 093e 2615 4abe 9d94 003e
00000020: a226 3cbe 98f2 4a3b e36d e0bd 0692 cfbd
00000030: 2465 36be eb3b 58bd 1124 dcbd 2b72 62bd
00000040: 80b0 1bbe 80d1 bfbd 939a 74bd 8d02 d73d
00000050: edeb c63d 00ed 993d 68b3 9bbc 4201 a9be
00000060: 73b2 cbbd 9766 f8bd 6d6f c3bd 5dc4 5fbd
00000070: 501c debd 31bd 02be d0b4 ffbd 9a43 1d3d
00000080: 0f61 40bd 855c f73c e40b 2bbe 30fb 353c
00000090: c35a 29bc 0131 0b3c 4cce 6f3d 6239 bebd
000000a0: 212c 83be e6ae a43c b349 10bd 2ac0 f9bd
000000b0: a925 c7bb 11ff dbbd 5563 1dbe f25f bdbd
000000c0: c2a2 4ebe 431e 613d 2283 9dbc 6646 6bbe
000000d0: 644b b5bb ff2d 55be f2ae cbbd 7105 7cbd
000000e0: 5a01 a4bd c69b 37be 5eb0 dbbd 4bc7 3fbe
000000f0: 6361 dabc 0bd3 2ebe 5a04 5c3e 49d6 6fbe
00000100: dd50 34be 214b 55be e10e 2abc fb31 50be
00000110: 6779 13be 27eb 183e 1270 113e d6c2 88be
00000120: 19bb 09be e443 94be cc6c 883d 765d 92be
00000130: 1cbb e8bd 4a8f aabe 8f82 2ebe 8809 b23c
00000140: b4d1 61be
-0.04471009 -0.20276001 -0.15297401 -0.023211157 -0.12256757 0.13439842 -0.1973463 0.12556691
-0.18374112 0.003096735 -0.10958459 -0.10135274 -0.1781202 -0.052791517 -0.107490666 -0.05528466
-0.15204048 -0.09366131 -0.059717726 0.104985334 0.09712968 0.07515907 -0.019006446 -0.33008772
-0.09946146 -0.121289425 -0.09542737 -0.054630626 -0.10845244 -0.12767483 -0.12485659 0.038394548
-0.046967562 0.030195484 -0.16703755 0.011107251 -0.010336581 0.00849557 0.05854635 -0.09288289
-0.25619605 0.02010293 -0.035226535 -0.121948555 -0.0060774875 -0.107420094 -0.15369923 -0.09246816
-0.20179275 0.0549605 -0.019227568 -0.22976074 -0.005532669 -0.20818327 -0.099454775 -0.061528627
-0.0800807 -0.17930517 -0.10726999 -0.18728368 -0.026657766 -0.17072694 0.21486035 -0.23421587
-0.17608972 -0.2082944 -0.010379524 -0.20331566 -0.1440178 0.14933454 0.14202908 -0.26711148
-0.13450278 -0.28958046 0.06661376 -0.2858693 -0.11363813 -0.33312446 -0.17041992 0.02173306
-0.22052652

l1/b f4 [81]
00000000: 9657 d03c 34be 8cbe f822 8e3d 8faf 05be
00000010: b074 4c3e ec13 8cbe 53e7 fabd 80c0 54be
00000020: 492c 9ebd 6899 f6bc 3e19 e03d e5e9 06bd
00000030: f0fe 39be 1bd6 8dbe 5d39 14be 2575 97bd
00000040: 8af4 30be 1a48 babc 350e f6bd 4310 99be
00000050: 5e5a 3bbe 9c1b ab3e 12e9 eebd 9e69 60be
00000060: 9cef 85be dcf3 55be c534 69be 9109 03bd
00000070: 14ad c1bd 09e0 adbd 736a 26be 435d b0be
00000080: 1359 1fbd 307c d1bd a430 69be c85d 5cbe
00000090: cb82 a5be 8fb7 f1bd 8c97 f6bd 1294 7dbe
000000a0: 5fb3 41be f744 72be a67a 0bbe 1da4 15be
000000b0: 61f3 15be 65a7 fc3c 0626 83be 68ec 74be
000000c0: 1546 ccbd 6461 4bbe 4a93 7abe 87b7 ecbd
000000d0: 729c c0bb e18d b73e 1842 35be 5756 c0be
000000e0: 06b6 03be 731f 093e d608 9fbd 4712 1b3e
000000f0: 57be 5d3e 23ac f4bc cb49 0cbe fb4d 033e
00000100: e6bd 5cbe c53a ce3d 0230 ed3d 29d5 b8bd
00000110: cdfb 28be 4cb9 07be b6b3 8abd e98a a4bd
00000120: 38b6 bf3d c6a3 2dbd 87d0 21be 876d 1fbe
00000130: 7a78 a1be 57f7 75bd ff75 54be 0a24 d1bd
00000140: f280 dfbd
0.02543239 -0.27488863 0.069402635 -0.13055252 0.19966388 -0.2735895 -0.12251153 -0.20776558
-0.077232905 -0.030102447 0.109423146 -0.032937903 -0.18163657 -0.27702412 -0.14475007 -0.073953904
-0.17280784 -0.022739459 -0.120144285 -0.2989522 -0.18296191 0.33419502 -0.116655484 -0.2191529
-0.2615937 -0.20893806 -0.22774036 -0.031991545 -0.0945684 -0.08489997 -0.16251545 -0.34446153
-0.038903307 -0.10228765 -0.22772461 -0.2152015 -0.3232635 -0.11802589 -0.12040624 -0.24763516
-0.18916081 -0.2365912 -0.13621005 -0.14613385 -0.14643623 0.030841539 -0.25614947 -0.23918307
-0.099743046 -0.1986137 -0.24470249 -0.115584426 -0.0058780247 0.35850433 -0.17700994 -0.37565872
-0.12862405 0.13390903 -0.07765357 0.15143691 0.2165464 -0.029867237 -0.13700025 0.12822716
-0.21556816 0.10069803 0.115814224 -0.09025032 -0.16502304 -0.13254279 -0.067725584 -0.080343075
0.09360927 -0.042392515 -0.15802203 -0.15569125 -0.3153723 -0.060050335 -0.20748137 -0.10211952
-0.10913266

l0/W f4 [81, 9]
00000000: 9c6f f73c fccc a8be 340d abbd 8e84 6cbd
00000010: 4106 fa3e 3d90 2f3e 605a 1d3f 893a e73d
00000020: 0b65 733e 6109 f93e 54bf 083f 2109 513f
00000030: 05ea d1be 2d06 0e3e 7bd0 21be 0ca3 05be
00000040: dbb4 873e 697e 013f 0964 c03c c2a9 c3bc
00000050: 8c82 6dbf 85e1 093e 7187 07bf 32af ca3e
00000060: 2364 93bd 278f d8be 79a9 37be 458c 7ebe
00000070: 8724 083f e30e 98bd 6311 5ebe ada5 ad3e
00000080: 545d 0ebf 89bc 9fbd 4023 5b3f 86d4 533d
00000090: b681 563f 6a80 84be b290 183e 48dc eebe
000000a0: 7177 173f 99f1 8bbe 1531 d43b 5e85 9bbd
000000b0: 74f4 babe 322e f33d a788 543e b560 463d
000000c0: 24fa a2be 96bf 6ebe 6f87 18be 7f76 843d
000000d0: 25dd 6bbf 972c 193e a3c0 273f 252d 703f
000000e0: 8990 a53e ccee d8bd 39c4 e6bd b878 a7be
000000f0: 734a 393e 6de0 15be 9fe4 5d3e 73d3 f93d
00000100: 82b9 b63e ef97 d8be 4c03 a63c a849 ef3e
00000110: 94b4 adbe 9140 dfbd eafd b73e 7605 d9be
00000120: ae02 093d 9b99 88be 40ec d7be c5e9 843d
00000130: 0f93 a83e d45f 01bf 7fd3 0b3f 04b8 f73e
00000140: d09f 0c3f 5662 4b3e e1c0 12be 71f0 cd3e
00000150: afde c83e cddb c7bd 3dc6 063e 8681 80bc
00000160: 35fa 24bf 055e c13e 72cb 053f f17f 803e
00000170: 522f debe e04d 82bd 4927 a63e b8ba 893d
00000180: 71ad 10be e261 59be dd7f c4be edf1 85be
00000190: 2183 5d3c f3af f0bd 0943 c0be 1c58 713e
000001a0: 7964 4fbd 357c f8be 19f2 8c3e b2a3 44bd
000001b0: e675 1f3f e712 103f 060e 023f f1e9 763d
000001c0: 8320 5f3f 1ddb 35bd d783 7a3e f306 7f3c
000001d0: b2a9 a93e aeef c1bd dbb6 343f 9ea4 213f
000001e0: bebb cf3d efd2 213e 7ceb 173e d5de bd3d
000001f0: b13e c5be 4a30 bb3e 6523 d63e 02b7 133f
00000200: f8c8 d73d 9a88 c3be f2d3 763e 673a 8e3d
00000210: 9b3e 4dbd f7fc 12be ed78 e1be 36e9 fd3e
00000220: 100b 06bf f64f 303e a256 453f d89a ca3e
00000230: a4ab 86be e9cc c33d c6ef 6abe cf61 eabe
00000240: 46fc e5be 5651 8d3e 7fbd 4cbe 4281 e3bc
00000250: 7ee9 f6bd f83f e3bd 47c8 23bf c17c 74bf
00000260: 7582 f8be 1d2e 9bbe ef23 a03b 0adf 493e
00000270: f592 a53e 4ac8 9abe df0e dd3e 4889 4f3e
00000280: f14a 233f 66c6 0c3e 0daf 09be 141f 1b3f
00000290: f486 283e bf20 f3bd eba9 f7be cf87 5b3e
000002a0: b342 80bd 9785 16be 6bc2 dcbe 2338 e23d
000002b0: 4653 a7be c3cb 56be c66a 8c3e d719 0bbe
000002c0: ea9a 4cbf eacd bcbe 59bb e1be 7953 383e
000002d0: 0132 4e3f e5d7 833e 9d5a eabd f711 3d3d
000002e0: dad3 da3e 2f05 ecbd fbaa 23be 006e 17bd
000002f0: 7881 9a3e 6240 f0bd 4a0e 103e 0c33 173f
00000300: 38a5 093e dacf 28be 452b 003f 3062 f5be
00000310: 81a2 b63e 82ae 113d b4c9 d4be c90a 433d
00000320: d555 313e 0757 6cbf 01c7 373d e25e c73e
00000330: 7546 5bbe 52af 603c 2746 d33e 56db a3bd
00000340: 6966 89be eff4 10be 0e65 a3be 3516 b2be
00000350: a90a 713e 0de7 8bbe a4de 903d 82f3 e1be
00000360: 24e4 0fbf 15ca febe 832f 10bf 51f4 91be
00000370: e8a8 343e 8e0f 473e efa1 48bd f109 b0be
00000380: a899 1f3e 3286 a3be 45ff b33e aa6c 90be
00000390: a0e3 3c3e 7f62 fd3e 24ef 2a3e 27ea 273e
000003a0: ce78 1b3e 19dd 0fbe 2640 01be 1be2 963d
000003b0: 8e58 1cbe 16bd 02be 428a f3bd e623 5dbe
000003c0: 2875 393f f543 eebd 0aa9 6cbe 2aa4 febe
000003d0: 4129 01be c410 da3d e07c e3bd d8f3 9cbe
000003e0: 2b2c 0bbe 09b3 eabc dd98 813f 3398 8abe
000003f0: c11c 5e3e 1d1d 88bd f932 893e a5b4 493f
0.030204587 -0.3296889 -0.08352128 -0.0577436 0.48832896 0.17144866 0.61466026 0.112904616
0.23769014 0.48639968 0.53416944 0.81654555 -0.40998855 0.13869543 -0.15802185 -0.13050479
0.2650517 0.5058351 0.0234852 -0.023884658 -0.92777324 0.13464935 -0.5294104 0.39586788
-0.07196834 -0.42296717 -0.17935742 -0.24858196 0.53180736 -0.074247144 -0.2168632 0.33915463
-0.5561116 -0.07799632 0.8560066 0.05171635 0.83791673 -0.25879222 0.14898947 -0.46652436
0.5916663 -0.27332762 0.0064755776 -0.07593797 -0.36514628 0.118740454 0.20755254 0.04843207
-0.31831467 -0.23315272 -0.14895414 0.06467914 -0.92134315 0.14958416 0.65528315 0.93818885
0.32336834 -0.10592422 -0.11267895 -0.3270929 0.18094806 -0.14636393 0.21669243 0.12198534
0.35688406 -0.42303416 0.020265244 0.46735883 -0.33926833 -0.10900987 0.3593591 -0.4238698
0.03344982 -0.26679692 -0.42172432 0.064899005 0.32924697 -0.5053685 0.5461959 0.4838258
0.54931355 0.19861731 -0.1433139 0.40222505 0.39232394 -0.097587205 0.1316156 -0.015686762
-0.64444286 0.37767044 0.5226356 0.25097612 -0.43395478 -0.0636251 0.32451847 0.06725067
-0.14128663 -0.21228746 -0.38378802 -0.26161137 0.013520033 -0.1175231 -0.37551144 0.23568767
-0.050632928 -0.48532262 0.27528456 -0.048007675 0.62289274 0.5627884 0.5080265 0.060281698
0.87158984 -0.044398416 0.24464355 0.015565622 0.3313728 -0.094695434 0.70591515 0.6314181
0.10143231 0.15803121 0.14835924 0.092710175 -0.38524392 0.3656028 0.4182388 0.5770112
0.105363786 -0.38190156 0.24104288 0.06944733 -0.050108533 -0.14354311 -0.44037572 0.49591988
-0.5236063 0.17218003 0.77085316 0.3957126 -0.26302826 0.09560568 -0.22943029 -0.45777747
-0.44919032 0.27601117 -0.19994162 -0.027771596 -0.12056254 -0.110961854 -0.63977474 -0.9550286
-0.4853703 -0.3030862 0.004887096 0.19713989 0.32338682 -0.30230933 0.43175408 0.20267212
0.63786227 0.13747558 -0.13445683 0.60594296 0.1645773 -0.1187148 -0.48371825 0.21438526
-0.06262722 -0.14699398 -0.4311708 0.110458635 -0.3268072 -0.20976166 0.27425212 -0.13584076
-0.7992388 -0.3687585 -0.44088247 0.18000592 0.8054505 0.25750652 -0.11443064 0.04615971
0.42739755 -0.11524426 -0.15983193 -0.03697014 0.30176902 -0.1173103 0.14067951 0.59062266
0.13441932 -0.16485539 0.50066024 -0.47926474 0.35670856 0.035566814 -0.41560137 0.047617707
0.17317899 -0.92320293 0.04486752 0.38939577 -0.21413596 0.013713675 0.4126446 -0.080008194
-0.26835945 -0.14155935 -0.31913036 -0.34782568 0.23539223 -0.27324715 0.07073715 -0.44131094
-0.5620749 -0.4976355 -0.563225 -0.2850671 0.17642558 0.19439527 -0.048982557 -0.34382585
0.15585959 -0.3193832 0.35155693 -0.28207904 0.18446207 0.4948921 0.16692787 0.16397916
0.15182802 -0.14049186 -0.12622127 0.07367345 -0.15268156 -0.12767443 -0.11891605 -0.21595725
0.7244439 -0.116340555 -0.23111358 -0.49734622 -0.12613393 0.10647729 -0.111078024 -0.30654788
-0.13591067 -0.028649824 1.0124775 -0.27069244 0.21690656 -0.06646178 0.26796702 0.78791267

l1/W f4 [81, 81]
00000000: 2dab 483e 3b0a 173e 83f8 cc3d cb03 8d3e
00000010: a595 a6be 2242 3cbd 9e99 dc3e 94f9 ff39
00000020: 04ee 34be 2ca2 2f3e d57e 41be 668b 913c
00000030: 3a37 753e 402a 8d3e 5d7b 9b3d 730e 20be
00000040: 184a 0fbd 9f75 3e3e 16bb 1a3e 42c2 1cbc
00000050: 1674 74bd 3a1d 3bbe a728 ce3c 9f4d 66bd
00000060: 779e e0bd f626 473e 5baa 2ebd 0ab6 b0bd
00000070: 457b 01bc 1467 073e fb04 d63a cada a7bb
00000080: a340 78bd 9583 4fbe e9ba d2b9 1fcd 8bbe
00000090: 5156 27bd 4485 c73c b61a a83d fe44 57be
000000a0: ccc5 5c3e 5686 163d 4498 37be f5b3 0ebc
000000b0: 0178 643d 6c62 e1be 90f5 053e 24c1 acbd
000000c0: 76f1 1ebe 17a4 04be c3cd 353c 8d77 6d3e
000000d0: 35f0 60bd d134 b03d faea 1abd bfe8 44be
000000e0: 7c2d 31be c78a a4bc 9f9d 9cbe ef8c 233e
000000f0: a7b4 d9bd ce6b d5bd 3e9a 593d 72f4 2bbe
00000100: dcd2 11be 9d93 66be f1ac 66be 222a a1bd
00000110: db69 28be c827 e1bd d760 92be e284 1abe
00000120: af8d 50be e132 03be 504a fa3b 2b29 0e3d
00000130: 65ab a3be a15d 2c3e d360 183e 80c6 51be
00000140: 42bc 6fbe 45e0 2fbe 38ff 34bd f69b 55bd
00000150: 0649 66be 6a87 c03c 4053 6a3d 8c7d b83c
00000160: 83ac 4d3e b3ed 023e 4117 5abe 3c13 e1bc
00000170: a803 473d eb65 903d 9ed2 2f3e af8e 463e
00000180: fce1 bb3d 685e 403e 6221 2abd 4c0f ea3c
00000190: a183 cd3d 9743 813d 06db a23e 1993 f63e
000001a0: 0add 333c df75 c33d 1a28 cfbd af74 67bd
000001b0: 8182 a1be d082 8f3d 357d 27be c95c 86bc
000001c0: eb2c 2cbe 21b6 913d 5e67 88bd 4483 703d
000001d0: 4242 20bd 7fee eebd f2bc b03d 7dc0 5f3e
000001e0: e260 95bd 0511 483e 8f9a 8cbd c0f4 30bd
000001f0: 6b01 5dbe b273 43be 31a9 913d a2ac 1b3d
00000200: 17ce 06bc 1b4d f0be e36b a33d c6c4 173e
00000210: 906f ebbd ae3f 853e 74e7 1c3d b3ea 023d
00000220: ec1e 29bd b91c b63e c23e 3a3e 369f 153e
00000230: c2e4 b5be 6d67 713d a782 7ebd 537d 843d
00000240: 2e55 13be 6ee7 43be f8e3 b63d 88c2 273d
00000250: 74a5 9dbe 36b9 903d da5d 43b9 775a 4fbe
00000260: a7c1 6d3e 0229 a53d 1d91 c7bc ad7a 8f3e
00000270: df06 80bc 8b26 813d 51dc c7bc e53d ed3c
00000280: 9d28 323e 9800 a33e 66ee 843c f6fc acbc
00000290: ac98 6abd b8a8 dd3d 9930 4abe 4e06 9abe
000002a0: 3095 3cbe bdab 6c3e 30dc d3bc b4a5 503d
000002b0: 26f1 8c3d 6fd4 54be 5248 643d b0e1 53be
000002c0: 2bb3 753e fda5 8c3c 4258 95be b88e 2a3e
000002d0: 758d 6abd 455f 20be 8675 733c c8bc 3d3e
000002e0: 0e9d 493e 2b8d 9a3e bd86 acbe 58cf a03e
000002f0: 8232 dabd ad96 83be 3593 a1bb 38a3 11be
00000300: 7d71 893e 5e0c 0abe 6666 b1bd f76e babe
00000310: d3f1 e73e ed5c 443e 5eae 9a3e 6dff 96be
00000320: 7cac 2e3d ff14 10be 5a5f bdbd a2e7 53be
00000330: 5e18 d03d 8d1d 95bc 472b 3cbc dc11 93bd
00000340: 8ac1 b73d 9614 bfbc b0b6 263e 1f03 033d
00000350: e20d 2fbe 3811 a8bd 8cca e83d de8a 9e3d
00000360: 9520 87bd 82e8 2dbd 432f 613e 0b84 33bd
00000370: 61b6 eabd 38cd 66bd 8a14 903e 925f 24be
00000380: 29db 1fbe 6a14 f93d 21fc 04be 512e 12bd
00000390: cd40 e83d 5d00 70bd 53b2 90be 33f7 ffbd
000003a0: f17c 21bd cd03 d23c 1f15 c9bd 7fe8 153d
000003b0: 17a3 06bd 3739 86be a067 81be ea49 863c
000003c0: e270 1e3e 4561 573e e5c7 47be 72bb e2bd
000003d0: 002e 2f3d 4466 9ebe 0325 813e 6bad 0fbe
000003e0: 1023 c7bc fbf6 aabe de79 b43e 2fa5 1bbe
000003f0: 4954 493e e89c a83d 64ee 163c 7ca7 67be
0.19596548 0.14749996 0.10008337 0.27541956 -0.32536045 -0.045961507 0.4308595 0.0004882334
-0.17668921 0.17151707 -0.18896039 0.017766666 0.23946849 0.27571297 0.07591889 -0.15630512
-0.03498277 0.18599556 0.1511043 -0.009567799 -0.05968102 -0.18272868 0.025165869 -0.05622637
-0.10967725 0.19448456 -0.042642932 -0.08628471 -0.007902925 0.13222915 0.0016328389 -0.0051225172
-0.060608517 -0.20265038 -0.0004019358 -0.27304932 -0.040853802 0.024355538 0.0820822 -0.21022412
0.21559829 0.036749206 -0.17929178 -0.008709897 0.055778507 -0.44020402 0.13081956 -0.08435276
-0.15521798 -0.1295322 0.011096421 0.23190136 -0.05491658 0.08603824 -0.037821747 -0.1922941
-0.17302507 -0.020085705 -0.30589005 0.1597173 -0.1063016 -0.10420953 0.053125612 -0.16792467
-0.14240593 -0.22517247 -0.2252691 -0.07869364 -0.1644663 -0.10993916 -0.28589508 -0.15089753
-0.20366548 -0.12812378 0.0076382533 0.03470723 -0.319667 0.16832592 0.14880686 -0.20485878
-0.23411658 -0.17175396 -0.044188708 -0.05215069 -0.22488794 0.02350207 0.0572083 0.022520803
0.20085339 0.12785988 -0.21297933 -0.027474992 0.04858747 0.07050689 0.17170188 0.19390367
0.091739625 0.18786013 -0.041535743 0.028571747 0.10034872 0.0631172 0.31807727 0.48159102
0.010977993 0.095439665 -0.10115071 -0.056507763 -0.3154488 0.070073724 -0.16356356 -0.016401665
-0.1681401 0.071148165 -0.06660341 0.058718935 -0.03912569 -0.11666583 0.086297885 0.21850772
-0.072938696 0.19537742 -0.06865417 -0.04320216 -0.21582572 -0.19087103 0.07112349 0.038006432
-0.008227847 -0.46933827 0.07979562 0.14821157 -0.11495888 0.26025146 0.03830667 0.031962108
-0.041289255 0.3556879 0.18188003 0.14611515 -0.3552609 0.058936525 -0.06213632 0.06469216
-0.14387962 -0.19131252 0.089302 0.040957004 -0.30790293 0.07066576 -0.00018631612 -0.20249353
0.23218404 0.08064462 -0.024361188 0.28023282 -0.015628276 0.063061796 -0.024397047 0.028960178
0.17398305 0.3183639 0.016226958 -0.021116715 -0.057274505 0.10823196 -0.19745101 -0.30082935
-0.18416286 0.23112388 -0.02586183 0.050939277 0.06881933 -0.20784162 0.055733033 -0.20691562
0.23994128 0.017168993 -0.29168898 0.16656005 -0.05726381 -0.15661342 0.014859563 0.18529046
0.19688818 0.30185828 -0.33696547 0.3140819 -0.10654165 -0.25700894 -0.0049308785 -0.1422242
0.26844397 -0.1348128 -0.08662109 -0.36412784 0.45301685 0.19176073 0.30211157 -0.2949175
0.042644963 -0.1407051 -0.092467025 -0.2069383 0.10160898 -0.018202567 -0.0114849275 -0.07181141
0.089724615 -0.023325246 0.16280627 0.0319854 -0.1709514 -0.08206409 0.11366758 0.077413306
-0.065980114 -0.042458065 0.21990685 -0.043827098 -0.11460567 -0.056348056 0.2814067 -0.16052082
-0.15610947 0.12162097 -0.12986805 -0.035688702 0.11340485 -0.058594096 -0.2826105 -0.124983214
-0.039425794 0.025636578 -0.09818482 0.03659868 -0.03287038 -0.26215526 -0.25274372 0.016392667
0.15472749 0.21033199 -0.19509847 -0.110709086 0.04276848 -0.30937397 0.2522355 -0.14030997
-0.024308711 -0.33391556 0.35249227 -0.15199731 0.19661058 0.082330525 0.00921211 -0.22622484
