chainerrl/TicTacToe/result_70000/model.npz (npz, 56590 bytes, 8 tensors)

l3/W f4 [9, 81]
000000 2b 55 1e 3e 67 90 38 bd 8d 3e f5 be 5c 06 25 3d
       0.15462177 -0.045059588 -0.47899285 0.040289268
000010 16 08 35 bd cc 4e 20 be f6 fb 8e 3d 2f 60 2c be
       -0.044197164 -0.15655059 0.069816515 -0.16833566
000020 dc 49 41 3e 29 6e bb bc 3f 1e 15 bf 10 5a ba bd
       0.18875831 -0.022879677 -0.58249277 -0.09099209
000030 82 5a d0 be 50 31 d4 3c 88 cf a5 3d a9 59 64 3d
       -0.40694052 0.02590242 0.08096224 0.05574957
000040 7d ae 17 bc 99 5b 1e 3e b3 f4 16 bf ce ca 44 3e
       -0.00925791 0.15464629 -0.5896713 0.19217989
000050 75 8f ba bd 18 99 41 3d 89 92 81 bc 51 6e e7 3d
       -0.091093935 0.047265142 -0.015816944 0.11300338
000060 5e e4 0f bf c0 e3 05 bc b8 7c d5 bd a4 d0 5b 3e
       -0.56207836 -0.008171976 -0.10424179 0.21466309
000070 14 b8 5b be c4 74 e5 3d 9e 2e ee 3d 7b c9 58 3e
       -0.21456939 0.11203912 0.11629985 0.21170609
000080 90 a9 82 bc dc a8 34 3e cd dc 86 be 46 33 fa 3c
       -0.015949994 0.1764254 -0.26340333 0.030542027
000090 28 9e 8f 3e 1e 2c b3 3e 2e aa bd 3c ce 29 a9 bd
       0.2805035 0.34994596 0.023152437 -0.08259927
0000a0 7a 95 65 bc d0 75 24 bf 25 6f b1 be 7c 68 87 3e
       -0.014012689 -0.6424227 -0.3465511 0.26446903
0000b0 cc d3 0e 3e ce a2 24 bf 06 0b 2c 3e 4c d2 5c 3d
       0.13947982 -0.6431092 0.1680108 0.053911492
0000c0 84 3d 12 3e 39 15 7f 3e 6d c3 7f 3e 36 bf 74 be
       0.14281279 0.2491044 0.24976893 -0.23901066
0000d0 1f d9 00 bd be 3d 17 be b2 62 18 3d 3a f3 26 be
       -0.031457063 -0.14769647 0.0372035 -0.16303721
0000e0 f8 01 ec bc 98 f0 62 3e 17 e8 e9 3d 43 a2 bb 3d
       -0.028809533 0.22162092 0.11421221 0.09161808
0000f0 e5 b4 45 be 7d 48 76 bd e8 2e 7e 3e b5 00 f4 bd
       -0.19307287 -0.060127724 0.24822581 -0.11914197
000100 68 30 2c 3d ea 4c 01 3e 80 dd b7 be 93 66 03 bf
       0.04203835 0.12626997 -0.3591118 -0.5132839
000110 6b 7f 16 bd b3 e5 59 bd 6c 3a c2 bd fc dc 5c be
       -0.03674261 -0.053197574 -0.09483799 -0.21568674
000120 4c 5d 83 bc 8f 6a 72 3e 46 bd 99 be 7a dc c1 bd
       -0.016035698 0.23673461 -0.30027217 -0.09465881
000130 ed d5 55 bd b1 72 8f 3d a8 19 b8 be 39 6f 3f be
       -0.05220597 0.070042975 -0.35957074 -0.18694772
000140 44 7a ed 3b 81 c9 6b 3d b5 33 9d be ba 2d 62 3d
       0.007247241 0.057565216 -0.30703512 0.05521939
000150 56 26 df 3e 70 b8 27 3d 76 d5 4a 3e 0f e2 12 bc
       0.43583935 0.040947378 0.19807991 -0.008965029
000160 e0 06 78 be e2 ca 39 bf a7 77 99 3d c6 e0 e4 3c
       -0.24221373 -0.725752 0.07493525 0.027939212
000170 ea b3 f7 bd b0 6e a6 bb b9 c6 21 3e 8e b8 47 3e
       -0.12094863 -0.005079113 0.15798463 0.19503996
000180 6e 8c 63 3e 0a 48 2e 3e 1d 38 a8 3e 74 e8 99 be
       0.22221538 0.17019668 0.3285531 -0.3006016
000190 12 ed fa bd 3d 5b ba bd e0 79 5d 3e 8a f6 51 3e
       -0.12252249 -0.090994336 0.21628523 0.20504203
0001a0 5a 2f 49 be 4a 6d 7a 3d e3 51 ea be ab 94 5e be
       -0.1964697 0.061139382 -0.457656 -0.217364
0001b0 3d c0 70 3e dc a9 60 be 8e 13 8d 3e c5 c9 7f 3e
       0.23510833 -0.21939796 0.27553982 0.24979313
0001c0 d9 c5 b5 be 0e b3 3f be ff e7 3b be a3 24 37 3e
       -0.35502508 -0.18720648 -0.18350218 0.1788507
0001d0 75 9b e4 3e 50 2b 68 3e f3 ca 0f be 20 36 f8 bc
       0.44649854 0.22672772 -0.14042263 -0.030299246
0001e0 28 3b ba be 9e 44 2a 3b c3 b7 22 be 3b cf 12 be
       -0.36373258 0.002598084 -0.15890412 -0.14336865
0001f0 3b 3a b9 3d e0 8d 22 be 49 ab c3 3d 13 c7 6e 3e
       0.0904431 -0.15874434 0.095541544 0.23318128
000200 c1 c1 45 be 69 6b 0a be 57 bb 87 be 41 4e 1a be
       -0.19312192 -0.13517536 -0.26510116 -0.15068914
000210 f1 ad 35 3e 81 0f 76 3d 44 6c 8e be b5 65 37 3e
       0.17742135 0.06007338 -0.27816975 0.17909892
000220 8e 90 39 be 33 63 63 bd cc c9 98 bd da 6c a3 bd
       -0.1812155 -0.055514526 -0.07460365 -0.07979746
000230 dc 39 d6 3d 59 4e 25 be 70 ca 41 3e a3 cf c9 bd
       0.104602545 -0.16143169 0.1892488 -0.09854057
000240 80 26 98 bd 6d 92 0c bc b7 df b3 be d7 a7 49 bd
       -0.07429218 -0.0085798325 -0.35131618 -0.04923233
000250 00 99 66 3e 8d 47 7f 3e 1f ed 4d be 57 af f4 3c
       0.22519302 0.24929638 -0.20109986 0.029868765
000260 ae 3b 74 3c 42 d9 ae be d6 14 2d bd f5 fc 34 3e
       0.014906807 -0.3415013 -0.0422562 0.1767462
000270 ec 1a a8 be 23 97 cf 3c 06 bc d7 be 0e de db be
       -0.3283304 0.025340622 -0.42135638 -0.42942852
000280 f2 ae a9 bd bd fc f8 bd b9 e6 b4 3e 63 21 d3 bd
       -0.08285321 -0.12157581 0.35332277 -0.103091024
000290 a4 ad ec be 22 c2 85 3d 00 df 0f bd 5c 0b 24 be
       -0.46226227 0.065311685 -0.03512478 -0.16019958
0002a0 36 28 12 3e f1 69 98 3d 40 8c fc 3d f1 87 b5 3e
       0.14273152 0.07442082 0.12331438 0.35455278
0002b0 5a 8f 36 3e 68 71 78 bd 88 c0 eb be a8 04 f6 bd
       0.17828122 -0.060655028 -0.46045327 -0.12012607
0002c0 d4 79 c3 bb f2 3d b9 bc b3 30 8e 3c d6 2b 2b bd
       -0.005965451 -0.022612546 0.017357206 -0.041789852
0002d0 f1 2b 26 3e f6 40 66 be 22 d5 30 bf f5 65 0a be
       0.162277 -0.22485718 -0.69075215 -0.13515456
0002e0 75 cb c6 3c b0 4a 2e bd 51 67 2e be db da 13 3d
       0.024266938 -0.042551696 -0.170316 0.03609739
0002f0 a1 52 a6 be 05 68 2d 3e d7 ee d9 be c6 a5 03 bf
       -0.32484916 0.16934212 -0.42565033 -0.51424825
000300 9b b7 51 be c6 ce 7d bd 97 8e 1f bd c5 a9 fa 3e
       -0.20480196 -0.061964773 -0.038954344 0.4895765
000310 48 ac ed 3e 30 39 8b 3e 9a 4e f4 be 48 0e dc bd
       0.46420503 0.27192068 -0.47716218 -0.107449114
000320 b7 49 ea 3d de b1 ae be ad b0 09 3e 3c 9f 90 bd
       0.11439841 -0.34120077 0.13446303 -0.070616215
000330 ad 1c f1 bd 28 c9 9f be 1c 9b 7e bd 13 ca ea 3c
       -0.117730476 -0.31208158 -0.062159643 0.02866081
000340 e4 10 33 bc a7 5f c4 3d e7 3b 24 be 55 b1 4b be
       -0.01092932 0.09588557 -0.16038476 -0.19891866
000350 58 2b 79 3e a2 f7 9e 3e ab 9f fb bd 8a 1d 22 be
       0.2433294 0.31048304 -0.122863136 -0.15831581
000360 52 bc 1f 3e f4 83 d7 be 42 9f c8 3d 2e e1 9d 3e
       0.15599182 -0.4209286 0.09796001 0.3083586
000370 a5 ed 5a be 76 1b 8d bd 75 86 be be 63 01 fe 3d
       -0.21379717 -0.068900034 -0.37211958 0.12402608
000380 08 1a ab 3c f4 48 96 3d 49 3e 4b 3e 8f 2c c4 bc
       0.020886436 0.073381335 0.19847979 -0.023947028
000390 49 d2 23 be d2 a4 cd bc 2b 2b 0c 3e 49 fc 20 be
       -0.15998186 -0.025103007 0.13688342 -0.15721239
0003a0 f6 c0 9b bd 67 87 c6 bd 87 82 94 bd 30 7f 64 be
       -0.07605164 -0.09693795 -0.072514586 -0.22314143
0003b0 ff cf a5 3d 87 d2 98 bd a4 28 dd bd 67 0a a1 3d
       0.08096313 -0.0746203 -0.10798767 0.07863312
0003c0 38 f2 d6 3d e9 60 87 bd 95 78 7d 3e f1 90 1d 3e
       0.10495418 -0.06610281 0.2475303 0.15387322
0003d0 64 1e 30 3d 09 a4 b9 be 5f c6 15 3e 8b a4 e0 3d
       0.042997733 -0.3625796 0.14626454 0.10968884
0003e0 89 2a b3 bd ad 02 df bd c8 36 4b be 1b 95 2b 3e
       -0.08748347 -0.10889182 -0.19845116 0.16756098
0003f0 24 b7 e0 bb 03 26 87 3d 55 11 de be e7 39 4e 3d
       -0.0068577696 0.06599047 -0.43372598 0.05034819

l3/b f4 [9]
000000 04 0d 20 be b7 24 9e be aa 68 5e be c6 45 52 bd
       -0.15629965 -0.30887386 -0.21719614 -0.051336072
000010 a9 7c 80 3d 6c a6 f8 bc 72 1c cf bc 00 4e 8b be
       0.06273777 -0.030352794 -0.025282118 -0.27207947
000020 86 7e 50 be
       -0.20360765

l0/b f4 [81]
000000 0d f6 7f 3e f7 53 a3 be af a6 8c be af 1d 75 be
       0.24996205 -0.31899998 -0.2747092 -0.23937105
000010 59 4e e2 bd 2f 70 cc be e3 e9 00 bf 34 a8 00 be
       -0.110501 -0.3992934 -0.5035688 -0.12564164
000020 5f 14 b3 bc de 8b 19 bd 46 22 d1 be 39 23 39 be
       -0.0218603 -0.037486903 -0.4084646 -0.18079843
000030 dd f7 a1 bd f5 7a 3a be 98 d7 08 bf b7 9b b1 3c
       -0.07908604 -0.18210967 -0.5345397 0.021680696
000040 fb 57 83 3e 48 02 8d be 05 f4 86 be 94 d2 0f 3c
       0.2565306 -0.27540803 -0.26358047 0.008778233
000050 a7 9c 5a 3d 02 7a b6 3e 93 c8 3d be 85 a2 c3 be
       0.05337205 0.3563996 -0.18533544 -0.3820993
000060 6b ea ac be 91 b9 86 be 4b 3b 6b be 54 4c bc bd
       -0.33772597 -0.2631345 -0.22971837 -0.09194246
000070 4b b2 11 be f4 bf a7 be 14 c9 85 be 2e 4c 41 be
       -0.1422817 -0.32763636 -0.26129973 -0.18876716
000080 cf d9 5d be b6 67 51 be 4d fd a8 be 52 e2 cb be
       -0.21665119 -0.20449719 -0.33005753 -0.39821106
000090 56 7c a0 3d 53 f4 3e bf b8 ad 56 be 63 d3 2c be
       0.07836215 -0.7459156 -0.20964706 -0.16877513
0000a0 0e b0 44 be c0 0d a3 bc d6 9b 28 be 55 ab 53 be
       -0.19207785 -0.019904017 -0.16465697 -0.20670827
0000b0 a1 65 b8 be 0b 80 32 3e 48 a0 d9 bd a9 2b d5 be
       -0.36015037 0.17431657 -0.10626274 -0.41634873
0000c0 98 46 e6 be 37 6d 58 be 0a de e8 bd 6a 83 89 be
       -0.44975734 -0.21135412 -0.113704756 -0.26858073
0000d0 9f ed e2 be e7 f2 da be 1c a7 db be d5 40 aa be
       -0.44321916 -0.42763445 -0.42900932 -0.33252588
0000e0 32 d8 a4 be 2c 57 d0 be b2 7a ac 3d 69 4f f7 bc
       -0.32196194 -0.40691507 0.0842184 -0.030189233
0000f0 42 6b 36 be 1c 84 a3 be 13 b8 d8 3c e6 6b 63 be
       -0.17814353 -0.3193673 0.02645496 -0.22209129
000100 3e 30 e9 be b7 48 9a 3e 9a a8 46 be 65 04 74 be
       -0.45544618 0.30133602 -0.19400254 -0.23829801
000110 f7 7e 8a be 75 f9 2f bf 67 c1 b3 bd a4 12 c5 be
       -0.2704999 -0.68740016 -0.08777123 -0.38490784
000120 36 a8 90 be 85 cc e2 bd 6f 5d 06 be 11 cc 86 bd
       -0.28253335 -0.11074165 -0.1312158 -0.06581891
000130 da b3 bc be 50 88 9f bd e1 bd 9f bb f4 d4 93 be
       -0.36855966 -0.077896714 -0.0048749303 -0.28873408
000140 35 e1 90 be
       -0.2829682

l1/W f4 [81, 81]
000000 e7 52 68 be 5e 0f 3e be f0 e9 09 be 44 08 36 3c
       -0.22687875 -0.1856055 -0.13468146 0.011110369
000010 45 07 3d 3d ee db 23 3e e6 9a 30 3e 20 07 bc be
       0.04614951 0.16001865 0.17246589 -0.36724186
000020 62 96 8c be be da 74 be b3 ed 2e be 05 b5 8e bd
       -0.27458483 -0.23911569 -0.17082863 -0.069681205
000030 14 72 30 be de 73 53 be 20 14 4c be 3b 29 64 3e
       -0.17231017 -0.20649669 -0.19929552 0.22281353
000040 a9 d7 25 3d 05 4f bf 3b c7 11 b7 bd 42 99 ef 3d
       0.040488873 0.0058382773 -0.08938938 0.116991535
000050 8d 98 bd bd 67 4c fb bd 59 4a 24 bd 52 aa b5 3d
       -0.092576124 -0.12270432 -0.040109966 0.08870377
000060 41 18 fc 3c 1b fc c0 bd 66 b4 a1 3e bb 8c be be
       0.030773284 -0.09423085 0.31582946 -0.37216744
000070 c8 eb 80 be 6a 99 a0 bd 74 11 f9 bd e7 67 1e bd
       -0.25179887 -0.078417614 -0.12161532 -0.038673308
000080 cb 8f 67 3e 7f 1d 96 bc 59 02 14 3e a9 2c c7 be
       0.22613446 -0.018324612 0.1445402 -0.3890126
000090 9f 59 be bd 90 9a a6 bc 4b f4 3c be f3 b0 ed bc
       -0.092944376 -0.020337373 -0.18452565 -0.02901504
0000a0 06 93 e3 3b 7b f3 f4 3d 20 c1 bf bd 02 09 e3 3d
       0.006945017 0.11960503 -0.093630075 0.110857025
0000b0 4b 11 12 3e 51 86 b0 3c fa 94 d5 bc 03 b1 c0 bd
       0.14264409 0.021548422 -0.026072014 -0.09408762
0000c0 64 d7 8f 3e 63 30 33 3d 80 db 3b bd d9 9e fe bc
       0.28094018 0.043747317 -0.04586363 -0.031081604
0000d0 d2 f7 9d 3c a7 19 bc 3d af aa 21 3d 84 fa e2 bd
       0.019283209 0.0918458 0.039469417 -0.11082938
0000e0 58 5e 14 3d 29 91 7d 3e 1c 04 c3 3d ec 00 79 be
       0.036222786 0.24762405 0.09522268 -0.24316758
0000f0 69 f3 2f 3e 1f 3e 43 be cb a9 20 be 0c ed 81 bd
       0.17182697 -0.19066666 -0.15689771 -0.06344041
000100 ae 74 79 3e e0 d9 53 ba 16 65 1c 3e 2b 81 85 3d
       0.24360916 -0.0008081477 0.15272936 0.065187775
000110 03 0a 99 bd 55 6b 39 be 91 92 2b be 1c a1 cf 3d
       -0.07472613 -0.1810735 -0.1675513 0.10138151
000120 d8 05 3d be d3 28 13 3d f5 91 8c 3d 8b 3f dc be
       -0.1845926 0.035927605 0.068637766 -0.4301723
000130 4b 19 33 be 45 ae b0 bc e0 1a 7e 3d b9 7b 69 3d
       -0.17490117 -0.021567473 0.06203735 0.057002757
000140 43 da 27 be e1 d4 a6 be 40 76 14 bf a0 54 07 be
       -0.16391854 -0.3258429 -0.57992935 -0.13215876
000150 ce 19 c1 3d c8 b9 f8 bd be 7c 95 3e 3d 47 3c 3e
       0.0942875 -0.1214481 0.29196733 0.1838655
000160 1b f5 3d 3e 7c c8 87 be b8 66 95 bd 04 dc 6e 3e
       0.18550532 -0.26520145 -0.07294983 0.23326117
000170 49 a4 97 3e b2 d6 91 3e 00 41 06 3e 74 2e 11 bd
       0.29617527 0.28484112 0.13110733 -0.03544469
000180 86 72 a2 bd ef c9 4d 3e 9f de 9a 3b df b1 3d 3e
       -0.07932 0.20096563 0.0047262455 0.18524884
000190 34 ca f1 bd ee 84 1d 3e 4c ef 9a be 14 61 57 3e
       -0.11806145 0.1538274 -0.30260694 0.21033126
0001a0 2c bc 36 be df 04 47 3d 9a c6 b3 3d ac 0a cf 3d
       -0.1784522 0.04858863 0.087781146 0.101094574
0001b0 fc ce f2 bd 05 00 46 be f0 d7 e6 bc b7 f0 b8 3c
       -0.118558854 -0.19335945 -0.028179139 0.02257572
0001c0 1b c1 30 be cc 0b 24 3d 5e 0e 2c 3e a5 15 92 bd
       -0.17261164 0.040050313 0.16802356 -0.071330346
0001d0 47 6a f9 bd 12 ec 80 be a9 4b ca 3e a3 4d 01 3e
       -0.12178474 -0.25180107 0.3951085 0.12627272
0001e0 aa 4d 32 3d 13 b9 8c bc 7a b1 a5 be 82 d0 da bd
       0.043531097 -0.017178094 -0.32361966 -0.10684301
0001f0 20 e4 20 3e 77 b8 25 be 77 81 8b bd b1 59 44 bd
       0.15712023 -0.16183649 -0.06811803 -0.0479371
000200 e0 97 80 be 74 a3 ae bd 51 9d fd bc 04 1b 6e 3e
       -0.2511587 -0.0852727 -0.030958803 0.23252493
000210 71 d7 5a be 56 ad ff 3d 1d dc ae be 28 74 01 3e
       -0.21371247 0.12484233 -0.34152308 0.12641966
000220 03 00 b2 bd f9 79 c0 3d 4b 2a 92 3e dd 06 ab 3d
       -0.086914085 0.093982644 0.28547892 0.083509184
000230 f5 3a e6 be 7c fd c0 be ca 45 2d 3e 1d 20 12 be
       -0.44966856 -0.37693393 0.16921154 -0.14270063
000240 ae 04 6e be bc bf 21 3e a3 f0 f9 3d 4a d6 2a 3d
       -0.23243973 0.15795797 0.12204101 0.04170827
000250 06 4c a8 be 2a a1 26 3e f1 bc 95 bc 79 93 45 3e
       -0.328705 0.16272417 -0.01827857 0.19294538
000260 bb e3 22 3e 60 93 3c 3e 59 6f 7e be 2d c6 dc 3a
       0.15907185 0.18415594 -0.24847163 0.0016843729
000270 db 14 58 be a1 d9 18 be 7b cc 57 3e 11 8e ff 3d
       -0.21101706 -0.14926769 0.21074097 0.12478269
000280 a0 bc 38 3d b4 53 aa bb 42 99 32 3e 7e fe b6 bd
       0.04510176 -0.0051979665 0.17441276 -0.08935259
000290 a9 cd 7f 3d de bf 93 bd ee 0f cb 3e 76 d8 5c 3e
       0.062451992 -0.0721433 0.3966059 0.21566948
0002a0 83 85 29 3e 8e f0 e1 3d 18 51 b0 be 44 ae ab 3d
       0.16554837 0.1103221 -0.3443687 0.08382848
0002b0 04 d7 63 be b7 7a 0a bc 8a ea cf bd e4 ec 11 be
       -0.2224999 -0.008452109 -0.10152157 -0.14250523
0002c0 34 bf 35 be 97 61 5d 3e 21 59 82 3e e5 88 42 3e
       -0.1774872 0.21619259 0.25458625 0.18997534
0002d0 32 d2 39 bd 9c 66 3b 3d dd bf 79 3d 02 c3 82 be
       -0.045366473 0.045752153 0.06097399 -0.25539404
0002e0 b8 f5 7f be e5 95 c2 bd c5 14 8f 3d 65 39 50 be
       -0.24996078 -0.09501246 0.06986383 -0.20334394
0002f0 39 9b 91 be 5a 95 cf bd 79 d7 1a 3e 03 d4 54 be
       -0.28438738 -0.101359084 0.15121259 -0.20784001
000300 41 19 14 3e 94 2e 19 bd b8 95 12 bd 7b ef 0a bd
       0.14462759 -0.037397936 -0.035787314 -0.033919793
000310 10 e3 5a 3d a5 cd 83 3e 55 6b 0d bd 68 9d 80 3e
       0.0534392 0.25742832 -0.034526188 0.2512009
000320 43 39 31 be 83 50 b6 3b f5 37 0b be 61 9c 9b bc
       -0.17307 0.005563797 -0.13595565 -0.018995466
000330 76 fe 01 be 49 5d 12 be db d2 7c 3e 44 c7 67 be
       -0.12694725 -0.14293398 0.2468981 -0.22634608
000340 55 95 15 3e 95 87 0d be f7 92 10 3e 2a 1c 5e 3e
       0.14607747 -0.13821252 0.14118563 0.21690431
000350 2e 6b 3b bd 8d cb 4d bd df bc 64 3d 4f 60 cf 3b
       -0.04575651 -0.05024295 0.055844184 0.0063286196
000360 9f fa 8d be ad 4f 06 be ad c5 21 3d 9d 77 9a be
       -0.2773027 -0.13116331 0.03949516 -0.30169383
000370 d1 a6 ab bd a2 6b 82 3d 7d 7e 89 3d 76 d3 75 bd
       -0.08381427 0.063681856 0.06713579 -0.060016118
000380 d7 99 aa bd dc e6 5a bd 44 b6 de bd cc bb 3d bd
       -0.08330124 -0.05344282 -0.10874608 -0.046321675
000390 aa 43 82 bd c0 c9 4a be 30 5b 12 3e 57 ce d9 3c
       -0.06360562 -0.19803524 0.14292598 0.026587648
0003a0 83 6b 3c 3d 12 6a cd 3d ef 96 9b bd aa 0e 77 3d
       0.04600097 0.10029997 -0.07597148 0.06031672
0003b0 4d d9 5a bc af e8 ba be ab bc 6a bd 00 db ca 3c
       -0.013357473 -0.36505648 -0.057308834 0.02476263
0003c0 ce 54 5b 3c 22 c4 86 3e 24 29 b1 3d e9 8b 03 3e
       0.013386918 0.26321512 0.08650425 0.1284634
0003d0 74 4b 5a be 53 ca c3 3d 57 d7 1a 3e cb f9 1d 3d
       -0.21317846 0.09560075 0.15121208 0.0385683
0003e0 53 d1 85 be 50 b2 c3 3e 0d 11 73 be b5 66 18 bd
       -0.26136264 0.3822198 -0.23736973 -0.037207324
0003f0 fe 65 a7 3e 3d 20 d4 bd 32 34 69 3e f8 6a 25 3d
       0.32695 -0.103577115 0.22773817 0.040385216

l2/W f4 [81, 81]
000000 c2 e5 01 be 89 c3 d2 bd 78 56 c1 3c 18 79 e0 3d
       -0.12685302 -0.102912016 0.023600802 0.10960597
000010 bf b1 cb be c8 d2 72 3e 22 96 02 3e 8d a3 1e be
       -0.39784047 0.23713219 0.12752584 -0.15492077
000020 5f a7 73 3b d2 0e 42 3d cc e4 03 3d 70 b3 81 3d
       0.0037178618 0.047377415 0.03220062 0.06333053
000030 b7 2f d5 3c 6b b7 2e bd 62 a1 ea bc 61 b1 55 3d
       0.026023729 -0.04265539 -0.028641406 0.052171115
000040 24 22 e2 bd f4 f8 65 3d 32 d1 02 3e db 71 8d bd
       -0.11041668 0.056145623 0.12775114 -0.06906482
000050 91 a6 4b 3e c8 1c e5 3b e6 0e 73 3e a2 24 17 be
       0.19887759 0.0069919564 0.23736152 -0.14760068
000060 76 38 ad bc f4 98 1f be fe f2 01 bf 9e d8 1d bc
       -0.021145087 -0.1558569 -0.507614 -0.009634165
000070 10 54 05 3e 0e 3d 2e be 59 fb bd 3c 21 1c 27 be
       0.13020349 -0.17015478 0.023191141 -0.16319324
000080 85 e0 1e be ea 8a 6a bc df f0 ae 3d d3 ba f9 be
       -0.15515335 -0.014315346 0.08542036 -0.48775348
000090 a5 37 d5 3d a2 3d 80 3d 83 5d b0 be c0 43 af 3e
       0.10411004 0.062617555 -0.34446344 0.34231377
0000a0 99 5a a0 bd 75 fc 16 3e c6 15 3d 3e 9b 6d 8d bd
       -0.0782978 0.14744742 0.18465337 -0.06905671
0000b0 1b 75 5e be 0a 7c 9b 3e 0b a9 e9 3d 66 27 d5 3d
       -0.2172436 0.30368072 0.114091955 0.10407905
0000c0 9a 90 a2 bd b8 9e f0 bd a3 82 83 3e 87 da eb bd
       -0.07937737 -0.11749023 0.25685605 -0.1151629
0000d0 c8 22 a1 bd cb e2 f7 bd 8f af 2e bd ce 97 a5 bd
       -0.07867962 -0.12103804 -0.042647894 -0.08085595
0000e0 0e e5 80 3e db cd 31 bf 01 48 8a 3e 1b 5b aa be
       0.25174755 -0.69454736 0.2700806 -0.33272633
0000f0 b6 3c 50 be 8e 3c 48 bc ac 01 c2 bd 10 19 20 bd
       -0.2033566 -0.012221469 -0.09472975 -0.0390864
000100 1c b7 d6 3d 93 a7 0f bd b4 43 13 be d3 64 e2 be
       0.10484144 -0.03507192 -0.14381295 -0.44217548
000110 6b 5d 3c 3e dd 29 27 3d b6 d1 37 3e 5c 39 36 be
       0.18395011 0.04081141 0.17951092 -0.17795318
000120 25 86 9e bd a1 da f3 bd 8a 0e 99 3c 40 cd fc bd
       -0.0774043 -0.119069345 0.01868369 -0.12343836
000130 11 ff 87 be f1 90 85 bd c7 5e c7 bd b3 9a c0 be
       -0.26561788 -0.06521786 -0.09734874 -0.37618026
000140 45 c1 9c 3d d0 47 07 3e a7 14 cf be cb 3a de 3d
       0.07654051 0.13210988 -0.40445444 0.108510576
000150 50 28 0c 3e 08 da f0 bb 5d b4 6a be ac 1d 7c bd
       0.13687253 -0.00735021 -0.22920366 -0.061551735
000160 b6 06 72 be 42 9c b2 bd b5 74 01 3e 49 a9 4a 3c
       -0.23635373 -0.0872121 0.12642176 0.012369462
000170 23 7c a8 bc cc 5c dc 3d 9a 81 20 be 0c 3a a3 bc
       -0.020567006 0.10759887 -0.15674439 -0.01992514
000180 10 c1 34 be 73 c6 a1 3d 61 cf 46 3d dd 23 51 3e
       -0.17651772 0.07899179 0.048537616 0.20423837
000190 f0 26 b9 be df 8b 48 3e c8 f1 d8 3e e2 fb 7e 3e
       -0.3616252 0.19584607 0.42371964 0.24900773
0001a0 71 fc 36 3d ce ad a8 3d 5b d0 22 be ff 89 56 3e
       0.04467434 0.082362756 -0.15899794 0.20951079
0001b0 b9 2e 66 be 21 a2 92 3c d2 5a 2a bd 78 ac 4b be
       -0.22478761 0.017899575 -0.04159052 -0.1989001
0001c0 7a 09 53 3c d6 3f 20 3e a2 9e 08 3e a8 b0 fc 3c
       0.012880677 0.15649351 0.13341764 0.030845955
0001d0 bb d0 98 be 01 3d 08 3d 3c 4b 05 3e 2c e9 01 be
       -0.2984675 0.033261303 0.13016981 -0.12686604
0001e0 c8 70 96 bd a4 9b 0e bf 6a d0 2e be ee af d4 be
       -0.0734573 -0.5570624 -0.17071691 -0.41540474
0001f0 05 f8 ab 3d 19 93 f8 bd b3 50 d3 bc b6 74 ac 3a
       0.08396915 -0.12137432 -0.025795316 0.0013157341
000200 54 bf 53 be 6f 98 b4 bd 15 75 21 3e 6e 7a 82 be
       -0.20678455 -0.08818137 0.1576732 -0.2548403
000210 97 8b bb bc 31 f4 15 bd eb 01 14 3e 15 fc 47 3e
       -0.02289371 -0.036609832 0.14453857 0.19529755
000220 85 5c 74 3e dd 05 ab bd da 82 a4 3d c1 63 1c be
       0.23863418 -0.08350728 0.080327705 -0.15272428
000230 1a 85 12 3e 94 47 fc bd aa e5 b8 bd fb c9 7e 3e
       0.14308587 -0.1231834 -0.0902818 0.24881737
000240 2f e8 7b be 1a 3c fe bd fa 79 58 bd 81 ee af 3d
       -0.2460029 -0.12413807 -0.0528507 0.08590413
000250 11 85 80 3e d8 97 50 3c 07 82 6f be 29 4b 6d bd
       0.25101522 0.012731515 -0.23389445 -0.057933006
000260 79 3d 73 bd 3f dd e8 3a f4 64 33 be 65 8d a0 bd
       -0.059384797 0.0017766132 -0.1751898 -0.07839469
000270 51 f7 d9 3d 30 65 d5 bc b2 3e 9f bd aa ba 06 3d
       0.10642875 -0.026049227 -0.0777563 0.03289286
000280 1e 32 9f 3e a4 67 7d 3e 9b 6b 1c be 36 99 20 3d
       0.31092924 0.24746567 -0.15275423 0.039208613
000290 65 3b 2d 3e ca ef 11 bd f7 2b 05 3e d4 e4 7a 3c
       0.16917188 -0.03562907 0.13005053 0.015313346
0002a0 c3 38 62 be 53 48 3e be cd ac f1 bd 11 d0 bd 3c
       -0.22091965 -0.18582277 -0.11800537 0.023170503
0002b0 1d 32 23 3e f0 7f 42 be d2 79 a2 bd 99 e9 ec bd
       0.15937085 -0.18994117 -0.07933392 -0.11567993
0002c0 3c c9 96 3c ba b7 ab be 26 31 5e bd 75 f6 37 be
       0.018406503 -0.3353861 -0.05424609 -0.1796511
0002d0 d2 5b c2 3d 48 c4 42 be f5 ff c2 bd d6 fd dc be
       0.094901696 -0.19020188 -0.09521476 -0.4316241
0002e0 eb e3 48 3d 02 1e 59 bd 3d 46 83 be ce bb ab bc
       0.049045485 -0.053007133 -0.25639525 -0.020963576
0002f0 66 61 cf bd 20 a2 c0 bd 63 8e ca bb 08 f3 17 3e
       -0.10125999 -0.09405923 -0.0061815246 0.14838803
000300 92 f7 92 3e 3e c3 c4 bd 77 82 84 3d e7 6c 06 3d
       0.28704506 -0.09607552 0.06470197 0.0328187
000310 b7 9d 72 bd de 3a b3 3e d6 d5 ff be b7 e8 4e 3e
       -0.05923244 0.3500585 -0.4996783 0.20205961
000320 b8 17 c8 3d 23 54 b7 be 9f 17 f6 bd 23 50 3d be
       0.09770149 -0.3580638 -0.12016224 -0.18487601
000330 28 12 19 be 50 ca 66 3e e8 c3 2b be 4f 52 b5 bd
       -0.14948332 0.22538114 -0.16773951 -0.0885359
000340 9b 10 5b 3e b4 61 90 be 43 ea a0 3d 71 c0 cd bd
       0.21393053 -0.28199542 0.07857182 -0.10046471
000350 dd 92 14 3d e5 51 71 3c 16 de c3 be 4b 76 c4 be
       0.036272872 0.014728998 -0.38255376 -0.383715
000360 a1 8b d4 bd 8d 3f 01 be 55 e9 6e 3e b1 ac 83 be
       -0.103781946 -0.12621899 0.23331197 -0.2571769
000370 28 94 b5 be 45 6d 69 be b2 19 16 3e b7 bf 96 be
       -0.35464597 -0.2279559 0.1465824 -0.29443142
000380 79 5b cd be dd 29 d3 bd 49 ab 47 be 48 af 81 be
       -0.4010885 -0.10310719 -0.19498934 -0.2532904
000390 ab e4 34 be 64 96 8e be bb fe 7a be 1c 7c fd bd
       -0.17665355 -0.27849114 -0.24511234 -0.123771876
0003a0 8f a7 6b be f1 7a dd bb ed 68 5e be 82 42 11 b9
       -0.23013137 -0.0067590405 -0.21719714 -0.00013853054
0003b0 a8 17 e6 be f1 3a aa 3d c3 44 d7 bb 30 a7 91 3d
       -0.44939923 0.083120234 -0.0065694763 0.071119666
0003c0 0b f7 8c bd c2 9d 33 be 37 02 db 3d eb 24 de 3d
       -0.06883057 -0.17540649 0.10693782 0.10846885
0003d0 c4 19 23 be 2a ff 10 bd 9e 2d ab bd 24 62 5d be
       -0.15927798 -0.035399593 -0.0835831 -0.21619469
0003e0 65 c6 85 3c 4f e0 b8 3d 1a 08 f2 ba 79 4e 94 be
       0.016329953 0.090271585 -0.0018465549 -0.2896612
0003f0 d9 a4 e0 bd 4b 13 88 bd aa c1 2a 39 a6 bf 62 bd
       -0.10968942 -0.06644305 0.00016284609 -0.05535855

l1/b f4 [81]
000000 ae b0 99 bd 4c f8 78 be a5 3d 64 be 5b b7 6f be
       -0.07504402 -0.24313468 -0.2228914 -0.23409788
000010 43 ab cd be ac b4 45 be 4b 23 66 be ff b3 18 be
       -0.40169725 -0.19307202 -0.224744 -0.14912413
000020 d0 c0 a8 be c0 44 d4 3c 2b b3 6e be a4 a0 29 bd
       -0.32959604 0.025911689 -0.23310535 -0.041412964
000030 50 f8 20 be 76 3d 4a bd e8 6d 08 be a6 88 1b 3c
       -0.15719724 -0.04937502 -0.13323176 0.009493029
000040 82 75 fe be 91 b1 73 bd 92 32 29 3d 8a 15 de bd
       -0.49699026 -0.059495512 0.041307993 -0.10843952
000050 43 df 85 be f1 ed 08 be ab ef ae be f0 67 be be
       -0.26146898 -0.13372017 -0.34167227 -0.37188673
000060 8e d0 af be aa dd d6 be 41 01 e6 3c f4 a6 7f be
       -0.34338802 -0.4196599 0.02807677 -0.24966031
000070 0f 71 12 bd 0a 47 01 3c c3 61 a5 be 87 5c 96 bd
       -0.035752352 0.007890472 -0.3230115 -0.07341867
000080 c2 fc ab 3d 0a b3 97 be 1c 8a b0 bd 1a cb f9 3d
       0.08397819 -0.29628783 -0.08620092 0.12196942
000090 21 ed 18 be 92 97 55 be 15 08 37 bf e3 31 79 be
       -0.14934207 -0.208586 -0.7149671 -0.24335437
0000a0 6e 0a 34 3e b4 be c0 bd 5d dc 88 be 13 b9 d0 bd
       0.17582104 -0.09411374 -0.26730624 -0.1019155
0000b0 e4 08 9b be f2 03 87 3e a1 fb 25 be 98 17 35 be
       -0.3028022 0.26370198 -0.1620927 -0.17684782
0000c0 27 c4 0a be 1d 04 d2 be 93 4e 0c be 84 ac 77 be
       -0.13551389 -0.41018763 -0.13701849 -0.24186903
0000d0 f0 5c 43 be 08 d0 83 bd 77 d1 bd be 95 f4 64 bd
       -0.19078422 -0.06436163 -0.37073871 -0.055897314
0000e0 1b 20 2e bd 8e c9 2d be a9 5b b4 bc 10 89 ed be
       -0.042511087 -0.16971418 -0.022016363 -0.46393633
0000f0 3d b8 30 bd e3 8b 97 be 43 7e 53 be d6 31 fc be
       -0.043144453 -0.29598913 -0.20653634 -0.49256772
000100 e7 58 7a 3d 51 09 84 3d 5e 49 ef be e8 81 0a be
       0.06111994 0.064470895 -0.46735662 -0.13526118
000110 ee c7 d4 bd 96 cc fb bd 73 32 41 bd af 68 3c 3d
       -0.10389696 -0.12294881 -0.047167253 0.04599827
000120 f5 4a c1 3e 82 11 09 be c8 11 a6 be b2 65 70 be
       0.377525 -0.13385585 -0.3243544 -0.23476294
000130 51 b4 ac 3d 2a 95 6d 3d fd 32 8c 3d 77 e5 05 be
       0.0843283 0.058003582 0.06845663 -0.13075815
000140 a5 25 bc bd
       -0.091868676

l2/b f4 [81]
000000 1d f8 24 bd 56 81 bc bd 17 ad 3e be 9c 45 7e 3d
       -0.04027568 -0.09204356 -0.18620716 0.062078103
000010 8d a6 f5 3c be 30 a3 be e9 22 ad be ce fe 11 be
       0.029986644 -0.31873125 -0.33815697 -0.14257357
000020 da 04 19 be 6d d6 21 3e 02 4b b0 be d1 34 aa 3c
       -0.14943257 0.15804453 -0.34432226 0.020777138
000030 57 5f 8a bd 39 1d ae bd 4c ca c7 3d f4 c7 50 3e
       -0.06756466 -0.085016675 0.09755382 0.20388776
000040 d9 d4 ef bc 30 13 95 be 4b af 4b be e7 6e b0 be
       -0.029276298 -0.291162 -0.19891088 -0.34459612
000050 e5 15 39 be 1d 44 9a 3d d5 cc 14 be 12 b3 81 be
       -0.18074758 0.07532523 -0.14531262 -0.25331932
000060 3b 1e 07 be 11 c6 9e bd 85 e3 6f be 7c 23 28 be
       -0.13195126 -0.07752622 -0.23426636 -0.16419786
000070 36 9f 48 be 80 71 4e be 2f 6c 9a 3c 93 31 e6 bd
       -0.19591984 -0.20160484 0.018850414 -0.11239924
000080 f2 2e 64 be 94 02 50 be 48 57 28 bd 68 1e 17 be
       -0.22283533 -0.20313483 -0.041098863 -0.14757693
000090 5c 95 22 be 29 8f 0e 3e cb 6a 4f be 45 cb e7 bd
       -0.15877289 0.13921799 -0.20255582 -0.113180675
0000a0 44 55 07 bc a0 6f 2d be 88 73 89 be 27 ad 30 bd
       -0.008260075 -0.16937113 -0.26845956 -0.04313388
0000b0 43 3e 83 bd 17 a9 23 be 86 b6 20 be df e8 a9 bd
       -0.0640836 -0.15982471 -0.15694627 -0.0829637
0000c0 37 33 70 be f3 09 71 be c8 3e 82 be 3b 9f fb bd
       -0.23457037 -0.23538952 -0.25438523 -0.1228623
0000d0 e7 14 21 be 43 0f 81 be df 1a 3e 3c db 1c 00 3e
       -0.1573063 -0.25206956 0.011603086 0.12511007
0000e0 bd 92 50 3d 08 66 77 3d 66 dc c8 3c 8e 0c 8c bd
       0.05092119 0.06040004 0.024519157 -0.06838332
0000f0 a3 9a 9b be 49 c7 e0 bc 4b c3 80 be 15 b4 ad 3b
       -0.30391416 -0.027438777 -0.25148997 0.0053010085
000100 f9 5d 32 bd fc 74 03 be 20 8f 6e be b2 41 36 be
       -0.04354665 -0.12837595 -0.23296785 -0.17798498
000110 60 5f 92 be 0d 4c 34 be 27 2f 66 be d8 d2 96 be
       -0.2858839 -0.17607136 -0.22478925 -0.29457736
000120 23 17 ac bd 7f 89 1f be a8 13 21 be df 54 fa bd
       -0.084028505 -0.15579794 -0.15730155 -0.12223219
000130 e8 e6 fd bd 21 7c 4d be ee f9 c3 be 83 9b d7 bc
       -0.123975575 -0.20066883 -0.3827662 -0.026319271
000140 83 2a b9 bd
       -0.090413116

l0/W f4 [81, 9]
000000 c8 6d e6 3e 39 8b 70 3d 24 6a c9 3d c2 cb 5b 3e
       0.4500563 0.058726523 0.09834698 0.21464446
000010 12 c5 13 3d 33 89 b9 3e 0b a5 08 3f 0f c9 e3 3a
       0.036076613 0.36237487 0.53376836 0.0017378646
000020 9b 4f 2b 3f 4d 7f 48 3d 56 76 99 3f 21 35 a9 3d
       0.66918343 0.04894953 1.1989238 0.08262087
000030 29 0b 5d be 61 b8 22 3f 57 a0 59 be 74 82 06 bd
       -0.21586289 0.6356259 -0.21252571 -0.032839254
000040 37 2c 0e 3f be 7e a6 3e c7 60 1a bd e3 65 6c 3e
       0.55536216 0.32518572 -0.03768995 0.23085742
000050 b0 7f 6c 3e 3e 56 2e bf 98 c9 10 3e 32 71 c6 3d
       0.23095584 -0.68100345 0.14139402 0.09689559
000060 90 2a 2b bf 63 90 34 3d d6 60 98 be aa 1c 04 3f
       -0.6686182 0.04408301 -0.2976138 0.5160624
000070 5f d3 88 3d f9 a4 e1 3d e7 60 16 be d4 80 e5 3d
       0.06680941 0.11017794 -0.14685403 0.11206213
000080 45 d1 ab be 64 58 57 be 99 a4 49 3d 5d 99 ba be
       -0.33558097 -0.21029812 0.04922924 -0.36445132
000090 ab 1c 05 3f cf e6 08 bb c0 29 e2 3c b7 67 00 bd
       0.5199687 -0.0020889526 0.027607799 -0.03134891
0000a0 a5 c7 07 bf fb 46 21 bb f2 3e 22 bc 71 ad 11 be
       -0.5303901 -0.0024608958 -0.009902703 -0.14226319
0000b0 5c 21 f1 be 3e 03 95 be a1 6b f1 be 82 10 e8 3e
       -0.47095764 -0.29104036 -0.47152427 0.45325094
0000c0 fc b1 1b 3f 4c db 40 be 49 34 a8 3d 43 4b c5 be
       0.6081846 -0.18833655 0.082130976 -0.38533983
0000d0 ca 7a 58 bf 49 3b 01 3d 3d 5f 49 bd 71 d0 0f bf
       -0.8456236 0.03155068 -0.049163092 -0.5617743
0000e0 b3 af 00 bf 44 a3 81 3e 50 21 b3 be 1d 04 04 3e
       -0.50268096 0.25319874 -0.34986353 0.12892194
0000f0 4a a2 29 3f 29 88 7e be c9 e9 9b be 46 7d bd be
       0.6626326 -0.24856628 -0.304518 -0.3700964
000100 c6 6a 9f be 21 5e 80 be b6 cb cb be 68 83 45 be
       -0.3113615 -0.25071815 -0.39803857 -0.19288409
000110 d4 a1 5d bd 8a 0e ad be 88 ac 40 3f c6 08 e8 be
       -0.05410941 -0.33800155 0.7526326 -0.45319194
000120 40 0e c5 3e 34 fa 0b 3e d8 b6 1a 3e 74 f7 64 be
       0.38487434 0.13669664 0.15108812 -0.22360021
000130 38 48 6c bc 39 cf ea 3c 41 e3 d0 bd 09 ba 76 bf
       -0.014421515 0.028663265 -0.10199595 -0.9637762
000140 8c 86 a3 3e b1 63 70 3e 3b cd e6 bd 03 07 55 3e
       0.3193859 0.23475529 -0.11269613 0.20803456
000150 0a 9a 15 3f 2c a1 c9 be 79 59 2b be 2a 35 e5 3c
       0.5843817 -0.39380777 -0.1673335 0.027979452
000160 66 be 4d 3d a1 eb a3 3e a1 23 05 3e 50 d9 d7 be
       0.050230406 0.32015708 0.13001873 -0.42157984
000170 57 8a f3 be 25 86 10 bd 7d 1e 33 3d 2e 98 7a bd
       -0.47566482 -0.03528418 0.043730248 -0.061180286
000180 4f 6f 58 bf 5f 1a f2 be f1 d3 2b bf da cd e5 3e
       -0.84544843 -0.47285745 -0.6712027 0.44883615
000190 1d f8 0d 3e 78 44 e7 bd 06 fd eb 3c 67 02 42 3f
       0.13864179 -0.11292356 0.028807174 0.75784916
0001a0 c3 ea 39 3f 3b a8 d2 3e b2 f4 76 3d f2 1f 34 bd
       0.7262384 0.41143975 0.060291953 -0.043975778
0001b0 93 95 02 3f 1a 87 ff 3e d7 81 e3 3e d7 1b 44 3e
       0.5100948 0.49907762 0.44434997 0.19151245
0001c0 47 86 0f 3f b2 a6 01 be b1 d3 59 be 95 67 b5 3e
       0.56064266 -0.12661245 -0.2127216 0.3543059
0001d0 a0 93 8f 3e d8 b2 55 3f b1 d2 e6 be 37 19 e3 3d
       0.28042316 0.8347602 -0.4508262 0.11088794
0001e0 d6 3c 6d 3e dc 14 c9 3e 61 0f 12 3f fd 4f 9f bc
       0.23167738 0.39273727 0.57054716 -0.019447321
0001f0 4d 7d 98 be 7c c0 29 3f 58 0d 3a be 36 4a b5 3d
       -0.29783097 0.6630933 -0.18169153 0.08852045
000200 92 14 6f bf a7 c4 02 3e 53 3a 2a bf 5b f9 49 3d
       -0.9339076 0.1277033 -0.66495246 0.04931007
000210 3d 4b 4a bf a4 51 b0 3e 5f 4c aa 3d d0 ad f2 3d
       -0.79021055 0.34437287 0.08315348 0.11849558
000220 5b a8 f6 3e 37 93 bb 3e 1a 84 ea 3e 91 e6 b8 3e
       0.4817532 0.36635754 0.4580391 0.36113408
000230 aa 13 5a 3d 09 bb fd 3d a3 a9 5c be 9d c2 f6 3d
       0.05324141 0.1238919 -0.21549086 0.12048838
000240 c3 c3 68 3f 9c 86 0c 3e 08 da d0 3e 2f 61 a3 3e
       0.9092371 0.13723224 0.40791345 0.31910083
000250 c2 ad 9d 3e a6 9f 1b 3f 03 dd d9 3e e7 72 90 3e
       0.3079663 0.6079048 0.4255143 0.28212664
000260 69 a5 39 3e cb c8 65 be 68 87 51 3e 0c e6 ed be
       0.18129505 -0.22439878 0.2046181 -0.46464574
000270 ea 30 a1 be 7d c8 14 bf a5 b4 0b bf ba ca 83 3e
       -0.3148263 -0.5811842 -0.54572517 0.25740606
000280 7a 1d 0b bd d6 55 3b bd bd 3c 5e bb 09 68 b8 be
       -0.033963658 -0.045736156 -0.0033910715 -0.36016873
000290 9c a6 e7 3c b0 bb 10 bd 15 52 4a be f1 e4 6a 3f
       0.028277688 -0.035335243 -0.19757874 0.91755587
0002a0 04 aa ec 3d 30 23 90 bd 99 50 c6 3d e0 eb f1 bb
       0.115558654 -0.070379615 0.096833415 -0.007382855
0002b0 7f 65 1f 3d 49 ae 19 be 1a 35 35 3e b2 f6 c2 be
       0.038915154 -0.15007891 0.17696038 -0.3807884
0002c0 2e 0d 96 3e 32 12 89 be b4 18 55 be fd 6c 98 3e
       0.2930693 -0.26771694 -0.20810205 0.2977065
0002d0 60 af 19 be 79 73 93 3d c3 6f 01 3f d9 44 45 be
       -0.15008307 0.07199759 0.5056116 -0.19264545
0002e0 1b b1 ef bd 46 98 a3 3e 61 d7 e2 3e 00 aa 8f 3e
       -0.11703702 0.31952113 0.44304946 0.28059387
0002f0 a6 c6 7b be c5 59 de 3e 00 58 51 3f a0 14 d9 3e
       -0.24587497 0.43427864 0.817749 0.42398548
000300 8f 12 d7 3e 88 91 d2 3e 36 7e 4f 3f 41 f5 ce 3e
       0.42006347 0.41126657 0.8105196 0.4042149
000310 a5 90 c0 3e 14 6b e1 3e 1c 2b 57 ba fd 4d c5 3e
       0.37610355 0.44027007 -0.0008208023 0.38536063
000320 21 08 da be 04 3e ac be f6 1d 21 3d 7c a6 78 3e
       -0.42584327 -0.33641064 0.039335214 0.24282259
000330 5c 26 f8 3d c4 e8 fb 3e df ca 3b 3e 12 9c a8 3e
       0.121166915 0.49201024 0.18339108 0.32931572
000340 45 ac 3a 3e c9 48 f2 bd fe 9b aa be 86 fe 6a bf
       0.18229778 -0.11830289 -0.33322138 -0.9179462
000350 4d 69 a0 be 75 b4 16 be 75 ed 9d 3d 92 59 f1 3e
       -0.31330338 -0.14717276 0.07711307 0.4713865
000360 85 9f 13 bb 98 18 2e be 07 9d b8 be d1 b3 81 3f
       -0.00225255 -0.1700157 -0.36057302 1.0133001
000370 52 cb f4 be dd 34 03 bf 36 18 7f be 54 3a 01 bd
       -0.4781137 -0.5125254 -0.2491158 -0.031549767
000380 49 58 01 bf 1f 70 29 3d 3a 42 5d bd 0e 7c 15 3f
       -0.5052534 0.041366693 -0.054018237 0.5839242
000390 de fd 80 bd 09 d0 c5 3d c3 8f 12 bf 5d 9c ca bd
       -0.06298421 0.0965882 -0.5725061 -0.09893105
0003a0 42 9d 2d be b7 78 2c 3f ce 4d aa be 52 93 1a 3d
       -0.1695452 0.67371696 -0.33262485 0.03773815
0003b0 7c e3 c9 bd ec eb 63 3e cd 03 9a 3e 04 9f b0 3e
       -0.09857842 0.22257966 0.30081025 0.3449632
0003c0 bc f7 e2 3e f8 d8 02 bf 29 45 9e 3e 02 11 08 3f
       0.4432963 -0.5111232 0.3091214 0.5315095
0003d0 62 ad ac be 10 36 83 be 3c 54 c5 3e 08 22 ad bd
       -0.3372603 -0.25627184 0.38540828 -0.084537566
0003e0 43 cb c8 be 7a a9 09 bc 79 c5 5b 3d c0 27 09 3e
       -0.39217576 -0.008402223 0.05365512 0.1339407
0003f0 82 8f e8 3e 52 74 46 3e 04 70 76 3d e1 a4 17 be
       0.45421988 0.1938031 0.06016542 -0.1480899
