chainerrl/TicTacToe/result_70000/target_model.npz (npz, 56612 bytes, 8 tensors)

l3/W f4 [9, 81]
000000 9b b2 1e 3e f9 8c 34 bd 04 50 f8 be 8a 0b 30 3d
       0.1549782 -0.044079755 -0.48498547 0.042979755
000010 fa 0f 38 bd a3 5f 29 be b7 53 7f 3d ed f6 29 be
       -0.04493711 -0.16540389 0.062335696 -0.16598101
000020 0b 60 42 3e c9 38 c5 bc 48 9c 15 bf 45 d2 a7 bd
       0.1898195 -0.024074929 -0.5844159 -0.081944026
000030 65 cd d1 be ee 16 c1 3c be 49 a3 3d 69 49 6f 3d
       -0.40977016 0.023570504 0.079730496 0.05841962
000040 b1 9f c8 bb 26 5e 1e 3e 2b 6d 17 bf 8b e9 3f 3e
       -0.0061225523 0.15465602 -0.5915095 0.18741433
000050 40 6c b3 bd a5 5c 5d 3d 5e 64 9b bc 6d 4b e3 3d
       -0.087608814 0.05404343 -0.018968757 0.11098371
000060 55 58 10 bf 8c bc 11 bc bd 25 d2 bd 9a 21 67 3e
       -0.56384784 -0.008895051 -0.10261104 0.22571412
000070 48 7b 5e be db ec eb 3d c4 70 ee 3d 9d 1c 5a 3e
       -0.21726716 0.11519786 0.11642602 0.21299978
000080 53 3f b9 bc 18 9f 34 3e 61 1c 88 be 14 08 f0 3c
       -0.022613203 0.17638814 -0.2658415 0.029300727
000090 78 f4 90 3e cc 73 b4 3e df cc b1 3c 24 81 a8 bd
       0.28311515 0.35244596 0.021704135 -0.082277566
0000a0 42 be 33 bc a5 25 25 bf a2 6d ae be 5a 58 8a 3e
       -0.010970654 -0.64510566 -0.34068018 0.27020532
0000b0 47 46 14 3e ea 51 23 bf 12 7f 29 3e ca 80 55 3d
       0.14479934 -0.63796866 0.1655238 0.052124776
0000c0 e0 26 14 3e 82 0a 7d 3e 88 1b 7f 3e b8 7f 74 be
       0.14467955 0.2471104 0.24912846 -0.23876846
0000d0 01 d8 ff bc 4c 10 1b be 48 f0 20 3d 44 72 22 be
       -0.031230928 -0.15142936 0.03929165 -0.15863901
0000e0 98 18 02 bd a5 1c 63 3e a6 73 f6 3d 9c e8 b9 3d
       -0.031761736 0.22178896 0.12033777 0.0907757
0000f0 99 8a 43 be 05 1f 85 bd 1c 0c 7d 3e 2b e1 f9 bd
       -0.1909584 -0.06500057 0.2471165 -0.122011505
000100 63 48 2f 3d 3d 25 00 3e 74 5d b7 be 19 72 02 bf
       0.042793643 0.12514205 -0.35813487 -0.5095535
000110 04 0e 21 bd b1 d1 76 bd 56 2c c6 bd 24 80 58 be
       -0.039320007 -0.06025857 -0.09676425 -0.21142632
000120 2f 21 62 bc d3 ae 6d 3e e8 05 9c be be b5 b9 bd
       -0.013801857 0.23211221 -0.30473256 -0.09067868
000130 4d e3 47 bd 89 f2 8d 3d cb 8f b6 be 7e d1 3a be
       -0.048800755 0.069310255 -0.3565658 -0.18243977
000140 e4 a0 19 3c 09 ad 6d 3d 70 83 9e be 82 62 68 3d
       0.009376738 0.058026347 -0.30959654 0.05673457
000150 af 88 df 3e 18 2d 22 3d bf e3 4a 3e a7 05 37 bc
       0.4365897 0.039593786 0.1981344 -0.011170781
000160 49 7c 72 be 6d 1d 3b bf 06 b1 94 3d c2 89 e5 3c
       -0.23680224 -0.73091775 0.07260327 0.02801979
000170 77 d9 ed bd 0a 69 bd bb a7 da 1e 3e 15 13 4c 3e
       -0.11613744 -0.005780344 0.15513097 0.19929154
000180 ef 57 65 3e f4 87 2f 3e 6b ab a8 3e f4 1e 99 be
       0.22396825 0.17141706 0.32943282 -0.29906428
000190 84 7e fa bd 3b 66 bc bd 79 bb 53 3e 36 ea 4f 3e
       -0.12231162 -0.091991864 0.20676984 0.20304188
0001a0 b1 b0 46 be 14 01 79 3d af 3f eb be 7e 99 5a be
       -0.1940334 0.060792044 -0.45947024 -0.21347615
0001b0 f7 9a 66 3e b2 40 63 be 84 a6 8b 3e 18 c8 7a 3e
       0.22520052 -0.22192648 0.2727548 0.24490392
0001c0 17 cf b4 be c0 df 3d be f6 4c 37 be 50 72 34 3e
       -0.35314247 -0.18542385 -0.17900452 0.17621732
0001d0 cc 55 e8 3e 3c ea 67 3e c6 57 10 be a6 7f 12 bd
       0.45377958 0.22647947 -0.14095983 -0.035766266
0001e0 21 85 bb be e7 93 2d 39 fe f2 2a be c4 3e 12 be
       -0.36625007 0.00016553664 -0.16694257 -0.14281756
0001f0 5c a3 b6 3d d2 08 22 be 94 da ba 3d 23 5d 75 3e
       0.08917877 -0.15823677 0.09123722 0.2396131
000200 ab 4a 4e be 3c e4 0f be d1 05 88 be 3f 26 1b be
       -0.20145671 -0.14051908 -0.26566938 -0.15151308
000210 a0 98 31 3e 41 2a 72 3d ef 83 90 be 57 fd 34 3e
       0.17343378 0.059122328 -0.28225657 0.17674766
000220 d1 dd 36 be fb 65 6c bd 7b 92 94 bd 39 f9 a6 bd
       -0.17858054 -0.057714444 -0.072545014 -0.08153004
000230 b3 a7 d2 3d cf 32 2a be 44 d7 48 3e 3b 41 c5 bd
       0.10285892 -0.16620944 0.19613367 -0.09631582
000240 ab 56 a2 bd ab 5d 0a bc 27 b7 b3 be d1 32 52 bd
       -0.07926687 -0.008445184 -0.35100672 -0.051317994
000250 38 fe 67 3e 9a 10 81 3e 26 14 4f be 32 86 ec 3c
       0.2265557 0.25207978 -0.2022253 0.028872583
000260 4a f1 75 3c 60 16 b1 be 53 53 26 bd 40 7e 2b 3e
       0.015011141 -0.34587383 -0.040606808 0.1674738
000270 12 4b a8 be 04 be ac 3c f0 30 d7 be fe 4c dd be
       -0.32869774 0.0210867 -0.42029524 -0.43222803
000280 fe 6e a2 bd 2e 75 f0 bd 80 ce b4 3e 70 9c c4 bd
       -0.07931326 -0.117411 0.35313797 -0.096001506
000290 52 55 ea be 81 93 83 3d e6 c2 fa bc c9 31 21 be
       -0.4576822 0.064246185 -0.030610513 -0.15741648
0002a0 f9 63 14 3e b0 d2 95 3d 47 5f ea 3d 4b 05 b4 3e
       0.14491262 0.07315576 0.11443954 0.35160288
0002b0 04 f0 39 3e de 8f 69 bd 70 d6 eb be 26 dd fb bd
       0.18157965 -0.057021968 -0.4606204 -0.1229804
0002c0 c5 2e ac bb 68 01 d5 bc 4e fb 60 3c 06 a3 32 bd
       -0.005254599 -0.026001647 0.013731791 -0.043612503
0002d0 d7 88 28 3e b5 46 68 be 4e 51 31 bf 48 17 04 be
       0.1645845 -0.22683223 -0.69264686 -0.12899506
0002e0 da 82 bf 3c e4 3b 25 bd 3b a4 32 be b6 51 09 3d
       0.023377825 -0.04034032 -0.17445461 0.03352519
0002f0 bd 1d a6 be ef 49 2e 3e 79 21 dc be 5f c8 03 bf
       -0.32444564 0.17020391 -0.42994288 -0.5147762
000300 63 bb 52 be ae c3 7f bd 93 f8 0e bd 33 17 fa 3e
       -0.20579295 -0.062442474 -0.034905028 0.48845825
000310 19 ec ed 3e fe 71 8e 3e 57 59 f4 be d0 e4 e0 bd
       0.4646919 0.27821344 -0.4772441 -0.109811425
000320 eb 59 e9 3d 62 f5 b0 be d7 d3 0d 3e f2 f3 8f bd
       0.113941036 -0.34562212 0.13850342 -0.07028951
000330 b8 82 f6 bd c5 62 9f be 12 65 69 bd 36 99 d6 3c
       -0.120366514 -0.31130043 -0.056981154 0.026196104
000340 25 7b 2c bc 50 dc c7 3d b9 9c 20 be fb 37 4c be
       -0.010527407 0.09758818 -0.15684785 -0.1994323
000350 2c ac 79 3e 5a e0 9f 3e 60 b5 f0 bd df fe 22 be
       0.24382085 0.31225854 -0.117533445 -0.15917538
000360 d3 29 1e 3e b7 15 d8 be 45 6a d6 3d 41 10 9e 3e
       0.15445642 -0.42204067 0.10469488 0.30871776
000370 31 66 5d be e2 e9 8a bd 5b 64 be be df 83 02 3e
       -0.21621014 -0.06782891 -0.3718594 0.12745617
000380 c9 df a7 3c f5 59 9a 3d a2 7c 4b 3e 23 b9 b8 bc
       0.020492451 0.07536689 0.19871762 -0.022549218
000390 05 00 25 be d2 a3 e8 bc a3 c9 0a 3e 21 e1 20 be
       -0.16113289 -0.028398428 0.13553481 -0.1571088
0003a0 5f 21 9d bd ad 33 c8 bd b1 c5 97 bd e0 67 63 be
       -0.07672381 -0.097754814 -0.074107535 -0.22207594
0003b0 4e 79 a7 3d fd 5d 9c bd e8 7c d7 bd a5 da a7 3d
       0.08177434 -0.07635114 -0.10521871 0.08196
0003c0 c5 80 db 3d 42 6c 8a bd 87 bf 7e 3e 93 53 1d 3e
       0.1071792 -0.0675893 0.2487775 0.15363912
0003d0 d0 44 22 3d 30 35 ba be 04 83 13 3e 3d 69 e0 3d
       0.039616406 -0.36368704 0.14405447 0.109575726
0003e0 97 2c b8 bd 28 ba d7 bd 68 0b 4c be 1d fc 2a 3e
       -0.0899288 -0.10533553 -0.19926226 0.16697736
0003f0 a2 06 b2 bb 1d 71 86 3d 64 82 de be ad e0 3c 3d
       -0.0054329196 0.065645434 -0.43458855 0.046112705

l3/b f4 [9]
000000 6a 77 17 be 9b 27 a0 be da 16 5a be 28 2f 5b bd
       -0.14791647 -0.31280217 -0.2129778 -0.05351177
000010 7c b4 6a 3d 74 29 f1 bc ab 6d a0 bc 2d f9 8d be
       0.05730103 -0.029438712 -0.019583544 -0.2772917
000020 aa 24 52 be
       -0.20521799

l0/b f4 [81]
000000 5b 90 7f 3e ad 2f a3 be df 2e 8b be 63 a9 74 be
       0.24957411 -0.3187231 -0.27184197 -0.23892741
000010 43 28 e1 bd 5c 18 ce be e9 af 01 bf 68 2a ff bd
       -0.109940074 -0.4025296 -0.5065904 -0.1245926
000020 6e 34 a6 bc ea 19 21 bd 6e dc ce be 0f 23 37 be
       -0.020288672 -0.039331354 -0.4040255 -0.17884468
000030 94 91 a7 bd 65 07 38 be 31 86 0a bf 39 98 87 3c
       -0.08182064 -0.17971571 -0.5411101 0.016552078
000040 ed eb 84 3e 24 3d 8d be 94 6c 87 be a9 64 76 3b
       0.25961247 -0.2758571 -0.26450026 0.003759662
000050 05 83 36 3d ed ed b8 3e d4 4a 3c be e0 60 c1 be
       0.044558544 0.36119023 -0.1838792 -0.37769222
000060 37 d0 ae be 1e f4 82 be 40 7b 6d be 9d 08 b8 bd
       -0.3414323 -0.25576872 -0.23191547 -0.08986018
000070 03 d8 12 be 58 1b a8 be 5f 2b 88 be bc b2 44 be
       -0.14340214 -0.32833362 -0.2659559 -0.19208807
000080 c2 dd 5e be 53 5e 55 be b7 a7 ab be 17 36 cb be
       -0.21764281 -0.20836763 -0.33526394 -0.39689705
000090 9a 48 a8 3d a3 88 41 bf 31 bf 53 be aa fb 2e be
       0.08216973 -0.75599116 -0.20678402 -0.1708819
0000a0 1c b7 42 be 2b 8d 66 bc d3 b1 2a be 4f ac 57 be
       -0.19015163 -0.014071743 -0.16669397 -0.21061824
0000b0 97 80 b9 be e6 d8 37 3e 03 38 d6 bd b5 8d d6 be
       -0.3623092 0.17953834 -0.10459902 -0.4190499
0000c0 51 0b e8 be 3a cb 54 be 43 83 de bd 59 30 8a be
       -0.45321134 -0.2078065 -0.1086488 -0.2699001
0000d0 2e fa e4 be c6 a6 dd be 86 8d db be 35 88 a7 be
       -0.44722122 -0.432913 -0.4288141 -0.32721105
0000e0 34 78 9f be 3b 89 ce be 60 2d af 3d 91 65 0e bd
       -0.31146395 -0.40339074 0.085535765 -0.03476483
0000f0 9a 20 30 be fa bf a2 be cc f6 e5 3c 37 0d 69 be
       -0.17199937 -0.31787091 0.028071783 -0.22758947
000100 14 81 eb be 3d b9 9a 3e 7d b4 44 be 46 67 79 be
       -0.45996916 0.3021945 -0.19209476 -0.24355802
000110 c2 d6 89 be 91 c6 2f bf 9d 3c b1 bd 67 49 c7 be
       -0.2692166 -0.68662363 -0.08654139 -0.3892319
000120 a3 9b 8f be 57 39 e1 bd bc fb 06 be 6f 68 87 bd
       -0.2804843 -0.10997265 -0.13181967 -0.06611716
000130 da 72 be be fc 73 9b bd 3a d8 60 3a 9c 0d 96 be
       -0.37197 -0.07590482 0.0008577142 -0.29307258
000140 da 5a 92 be
       -0.2858494

l1/W f4 [81, 81]
000000 56 c5 67 be d0 bd 40 be ee 0b 0c be 2c f4 3d 3c
       -0.22633871 -0.18822408 -0.13676426 0.01159386
000010 c7 a1 3f 3d 5d 62 25 3e 6c 61 32 3e 2f c7 bc be
       0.046785142 0.16150804 0.17419976 -0.36870715
000020 17 c2 8b be de 74 74 be 58 b1 2e be c6 9f 8d bd
       -0.27296516 -0.23872706 -0.17059839 -0.0691524
000030 a5 d5 30 be f2 73 52 be 55 07 4d be 7e e4 63 3e
       -0.17268999 -0.20552042 -0.20022328 0.22255132
000040 41 ab 29 3d 31 56 a1 3b 17 79 b4 bd 8b d1 f0 3d
       0.041423086 0.004923605 -0.088121586 0.11758717
000050 21 81 bf bd 92 e8 fe bd 93 d6 28 bd 7c dc b5 3d
       -0.09350801 -0.12446703 -0.04122026 0.08879945
000060 8c c6 fd 3c 87 d2 c1 bd 4c a6 a2 3e fe 37 be be
       0.030978464 -0.09463983 0.317675 -0.37152094
000070 7f 85 80 be fe 1d 9e bd a8 ea fc bd a4 23 25 bd
       -0.2510185 -0.07720564 -0.12349445 -0.040317193
000080 94 25 67 3e 84 db 93 bc d2 e9 14 3e 58 2e c7 be
       0.22572929 -0.01804901 0.1454232 -0.38902545
000090 7d d8 be bd 03 3d b4 bc b6 87 3d be 9f 82 e8 bc
       -0.093186356 -0.022001749 -0.18508801 -0.028382597
0000a0 49 79 e2 3b 08 49 f5 3d 4a 98 c0 bd 2a 95 e4 3d
       0.006911431 0.1197682 -0.09404047 0.11161263
0000b0 7d 3b 12 3e 28 d1 ab 3c 49 68 d7 bc a1 c9 be bd
       0.14280505 0.020973757 -0.026294844 -0.093158014
0000c0 4b 00 90 3e 6d ad 3b 3d f9 91 3f bd d9 53 f4 bc
       0.28125224 0.04581969 -0.04677007 -0.029825138
0000d0 65 b6 a2 3c 69 92 b9 3d e6 0e 21 3d a0 8f e6 bd
       0.019862363 0.09061129 0.03932085 -0.11257863
0000e0 78 29 08 3d ef 2d 7d 3e cc 64 c4 3d 09 fe 77 be
       0.033242673 0.24724554 0.09589538 -0.24218
0000f0 2e 6a 30 3e 21 92 44 be f9 9c 1f be 15 cf 84 bd
       0.17228004 -0.19196369 -0.15587224 -0.0648481
000100 ae 9c 7a 3e b0 e8 0e bb 86 5e 19 3e 61 fc 84 3d
       0.24473831 -0.0021806173 0.14977464 0.0649345
000110 c1 a3 99 bd 12 65 38 be 90 0e 2c be 34 b5 d0 3d
       -0.07501937 -0.18007305 -0.1680243 0.10190812
000120 0c dc 3d be dd bd 12 3d 51 c2 88 3d b0 c2 db be
       -0.18540972 0.0358256 0.06677688 -0.42921972
000130 9a fc 33 be 1b e8 ae bc 6f a8 7e 3d 9f d8 66 3d
       -0.17576829 -0.02135091 0.06217235 0.05635893
000140 8b 0a 27 be dd 25 a7 be 91 fb 13 bf b1 8a 02 be
       -0.16312616 -0.32646075 -0.57805735 -0.12748219
000150 84 95 c4 3d a7 7e fa bd 6a ef 94 3e f7 d4 3a 3e
       0.0959883 -0.12231188 0.29088908 0.18245302
000160 f7 13 3f 3e 82 5b 87 be 4f a9 98 bd 53 9a 71 3e
       0.1865996 -0.26437002 -0.07454168 0.23594026
000170 7c 19 99 3e 7b 93 92 3e 1a f2 06 3e 22 24 15 bd
       0.29902256 0.28628144 0.13178292 -0.036411412
000180 bd 4a a2 bd fc 0e 4e 3e 2c d8 5d 3b cd 3f 3e 3e
       -0.079244114 0.20122904 0.0033850772 0.18579026
000190 cd 76 f2 bd bc 47 1d 3e aa 94 9a be a6 44 58 3e
       -0.11839066 0.15359396 -0.30191547 0.21119937
0001a0 1d e2 36 be ad 3f 39 3d 06 72 b4 3d 1f ef ce 3d
       -0.17859693 0.04522674 0.08810811 0.101042025
0001b0 a6 5d f4 bd 91 b8 46 be 6c 7f e7 bc 92 9c c8 3c
       -0.119319245 -0.19406344 -0.028259002 0.024488721
0001c0 e7 05 30 be a6 d3 25 3d f1 0c 2b 3e c2 a1 8f bd
       -0.17189752 0.040485047 0.16704156 -0.07013275
0001d0 5f 54 f5 bd 72 e8 80 be 66 38 c9 3e 1d 08 ff 3d
       -0.11978983 -0.25177342 0.3930084 0.12452719
0001e0 fc 7c 3d 3d 31 b5 84 bc 48 f4 a5 be f4 67 d9 bd
       0.046261773 -0.01619968 -0.32412934 -0.106155306
0001f0 dc 11 20 3e 1e 4b 28 be f4 34 8f bd ea ab 46 bd
       0.15631813 -0.16434905 -0.06992522 -0.048503794
000200 c0 71 7f be 07 b0 af bd 09 95 ea bc c9 a2 71 3e
       -0.24945736 -0.085784964 -0.028635519 0.23597254
000210 13 c0 5b be 1b 85 00 3e 0d ba ad be b6 34 00 3e
       -0.21459989 0.12550776 -0.33931008 0.12520108
000220 9c dd af bd 3b 96 c7 3d 5e 44 92 3e 24 db a8 3d
       -0.085871905 0.09745451 0.28567785 0.08244923
000230 73 1b e6 be fb 8c c0 be f1 b8 2d 3e e7 5a 10 be
       -0.44942817 -0.3760756 0.16965081 -0.14097176
000240 cc d6 6d be e4 1b 23 3e 4c 6c f7 3d 30 fe 33 3d
       -0.2322647 0.15928608 0.12081203 0.043943584
000250 60 f5 a8 be 7b c5 26 3e 99 ec a1 bc 40 8b 45 3e
       -0.32999706 0.1628627 -0.019766139 0.19291401
000260 c6 08 22 3e f3 79 3e 3e a0 2d 7d be e8 ff 34 3b
       0.1582366 0.18601207 -0.24724436 0.0027618352
000270 5a 2d 57 be 9f dc 17 be 37 cd 58 3e b2 05 02 3e
       -0.21013394 -0.14830254 0.21172033 0.12697485
000280 97 88 2e 3d 85 e2 94 bb 2d bb 32 3e c7 ae b3 bd
       0.04261073 -0.004543605 0.17454214 -0.087735705
000290 d2 e3 80 3d 83 59 92 bd 7d af cb 3e 2d b5 5b 3e
       0.06293453 -0.07145979 0.39782324 0.21455832
0002a0 45 5b 29 3e 5a d4 df 3d ef 84 b0 be 31 d9 ab 3d
       0.16538723 0.10929175 -0.3447642 0.08391035
0002b0 ad 10 64 be ff a5 1a bc e8 96 ce bd 85 65 13 be
       -0.22271986 -0.009438991 -0.10087377 -0.14394195
0002c0 dd cc 36 be ab 53 5d 3e 59 56 82 3e 17 2a 44 3e
       -0.17851587 0.21613948 0.25456503 0.19156681
0002d0 f4 ba 3f bd eb d6 37 3d b3 e4 7b 3d 7a 6c 82 be
       -0.04680915 0.044882696 0.0614974 -0.25473386
0002e0 f8 57 7f be de 6f c0 bd 8c 07 8c 3d d2 b2 4f be
       -0.24935901 -0.09396337 0.06837377 -0.20283058
0002f0 bd df 91 be 91 25 d0 bd ef a2 1a 3e 2f bd 55 be
       -0.2849101 -0.10163415 0.15101217 -0.20872949
000300 45 99 15 3e 18 cf 16 bd fc 32 14 bd 25 79 0c bd
       0.14609249 -0.036818594 -0.036181435 -0.03429522
000310 2c b3 5e 3d 4e 43 84 3e eb e1 0e bd a2 43 7f 3e
       0.05437009 0.258326 -0.03488342 0.24928144
000320 f2 6b 30 be ea a6 b3 3b dd a3 0b be 51 93 a0 bc
       -0.17228678 0.005482544 -0.13636728 -0.019601496
000330 ff 09 02 be c5 e0 12 be 12 a9 7c 3e 62 68 67 be
       -0.12699126 -0.14343555 0.2467387 -0.22598413
000340 7e ca 16 3e 17 14 0f be b2 4e 10 3e ee b2 5d 3e
       0.14725682 -0.13972507 0.1409252 0.21650288
000350 03 9e 3c bd a2 30 56 bd c3 96 6a 3d 98 de bd 3b
       -0.04604913 -0.052292474 0.057272684 0.0057943575
000360 a2 03 8f be 57 30 07 be d0 e5 1b 3d e6 bd 9a be
       -0.2793246 -0.13202034 0.038060963 -0.30223006
000370 b1 06 ac bd b5 28 80 3d 5a 15 88 3d 0d 8d 6d bd
       -0.08399714 0.06257764 0.066446975 -0.057995845
000380 d4 6a aa bd a4 02 5a bd 10 4e df bd 7d 58 40 bd
       -0.08321157 -0.053225175 -0.10903561 -0.04695939
000390 31 84 83 bd 29 d3 4a be d7 c1 12 3e 30 f0 d8 3c
       -0.06421698 -0.19807114 0.14331757 0.026481718
0003a0 2a 6e 3a 3d 97 57 cc 3d 05 27 9d bd 2f ce 76 3d
       0.045515217 0.09977644 -0.07673458 0.060255226
0003b0 0e f9 69 bc df 1e bb be 8c fd 5f bd 05 85 c6 3c
       -0.014280571 -0.3654699 -0.05468516 0.02423335
0003c0 26 b9 47 3c 5a 7f 87 3e 29 92 ae 3d c6 7b 06 3e
       0.012190139 0.2646435 0.085239716 0.13133153
0003d0 98 ef 58 be f3 11 c2 3d e4 b2 1b 3e c6 d6 26 3d
       -0.21185148 0.0947608 0.1520496 0.040732168
0003e0 5a 5c 86 be ee d2 c3 3e c8 7a 70 be c9 8e 15 bd
       -0.26242334 0.38246864 -0.23484337 -0.036513124
0003f0 d1 6f a9 3e 48 7c d5 bd d5 b6 66 3e 9a f3 2a 3d
       0.33093122 -0.104240954 0.22530682 0.041736223

l2/W f4 [81, 81]
000000 a5 d7 01 be 47 b9 d4 bd 29 6a c6 3c 23 c5 de 3d
       -0.12679918 -0.10386901 0.024220543 0.108774446
000010 6e 0c cc be 3f 2f 71 3e ac 8d 02 3e dd e3 1f be
       -0.39853233 0.23553179 0.12749356 -0.15614267
000020 0e f8 26 3b da a1 3f 3d b3 68 07 3d a8 6b 80 3d
       0.0025477442 0.046785213 0.033058833 0.06270534
000030 42 48 cf 3c d6 c4 2d bd d0 14 d3 bc 1a 83 5a 3d
       0.02530301 -0.042424046 -0.02576676 0.053347684
000040 77 a5 e1 bd 8d ce 6a 3d ee 11 03 3e a4 48 8e bd
       -0.11017888 0.05732589 0.12799808 -0.06947449
000050 40 2a 4b 3e b7 c2 ca 3b 94 c5 72 3e 90 73 17 be
       0.19840336 0.0061877626 0.23708183 -0.14790177
000060 dc da af bc a1 b6 1d be 9a f8 01 bf 15 79 08 bc
       -0.021466665 -0.15401699 -0.5076996 -0.008329649
000070 16 88 05 3e c5 6c 30 be da bf b6 3c c9 1d 26 be
       0.13040194 -0.17228992 0.022308279 -0.162223
000080 4f be 1e be bc 08 71 bc 54 f2 ae 3d 32 a7 fa be
       -0.15502284 -0.014711555 0.08542314 -0.48955685
000090 ab 94 d1 3d 83 7d 7c 3d 2e b5 b0 be 73 16 af 3e
       0.10233434 0.061643135 -0.3451323 0.34196815
0000a0 39 2a a4 bd a1 1f 18 3e 93 83 3b 3e 49 c2 88 bd
       -0.08015866 0.14855815 0.1831191 -0.06677682
0000b0 16 df 5e be 89 05 9b 3e 09 77 e7 3d a4 40 d6 3d
       -0.21764788 0.3027766 0.11302001 0.10461548
0000c0 0a 83 a1 bd 36 f0 f1 bd 6a ed 84 3e 23 e8 ea bd
       -0.07886322 -0.11813395 0.25962383 -0.11470058
0000d0 aa b6 9e bd 37 9e f9 bd 10 3e 36 bd 4d db a3 bd
       -0.07749684 -0.1218838 -0.04449278 -0.08000813
0000e0 37 9b 80 3e f1 ef 31 bf e3 68 8a 3e 7b 07 ab be
       0.2511842 -0.69506747 0.27033147 -0.33404145
0000f0 e1 7c 52 be 21 e2 31 bc 39 4e be bd 06 44 27 bd
       -0.2055545 -0.010857136 -0.092922635 -0.040836357
000100 e7 0b d9 3d b3 81 0d bd 2f 89 12 be f6 fc e0 be
       0.10597973 -0.03454752 -0.14310144 -0.43942994
000110 c5 f8 3a 3e 80 e4 26 3d 0a a0 38 3e 33 b1 36 be
       0.1825896 0.04074526 0.180298 -0.17841034
000120 35 61 9e bd 20 d1 f3 bd b5 5c 83 3c df b0 f9 bd
       -0.077333845 -0.11905122 0.016035417 -0.121919386
000130 cc 1e 88 be 63 8f 88 bd eb 87 c7 bd d9 65 bf be
       -0.26585996 -0.06667974 -0.09742721 -0.3738239
000140 3b a9 9f 3d 3d f4 04 3e 7c 89 cf be a8 a0 df 3d
       0.0779595 0.12983795 -0.4053458 0.109193146
000150 0c a2 0e 3e ed 19 93 bb d3 a4 6b be 65 19 77 bd
       0.13929003 -0.0044891746 -0.23012094 -0.060326952
000160 87 24 75 be 5c 2b ad bd f6 6b 00 3e a8 79 3b 3c
       -0.23939715 -0.08455536 0.12541184 0.011442579
000170 bd 51 ac bc 7f 1d dd 3d 98 1e 22 be 5e 38 8f bc
       -0.02103507 0.107966416 -0.15831983 -0.017482933
000180 71 5c 33 be 2e 69 a2 3d c5 8d 3d 3d 5d 53 52 3e
       -0.17515732 0.07930218 0.04627778 0.20539613
000190 7d d1 b9 be 60 33 49 3e 4b f0 d9 3e 6b 28 7e 3e
       -0.3629264 0.19648504 0.4256614 0.24820106
0001a0 53 20 37 3d ab 34 a9 3d d4 8e 20 be 23 df 55 3e
       0.04470856 0.08261999 -0.15679485 0.20885901
0001b0 97 e5 66 be 23 4e 94 3c 7c ad 27 bd cb 20 4a be
       -0.22548519 0.018103665 -0.040936932 -0.19739072
0001c0 5b 40 55 3c 53 a1 1c 3e 3a 13 08 3e 3c 9d 05 3d
       0.013015832 0.15295915 0.13288584 0.032620654
0001d0 63 7d 98 be f9 c5 16 3d 8b 67 06 3e 32 4f 05 be
       -0.29783162 0.036809895 0.13125436 -0.13018492
0001e0 bc 06 93 bd b4 f1 0d bf b1 b5 2e be bc 7c d4 be
       -0.07179019 -0.55446935 -0.17061497 -0.41501415
0001f0 08 bc ac 3d 3e 14 f7 bd d4 e5 ef bc 6d 0f 6e 3a
       0.084343016 -0.12064408 -0.029284395 0.0009081278
000200 9e 24 53 be 81 56 be bd 2a 87 1e 3e 24 89 82 be
       -0.20619437 -0.09293843 0.15481248 -0.25495255
000210 d9 02 c6 bc fc 0e 1c bd c4 2b 12 3e 0b 71 4a 3e
       -0.02417128 -0.038100228 0.14274508 0.19769685
000220 38 9b 74 3e 5a 5f a9 bd e6 36 a4 3d 9d f5 1c be
       0.23887336 -0.0827014 0.080182835 -0.15328069
000230 05 c1 12 3e 5e 0c f8 bd 62 3b b9 bd 10 f2 7c 3e
       0.14331444 -0.12111734 -0.090445295 0.24701715
000240 0a 09 7a be 7c b6 fd bd a2 a2 4b bd 26 48 b3 3d
       -0.2441751 -0.12388322 -0.049715646 0.087539956
000250 78 a1 81 3e b9 24 39 3c 24 88 6e be d9 81 72 bd
       0.25318503 0.011300259 -0.23294121 -0.059205864
000260 6f 25 78 bd 42 f2 1c 3b 12 62 35 be 0d af 9f bd
       -0.060582574 0.0023948108 -0.17713192 -0.0779706
000270 9e cb d4 3d 39 a9 e0 bc f2 de a2 bd 65 50 06 3d
       0.103903994 -0.027424442 -0.0795268 0.032791514
000280 56 26 9e 3e db e4 7b 3e 1c 34 1d be 50 b7 20 3d
       0.30888623 0.2459902 -0.1535191 0.03923732
000290 85 56 2c 3e 9a 3d 08 bd bc 88 07 3e 7b b2 92 3c
       0.1682988 -0.033261873 0.13235754 0.017907372
0002a0 2c 7e 60 be 8d 3b 3f be ee 21 f0 bd b6 c4 d0 3c
       -0.21923131 -0.1867506 -0.117252216 0.025484424
0002b0 57 c9 23 3e 8e 9f 41 be 43 42 9e bd ac 65 e7 bd
       0.15994774 -0.18908522 -0.07727482 -0.11298689
0002c0 59 c7 9d 3c 97 02 ac be de 95 54 bd 8f 2f 3a be
       0.019260095 -0.33595726 -0.051900737 -0.18182205
0002d0 0c 73 bb 3d 28 e8 41 be 7f e0 c4 bd 91 1e dd be
       0.09152803 -0.18936217 -0.09613132 -0.43187383
0002e0 9a 4a 44 3d 34 1a 52 bd 8d 14 84 be 1e 34 a9 bc
       0.047922708 -0.05129452 -0.2579693 -0.020654734
0002f0 41 24 d4 bd d0 41 c5 bd 54 7f 98 bb e8 28 1c 3e
       -0.103584774 -0.09631693 -0.0046538506 0.1524998
000300 35 41 94 3e af 59 c6 bd 53 5c 82 3d 42 f3 0f 3d
       0.28956 -0.096850745 0.06365266 0.035144098
000310 ad 07 6e bd cb 19 b3 3e 01 3b 00 bf 35 5f 4d 3e
       -0.05811279 0.34980616 -0.5009003 0.2005585
000320 f9 cf c9 3d 7c 56 b7 be 60 c5 f6 bd db e0 3b be
       0.09854121 -0.3580817 -0.12049365 -0.18347494
000330 c4 9b 19 be dc 04 65 3e 31 50 29 be 2f c4 b3 bd
       -0.15000826 0.22365135 -0.16534497 -0.087776534
000340 db 62 5c 3e 57 c0 90 be b1 cd 98 3d 32 8f cd bd
       0.21522085 -0.28271744 0.074611075 -0.10037078
000350 57 fd 0f 3d e4 04 68 3c 9e e1 c3 be 12 de c4 be
       0.035153713 0.014161322 -0.3825807 -0.38450676
000360 8a 0d d5 bd ea 90 fb bd 66 fd 6e 3e 9d 7b 85 be
       -0.10402973 -0.122834995 0.23338851 -0.26070872
000370 32 16 b5 be 69 4d 6a be 3f 82 17 3e 9a 3a 97 be
       -0.35368496 -0.22881092 0.14795779 -0.29536897
000380 a1 25 cd be 01 0f cd bd 0f e8 48 be 10 dc 81 be
       -0.4006777 -0.100126274 -0.19619773 -0.25363207
000390 8d 52 35 be 4a 83 8e be c2 b6 79 be 89 17 fc bd
       -0.17707272 -0.2783454 -0.24386123 -0.123091765
0003a0 9a c5 6b be 95 40 eb bb d7 4a 60 be 90 61 91 39
       -0.23024598 -0.0071793296 -0.21903549 0.00027729245
0003b0 70 e8 e4 be 90 5d a8 3d 66 f1 12 bc b1 5b 8d 3d
       -0.44708586 0.08220971 -0.008968687 0.069022544
0003c0 d1 6f 89 bd 7c c3 32 be 67 88 d6 3d 5a df df 3d
       -0.067107804 -0.17457384 0.104752354 0.10931273
0003d0 ff 58 23 be f8 31 0f bd 2d 6f ab bd cd 59 5c be
       -0.15951918 -0.034959763 -0.083708145 -0.21518631
0003e0 ae ee 65 3c b3 be ba 3d 59 5c 9e b8 98 87 94 be
       0.014033956 0.09118404 -7.551228e-05 -0.290097
0003f0 a8 a7 e0 bd a2 22 89 bd 72 3f 9b 3a be 7b 5c bd
       -0.10969478 -0.06696059 0.001184447 -0.053828947

l1/b f4 [81]
000000 38 42 9b bd 68 c5 77 be 46 68 63 be 13 fe 67 be
       -0.075809896 -0.24196398 -0.22207746 -0.22655515
000010 ed ee cd be 35 af 43 be 93 34 63 be 6f 18 18 be
       -0.40221348 -0.19109805 -0.22188024 -0.1485307
000020 5d 14 a6 be 4b df df 3c 83 bb 6f be 0b fc 36 bd
       -0.3243741 0.027328154 -0.23411374 -0.04467396
000030 8c 1d 24 be 3e d8 48 bd 9b 62 05 be e0 9a 1c 3c
       -0.16026896 -0.04903435 -0.13025896 0.009558409
000040 b4 c3 ff be 42 e9 79 bd 6f 69 20 3d 5f 58 dd bd
       -0.49953997 -0.061013468 0.03916305 -0.10807871
000050 8c e7 86 be 4e 6f 0d be 28 8d af be fc 7c bb be
       -0.2634853 -0.1381199 -0.3428738 -0.36618793
000060 0f 6e af be 85 6a d5 be 7e 95 da 3c f9 38 7b be
       -0.34263656 -0.4168283 0.026682612 -0.24533452
000070 52 47 0d bd f7 1b 22 3c 58 ef a4 be aa d4 94 bd
       -0.034491844 0.009894363 -0.32213855 -0.07267125
000080 fe a0 a3 3d 31 29 98 be cc 12 b6 bd 2a ec fe 3d
       0.07989691 -0.29718927 -0.08890304 0.124473885
000090 8a e2 15 be 51 00 56 be ab 49 37 bf 24 42 7c be
       -0.14637199 -0.20898558 -0.71596783 -0.24634606
0000a0 d5 f0 36 3e ee 49 c1 bd 74 14 88 be c5 a3 d4 bd
       0.17865308 -0.09437929 -0.26578104 -0.10382799
0000b0 4a af 9c be d9 1f 89 3e a4 fa 27 be 4b cb 30 be
       -0.30602485 0.2678211 -0.16404206 -0.1726505
0000c0 7b fb 12 be b5 d5 d3 be ba 62 0f be 77 5c 77 be
       -0.14353745 -0.41373983 -0.14002505 -0.24156366
0000d0 12 85 45 be 3f a1 6d bd ef b6 bd be a6 b1 62 bd
       -0.19289044 -0.058015104 -0.3705363 -0.0553452
0000e0 58 a9 2f bd 6e 06 30 be d6 3a 9f bc 9e 6b ef be
       -0.04288611 -0.17189953 -0.019437235 -0.46761793
0000f0 16 15 3b bd ec 71 98 be 04 99 4e be 2e 28 fc be
       -0.045674406 -0.29774415 -0.20175558 -0.49249405
000100 47 e8 70 3d fd 22 7f 3d 6f 52 ec be 3e e7 06 be
       0.058815267 0.062289227 -0.46156642 -0.1317415
000110 8a 45 d4 bd 85 ce ff bd e8 32 4a bd 23 a2 28 3d
       -0.10364826 -0.12490562 -0.049364954 0.04117025
000120 d4 12 c0 3e 93 ce 07 be 9f 79 a4 be 47 fc 6e be
       0.37514365 -0.13262396 -0.3212404 -0.23338424
000130 18 bb a6 3d 09 b5 7d 3d 89 31 8e 3d 3c 25 07 be
       0.08141154 0.061940227 0.06943042 -0.13197798
000140 a1 fd b6 bd
       -0.089350946

l2/b f4 [81]
000000 f2 bd 1a bd 05 b6 c0 bd 8d 96 42 be 53 a8 72 3d
       -0.037778802 -0.094097175 -0.19002743 0.059242558
000010 4c c7 d0 3c 01 45 a3 be 24 39 ad be ba c6 15 be
       0.025485657 -0.31888583 -0.33832657 -0.1462659
000020 89 be 12 be 96 08 22 3e 3f d7 ae be 53 a4 88 3c
       -0.14330496 0.15823588 -0.34148595 0.016679918
000030 24 4d 93 bd 10 0e b3 bd b1 bf cf 3d 37 65 51 3e
       -0.07192448 -0.087429166 0.10143984 0.20448767
000040 b4 cb 00 bd d5 42 95 be b2 d1 4d be d2 f2 b0 be
       -0.031444266 -0.2915255 -0.20099524 -0.34560257
000050 02 44 3a be e8 40 96 3d 4d db 19 be c3 86 80 be
       -0.18190005 0.07336599 -0.15025063 -0.25102815
000060 2f 07 0a be 06 29 99 bd 8c 89 74 be 27 af 25 be
       -0.13479303 -0.07478528 -0.23880595 -0.16180097
000070 3d 8d 46 be 27 17 4f be 5c 04 8e 3c 9f 6f df bd
       -0.19389816 -0.20223676 0.017336063 -0.10909962
000080 d0 36 63 be a0 bb 4d be 24 16 29 bd 34 d0 11 be
       -0.22188878 -0.20091105 -0.04128088 -0.1423958
000090 49 02 23 be d2 b7 11 3e 5b c1 4c be 8a da e4 bd
       -0.1591884 0.14230278 -0.19995634 -0.111744955
0000a0 69 d4 08 bc c5 0d 2d be 2b 29 8b be 6c c6 27 bd
       -0.008351424 -0.16899784 -0.27179846 -0.040960714
0000b0 6f ad 85 bd ab 9d 29 be 07 4a 21 be 74 d3 a9 bd
       -0.065272205 -0.16564052 -0.15750895 -0.082922846
0000c0 a6 9c 6d be 72 49 71 be 32 56 81 be 13 1d 02 be
       -0.23204288 -0.23563173 -0.25261074 -0.12706403
0000d0 d0 e8 22 be 0e b1 7d be 80 a0 4b 3c b0 30 ef 3d
       -0.15909123 -0.24774572 0.012428403 0.11679208
0000e0 0a 5d 59 3d 57 bc 7d 3d 9d 60 b8 3c 1d 6f 94 bd
       0.053067245 0.061947193 0.022507006 -0.07247756
0000f0 2f 2f 9b be d0 d1 ce bc ec 5e 82 be 2d 25 c7 3b
       -0.30309436 -0.02524653 -0.25463045 0.0060774297
000100 83 53 47 bd 10 8f 02 be cd ae 6d be 44 d0 3b be
       -0.048663627 -0.12749887 -0.23211212 -0.18341166
000110 5d 86 93 be 23 34 33 be 6d a4 67 be 6b 15 9a be
       -0.2881345 -0.17500357 -0.22621317 -0.30094466
000120 f8 0e a6 bd 9d cd 20 be 17 f2 21 be ed 04 f8 bd
       -0.08108324 -0.15703435 -0.15815006 -0.121103145
000130 be 5e 00 be 40 52 47 be ae 52 c4 be ab 44 d1 bc
       -0.12536141 -0.1946497 -0.3834433 -0.025545439
000140 57 66 b0 bd
       -0.0861327

l0/W f4 [81, 9]
000000 d5 45 e7 3e 17 d5 66 3d af 41 ca 3d eb 1a 5f 3e
       0.45170465 0.056355562 0.098758094 0.21787612
000010 a8 f3 09 3d ab 54 b6 3e dd b0 08 3f e8 c6 9c 3b
       0.033679634 0.35611472 0.5339487 0.0047844537
000020 67 38 2c 3f 36 38 48 3d f7 49 99 3f d7 fa a5 3d
       0.67273563 0.048881732 1.1975697 0.081044845
000030 d5 8e 59 be 92 62 22 3f d7 de 5b be 53 3a 02 bd
       -0.21245892 0.63431656 -0.21471725 -0.031793904
000040 a3 9a 0f 3f 53 41 a4 3e 26 e2 2d bd 23 4b 6d 3e
       0.5609533 0.32081088 -0.042452 0.23173194
000050 08 a3 70 3e c9 9c 2d bf 0a 2e 13 3e 4e 3f c5 3d
       0.23499691 -0.6781736 0.14373031 0.09631215
000060 97 9d 2b bf e0 f3 2c 3d 36 58 9a be fb 4f 04 3f
       -0.6703734 0.042224765 -0.30145425 0.5168454
000070 2e 25 8a 3d c3 6a db 3d b3 30 13 be 2b fc e5 3d
       0.06745373 0.107137226 -0.14374046 0.11229738
000080 46 4d ab be e0 f7 55 be ae ee 3b 3d c3 de ba be
       -0.33457392 -0.20895338 0.04588192 -0.3649808
000090 6a ba 04 3f d3 5d 38 b9 4e 46 02 3d 53 b4 02 bd
       0.51846945 -0.0001758256 0.03180533 -0.03191025
0000a0 28 27 08 bf 6d d2 a2 bb e1 47 ed bb 38 37 14 be
       -0.5318475 -0.0049689324 -0.0072412346 -0.1447419
0000b0 29 13 f1 be 26 6b 93 be 54 40 f1 be eb 4e e9 3e
       -0.4708493 -0.28792685 -0.4711939 0.45568022
0000c0 bb 3a 1a 3f 1c 10 40 be 9a a2 a4 3d 86 04 c2 be
       0.60245866 -0.18756145 0.08038826 -0.37894076
0000d0 74 81 59 bf 59 2f 03 3d 32 13 44 bd 01 25 0f bf
       -0.84963155 0.032027576 -0.04786987 -0.5591584
0000e0 e9 46 00 bf eb ad 80 3e 20 5a b1 be 83 b4 02 3e
       -0.501082 0.2513269 -0.34639072 0.12764172
0000f0 10 f9 29 3f 52 91 80 be 4e 00 9c be 15 b6 c1 be
       0.66395664 -0.2511087 -0.30468982 -0.3783423
000100 4e 7b 9f be fb 32 80 be 2d 63 ca be 59 1d 42 be
       -0.31148762 -0.25038895 -0.3952879 -0.18956508
000110 4c 81 5a bd f0 61 ae be 48 b1 40 3f 7a 16 e7 be
       -0.053345963 -0.34059095 0.7527051 -0.45134336
000120 c9 94 c4 3e 51 ee 09 3e 67 43 15 3e 20 36 64 be
       0.38394764 0.13469817 0.14576493 -0.22286272
000130 4e 9d 64 bc 52 11 03 3d 39 85 d1 bd ac 93 76 bf
       -0.01395352 0.03199894 -0.10230488 -0.9631908
000140 d1 6b a4 3e 7c 13 72 3e 5a f8 e0 bd 47 6a 54 3e
       0.32113507 0.23640245 -0.10984869 0.20743667
000150 e1 47 15 3f 48 2a ca be 2b 31 2b be 62 6e 01 3d
       0.58312804 -0.39485383 -0.16717975 0.03159941
000160 7c b5 40 3d 69 92 a3 3e 86 a1 07 3e ad b6 d5 be
       0.047048077 0.3194764 0.1324521 -0.41740933
000170 b1 25 f2 be 99 65 11 bd 91 fe 30 3d 9e fe 81 bd
       -0.4729438 -0.03549728 0.043211523 -0.063473925
000180 c0 a1 58 bf d9 96 f5 be b2 86 2c bf f3 4f e4 3e
       -0.8462181 -0.4796665 -0.6739303 0.44592246
000190 90 31 0f 3e 45 92 ee bd 13 2b f8 3c 38 f5 41 3f
       0.1398375 -0.116489924 0.030293977 0.757648
0001a0 c2 72 39 3f dd 36 d0 3e 5d 29 88 3d 85 9a 2c bd
       0.7244073 0.40666857 0.066485144 -0.04213955
0001b0 95 a7 02 3f 9c d9 fc 3e b2 93 e1 3e 77 dc 49 3e
       0.5103696 0.49384773 0.44057995 0.19713007
0001c0 06 87 0f 3f 9a 62 02 be 3a 2f 57 be 8c 58 b5 3e
       0.56065404 -0.12732926 -0.21014109 0.35419118
0001d0 2d cf 8f 3e 72 55 55 3f b3 2f e8 be e3 ff dc 3d
       0.2808775 0.83333504 -0.45348892 0.10790994
0001e0 e3 aa 6e 3e 29 b8 ca 3e 26 7c 11 3f 50 55 9f bc
       0.23307376 0.39593628 0.5683006 -0.01944986
0001f0 a9 e6 98 be 36 b2 2a 3f 67 3d 38 be 9d db b5 3d
       -0.2986348 0.6667818 -0.17992173 0.088797785
000200 d5 b2 6d bf c4 b5 00 3e 50 fa 28 bf ad 61 40 3d
       -0.92851 0.12569338 -0.66006947 0.04696815
000210 75 41 4a bf 1f a9 ad 3e 12 8c a9 3d ce b3 f4 3d
       -0.7900613 0.33918092 0.082786694 0.119483575
000220 a2 ef f4 3e 23 16 bc 3e ba e9 e8 3e c6 d1 b6 3e
       0.47839075 0.3673564 0.4549082 0.3570692
000230 9f fa 72 3d 47 f8 fe 3d c9 cb 5b be a0 73 fe 3d
       0.059321042 0.12449699 -0.21464457 0.124243975
000240 03 d5 68 3f 62 42 09 3e d4 32 d0 3e 2f 1c a4 3e
       0.9095003 0.1340423 0.4066378 0.32052752
000250 45 5b 9d 3e 6e 7e 1b 3f e6 f2 db 3e 2e e2 8f 3e
       0.30733696 0.6073979 0.42958754 0.2810225
000260 06 c7 39 3e 17 d1 64 be 8a 32 50 3e 0f 62 ee be
       0.18142328 -0.22345386 0.20331779 -0.46559188
000270 24 92 a0 be 46 78 14 bf 1e e6 0b bf 54 d7 84 3e
       -0.31361496 -0.5799602 -0.54648006 0.25945532
000280 a7 c1 19 bd 0f d0 31 bd 96 9a 88 bb cd ec b6 be
       -0.037538197 -0.04341131 -0.0041688187 -0.3572754
000290 69 c3 ed 3c 66 8a 18 bd f1 cd 49 be 74 87 6b 3f
       0.029023843 -0.037241362 -0.19707467 0.9200356
0002a0 e6 20 ec 3d 56 b7 92 bd 13 7c c4 3d 7b 39 21 bc
       0.115297124 -0.07163875 0.09593978 -0.009840365
0002b0 79 7d 20 3d b3 4d 1a be ea 0d 35 3e b7 68 c1 be
       0.03918216 -0.15068702 0.17681089 -0.37775204
0002c0 59 f9 94 3e 60 ec 85 be f2 cb 56 be c3 08 97 3e
       0.29096487 -0.26156902 -0.20976236 0.29498872
0002d0 ae df 14 be 4f 90 92 3d dc 6d 00 3f a1 0b 43 be
       -0.14538452 0.07156431 0.5016763 -0.19047405
0002e0 34 33 ec bd af eb a2 3e c2 19 e3 3e 73 f9 8e 3e
       -0.11533204 0.31820437 0.4435559 0.2792469
0002f0 73 8e 78 be f7 b4 dc 3e 6f a5 51 3f 69 d5 d7 3e
       -0.2427309 0.43106815 0.81893057 0.42155007
000300 32 ae d7 3e 8b c2 d0 3e 2b df 4f 3f 11 8e cf 3e
       0.42125088 0.40773425 0.811999 0.40538076
000310 df 5d c3 3e 0c 4c e0 3e 32 57 0f 3b 67 a5 c3 3e
       0.38157555 0.4380802 0.002187204 0.3821213
000320 94 6a da be 59 69 ac be 79 78 18 3d cc e8 79 3e
       -0.42659438 -0.33674124 0.037224267 0.24405211
000330 4d 7d f8 3d f2 a7 fb 3e 54 95 3e 3e 76 d6 a7 3e
       0.12133274 0.4915157 0.18611652 0.32780808
000340 59 a4 3e 3e 7a a3 ea bd 90 4c a8 be f7 ed 6c bf
       0.18617381 -0.11456962 -0.32870913 -0.92550606
000350 90 c4 a1 be 7c 9a 15 be 34 37 98 3d 42 65 f1 3e
       -0.31595278 -0.14609712 0.07432404 0.47147566
000360 1a ba 20 ba 2d 77 2d be a9 ce b9 be 6d 0c 81 3f
       -0.0006131247 -0.16939993 -0.36290482 1.0081917
000370 d5 cb f1 be 41 03 04 bf 13 cc 7f be 3a 42 09 bd
       -0.47225824 -0.51567465 -0.24980192 -0.033510424
000380 28 5e ff be 6f 43 1f 3d db a6 6a bd 91 e5 15 3f
       -0.49876523 0.03888267 -0.057288032 0.58553416
000390 2c 17 70 bd f6 c1 c5 3d 0b a1 13 bf 05 d4 d2 bd
       -0.05861585 0.09656136 -0.5766761 -0.10294346
0003a0 c0 d3 2a be 4f 1e 2d 3f aa 39 ab be 81 c2 18 3d
       -0.16682339 0.6762437 -0.33442432 0.03729487
0003b0 52 76 c8 bd 1f b2 65 3e ad 4d 98 3e 11 50 b0 3e
       -0.09788193 0.22431229 0.29746762 0.34436086
0003c0 eb 27 e2 3e 7e e8 01 bf 93 25 a0 3e 12 24 08 3f
       0.4417108 -0.5074538 0.31278667 0.5318004
0003d0 65 d6 aa be 39 33 84 be 85 b6 c4 3e c6 08 ae bd
       -0.33366695 -0.2582033 0.384205 -0.08497767
0003e0 cb 97 c9 be 73 3d 7d bb 91 42 4d 3d c0 8d 09 3e
       -0.3937362 -0.0038641363 0.05011231 0.1343298
0003f0 28 45 e8 3e 45 03 45 3e 55 24 7e 3d c7 85 14 be
       0.45365262 0.19239528 0.062046368 -0.14504157
