chainerrl/TicTacToe/result_140000/model.npz (npz, 56567 bytes, 8 tensors)

l3/W f4 [9, 81]
0	0x3df3140e	0.118690595
1	0xbd1735ac	-0.03691642
2	0xbed926d9	-0.4241245
3	0x3cf1ca31	0.029515358
4	0x3c9c3da5	0.019072363
5	0xbe1dbd91	-0.15404345
6	0xbc1f9eef	-0.009742483
7	0xbe429633	-0.19002609
8	0x3e697453	0.2279828
9	0xbb947997	-0.004531096
10	0xbf311574	-0.6917336
11	0xbdc5e122	-0.09662081
12	0xbeb67f31	-0.35643914
13	0x3cac5085	0.021034488
14	0x3d4e5fe0	0.050384402
15	0x3db51be4	0.0884321
16	0xbcad9bc9	-0.021192448
17	0x3e3b3efe	0.18285748
18	0xbf332167	-0.6997284
19	0x3e557cda	0.20848408
20	0xbe0b1984	-0.13583952
21	0x3cb4953e	0.02204382
22	0x3d328236	0.04358121
23	0x3d08e270	0.033419073
24	0xbf00707c	-0.5017164
25	0xbbe15f3b	-0.0068778074
26	0xbd0708ef	-0.032967504
27	0x3e3feb08	0.18742001
28	0xbdf5c9f4	-0.1200141
29	0x3e05bae8	0.1305958
30	0x3df9a09b	0.12188836
31	0x3e3bdaa8	0.1834513
32	0x3c426f9d	0.011867431
33	0x3db8d512	0.09025015
34	0xbe9cbf9a	-0.3061493
35	0x3d8855de	0.06657003
36	0x3e5fa82e	0.21841499
37	0x3ebc80a8	0.36816907
38	0xbd3cedc3	-0.046125185
39	0xbde21ced	-0.110406734
40	0xbca4b9df	-0.020108161
41	0xbf1bfa86	-0.60929143
42	0xbea6df46	-0.3259222
43	0x3e9745a3	0.29545316
44	0x3df72eb5	0.120694555
45	0xbf31c59d	-0.6944216
46	0x3e4e651f	0.20155762
47	0x3c112e65	0.008861159
48	0x3e14be41	0.14525701
49	0x3e2f032b	0.17091052
50	0x3e78217f	0.24231528
51	0xbe772d36	-0.2413834
52	0xbd281aa7	-0.041041043
53	0xbe2f6af3	-0.17130642
54	0x3da524a7	0.080636315
55	0xbea25011	-0.3170171
56	0x3caf740f	0.021417646
57	0x3e780ec3	0.24224381
58	0x3dc58eab	0.096463524
59	0x3dfcac66	0.1233757
60	0xbe00f4e0	-0.12593412
61	0xbd2e3269	-0.042528544
62	0x3e9a9d8e	0.3019833
63	0xbdf6553d	-0.12027977
64	0x3dd92fc0	0.10604811
65	0x3e16531e	0.14680144
66	0xbee8303c	-0.453493
67	0xbef65f68	-0.48119664
68	0x3bf74380	0.0075458884
69	0xbb145893	-0.0022635802
70	0xbd97097d	-0.073748566
71	0xbe60a2ca	-0.21937099
72	0xbd36d510	-0.044636786
73	0x3e370f23	0.17876868
74	0xbe8d3484	-0.2757913
75	0xbdf91e5d	-0.121639945
76	0x3c90f926	0.017696928
77	0x3db5a1aa	0.088687256
78	0xbec0688c	-0.37579763
79	0xbe49efad	-0.19720335
80	0x3c93b67a	0.018031348
81	0x3d77b710	0.060477316
82	0xbe8820c9	-0.26587513
83	0x3c27a1bd	0.0102314325
84	0x3ef46537	0.4773347
85	0x3d5545bc	0.052068457
86	0x3e372eb1	0.17888905
87	0x3c85776e	0.0162923
88	0xbe77dd45	-0.24205501
89	0xbf362145	-0.71144515
90	0x3ddec51b	0.10877439
91	0x3dcbad15	0.09945122
92	0xbe1776a9	-0.14791359
93	0xbc147321	-0.009060652
94	0x3e31dd20	0.17369509
95	0x3e40652f	0.18788598
96	0x3e4f6942	0.20254996
97	0x3e32ab74	0.17448217
98	0x3ea7dae5	0.3278419
99	0xbe7ca118	-0.24670827
100	0xbe0d5a2e	-0.13803932
101	0xbe46e938	-0.19424903
102	0x3e187c65	0.14891203
103	0x3e56d51e	0.20979735
104	0xbe042fc1	-0.12908842
105	0x3cbe5224	0.023232527
106	0xbebc3825	-0.36761585
107	0xbe09a18e	-0.13440534
108	0x3e3ddd8d	0.18541546
109	0xbe1e0786	-0.15432557
110	0x3ea53b6f	0.32271907
111	0x3e74f88c	0.23922938
112	0xbed7e8a0	-0.42169666
113	0xbe27f84f	-0.16403316
114	0xbe3e57ed	-0.18588229
115	0x3def85f6	0.11695473
116	0x3eed9877	0.46405384
117	0x3e5a2f32	0.21307066
118	0xbe12d7e4	-0.14340168
119	0xbcb4f9d4	-0.022091784
120	0xbed3a7fb	-0.41339096
121	0x3ce2bd2a	0.027678091
122	0xbe0a2d44	-0.1349383
123	0xbe30f3b1	-0.17280461
124	0x3ddd2640	0.10798311
125	0xbe166321	-0.14686252
126	0x3de67375	0.112524904
127	0x3e7258c4	0.23666674
128	0xbe769045	-0.24078472
129	0xbe0486db	-0.12942068
130	0xbe7075a5	-0.23482378
131	0xbe34b8f6	-0.17648682
132	0x3e2dca7e	0.16971776
133	0x3d9f042c	0.077644676
134	0xbe7be861	-0.24600364
135	0x3e8faabf	0.28059956
136	0xbe189bde	-0.14903209
137	0x3b2d1055	0.002640744
138	0xbb9f77a1	-0.004866556
139	0xbd32d999	-0.04366455
140	0x3d9e6db2	0.077357665
141	0xbe12cdc1	-0.14336301
142	0x3e573a81	0.21018411
143	0xbdb3b7a3	-0.0877526
144	0xbd976191	-0.07391656
145	0x3d48348b	0.048878234
146	0xbedc8f10	-0.43077898
147	0xbd092d93	-0.03349073
148	0x3e6772d3	0.22602396
149	0x3e74103d	0.2383432
150	0xbe5ae10e	-0.21374914
151	0x3d159fc2	0.03652931
152	0xbb6d8145	-0.003624038
153	0xbec7f41d	-0.3905343
154	0xbc75f290	-0.015011445
155	0x3e290dce	0.16509172
156	0xbe9d5d83	-0.30735406
157	0x3b03a03b	0.0020084518
158	0xbec960d3	-0.39331684
159	0xbed9f854	-0.42572272
160	0xbddc3b1f	-0.10753464
161	0xbe250514	-0.16115218
162	0x3ec4ecf8	0.38462043
163	0xbdba390f	-0.09092914
164	0xbee8d722	-0.45476633
165	0xbcc28d13	-0.02374891
166	0xbd46261d	-0.04837619
167	0xbe0dd947	-0.13852416
168	0x3e2df036	0.16986164
169	0x3dd2e634	0.10297814
170	0x3db72668	0.08942872
171	0x3eb1a5e8	0.3469689
172	0x3e1948f8	0.14969242
173	0xbdf6a699	-0.12043495
174	0xbeebdb14	-0.4606558
175	0xbda6699e	-0.08125614
176	0x3da99080	0.08279514
177	0x3d166d55	0.03672536
178	0xbd5d4d4e	-0.0540288
179	0xbd2d8101	-0.042359356
180	0x3ddeb5ae	0.108744964
181	0xbe53ad08	-0.20671475
182	0xbf2df894	-0.67957425
183	0xbe083b76	-0.13303933
184	0xbd1f90e2	-0.03895653
185	0xbd858013	-0.06518569
186	0xbdfbe932	-0.12300338
187	0x3de7d376	0.1131963
188	0xbe931d5c	-0.28733337
189	0x3e239f04	0.15978628
190	0xbec779ea	-0.389602
191	0xbf1266bb	-0.57188004
192	0xbe655a3d	-0.22397704
193	0xbdb726c1	-0.089429386
194	0xbd8b0b40	-0.06789255
195	0x3ee5b31d	0.44863215
196	0x3ee21319	0.44155195
197	0x3e68bdb1	0.22728612
198	0xbf05d71a	-0.52281344
199	0xbe39fcde	-0.18162867
200	0x3e2e2fa2	0.17010358
201	0xbe8199b6	-0.25312585
202	0x3e01c24c	0.12671775
203	0xbce80d47	-0.028326644
204	0xbe011569	-0.12605824
205	0xbe8fe165	-0.2810165
206	0xbd00f355	-0.03148206
207	0x3d5dd6d5	0.054159958
208	0xbd4ee587	-0.050511863
209	0x3df09a50	0.11748183
210	0xbd40a51c	-0.04703246
211	0xbe35d851	-0.177583
212	0x3e5dc738	0.21658027
213	0x3ea3753b	0.31925377
214	0xbdb98386	-0.09058289
215	0xbdfc6bac	-0.12325224
216	0x3e285859	0.16439952
217	0xbef76ce1	-0.48325256
218	0x3e0a0138	0.13477027
219	0x3ea1bcba	0.315893
220	0xbe61ff0c	-0.22069949
221	0xbcf1e32e	-0.029527273
222	0xbed20032	-0.41015774
223	0x3b3d5de3	0.0028895072
224	0x3e3912fb	0.18073647
225	0x3daf20ac	0.085511535
226	0x3dd7a34f	0.105291955
227	0xbd833ed4	-0.06408468
228	0xbd0a6f20	-0.033797383
229	0x3babfe5c	0.005248828
230	0x3dddac30	0.10823858
231	0xbe56998a	-0.20957008
232	0xbd8fd4bb	-0.07022997
233	0xbd70f215	-0.058824617
234	0xbdaad967	-0.083422475
235	0xbe3c1e4f	-0.18370937
236	0xba1bd92e	-0.0005945143
237	0xbdaec4be	-0.08533619
238	0xbda2c981	-0.0794859
239	0x3d8c76fe	0.068586335
240	0x3cf255bf	0.029581903
241	0xbcb7ba91	-0.022427829
242	0x3dddb4ab	0.10825475
243	0x3e38b40e	0.18037435
244	0x3d830241	0.06396914
245	0xbec1cafe	-0.37850183
246	0x3df8babb	0.12144991
247	0x3cb39d30	0.021925539
248	0xbdb089a9	-0.086200066
249	0xbd11fab6	-0.035639487
250	0xbe0710ac	-0.13189954
251	0x3e003434	0.12519914
252	0xbd104386	-0.035220645
253	0x3ceb5ed3	0.02873174
254	0xbee2ef85	-0.44323364
255	0x3ca0af89	0.019614952

l3/b f4 [9]
0	0xbe265225	-0.16242273
1	0xbec35332	-0.3814941
2	0xbe897dce	-0.26853794
3	0xbde252aa	-0.11050923
4	0xbc54b13f	-0.012981712
5	0xbd374846	-0.04474666
6	0xbdbe1fc2	-0.09283401
7	0xbeae0a28	-0.33992124
8	0xbe652d9b	-0.22380678

l0/b f4 [81]
0	0x3e580231	0.21094586
1	0xbeae5b7c	-0.34054172
2	0xbe9802c1	-0.296896
3	0xbea1fe42	-0.31639296
4	0xbda55404	-0.08072665
5	0xbec7ea25	-0.39045826
6	0xbf09bc33	-0.53802794
7	0xbe0defc9	-0.13861002
8	0xbcf647f7	-0.030063612
9	0xbd1a3041	-0.037643675
10	0xbee2aa8f	-0.4427075
11	0xbe22c797	-0.1589645
12	0xbdf093f5	-0.117469706
13	0xbe40a0e8	-0.18811381
14	0xbf1fca19	-0.6241775
15	0xbd50c25f	-0.050966617
16	0x3e86bbf8	0.26315284
17	0xbebd53d1	-0.3697801
18	0xbe95b31d	-0.29238215
19	0xbd48b719	-0.04900274
20	0xbd2d44da	-0.04230199
21	0x3eb760cd	0.3581604
22	0xbe3c1eb8	-0.18371093
23	0xbecd26dd	-0.40068713
24	0xbebb63e5	-0.3659965
25	0xbe8c7aad	-0.27437344
26	0xbe986aa5	-0.29768863
27	0xbddc259a	-0.107493594
28	0xbe2f65dd	-0.17128702
29	0xbee5b95b	-0.44867977
30	0xbe9fa3b0	-0.3117957
31	0xbe516a97	-0.20450817
32	0xbe63e866	-0.22256622
33	0xbe8740bc	-0.26416576
34	0xbec42908	-0.38312554
35	0xbef5664b	-0.47929606
36	0x3d9758d4	0.073899895
37	0xbf525bff	-0.82171625
38	0xbe9a57bf	-0.3014507
39	0xbe97f942	-0.29682356
40	0xbe846033	-0.25854644
41	0xba5d5c1f	-0.0008444208
42	0xbe50ba73	-0.20383625
43	0xbe1eb967	-0.15500413
44	0xbeb02243	-0.3440114
45	0x3dd9a126	0.1062644
46	0xbe1f18b9	-0.15536775
47	0xbed83f4e	-0.42235798
48	0xbf25cb49	-0.64763314
49	0xbe8755ec	-0.2643274
50	0xbe2c3f8c	-0.16821116
51	0xbe8b2230	-0.2717452
52	0xbed6ff97	-0.41991875
53	0xbeddcf99	-0.43322447
54	0xbeef61ad	-0.46754208
55	0xbeaf40b8	-0.34229064
56	0xbeb7a63d	-0.35869017
57	0xbef7f7b9	-0.48431185
58	0x3dcfbb4b	0.10143145
59	0xbdad6cf2	-0.08468045
60	0xbe19d536	-0.1502274
61	0xbee787b2	-0.45220715
62	0xbd746945	-0.059670705
63	0xbe7cdd08	-0.24693692
64	0xbee0a6c9	-0.43877247
65	0x3ea2a05a	0.31762964
66	0xbe6dec5a	-0.23234692
67	0xbe92251a	-0.2854393
68	0xbe8ed77d	-0.2789878
69	0xbf614b27	-0.880053
70	0xbe716fc0	-0.23577785
71	0xbef6e5ca	-0.4822219
72	0xbec3940c	-0.38198888
73	0xbdd4dbd7	-0.103934936
74	0xbe240313	-0.16016798
75	0xbde08250	-0.10962355
76	0xbed1606e	-0.40893883
77	0xbdc32907	-0.0952931
78	0xbd294ed2	-0.041334935
79	0xbe8305e7	-0.2559044
80	0xbe6c4546	-0.230733

l1/W f4 [81, 81]
0	0xbe773818	-0.24142492
1	0xbe5b413b	-0.21411602
2	0xbe373f99	-0.17895354
3	0x3c30359f	0.010754972
4	0x3d994d56	0.07485454
5	0x3e512aae	0.20426437
6	0x3e4ca1f9	0.19983663
7	0xbedeb540	-0.43497658
8	0xbeb1d94a	-0.3473609
9	0xbe8f4b10	-0.27986956
10	0xbe8d3420	-0.2757883
11	0xbe0d37c2	-0.13790801
12	0xbe59b366	-0.21259841
13	0xbe42ca97	-0.19022594
14	0xbe59c8f8	-0.2126807
15	0x3e6b56fc	0.229824
16	0x3c6d0cf6	0.014468422
17	0x3b08355a	0.0020783753
18	0xbe5124bb	-0.20424168
19	0x3dde9d52	0.1086985
20	0xbdd9fcc1	-0.10643912
21	0xbdb0e191	-0.086367734
22	0x3c93a855	0.018024603
23	0x3e222edf	0.15838192
24	0xbbc7e99f	-0.006100848
25	0xbe2dfd9e	-0.16991279
26	0x3eb4f6ef	0.35344645
27	0xbed96b24	-0.42464554
28	0xbe72f6eb	-0.23727004
29	0xbd7f7f5c	-0.06237732
30	0xbe09ab27	-0.13444196
31	0xbd77f6d8	-0.060538143
32	0x3e8229a5	0.25422397
33	0x3bb16a42	0.0054142782
34	0x3e016496	0.12636027
35	0xbebac72b	-0.36480078
36	0xbd0e51f6	-0.034746133
37	0xbd965c9a	-0.07341881
38	0xbe065d53	-0.13121538
39	0xbdb8e9c9	-0.09028966
40	0x3bd3a698	0.0064590685
41	0x3dbd1bc7	0.09233814
42	0xbe187c1e	-0.14891097
43	0x3d6dad9f	0.058026906
44	0x3d9d4d1d	0.07680724
45	0x3d5cb431	0.05388278
46	0x3d3ee79c	0.0466076
47	0xbd45fefb	-0.04833887
48	0x3e881d20	0.2658472
49	0x3dc32b7e	0.0952978
50	0xbd0d96f6	-0.034567796
51	0xbd4f23fe	-0.050571434
52	0x3d886149	0.06659181
53	0x3e0f9e68	0.14025271
54	0x3dd7862c	0.10523638
55	0xbe052022	-0.13000539
56	0x3db82136	0.089907095
57	0x3e879942	0.26484114
58	0x3dbfbf1c	0.09362623
59	0xbe73f750	-0.23824811
60	0x3e44b7d2	0.19210747
61	0xbe15c927	-0.14627515
62	0xbe141741	-0.14461996
63	0xbce26171	-0.027634354
64	0x3e87776b	0.26458296
65	0x3cec1ff4	0.02882383
66	0x3e2dee90	0.16985536
67	0xbac74c66	-0.0015205264
68	0x3ca02b55	0.019551912
69	0xbe39d1a1	-0.18146373
70	0xbdffe64d	-0.12495098
71	0x3dc45a9e	0.09587596
72	0xbe85f44b	-0.26162943
73	0x3deb3c38	0.11486095
74	0x3df11302	0.117712036
75	0xbed314cb	-0.412268
76	0xbe1d0059	-0.15332164
77	0x3d74ade6	0.059736155
78	0x3d38468f	0.044989165
79	0x3cb5f4a3	0.022211378
80	0xbe2fe65d	-0.1717772
81	0xbe97e14d	-0.29664078
82	0xbf279e62	-0.6547605
83	0xbd8057d8	-0.06266755
84	0x3e1800ae	0.1484401
85	0xbe09fd96	-0.13475642
86	0x3ea1b383	0.3158227
87	0x3df944c2	0.12171318
88	0x3e38f7ed	0.18063326
89	0xbe82b9b7	-0.25532314
90	0xbdad611b	-0.08465787
91	0x3e93efdf	0.28893945
92	0x3ed8a73d	0.42315093
93	0x3eb9b504	0.36270916
94	0x3e1091e8	0.14118159
95	0xbdb4343e	-0.08799027
96	0xbd83db5f	-0.06438326
97	0x3e23296b	0.15933768
98	0xbd4b3138	-0.049607486
99	0x3e32e61e	0.17470595
100	0xbe1c0094	-0.15234596
101	0x3e36288f	0.1778891
102	0xbe7d81b3	-0.24756508
103	0x3ea04002	0.31298834
104	0xbe2d5f23	-0.16930823
105	0x3c865c8c	0.016401552
106	0x3de76cfc	0.11300084
107	0x3d9d489c	0.07679865
108	0xbe6281c9	-0.22119822
109	0xbe322f9c	-0.17400974
110	0xbdb3a569	-0.08771784
111	0x3d642905	0.05570318
112	0xbda42524	-0.080148965
113	0x3df8c93e	0.12147759
114	0x3e3a6755	0.1820348
115	0xbd69f4ba	-0.057118155
116	0xbe21bd2e	-0.15794823
117	0xbe88650b	-0.2663959
118	0x3eb33851	0.35003904
119	0x3e0a2737	0.13491522
120	0x3d80732b	0.062719665
121	0x3bfa490f	0.007638104
122	0xbea9f430	-0.33194113
123	0xbc4b675f	-0.012414782
124	0x3df5e639	0.12006802
125	0xbe3fdc35	-0.18736346
126	0xbd9af511	-0.07566274
127	0xbe0c365c	-0.13692611
128	0xbeaf60e6	-0.34253615
129	0xbe091677	-0.13387476
130	0x3d7b23f1	0.061313573
131	0x3e961d34	0.29319155
132	0xbe4080d5	-0.18799146
133	0x3e57f551	0.21089675
134	0xbed6120c	-0.41810644
135	0x3df23cdd	0.11828015
136	0xbd8b22d1	-0.0679375
137	0x3c0a5acd	0.0084445
138	0x3ee32b29	0.44368866
139	0x3dea3ac1	0.11436988
140	0xbed4d5b2	-0.41569287
141	0xbede30ce	-0.4339661
142	0x3e606313	0.21912794
143	0xbe4bfd7f	-0.1992092
144	0xbe4c2656	-0.19936499
145	0x3e0de293	0.13855962
146	0x3e15f87a	0.14645568
147	0x3de114d7	0.10990303
148	0xbe9ee5eb	-0.31034788
149	0x3dd5168b	0.1040469
150	0x3c521fdb	0.012824978
151	0x3e1f1ef2	0.15539148
152	0x3e90e17f	0.2829704
153	0x3e25edc8	0.16203988
154	0xbe9a451c	-0.3013085
155	0xbb03c609	-0.0020107052
156	0xbe5b03e3	-0.21388201
157	0xbe4c6b8e	-0.19962904
158	0x3e709c91	0.23497225
159	0x3e18e9d0	0.14932942
160	0xbd3e17ff	-0.046409603
161	0x3b23fa27	0.0025020929
162	0x3e527a17	0.20554386
163	0xbd66cd1d	-0.056347955
164	0x3e171dfe	0.14757535
165	0xbd460252	-0.048342057
166	0x3e9fd980	0.31220627
167	0x3e52b99e	0.2057862
168	0x3ddf375c	0.10899231
169	0x3dca5cf1	0.098810084
170	0xbecc7a26	-0.39936942
171	0x3d87a71f	0.06623673
172	0xbe4d78b2	-0.20065573
173	0xbd959ca7	-0.0730527
174	0xbe38842b	-0.18019168
175	0xbd81e34c	-0.063421816
176	0xbe0453a5	-0.12922533
177	0x3e49bfdb	0.19702093
178	0x3ebeaffe	0.37243646
179	0x3e433760	0.19064093
180	0xbd8e63cd	-0.06952629
181	0xbc0865c5	-0.008325045
182	0x3d8689d3	0.06569257
183	0xbe8add4a	-0.27121955
184	0xbeb9b44d	-0.3627037
185	0xbd3f73d6	-0.04674133
186	0xbd13a560	-0.036046386
187	0xbe2ec9dd	-0.17069192
188	0xbe9b6b9e	-0.30355543
189	0xbde00637	-0.109386854
190	0x3e11dad4	0.14243633
191	0xbe2a0d44	-0.16606623
192	0x3e2a2554	0.16615802
193	0xbc2f3674	-0.010694135
194	0xbd536e51	-0.051618878
195	0xbc9f0517	-0.019411607
196	0x3beb2c83	0.007176937
197	0x3e5431d1	0.20722128
198	0xbc48c595	-0.0122541385
199	0x3eb09b73	0.34493598
200	0xbe8f36a4	-0.27971375
201	0xbcbe9671	-0.023265095
202	0xbd963076	-0.07333462
203	0xbb118eeb	-0.002221043
204	0xbdb7d4e4	-0.089761525
205	0xbe02ec6b	-0.12785499
206	0x3e9e3b34	0.30904543
207	0xbe701082	-0.23443797
208	0x3deea4bb	0.116525136
209	0xbe5fb0d5	-0.218448
210	0x3d970ed2	0.073758736
211	0x3e114f0d	0.14190312
212	0xbd230709	-0.03980163
213	0xbd82802a	-0.063721016
214	0x3dcce26b	0.10004123
215	0x3da0fa76	0.07860272
216	0xbebe301f	-0.37146088
217	0xbde10762	-0.10987736
218	0x3d02af21	0.031905297
219	0xbea9fa86	-0.33198947
220	0xbd138cd8	-0.03602299
221	0x3d9d6d7c	0.07686898
222	0x3dacadb1	0.084315665
223	0xbd8ebb00	-0.06969261
224	0xbd942ec9	-0.07235486
225	0xbcef58e6	-0.029217195
226	0xbe800a89	-0.25008038
227	0xbde0cb90	-0.109763265
228	0xbe1d79c9	-0.15378489
229	0xbe0b7804	-0.13620001
230	0x3e1f9a9f	0.15586327
231	0x3cb6c673	0.022311425
232	0x3d673555	0.056447346
233	0x3de839d1	0.113391526
234	0xbe4494f5	-0.19197448
235	0x3cdb81fa	0.026795376
236	0xbd5e0821	-0.05420697
237	0xbea48835	-0.32135168
238	0xbd0bfdc0	-0.03417754
239	0x3d706f41	0.05869985
240	0xbc987de1	-0.018614711
241	0x3e6d4191	0.23169543
242	0x3c7eb3bf	0.0155457845
243	0x3e172682	0.14760783
244	0xbe4b70da	-0.19867268
245	0x3d16efcc	0.036849782
246	0x3e4c3e90	0.1994574
247	0x3d98744e	0.07444058
248	0xbea0d329	-0.31411102
249	0x3efd54bb	0.49478707
250	0xbe06878f	-0.13137649
251	0xbc88f455	-0.01671807
252	0x3ea27c61	0.3173552
253	0xbe21fb96	-0.15818629
254	0x3e4c40c0	0.19946575
255	0x3be1da9d	0.006892516

l2/W f4 [81, 81]
0	0xbe5a9ca8	-0.21348822
1	0xbe8995e8	-0.26872182
2	0x3d291924	0.04128374
3	0x3e0c5dd7	0.13707672
4	0xbed15bb4	-0.40890276
5	0x3e78ed17	0.24309193
6	0x3dfac477	0.12244504
7	0xbd5c3e3c	-0.05377029
8	0x3e232393	0.15931539
9	0xbd444011	-0.04791266
10	0x3d142cd9	0.036175583
11	0xbaf79b74	-0.0018890933
12	0x3a7fcce1	0.00097580074
13	0xbdabf5b5	-0.08396474
14	0xbd3f4d1b	-0.046704393
15	0x3d77e9d3	0.060525727
16	0xbe1fae45	-0.15593822
17	0xbca29cdf	-0.019850193
18	0x3e225491	0.15852572
19	0xbcd57fc9	-0.02606191
20	0x3e84085d	0.2578763
21	0x3d6176d5	0.055044968
22	0x3e6e660a	0.23281112
23	0xbe4ca201	-0.19983675
24	0xbd386177	-0.045014825
25	0xbe7da5cd	-0.24770279
26	0xbf010467	-0.5039734
27	0xbd77ffa4	-0.060546532
28	0x3e509902	0.20370868
29	0xbe67004a	-0.22558704
30	0xbd630da1	-0.05543292
31	0xbddb0461	-0.106941946
32	0xbe29ee62	-0.16594842
33	0xbd81a935	-0.06331102
34	0x3e09d6e9	0.13460888
35	0xbf154dbe	-0.5832175
36	0x3d5fc167	0.054627802
37	0x3dd9a6ca	0.106275156
38	0xbeca2080	-0.3947792
39	0x3ebe9beb	0.3722833
40	0xbe1e32a5	-0.15449007
41	0x3e05cd9d	0.13066716
42	0x3e81fb20	0.25386906
43	0xbcfcc88d	-0.030857349
44	0xbeaee905	-0.34162155
45	0x3e6cd1c3	0.23126893
46	0x3d665ebb	0.056242686
47	0x3a9f5412	0.0012155792
48	0xbe0c9605	-0.13729103
49	0xbe5f7f3f	-0.21825884
50	0x3e330df2	0.17485788
51	0xbe1e6668	-0.15468752
52	0xbe21f8b5	-0.1581753
53	0xbe47839c	-0.19483799
54	0xbdf686e1	-0.12037445
55	0xbd4223e7	-0.04739752
56	0x3ea618d5	0.3244082
57	0xbf45ec8e	-0.7731408
58	0x3eb653ba	0.35610753
59	0xbe97e23c	-0.2966479
60	0xbe4debd2	-0.2010949
61	0xbcd79216	-0.026314776
62	0xbe36f3de	-0.17866465
63	0xbdd30180	-0.103030205
64	0x3dda6f9f	0.10665821
65	0x3d75ac7a	0.05997894
66	0xbddd573f	-0.108076565
67	0xbf143c03	-0.5790407
68	0x3d941bea	0.07231887
69	0x3cb84857	0.022495432
70	0x3e504497	0.20338665
71	0xbdd2e475	-0.10297481
72	0xbda0399d	-0.07823489
73	0xbd6f7c52	-0.05846817
74	0x3da10b3a	0.078634694
75	0xbe11c888	-0.14236653
76	0xbec9277c	-0.39287937
77	0xbdb8e41d	-0.09027884
78	0xbd77089b	-0.06031094
79	0xbec99f09	-0.39379147
80	0x3d5cea65	0.053934474
81	0x3d51c997	0.05121764
82	0xbec3fb5d	-0.38277712
83	0x3e0fe084	0.1405049
84	0x3df2132c	0.11820063
85	0x3c408ad1	0.011751846
86	0xbe76e2cb	-0.24109952
87	0xbd266bfc	-0.040630326
88	0xbe79aebf	-0.24383067
89	0xbdd0034b	-0.10156878
90	0x3e83a179	0.2570913
91	0x3c6998aa	0.014257589
92	0xbd0b647c	-0.034031376
93	0x3dacfa3e	0.084461674
94	0xbe2a4418	-0.16627538
95	0xbe02c76e	-0.12771389
96	0xbde793b3	-0.11307468
97	0x3d8e4591	0.069468625
98	0x3d864944	0.06556943
99	0x3dfbb10c	0.122896284
100	0xbea82a3d	-0.32844725
101	0x3e22cab6	0.1589764
102	0x3ee5ace5	0.4485847
103	0x3e7fb1bd	0.24970146
104	0x3cb63a7d	0.022244686
105	0x3d6c99d5	0.057763893
106	0xbe10cdc2	-0.1414099
107	0x3e7534eb	0.23945968
108	0xbe3d825f	-0.18506764
109	0x3d904c53	0.07045808
110	0x3b2810ad	0.0025644705
111	0xbe70c59e	-0.23512885
112	0xbc641d8f	-0.013923063
113	0x3e384006	0.17993173
114	0x3e21f808	0.15817273
115	0xbd356541	-0.044286016
116	0xbeaee0f4	-0.34156
117	0xbd331458	-0.043720573
118	0x3d8ba2be	0.0681815
119	0xbdcf983f	-0.101364605
120	0xbdfa04b2	-0.12207927
121	0xbf24b6cc	-0.64341426
122	0xbe90db3a	-0.28292257
123	0xbed0ec3c	-0.40805233
124	0x3e0e91e8	0.13922846
125	0xbe4730dd	-0.19452234
126	0xbd152932	-0.03641624
127	0xbcf593d5	-0.029977718
128	0xbe6c9aac	-0.23105878
129	0xbe37d3f5	-0.17951949
130	0x3e524b1d	0.20536466
131	0xbe888954	-0.26667273
132	0xbd89179c	-0.06693956
133	0xbb46a275	-0.0030309234
134	0x3e5bf39b	0.21479647
135	0x3e382027	0.17981015
136	0x3e58a0e7	0.2115513
137	0xbdc50791	-0.09620584
138	0x3d2adb6c	0.041713163
139	0xbe2849a6	-0.16434345
140	0x3e219389	0.15778936
141	0xbe25b9df	-0.16184185
142	0x3d3edae2	0.04659546
143	0x3e3015f9	0.17195882
144	0xbe8c6ef3	-0.27428398
145	0xbe159915	-0.14609177
146	0x3d932a28	0.07185775
147	0x3c48302e	0.012218518
148	0x3e8f0a0d	0.27937356
149	0x3d8cd904	0.0687733
150	0xbe5d52c0	-0.21613598
151	0xbd046fa3	-0.032333028
152	0xbe0e110d	-0.13873692
153	0xbd48c2b6	-0.049013816
154	0xbe45e6f0	-0.19326377
155	0xbdccc583	-0.0999861
156	0x3dbb8643	0.09156468
157	0xbdc4cc12	-0.09609236
158	0xbd7f8216	-0.06237992
159	0x3de224ed	0.11042199
160	0x3ecb73a2	0.39736658
161	0x3ea6cb3e	0.32576936
162	0xbe830be3	-0.25595006
163	0x3dedaf1e	0.116056666
164	0x3dee0d7b	0.11623665
165	0xbc386ed9	-0.011256897
166	0x3dd8ddd9	0.10589189
167	0x3c5acbe5	0.013354276
168	0xbe3198ea	-0.17343488
169	0xbe6f3774	-0.23360997
170	0xbdf35eef	-0.118833415
171	0xbc8a82ab	-0.01690801
172	0x3e722266	0.23645934
173	0xbcf18228	-0.029481009
174	0xbd6c2994	-0.05765684
175	0xbdb84cf9	-0.08999056
176	0xbd0925f0	-0.033483446
177	0xbed791fa	-0.4210356
178	0xbd918128	-0.07104713
179	0xbe4c8ec9	-0.19976343
180	0x3dc9b14a	0.09848268
181	0xbe590595	-0.21193536
182	0xbe286504	-0.16444784
183	0xbecab67d	-0.39592353
184	0xbc4d76dd	-0.012540546
185	0xbe294ac0	-0.16532421
186	0xbe8ada64	-0.27119744
187	0xbe119bc1	-0.14219572
188	0xbdf7585e	-0.120774016
189	0xbdb7a48c	-0.08966932
190	0xbd8b071c	-0.067884654
191	0x3e56756c	0.2094323
192	0x3e874482	0.26419455
193	0xbe375262	-0.1790252
194	0x3d5f1174	0.054460004
195	0x3d90a27b	0.07062241
196	0xbca21df0	-0.019789666
197	0x3eb22592	0.3479429
198	0xbf28f86c	-0.6600406
199	0x3e67ca54	0.22635776
200	0x3d9399d3	0.07207074
201	0xbebffcd8	-0.37497592
202	0xbdb26108	-0.087099135
203	0xbe69cee8	-0.22832835
204	0xbe278e3e	-0.16362855
205	0x3e62f19e	0.22162482
206	0xbe4f2c2e	-0.20231697
207	0xbdcd6fcd	-0.1003109
208	0x3e26c716	0.16286883
209	0xbe875e2d	-0.26439038
210	0x3e02be1a	0.1276783
211	0xbe4948c3	-0.19656663
212	0x3db96dde	0.09054159
213	0x3cdf9e12	0.027297053
214	0xbec2203a	-0.37915212
215	0xbeab3879	-0.33441523
216	0xbdce3e35	-0.10070459
217	0xbe076e2d	-0.13225622
218	0x3e944226	0.28956717
219	0xbe9d8ec7	-0.30772993
220	0xbebcf493	-0.36905345
221	0xbe57dd9c	-0.21080631
222	0x3e6ded58	0.2323507
223	0xbec9f44d	-0.394442
224	0xbee0c7f4	-0.43902552
225	0xbdd7ef1a	-0.10543652
226	0xbe08cffe	-0.13360593
227	0xbe57d3b7	-0.21076857
228	0xbded6c32	-0.11592902
229	0xbe9b91e1	-0.30384734
230	0xbe5c2f21	-0.21502353
231	0xbe188034	-0.14892656
232	0xbe7f1c2d	-0.24913092
233	0x3a67eb22	0.0008846988
234	0xbe8c3267	-0.27382204
235	0x3cc6a9c5	0.024250874
236	0xbee61848	-0.449404
237	0x3b74e706	0.0037369146
238	0xbd710c73	-0.058849763
239	0x3dc31f9e	0.09527515
240	0xbd030c4c	-0.03199415
241	0xbe2f8fa8	-0.17144644
242	0x3ccbc7a2	0.024875466
243	0x3d172b40	0.03690648
244	0xbdd57e8d	-0.10424528
245	0xbe10c943	-0.14139275
246	0xbe06f129	-0.13177933
247	0xbe622657	-0.22084938
248	0xbcdfd84e	-0.027324822
249	0x3e574834	0.21023637
250	0x3d01efd1	0.031722847
251	0xbecfca27	-0.40583917
252	0xbcbf3217	-0.023339314
253	0xbe0b5b1a	-0.13608971
254	0x3c2c833b	0.010529335
255	0xbdc4bace	-0.09605943

l1/b f4 [81]
0	0xbe08095f	-0.13284825
1	0xbe62821c	-0.22119945
2	0xbe3ebf6e	-0.18627712
3	0xbe86a959	-0.26301077
4	0xbee000d3	-0.4375063
5	0xbe5f7e40	-0.21825504
6	0xbe896ac4	-0.26839268
7	0xbe10b274	-0.14130574
8	0xbeb8b20b	-0.36073336
9	0xbd38e155	-0.04513677
10	0xbe8b97a6	-0.27264136
11	0xbe05e3d6	-0.13075194
12	0xbe53d4c1	-0.20686628
13	0xbe04f2c1	-0.12983228
14	0xbdba67ee	-0.09101854
15	0xbdea6400	-0.11444855
16	0xbefd843e	-0.49514955
17	0xbe1e6b14	-0.15470535
18	0x3d90fb53	0.07079186
19	0xbde11bc2	-0.109916225
20	0xbe9f8d9f	-0.31162736
21	0xbe410945	-0.18851192
22	0xbed5538a	-0.41665298
23	0xbed9560b	-0.42448458
24	0xbecaa9d5	-0.39582697
25	0xbed16ad0	-0.40901804
26	0xbd731a3e	-0.0593512
27	0xbeac13ee	-0.33608955
28	0xbda8da61	-0.082447775
29	0xbac16c09	-0.0014756928
30	0xbe8bab22	-0.27279
31	0xbb3e8739	-0.0029072298
32	0x3d887456	0.06662814
33	0xbe99fdf4	-0.30076563
34	0xbdfb04af	-0.12256753
35	0x3d93658b	0.07197102
36	0xbe0eb315	-0.13935502
37	0xbe066930	-0.13126063
38	0xbf49df91	-0.7885676
39	0xbe91f862	-0.28509814
40	0x3dedee41	0.11617709
41	0xbe398e0c	-0.18120593
42	0xbe95a6f9	-0.29228953
43	0xbe213409	-0.15742506
44	0xbe850852	-0.2598291
45	0x3e1a9d84	0.1509915
46	0xbe148430	-0.1450355
47	0xbe49b656	-0.19698462
48	0x3c854e20	0.016272604
49	0xbed77ca3	-0.42087278
50	0xbe873ad3	-0.26412067
51	0xbe76b35d	-0.24091859
52	0xbe5cce1c	-0.21563
53	0xbda40cb2	-0.08010234
54	0xbec131e7	-0.37733385
55	0xbd343690	-0.043997347
56	0xbd91f273	-0.07126322
57	0xbe0385da	-0.12844029
58	0x3c980818	0.018558547
59	0xbed8f3ea	-0.42373592
60	0xbdbdcdc8	-0.09267765
61	0xbe94e327	-0.29079553
62	0xbe7da002	-0.2476807
63	0xbef16c90	-0.4715314
64	0x3dac1917	0.08403223
65	0xbd9c4d6f	-0.07631957
66	0xbf1295ae	-0.57259643
67	0xbe387e8b	-0.18017022
68	0xbe0a0116	-0.13476977
69	0xbe466c4a	-0.19377246
70	0xbd5b4a67	-0.053537752
71	0xbd6cfbbf	-0.05785727
72	0x3eafab61	0.3431044
73	0xbdf85d96	-0.12127225
74	0xbef2ef3a	-0.4744814
75	0xbe710c1b	-0.23539774
76	0x3bcfca0f	0.006341226
77	0xbc9bef15	-0.019034902
78	0x3dec9754	0.11552301
79	0xbe74b5f0	-0.23897529
80	0xbd8eade7	-0.06966763

l2/b f4 [81]
0	0xbe0c31a7	-0.13690816
1	0xbdd122bb	-0.102117024
2	0xbe4e0af5	-0.20121367
3	0xbd191462	-0.037372954
4	0x3d8c00ce	0.06836091
5	0xbeba7622	-0.36418253
6	0xbec47fe7	-0.38378832
7	0xbe3868d7	-0.18008743
8	0xbe1fb9ba	-0.15598193
9	0x3e192c06	0.149582
10	0xbede016c	-0.4336046
11	0x3dbd470d	0.092420675
12	0xbdf670d5	-0.1203324
13	0xbe542179	-0.20715894
14	0xbc2687c3	-0.010164204
15	0x3e4b1271	0.19831254
16	0xbc6012c9	-0.013676354
17	0xbea038e7	-0.31293413
18	0xbe7c42d8	-0.24634874
19	0xbec8773c	-0.3915347
20	0xbe2fa161	-0.17151405
21	0x3dbb2e59	0.091396995
22	0xbe473b3b	-0.19456188
23	0xbea86523	-0.3288966
24	0xbe230c62	-0.15922692
25	0xbdce69c8	-0.1007877
26	0xbe52b1dd	-0.20575662
27	0xbe9299d5	-0.2863299
28	0xbe850a87	-0.25984594
29	0xbe58b630	-0.21163249
30	0xbd5dd387	-0.054156806
31	0xbe112f11	-0.1417811
32	0xbe97dc7d	-0.29660407
33	0xbe6ea614	-0.23305541
34	0xbe064cfb	-0.13115303
35	0xbdfd06e5	-0.12354831
36	0xbe868d6e	-0.26279777
37	0x3df3e213	0.119083546
38	0xbe8b1c0e	-0.27169842
39	0xbdf82653	-0.12116685
40	0x3d80d389	0.06290347
41	0xbe2ca067	-0.16858064
42	0xbe9479f9	-0.28999308
43	0xbd8cd3d3	-0.0687634
44	0xbdb52971	-0.08845795
45	0xbe65b3dc	-0.22431892
46	0xbe69551f	-0.22786377
47	0xbdf261e1	-0.11835075
48	0xbe51354a	-0.20430484
49	0xbeb34c31	-0.35019067
50	0xbec4ada8	-0.3841374
51	0xbe496c34	-0.19670182
52	0xbe0e617b	-0.13904373
53	0xbe869b14	-0.2629019
54	0xbd36bb96	-0.04461249
55	0x3e0096c0	0.12557507
56	0x3dbf7209	0.09347922
57	0x3d29b0b2	0.041428275
58	0x3b31af49	0.0027112535
59	0xbd5edb53	-0.054408383
60	0xbee2cbd9	-0.44296148
61	0xbe27213e	-0.16321275
62	0xbe945977	-0.28974506
63	0xbd54e349	-0.05197457
64	0xbdc6a653	-0.096996926
65	0xbe24545b	-0.16047804
66	0xbeb40073	-0.35156593
67	0xbe511bdf	-0.20420788
68	0xbeade3c3	-0.3396283
69	0xbe59551d	-0.21223874
70	0xbe9bbb3c	-0.30416286
71	0xbea99d21	-0.33127692
72	0xbe08f12d	-0.13373251
73	0xbe8ca67f	-0.27470776
74	0xbe4e3e36	-0.20140919
75	0xbe01ecc5	-0.12687977
76	0xbe0e7623	-0.13912253
77	0xbe6eef05	-0.23333366
78	0xbea1df5b	-0.3161572
79	0xbdd92bb1	-0.106040366
80	0xbe4c1ea3	-0.19933562

l0/W f4 [81, 9]
0	0x3f01fb86	0.5077442
1	0x3d4fd19b	0.050737005
2	0x3db8411f	0.08996796
3	0x3e6aa55c	0.22914642
4	0x3e091852	0.13388184
5	0x3ed27246	0.4110281
6	0x3efc9d65	0.49338832
7	0x3dcc58df	0.09977888
8	0x3f297c49	0.6620527
9	0x3d930e9d	0.07180522
10	0x3f9a9b79	1.2078696
11	0x3dcb266a	0.09919436
12	0xbe4de84e	-0.20108148
13	0x3f3658bc	0.7122915
14	0xbe3fa87e	-0.18716618
15	0x3d3c3acd	0.045954514
16	0x3f2a6e1f	0.6657428
17	0x3ebca56a	0.3684495
18	0xbd821489	-0.06351573
19	0x3e94901a	0.2901619
20	0x3e671ca5	0.22569521
21	0xbf27ebe3	-0.6559431
22	0x3e4d3358	0.20039117
23	0x3df88479	0.12134642
24	0xbf262ca5	-0.6491187
25	0x3dd3327a	0.10312362
26	0xbe89b19a	-0.26893312
27	0x3ef57763	0.47942647
28	0x3dbc064c	0.091808885
29	0x3d90e72a	0.07075341
30	0xbe4528e8	-0.19253886
31	0x3e19e2a6	0.15027866
32	0xbec0ae51	-0.37632993
33	0xbe8a078c	-0.26958883
34	0xbd141167	-0.03614941
35	0xbec564c0	-0.3855343
36	0x3ef0425f	0.46925637
37	0xbba7d097	-0.0051213014
38	0xbcfd59cc	-0.030926608
39	0xbcd07a10	-0.025448829
40	0xbf025e72	-0.5092536
41	0xbd44418e	-0.04791408
42	0x3ba8bf31	0.005149745
43	0xbe02b630	-0.12764812
44	0xbee359f0	-0.44404554
45	0xbe9983a1	-0.29983237
46	0xbee9ec28	-0.45687985
47	0x3eee0507	0.4648821
48	0x3f15b4d2	0.58479035
49	0xbe542301	-0.20716478
50	0x3db283f1	0.08716572
51	0xbea5c8ca	-0.32379752
52	0xbf53d07a	-0.82739985
53	0x3d8f15b0	0.069865584
54	0xbdc7266c	-0.09724125
55	0xbf17774b	-0.591664
56	0xbf150bf3	-0.5822136
57	0x3e5221a1	0.20520641
58	0xbec5eb19	-0.38655928
59	0x3da4e6e0	0.080518484
60	0x3f24b6ea	0.64341605
61	0xbe78555e	-0.24251315
62	0xbe9f37ce	-0.31097263
63	0xbed49170	-0.4151721
64	0xbe9f252f	-0.31083056
65	0xbe904c71	-0.2818332
66	0xbeaf68c1	-0.34259608
67	0xbe41d08e	-0.18927214
68	0xbd0815f5	-0.033224065
69	0xbe9f0b17	-0.31063148
70	0x3f2d3184	0.6765368
71	0xbecf5a28	-0.4049847
72	0x3eb665de	0.35624593
73	0x3e121441	0.14265539
74	0x3e526475	0.20546134
75	0xbe4b5497	-0.19856487
76	0x3c8b1a33	0.016980266
77	0x3d63ee23	0.055647027
78	0xbda3c0d7	-0.07995766
79	0xbf5729d9	-0.8404823
80	0x3ea6af67	0.32555696
81	0x3e4a911e	0.1978192
82	0xbda9ccec	-0.08291039
83	0x3e2c09e7	0.16800652
84	0x3efc0b60	0.49227428
85	0xbebd044a	-0.36917335
86	0xbe22ee7b	-0.15911286
87	0x3c8f8590	0.017519742
88	0x3cd4f664	0.025996394
89	0x3e95461b	0.2915505
90	0x3de6db66	0.11272316
91	0xbed1af7c	-0.40954196
92	0xbed707c4	-0.41998112
93	0xbd61f69d	-0.05516683
94	0xbc3c47de	-0.011491744
95	0xbdc626bc	-0.09675357
96	0xbf545e52	-0.8295642
97	0xbf0a6e1a	-0.5407425
98	0xbf414269	-0.7549196
99	0x3ef730cd	0.4827942
100	0x3de3d8d8	0.11125344
101	0xbdcb0bdd	-0.09914372
102	0x3d60ae71	0.05485386
103	0x3f340a6f	0.7032842
104	0x3f254502	0.6455842
105	0x3ec175e8	0.37785268
106	0x3d256863	0.040382754
107	0xbcfcf8d0	-0.030880362
108	0x3efd7f56	0.49511212
109	0x3f0d3a97	0.55167526
110	0x3ecf6056	0.40503186
111	0x3df94b62	0.12172581
112	0x3f183b89	0.59465843
113	0xbe094807	-0.13406383
114	0xbe5960e5	-0.21228369
115	0x3ed69af0	0.41915083
116	0x3e91bd0c	0.28464544
117	0x3f5ddce2	0.86665165
118	0xbed732a1	-0.42030814
119	0x3e06db34	0.13169557
120	0x3e8c2c88	0.27377725
121	0x3ed9cf27	0.42540857
122	0x3f0e0140	0.5547066
123	0x3c6c0e86	0.0144077595
124	0xbe7ec432	-0.2487953
125	0x3f186eae	0.59543884
126	0xbe1d3465	-0.15352018
127	0x3d9bfa4c	0.076161
128	0xbf69525b	-0.9114129
129	0x3d55435d	0.052066196
130	0xbf31f999	-0.6952148
131	0xbd8dd116	-0.069246456
132	0xbf50c253	-0.81546515
133	0x3e68249d	0.22670217
134	0xbcf43eff	-0.029815195
135	0x3e32bff6	0.1745604
136	0x3f00ae31	0.50265795
137	0x3ec2f7c0	0.38079643
138	0x3ee2ed0e	0.44321483
139	0x3ee2aef0	0.44274092
140	0x3b9bd1e4	0.0047552455
141	0x3e0fdae9	0.14048351
142	0xbe43d9cc	-0.19126052
143	0x3e16c53c	0.14723676
144	0x3f54a4b2	0.83063805
145	0x3e3cda60	0.18442678
146	0x3ed89170	0.4229846
147	0x3e9cbf01	0.30614474
148	0x3eb23943	0.34809312
149	0x3f1ed884	0.62049127
150	0x3ee5c8d6	0.44879788
151	0x3e970f0c	0.29503667
152	0x3e5b7cee	0.21434376
153	0xbe86ab46	-0.26302546
154	0x3e7ce16c	0.24695367
155	0xbeccaef0	-0.39977217
156	0xbeb2b51a	-0.34903795
157	0xbf01abdf	-0.5065288
158	0xbf0a7f0a	-0.54100096
159	0x3e832b1f	0.25618836
160	0x3b653681	0.0034975114
161	0xbd92d7e3	-0.071700834
162	0x3d83e0aa	0.06439336
163	0xbe81e9c6	-0.25373667
164	0x3d0dfc6e	0.034664564
165	0x3d81ba0c	0.06334314
166	0xbe0d3e07	-0.13793193
167	0x3f6948f0	0.9112692
168	0x3e1e08ee	0.15433094
169	0xbdd94cd4	-0.10610357
170	0x3d94129b	0.07230111
171	0x3ca79a78	0.020459399
172	0x3ca4909b	0.020088485
173	0xbdeb1cfd	-0.114801385
174	0x3e40c2ad	0.18824263
175	0xbeb91c2d	-0.3615431
176	0x3ea35978	0.31904197
177	0xbe90f92a	-0.28315097
178	0xbe26ac4b	-0.16276662
179	0x3e8afc52	0.2714563
180	0xbe4ca9e1	-0.19986679
181	0x3d162aa0	0.036661744
182	0x3ee6c9b8	0.45075774
183	0xbe037971	-0.12839295
184	0xbce9c827	-0.028537823
185	0x3ecee017	0.40405342
186	0x3ed24c87	0.4107401
187	0x3ea49ba3	0.3214999
188	0xbe99cb6c	-0.3003801
189	0x3ed7ca43	0.421465
190	0x3f4fa93e	0.8111762
191	0x3ee5e1d5	0.4489886
192	0x3ecae0e4	0.39624703
193	0x3ee3e195	0.44508043
194	0x3f464db4	0.77462316
195	0x3ee668f5	0.4500195
196	0x3ee29230	0.44252157
197	0x3ef16539	0.4714754
198	0x3d694725	0.056952614
199	0x3eb46642	0.35234267
200	0xbedff9fa	-0.43745404
201	0xbe82f9fa	-0.25581342
202	0x3c272a19	0.010202908
203	0x3e697bcc	0.22801131
204	0x3e45e394	0.19325095
205	0x3ef24979	0.4732168
206	0x3e2f997f	0.17148398
207	0x3e7e3d7f	0.24828146
208	0x3e15ffe9	0.14648403
209	0xbe051137	-0.12994848
210	0xbe9152cf	-0.2838349
211	0xbf632357	-0.887258
212	0xbeb55ca0	-0.3542223
213	0xbe2f041b	-0.1709141
214	0x3c8029ba	0.015644897
215	0x3ec3869d	0.3818864
216	0x3c127192	0.00893821
217	0xbe1575e0	-0.14595747
218	0xbeca9b0f	-0.39571425
219	0x3f552e04	0.8327334
220	0xbed79bc6	-0.42111033
221	0xbedca74e	-0.43096393
222	0xbe61e8f2	-0.22061518
223	0xbd1418f4	-0.03615661
224	0xbefae705	-0.4900438
225	0x3d9e1e8a	0.077206686
226	0xbb07bbe6	-0.0020711361
227	0x3f1d5846	0.6146282
228	0xbd893c4c	-0.06700954
229	0x3dfd291c	0.123613566
230	0xbf012908	-0.50453234
231	0xbcd6bda6	-0.026213478
232	0xbe5de870	-0.21670699
233	0x3f2d1fea	0.6762682
234	0xbeae2305	-0.34011093
235	0xbcbbc482	-0.02292085
236	0x3bc31487	0.005953375
237	0x3e61f0d5	0.22064526
238	0x3e8ee0d7	0.27905914
239	0x3e9d173a	0.30681783
240	0x3ee57882	0.44818503
241	0xbeeebcf7	-0.46628544
242	0x3eae8fc9	0.34094074
243	0x3f0ff894	0.56238675
244	0xbe98f72c	-0.29876077
245	0xbe7e77e6	-0.24850425
246	0x3ee3181f	0.4435434
247	0xbd50007d	-0.050781716
248	0xbea6c7ce	-0.32574314
249	0x3d1719a5	0.03688969
250	0x3d94ca8a	0.07265194
251	0x3e04881e	0.1294255
252	0x3eedf2de	0.46474355
253	0x3e2a63ee	0.16639683
254	0x3df8156a	0.121134594
255	0xbddcb84d	-0.1077734
