chainerrl/TicTacToe/result_140000/target_model.npz (npz, 56593 bytes, 8 tensors)

l3/W f4 [9, 81]
0	0x3dfa8844	0.12233022
1	0xbd31623e	-0.04330658
2	0xbeda9e4b	-0.42698893
3	0x3d04f30e	0.032458358
4	0x3c32add8	0.010905705
5	0xbe1c9330	-0.15290523
6	0xbc1a5d3f	-0.009421646
7	0xbe43643a	-0.19081202
8	0x3e7145a8	0.23561728
9	0xbb1b61cb	-0.0023709412
10	0xbf30d2c1	-0.69071585
11	0xbdd4f418	-0.1039812
12	0xbeb8b807	-0.36077902
13	0x3cf4533a	0.029824842
14	0x3d4cb7fb	0.049980145
15	0x3dbb3d67	0.09142571
16	0xbc999c8d	-0.018751407
17	0x3e3c8182	0.18408778
18	0xbf3471fd	-0.7048643
19	0x3e59696a	0.21231619
20	0xbe08a601	-0.13344575
21	0x3c84249f	0.016130744
22	0x3d470dc3	0.04859711
23	0x3d083703	0.03325559
24	0xbeffab91	-0.49935582
25	0xba8e441b	-0.0010854037
26	0xbd1aca34	-0.037790492
27	0x3e42df0e	0.19030401
28	0xbdf256a4	-0.11832932
29	0x3dfe707d	0.12423799
30	0x3df63a10	0.12022793
31	0x3e385c73	0.18004017
32	0x3c244eee	0.010028584
33	0x3dc029ec	0.09382996
34	0xbe99f2fd	-0.30068198
35	0x3d85fa8f	0.06541931
36	0x3e5f54fb	0.21809761
37	0x3ebdcc02	0.37069708
38	0xbd39dcb1	-0.045376483
39	0xbde1dfd3	-0.11029019
40	0xbcb05fa0	-0.021529973
41	0xbf1d7416	-0.6150526
42	0xbea7320b	-0.32655367
43	0x3e98ca24	0.2984172
44	0x3de62c2d	0.112388946
45	0xbf320134	-0.69533086
46	0x3e4b8eb4	0.19878656
47	0x3b7c37da	0.0038485439
48	0x3e12f4d4	0.14351207
49	0x3e342256	0.17591223
50	0x3e752857	0.2394117
51	0xbe734398	-0.23756254
52	0xbd356a13	-0.044290613
53	0xbe2c172a	-0.16805711
54	0x3da92ca9	0.082604714
55	0xbe9fcecd	-0.31212464
56	0x3c7f8692	0.015596049
57	0x3e748a52	0.2388089
58	0x3dbce33a	0.092230275
59	0x3df86736	0.12129061
60	0xbe0310b1	-0.12799336
61	0xbd2165a5	-0.039403576
62	0x3e9c0e76	0.30479783
63	0xbdfb87e4	-0.122817785
64	0x3dd176b3	0.10227718
65	0x3e0e75ea	0.13912168
66	0xbee6b96f	-0.4506335
67	0xbef72e8c	-0.482777
68	0x3baf6049	0.0053520543
69	0x3b2419f0	0.0025039874
70	0xbd8f7407	-0.07004552
71	0xbe603ad9	-0.21897449
72	0xbd1dd508	-0.03853324
73	0x3e3718a1	0.17880489
74	0xbe8bd219	-0.2730873
75	0xbe00a512	-0.1256297
76	0x3c71c6c9	0.014756867
77	0x3db88068	0.090088665
78	0xbec05f27	-0.37572595
79	0xbe4b4c38	-0.19853294
80	0x3c70c581	0.014695526
81	0x3d83a0e6	0.06427173
82	0xbe882579	-0.2659109
83	0x3c2a0af2	0.010378586
84	0x3ef01bc6	0.4689619
85	0x3d4cbd2d	0.0499851
86	0x3e35e231	0.17762066
87	0x3c4ba630	0.012429759
88	0xbe79d3f2	-0.24397257
89	0xbf35ea1e	-0.7106036
90	0x3ddab5a5	0.10679177
91	0x3dcc3fee	0.09973131
92	0xbe12c903	-0.14334492
93	0xbc189a76	-0.00931417
94	0x3e2e7108	0.17035306
95	0x3e415fd6	0.18884215
96	0x3e4feafc	0.20304483
97	0x3e35c709	0.17751707
98	0x3ea80b96	0.3282134
99	0xbe7a29da	-0.24430028
100	0xbe115627	-0.14193021
101	0xbe499024	-0.19683892
102	0x3e152180	0.1456356
103	0x3e51afbf	0.20477198
104	0xbe02d0b9	-0.12774934
105	0x3ca11fc2	0.019668464
106	0xbebcdead	-0.36888638
107	0xbe0b4e31	-0.13604046
108	0x3e3f7607	0.18697368
109	0xbe1ec6ae	-0.15505478
110	0x3ea55382	0.32290274
111	0x3e7132b9	0.23554505
112	0xbeda6ded	-0.42661992
113	0xbe255050	-0.16143918
114	0xbe3e6d91	-0.18596484
115	0x3ded2a52	0.115803376
116	0x3eed8bd3	0.4639574
117	0x3e5dc160	0.21655798
118	0xbe14a3bc	-0.14515585
119	0xbca68b72	-0.020330165
120	0xbed4a688	-0.41533303
121	0x3ce4b13e	0.027916547
122	0xbe0b98b1	-0.13632466
123	0xbe2e6ae6	-0.17032966
124	0x3dd6e95f	0.10493731
125	0xbe14b618	-0.14522588
126	0x3de6b864	0.112656385
127	0x3e758149	0.239751
128	0xbe733dfe	-0.23754117
129	0xbe049466	-0.12947235
130	0xbe6fa92b	-0.23404376
131	0xbe3478ec	-0.17624253
132	0x3e2cd9a2	0.16879895
133	0x3d9ad972	0.07561006
134	0xbe8037ab	-0.2504247
135	0x3e901c1d	0.2814645
136	0xbe16c97d	-0.14725299
137	0x3a70ee7b	0.000919081
138	0xbba52dc8	-0.005040858
139	0xbd4337e8	-0.04766074
140	0x3d9759eb	0.07390197
141	0xbe13153e	-0.14363572
142	0x3e5739b5	0.21018107
143	0xbdada944	-0.084795505
144	0xbd97710b	-0.07394608
145	0x3d56ed50	0.052472413
146	0xbedb1338	-0.427881
147	0xbd10f980	-0.03539419
148	0x3e696f56	0.22796378
149	0x3e74fb5a	0.23924008
150	0xbe594ce6	-0.2122074
151	0x3d225234	0.039629176
152	0xbbcbc513	-0.0062185614
153	0xbeca035e	-0.39455694
154	0xbc7042ab	-0.014664332
155	0x3e2a2a51	0.16617705
156	0xbe9e8b4b	-0.30965647
157	0x3a5575c5	0.0008142854
158	0xbec832ac	-0.3910116
159	0xbed6f394	-0.4198271
160	0xbddd175b	-0.1079547
161	0xbe21f02b	-0.15814273
162	0x3ec4ddaa	0.38450366
163	0xbdbc9c3e	-0.09209488
164	0xbee734d3	-0.4515749
165	0xbcb8f5bc	-0.022578113
166	0xbd610787	-0.05493882
167	0xbe0cb0f7	-0.13739382
168	0x3e2cbc95	0.16868813
169	0x3dd39550	0.103312135
170	0x3dbb4855	0.091446556
171	0x3eafe222	0.34352213
172	0x3e14be0e	0.14525625
173	0xbdfc1e42	-0.12310459
174	0xbeeaf550	-0.45890284
175	0xbda89d1d	-0.08233092
176	0x3dacd490	0.084389806
177	0x3d1b190e	0.03786569
178	0xbd56872b	-0.052375
179	0xbd286996	-0.04111632
180	0x3de3e238	0.11127132
181	0xbe5155cb	-0.20442884
182	0xbf2e30c7	-0.6804318
183	0xbe0b3715	-0.13595231
184	0xbd19d519	-0.03755674
185	0xbd845694	-0.06461826
186	0xbe01a92f	-0.12662195
187	0x3de96b7e	0.11397456
188	0xbe92604e	-0.285891
189	0x3e2636b2	0.16231802
190	0xbec5c142	-0.38624007
191	0xbf123ca9	-0.5712381
192	0xbe66a33b	-0.22523205
193	0xbdb19b6e	-0.08672224
194	0xbd8bfead	-0.06835685
195	0x3ee7164a	0.45134193
196	0x3ee095f7	0.43864414
197	0x3e650c3f	0.22367953
198	0xbf05b483	-0.52228564
199	0xbe3c1dfc	-0.18370813
200	0x3e2b7570	0.16744018
201	0xbe813ef9	-0.25243357
202	0x3e009f36	0.12560734
203	0xbcd3d78a	-0.025859613
204	0xbe001b13	-0.12510328
205	0xbe8f733c	-0.28017604
206	0xbcff0879	-0.03113197
207	0x3d3f0a19	0.04664049
208	0xbd5c1fe7	-0.053741362
209	0x3de8dc16	0.11370103
210	0xbd51bab0	-0.05120343
211	0xbe350848	-0.1767894
212	0x3e5b0500	0.21388626
213	0x3ea3a9eb	0.31965575
214	0xbdbd0f6d	-0.09231458
215	0xbdf987b1	-0.12184084
216	0x3e2e12da	0.16999379
217	0xbef74ed6	-0.48302335
218	0x3e05ba65	0.13059385
219	0x3ea3e49c	0.32010353
220	0xbe620521	-0.22072269
221	0xbce28fed	-0.02765652
222	0xbed28ad4	-0.41121542
223	0x3ba7cdf7	0.0051209885
224	0x3e39cacd	0.18143769
225	0x3daef620	0.08543038
226	0x3dd539cd	0.10411415
227	0xbd85bc69	-0.06530077
228	0xbced5e66	-0.028975677
229	0x398412a8	0.00025190902
230	0x3ddb1fa1	0.10699392
231	0xbe568c93	-0.20952062
232	0xbd8a1cef	-0.067438
233	0xbd7220dc	-0.05911337
234	0xbdaf47c9	-0.08558614
235	0xbe3b2d3a	-0.18278971
236	0xbb89c49d	-0.0042043463
237	0xbdb1a85a	-0.08674689
238	0xbda861f6	-0.082218096
239	0x3d83a032	0.06427039
240	0x3cf65401	0.030069353
241	0xbc941512	-0.018076453
242	0x3dddf79e	0.10838245
243	0x3e376380	0.1790905
244	0x3d8139e1	0.06309868
245	0xbec1ad97	-0.3782775
246	0x3df42181	0.11920453
247	0x3ca6fb67	0.02038355
248	0xbdb056f9	-0.08610339
249	0xbd0eb3fd	-0.03483962
250	0xbe063096	-0.13104472
251	0x3e04c808	0.12966931
252	0xbd132117	-0.03592023
253	0x3ce02cb6	0.02736507
254	0xbee45d70	-0.44602537
255	0x3ce734c1	0.028223397

l3/b f4 [9]
0	0xbe2af038	-0.16693199
1	0xbec4664d	-0.383593
2	0xbe8c40ab	-0.27393088
3	0xbdd8dc98	-0.1058895
4	0xbc5384ad	-0.01291005
5	0xbd5b6cbc	-0.053570494
6	0xbdaf3547	-0.08555084
7	0xbea9f332	-0.33193356
8	0xbe6a9970	-0.22910094

l0/b f4 [81]
0	0x3e55c1d6	0.20874724
1	0xbead41fa	-0.338394
2	0xbe973a81	-0.29536822
3	0xbea2b6af	-0.31780002
4	0xbda726c7	-0.08161693
5	0xbec7c2a2	-0.3901568
6	0xbf0a7137	-0.54079
7	0xbe0d4e25	-0.13799341
8	0xbd19476e	-0.037421636
9	0xbd16e6b0	-0.036841094
10	0xbee2418e	-0.4419064
11	0xbe2054d7	-0.15657364
12	0xbdf8752d	-0.121317245
13	0xbe458d55	-0.19292195
14	0xbf212fb9	-0.62963444
15	0xbd4c309f	-0.049851056
16	0x3e885966	0.26630706
17	0xbebd5a9c	-0.36983192
18	0xbe95345c	-0.2914151
19	0xbd3ce683	-0.04611827
20	0xbd4628f1	-0.04837889
21	0x3eb6f375	0.35732618
22	0xbe3e5d16	-0.18590197
23	0xbecc59b2	-0.39912182
24	0xbeb9e3fc	-0.3630675
25	0xbe8c507c	-0.27405155
26	0xbe97b68e	-0.29631466
27	0xbdc6c87a	-0.097062066
28	0xbe2c863d	-0.16848083
29	0xbee4fef5	-0.44725767
30	0xbe9ee116	-0.31031102
31	0xbe5874d9	-0.21138324
32	0xbe642afa	-0.2228202
33	0xbe8583ca	-0.2607711
34	0xbec4a366	-0.38405913
35	0xbef5a1ee	-0.47975105
36	0x3d9c15ef	0.07621371
37	0xbf537076	-0.82593477
38	0xbe9c199e	-0.30488294
39	0xbe98fdbf	-0.29881093
40	0xbe85918e	-0.26087612
41	0xb95fa5d7	-0.00021328717
42	0xbe51b536	-0.20479283
43	0xbe2224d6	-0.15834364
44	0xbeb035f8	-0.34416175
45	0x3dd20ac6	0.10255961
46	0xbe1b42ef	-0.15162252
47	0xbed73057	-0.42029068
48	0xbf26b58b	-0.6512076
49	0xbe889f1f	-0.266839
50	0xbe280aa8	-0.16410315
51	0xbe8a9546	-0.27067012
52	0xbed9cf7e	-0.42541116
53	0xbedc914f	-0.43079612
54	0xbef266ad	-0.4734396
55	0xbeadc63b	-0.339403
56	0xbeb6b4c6	-0.35684794
57	0xbef94f78	-0.48693442
58	0x3dd83a56	0.10558002
59	0xbdc34240	-0.095341206
60	0xbe1d46e0	-0.15359068
61	0xbee890b7	-0.4542291
62	0xbd765bb1	-0.060146037
63	0xbe7b072b	-0.24514453
64	0xbedd705e	-0.43249792
65	0x3ea24519	0.31693342
66	0xbe7418e3	-0.23837619
67	0xbe91c0fd	-0.2846755
68	0xbe90bb18	-0.2826774
69	0xbf606648	-0.8765607
70	0xbe73d828	-0.23812926
71	0xbef903fa	-0.48635846
72	0xbec27d20	-0.37986088
73	0xbdd811ce	-0.10550271
74	0xbe241af2	-0.16025904
75	0xbddfde58	-0.109310806
76	0xbed32cb4	-0.41245043
77	0xbdb9085d	-0.09034798
78	0xbd3aadb9	-0.04557583
79	0xbe85bfdf	-0.2612295
80	0xbe6dca7f	-0.23221777

l1/W f4 [81, 81]
0	0xbe786755	-0.24258168
1	0xbe5886a4	-0.21145111
2	0xbe367c28	-0.178208
3	0x3c2d480a	0.0105762575
4	0x3d9680af	0.07348763
5	0x3e4fd157	0.202947
6	0x3e4c4545	0.19948299
7	0xbedeacbb	-0.43491158
8	0xbeb1f21f	-0.34755036
9	0xbe90c280	-0.28273392
10	0xbe8cc84f	-0.27496573
11	0xbe0b2ab0	-0.13590503
12	0xbe582be3	-0.21110491
13	0xbe425fbe	-0.18981835
14	0xbe58ed09	-0.21184172
15	0x3e6cf859	0.23141612
16	0x3c5cd8d4	0.01347943
17	0x3aca7ee1	0.001544919
18	0xbe51129d	-0.20417257
19	0x3ddc65c4	0.10761598
20	0xbddd14da	-0.10794993
21	0xbdb0f5cc	-0.08640632
22	0x3c9d075a	0.019168545
23	0x3e1f7c98	0.15574872
24	0xbbe8886a	-0.00709634
25	0xbe2e05db	-0.16994421
26	0x3eb5b4fa	0.35489637
27	0xbed9c273	-0.42531165
28	0xbe7340db	-0.23755209
29	0xbd7e6060	-0.06210363
30	0xbe07a6b5	-0.13247187
31	0xbd696a04	-0.05698587
32	0x3e82fed8	0.25585055
33	0x3bd70293	0.006561586
34	0x3e04926f	0.12946485
35	0xbebbcd63	-0.36680135
36	0xbd0d02fa	-0.034426667
37	0xbd9894af	-0.07450234
38	0xbe08646f	-0.13319562
39	0xbdaf5a61	-0.0856216
40	0x3be11617	0.0068690884
41	0x3db6e7f2	0.08930959
42	0xbe16ab2b	-0.14713733
43	0x3d6aaac0	0.057291746
44	0x3d983fd2	0.07434048
45	0x3d55f4b7	0.05223533
46	0x3d460298	0.048342317
47	0xbd3ce8cb	-0.046120446
48	0x3e876eb2	0.2645164
49	0x3dc7b74a	0.097517565
50	0xbd0cf579	-0.03441379
51	0xbd4d0369	-0.05005208
52	0x3d86cbd0	0.06581843
53	0x3e15e5e9	0.14638485
54	0x3dd5ec6d	0.10445485
55	0xbe01e632	-0.12685469
56	0x3dbc058a	0.09180744
57	0x3e883022	0.26599222
58	0x3dbd573a	0.09245153
59	0xbe710e2d	-0.23540564
60	0x3e4974de	0.19673488
61	0xbe172a50	-0.14762235
62	0xbe13b4cb	-0.14424436
63	0xbcd2ed79	-0.025748001
64	0x3e885ed4	0.26634848
65	0x3ce98dd9	0.028510021
66	0x3e2f5ea4	0.17125946
67	0x3aa52d01	0.0012601913
68	0x3caa9c3a	0.020826448
69	0xbe3be964	-0.1835075
70	0xbe002adb	-0.12516348
71	0x3dc4581f	0.0958712
72	0xbe855874	-0.26044047
73	0x3de3c405	0.11121372
74	0x3df69d11	0.12041677
75	0xbed2831b	-0.4111565
76	0xbe1dff12	-0.15429333
77	0x3d6f1195	0.058366377
78	0x3d33dbfb	0.04391096
79	0x3ca99e73	0.020705437
80	0xbe2fc8c3	-0.17166428
81	0xbe979611	-0.2960668
82	0xbf279110	-0.6545572
83	0xbd824a0b	-0.06361779
84	0x3e17aa5c	0.1481108
85	0xbe095763	-0.13412242
86	0x3ea031d4	0.31288016
87	0x3dfb0d22	0.12258364
88	0x3e3a28ae	0.1817958
89	0xbe826890	-0.254704
90	0xbdae4e95	-0.08511082
91	0x3e932931	0.28742364
92	0x3ed8f22e	0.42372268
93	0x3eb97d8e	0.36228603
94	0x3e0f2653	0.13979463
95	0xbdb4783f	-0.088119976
96	0xbd840137	-0.06445544
97	0x3e23002a	0.15918031
98	0xbd444ede	-0.047926776
99	0x3e32fff2	0.17480448
100	0xbe1b8751	-0.15188338
101	0x3e38125f	0.17975758
102	0xbe7d3b72	-0.24729708
103	0x3ea08e2e	0.31358474
104	0xbe2c2afd	-0.16813274
105	0x3c730e17	0.014834902
106	0x3de5b408	0.11215979
107	0x3d9f4249	0.07776315
108	0xbe6389f5	-0.22220595
109	0xbe30cf69	-0.1726662
110	0xbdb44b1f	-0.08803391
111	0x3d63ef35	0.055648047
112	0xbda5032a	-0.08057244
113	0x3df76a22	0.1208079
114	0x3e3ca2e2	0.1842151
115	0xbd6aaa69	-0.057291422
116	0xbe22962a	-0.15877596
117	0xbe88c221	-0.2671061
118	0x3eb4ab58	0.35286975
119	0x3e0b7220	0.13617754
120	0x3d81335f	0.063086264
121	0x3bfe3bb4	0.007758582
122	0xbea941ca	-0.33058006
123	0xbc4742e9	-0.012161949
124	0x3df8dd1a	0.12151547
125	0xbe3d935f	-0.18513249
126	0xbd98dfae	-0.074645385
127	0xbe0cec9a	-0.13762131
128	0xbeaebd4e	-0.34128803
129	0xbe0a7580	-0.13521385
130	0x3d7cdf20	0.061736226
131	0x3e970d9b	0.29502568
132	0xbe41cc98	-0.18925703
133	0x3e566e8a	0.20940605
134	0xbed51228	-0.41615415
135	0x3def29fa	0.11677928
136	0xbd8a8015	-0.06762711
137	0x3bd44983	0.00647849
138	0x3ee2fe7c	0.4433478
139	0x3dec51bd	0.11539028
140	0xbed48f8d	-0.4151577
141	0xbeded16e	-0.43519157
142	0x3e610abc	0.21976751
143	0xbe4b6feb	-0.19866912
144	0xbe4a7cef	-0.19774221
145	0x3e0e7a03	0.13913731
146	0x3e157d3a	0.14598551
147	0x3de04dc5	0.10952333
148	0xbe9ea36c	-0.30984056
149	0x3dd5f14d	0.10446415
150	0x3c48f6c2	0.012265863
151	0x3e20db3c	0.15708631
152	0x3e908f1e	0.2823419
153	0x3e255009	0.16143812
154	0xbe9b5c4f	-0.30343863
155	0xbb053001	-0.0020322802
156	0xbe5a2080	-0.2130146
157	0xbe4a7a07	-0.19773112
158	0x3e6ec6d2	0.23318031
159	0x3e18a11b	0.14905207
160	0xbd348e99	-0.044081304
161	0x3b3934ce	0.0028260234
162	0x3e510a96	0.20414194
163	0xbd6a6b37	-0.057231154
164	0x3e18c6c9	0.1491958
165	0xbd422b38	-0.047404498
166	0x3ea13b29	0.31490448
167	0x3e54ebc2	0.2079306
168	0x3dda32d9	0.1065423
169	0x3dc93e0a	0.09826286
170	0xbecaf696	-0.39641255
171	0x3d87731d	0.06613753
172	0xbe4c346b	-0.19941871
173	0xbd95bfcb	-0.07311972
174	0xbe38049b	-0.17970507
175	0xbd839dc3	-0.06426575
176	0xbe05d087	-0.13067828
177	0x3e4b4b0d	0.19852848
178	0x3ebf952c	0.37418497
179	0x3e41eba6	0.18937549
180	0xbd8e54a1	-0.069497354
181	0xbc05addd	-0.008159128
182	0x3d8a89d7	0.06764572
183	0xbe8925d6	-0.2678668
184	0xbeba30a7	-0.36365244
185	0xbd42cf85	-0.047561187
186	0xbd13510f	-0.035965975
187	0xbe2ea9d2	-0.17056969
188	0xbe9b7a52	-0.3036676
189	0xbde35392	-0.11099924
190	0x3e10f0e4	0.14154392
191	0xbe2a1991	-0.16611315
192	0x3e2986f2	0.16555384
193	0xbc29687b	-0.0103398515
194	0xbd5385a5	-0.051641125
195	0xbcb2b743	-0.021815902
196	0x3bc5f64e	0.0060413247
197	0x3e58a0ac	0.21155041
198	0xbc466407	-0.012108809
199	0x3eb11d28	0.34592557
200	0xbe8f0ec3	-0.2794095
201	0xbcc0fc90	-0.023557931
202	0xbd98b814	-0.07456985
203	0xbaf1df1e	-0.0018453335
204	0xbdb8f713	-0.09031501
205	0xbdffa679	-0.12482924
206	0x3e9d7388	0.30752206
207	0xbe711198	-0.23541868
208	0x3df17fb5	0.11791936
209	0xbe61ee92	-0.22063664
210	0x3d974c72	0.07387628
211	0x3e12a9dd	0.1432261
212	0xbd1ef742	-0.038810022
213	0xbd83a302	-0.06427576
214	0x3dcf6b43	0.101278804
215	0x3d9dc9ab	0.07704481
216	0xbebe6f60	-0.37194347
217	0xbde06ee0	-0.10958648
218	0x3d080bf5	0.033214528
219	0xbea9ffdb	-0.33203015
220	0xbd1010b3	-0.035172176
221	0x3d972c04	0.07381442
222	0x3db06074	0.08612147
223	0xbd8af654	-0.067852646
224	0xbd930d30	-0.0718025
225	0xbcfe4c62	-0.031042282
226	0xbe806183	-0.25074396
227	0xbddfb821	-0.10923792
228	0xbe1b6967	-0.15176927
229	0xbe0cb3a3	-0.13740401
230	0x3e1dee6e	0.15422985
231	0x3ca8bfa7	0.0205992
232	0x3d6027bd	0.054725397
233	0x3de7bec0	0.113156796
234	0xbe44c943	-0.192174
235	0x3d04b30c	0.032397315
236	0xbd576d17	-0.05259427
237	0xbea56590	-0.3230405
238	0xbd0d9041	-0.0345614
239	0x3d73ce2c	0.059522793
240	0xbc79c9a8	-0.0152458325
241	0x3e6ea633	0.23305587
242	0x3c62ba4c	0.013838362
243	0x3e1a8690	0.15090394
244	0xbe4b27db	-0.19839422
245	0x3d17a1e6	0.037019633
246	0x3e4c4caa	0.1995112
247	0x3d9d57a7	0.07682734
248	0xbe9fd5cb	-0.312178
249	0x3efe23db	0.4963673
250	0xbe0871a7	-0.13324605
251	0xbc6266d7	-0.013818464
252	0x3ea3f92e	0.32026047
253	0xbe20e6f6	-0.15713105
254	0x3e4c670a	0.19961181
255	0x3bee8446	0.007278952

l2/W f4 [81, 81]
0	0xbe5ab976	-0.2135981
1	0xbe884e04	-0.2662202
2	0x3d236f9e	0.03990137
3	0x3e0a26aa	0.13491312
4	0xbed1483e	-0.4087543
5	0x3e7b848c	0.24562281
6	0x3dfb6042	0.12274219
7	0xbd5f0385	-0.054446716
8	0x3e235cd1	0.15953375
9	0xbd4bd24f	-0.049761113
10	0x3d0d8243	0.034548055
11	0xba40abca	-0.00073498173
12	0x391bc41c	0.00014855008
13	0xbdac14b9	-0.0840239
14	0xbd3a0603	-0.04541589
15	0x3d8041b9	0.062625356
16	0xbe1f0d37	-0.15532385
17	0xbcaeb851	-0.021328123
18	0x3e1fb0f2	0.15594843
19	0xbcdf3f2b	-0.0272518
20	0x3e83a48d	0.2571148
21	0x3d5df609	0.054189716
22	0x3e6c5158	0.23077905
23	0xbe489c63	-0.19590907
24	0xbd35c7f8	-0.04438016
25	0xbe7cc33d	-0.24683852
26	0xbf010cc1	-0.50410086
27	0xbd796338	-0.060885638
28	0x3e5106ff	0.20412825
29	0xbe67059e	-0.22560737
30	0xbd6a13ff	-0.057147976
31	0xbddae72f	-0.10688626
32	0xbe2a34c2	-0.16621688
33	0xbd865509	-0.06559188
34	0x3e08bdb0	0.1335361
35	0xbf158305	-0.58403045
36	0x3d686046	0.05673244
37	0x3dd6ab1e	0.10481857
38	0xbeca899f	-0.39558122
39	0x3ebefe38	0.3730333
40	0xbe1dd125	-0.15411814
41	0x3e05b220	0.1305623
42	0x3e8231a6	0.25428504
43	0xbcf0482e	-0.029331293
44	0xbeadc6bc	-0.33940685
45	0x3e6d032e	0.23145744
46	0x3d6ac915	0.057320673
47	0x3b2779e3	0.0025554828
48	0xbe0e3ef9	-0.1389121
49	0xbe627e39	-0.22118463
50	0x3e35fd0e	0.17772314
51	0xbe1d9334	-0.15388185
52	0xbe21df18	-0.1580776
53	0xbe460355	-0.19337209
54	0xbdfb73a7	-0.12277918
55	0xbd44ab60	-0.048015
56	0x3ea623c6	0.32449168
57	0xbf464c48	-0.77460146
58	0x3eb5a4d9	0.3547733
59	0xbe98511c	-0.29749382
60	0xbe4d7a15	-0.20066102
61	0xbcc25f0b	-0.02372696
62	0xbe3527ca	-0.1769096
63	0xbdd40a0b	-0.10353478
64	0x3dd9cc29	0.106346436
65	0x3d76bf34	0.06024094
66	0xbddce234	-0.10785332
67	0xbf1414f9	-0.578445
68	0x3d95a3ae	0.0730661
69	0x3cb6f82d	0.022335136
70	0x3e503f76	0.20336708
71	0xbdd62416	-0.104561016
72	0xbda43d41	-0.08019496
73	0xbd76bf3f	-0.06024098
74	0x3d9bf2a4	0.076146394
75	0xbe1294ed	-0.14314623
76	0xbec9831a	-0.39357835
77	0xbdb83580	-0.08994579
78	0xbd768dfe	-0.060194008
79	0xbec92cf2	-0.39292103
80	0x3d59a2d6	0.053133808
81	0x3d4e5867	0.050377276
82	0xbec43d87	-0.38328192
83	0x3e0e4141	0.1389208
84	0x3df673fd	0.12033842
85	0x3c6e07b7	0.014528207
86	0xbe7856a1	-0.24251796
87	0xbd1f8b7a	-0.038951375
88	0xbe7876fa	-0.24264136
89	0xbdd0ea7b	-0.102009736
90	0x3e83a20a	0.25709563
91	0x3c78304f	0.015148236
92	0xbd0f6114	-0.03500469
93	0x3db02b7f	0.08602046
94	0xbe290b10	-0.16508126
95	0xbe00866b	-0.12551276
96	0xbde6b494	-0.11264911
97	0x3d8b517b	0.068026505
98	0x3d83a5f1	0.06428135
99	0x3df5fadc	0.12010738
100	0xbea7e923	-0.32795057
101	0x3e258367	0.16163407
102	0x3ee5634c	0.4480232
103	0x3e7e4bb3	0.24833564
104	0x3cc08db7	0.023505075
105	0x3d6b0708	0.057379752
106	0xbe0bf185	-0.13666351
107	0x3e75e2f8	0.24012363
108	0xbe3d0100	-0.18457413
109	0x3d96fbc2	0.07372238
110	0x3a94eb4d	0.0011361629
111	0xbe7073de	-0.234817
112	0xbc388ed1	-0.011264519
113	0x3e362e46	0.1779109
114	0x3e22bb63	0.15891795
115	0xbd3347c5	-0.043769617
116	0xbeb0139b	-0.34389958
117	0xbd381add	-0.044947494
118	0x3d89ec11	0.06734479
119	0xbdcd891d	-0.10035918
120	0xbdf52d6d	-0.11971555
121	0xbf249af9	-0.6429897
122	0xbe9037aa	-0.28167468
123	0xbed15616	-0.4088599
124	0x3e11cbaf	0.14237855
125	0xbe45fa9d	-0.19333883
126	0xbd12abea	-0.03580848
127	0xbd00877c	-0.031379208
128	0xbe6c3a72	-0.2306917
129	0xbe38df37	-0.180539
130	0x3e54f635	0.20797046
131	0xbe8869e9	-0.26643303
132	0xbd89ae25	-0.067226686
133	0xbb368118	-0.0027847942
134	0x3e5b372b	0.21407764
135	0x3e3582f9	0.17725743
136	0x3e57c344	0.21070582
137	0xbdc68237	-0.09692805
138	0x3d20a093	0.039215636
139	0xbe28885d	-0.16458268
140	0x3e207300	0.15668869
141	0xbe26a8ef	-0.1627538
142	0x3d480e6b	0.048841875
143	0x3e331a37	0.17490469
144	0xbe8c677a	-0.27422696
145	0xbe17cadc	-0.14823478
146	0x3d9337ec	0.071884006
147	0x3c2dffdd	0.010620085
148	0x3e8fdd6d	0.28098622
149	0x3d89e1f1	0.06732548
150	0xbe5fa2ab	-0.21839397
151	0xbcf97f99	-0.030456351
152	0xbe0fbaf9	-0.14036168
153	0xbd4410c2	-0.047867544
154	0xbe467f85	-0.19384582
155	0xbdcbe7dd	-0.09956334
156	0x3dc23603	0.09482958
157	0xbdc3ab3a	-0.09554143
158	0xbd826990	-0.06367791
159	0x3de499ea	0.11162169
160	0x3ecc1885	0.39862457
161	0x3ea6ac04	0.32553113
162	0xbe8313f9	-0.25601175
163	0x3debfad1	0.11522449
164	0x3df49738	0.11942905
165	0xbc276393	-0.010216611
166	0x3ddcbb0c	0.10777864
167	0x3c67760b	0.014127265
168	0xbe332f1c	-0.1749844
169	0xbe6f841f	-0.23390244
170	0xbdf3a68a	-0.11896999
171	0xbc64b163	-0.013958308
172	0x3e736284	0.2376805
173	0xbcf846de	-0.03030723
174	0xbd6150f2	-0.055008836
175	0xbdbba280	-0.09161854
176	0xbd0d95c6	-0.034566663
177	0xbed7b918	-0.42133403
178	0xbd91ae6f	-0.07113349
179	0xbe4c0deb	-0.19927184
180	0x3dc92c42	0.09822895
181	0xbe5a0a30	-0.21292949
182	0xbe285d27	-0.16441785
183	0xbecafb24	-0.3964473
184	0xbc6a4ac1	-0.014300049
185	0xbe2b3ab9	-0.1672162
186	0xbe8bafa4	-0.2728244
187	0xbe130200	-0.14356232
188	0xbdf74b11	-0.12074865
189	0xbdb2217e	-0.086977944
190	0xbd8c9be8	-0.06865674
191	0x3e550cfb	0.20805733
192	0x3e87df59	0.26537588
193	0xbe3532eb	-0.17695205
194	0x3d5df7a0	0.05419123
195	0x3d8ff0b2	0.07028331
196	0xbc9706ed	-0.01843592
197	0x3eb2c4a6	0.34915656
198	0xbf289bc0	-0.65862656
199	0x3e69e878	0.22842586
200	0x3d8cb8f5	0.06871215
201	0xbec00f9e	-0.37511915
202	0xbdb1f9f5	-0.08690254
203	0xbe6b0cca	-0.22954097
204	0xbe27abbc	-0.16374105
205	0x3e62b7c1	0.22140409
206	0xbe504f97	-0.20342861
207	0xbdd2d87a	-0.10295196
208	0x3e27290c	0.16324252
209	0xbe88140b	-0.26577792
210	0x3e04aad6	0.12955794
211	0xbe471e36	-0.19445118
212	0x3db5e29b	0.08881112
213	0x3ccab3ce	0.02474394
214	0xbec1a967	-0.37824556
215	0xbeabbcea	-0.33542567
216	0xbdcdbc28	-0.100456536
217	0xbe0716cf	-0.13192295
218	0x3e94d6ab	0.2907003
219	0xbe9cc2de	-0.30617422
220	0xbebd53eb	-0.36978087
221	0xbe572036	-0.21008381
222	0x3e6fc5fd	0.2341537
223	0xbec9db12	-0.3942495
224	0xbee0e184	-0.43922055
225	0xbddccae0	-0.10780883
226	0xbe097e13	-0.13427
227	0xbe57d258	-0.21076334
228	0xbdefd23d	-0.11710022
229	0xbe9a874f	-0.30181357
230	0xbe5c8299	-0.21534194
231	0xbe178848	-0.14798081
232	0xbe7d55f4	-0.2473982
233	0x3b55547d	0.003255158
234	0xbe8c772b	-0.27434668
235	0x3cb42e11	0.021994622
236	0xbee6f6d8	-0.45110202
237	0x3b444d82	0.0029953425
238	0xbd5e7ed7	-0.054320183
239	0x3dc38143	0.09546139
240	0xbd00915c	-0.031388626
241	0xbe3002b6	-0.17188534
242	0x3cddfbc2	0.027097587
243	0x3d15400f	0.036438044
244	0xbdd2ca4b	-0.102924906
245	0xbe12c2fd	-0.14332195
246	0xbe07cbb4	-0.132613
247	0xbe63edd3	-0.22258691
248	0xbcf3857c	-0.029726736
249	0x3e5508aa	0.20804086
250	0x3d030887	0.031990554
251	0xbecea6cf	-0.4036164
252	0xbcd86848	-0.026416913
253	0xbe102e98	-0.14080274
254	0x3c28c088	0.010299809
255	0xbdc79396	-0.09744947

l1/b f4 [81]
0	0xbe0757b2	-0.13217047
1	0xbe61132a	-0.21979967
2	0xbe3c0c49	-0.18364061
3	0xbe82b2f5	-0.25527158
4	0xbee02342	-0.437769
5	0xbe5ba1c5	-0.21448429
6	0xbe88d2d8	-0.2672336
7	0xbe118165	-0.14209516
8	0xbeb83d3b	-0.35984215
9	0xbd39f321	-0.04539788
10	0xbe8c328b	-0.2738231
11	0xbe09cd82	-0.13457301
12	0xbe50290f	-0.20328163
13	0xbe00a122	-0.12561467
14	0xbdc06a24	-0.09395245
15	0xbdf1a740	-0.117994785
16	0xbf0002ec	-0.5000446
17	0xbe1dbfaf	-0.15405153
18	0x3d84e156	0.06488292
19	0xbde0ae60	-0.109707594
20	0xbea17489	-0.31534222
21	0xbe40b865	-0.18820341
22	0xbed614e5	-0.41812816
23	0xbedbe9b4	-0.4295174
24	0xbeca89d0	-0.39558268
25	0xbed1d2b5	-0.4098107
26	0xbd691b2d	-0.056910682
27	0xbeabcf55	-0.3355662
28	0xbdacf418	-0.08444995
29	0x3a9dd7d9	0.0012042477
30	0xbe8cd7b8	-0.2750833
31	0xbb91ad1a	-0.004445684
32	0x3d90d7be	0.070723996
33	0xbe98cb6c	-0.298427
34	0xbdf50eb1	-0.11965693
35	0x3da0eb88	0.07857424
36	0xbe0eb46b	-0.13936011
37	0xbe07294d	-0.13199349
38	0xbf497562	-0.78694737
39	0xbe938d2b	-0.2881864
40	0x3dedbd1b	0.11608335
41	0xbe357cd3	-0.17723398
42	0xbe9300e9	-0.28711632
43	0xbe1a304b	-0.15057485
44	0xbe8594f4	-0.26090205
45	0x3e1bf782	0.15231135
46	0xbe1293ca	-0.1431419
47	0xbe49a279	-0.19690885
48	0x3c871747	0.016490592
49	0xbed6b39b	-0.41933903
50	0xbe844f9e	-0.25841993
51	0xbe706955	-0.23477681
52	0xbe5d5c6c	-0.21617287
53	0xbda81c1c	-0.082084864
54	0xbec24f2d	-0.3795103
55	0xbd46c347	-0.048526075
56	0xbd8efe96	-0.06982152
57	0xbe0b684e	-0.13614008
58	0x3c89579f	0.016765414
59	0xbedb7fde	-0.42870992
60	0xbdbe3d90	-0.09289086
61	0xbe93cf75	-0.28869215
62	0xbe7e5e8d	-0.24840756
63	0xbef08c22	-0.46981913
64	0x3da81988	0.08207995
65	0xbd9dd19d	-0.07705996
66	0xbf10ad7d	-0.5651472
67	0xbe326403	-0.17420964
68	0xbe0d4809	-0.1379701
69	0xbe4883d7	-0.19581543
70	0xbd5cffcb	-0.05395488
71	0xbd694e22	-0.05695928
72	0x3eae88b1	0.34088662
73	0xbdf9503d	-0.12173507
74	0xbef392f9	-0.4757307
75	0xbe6b6490	-0.2298758
76	0x3bb9ba59	0.0056679663
77	0xbc7b7435	-0.01534753
78	0x3dee3b63	0.11632421
79	0xbe7355c5	-0.23763187
80	0xbd8c2c3a	-0.06844373

l2/b f4 [81]
0	0xbe0c2b62	-0.13688424
1	0xbdd290d1	-0.10281528
2	0xbe48d5f6	-0.1961287
3	0xbd259c65	-0.040432353
4	0x3d876c83	0.06612494
5	0xbebadf48	-0.36498475
6	0xbec6cd08	-0.388283
7	0xbe317f8a	-0.17333809
8	0xbe1d0e04	-0.15337378
9	0x3e1e181e	0.15438887
10	0xbedd727d	-0.4325141
11	0x3db0ef5f	0.086394064
12	0xbdf24133	-0.11828842
13	0xbe57bd8e	-0.21068403
14	0xbc80dafc	-0.01572942
15	0x3e493486	0.19648942
16	0xbbc4bc68	-0.006003905
17	0xbea1cd32	-0.31601864
18	0xbe7a7fe0	-0.24462843
19	0xbec98bfd	-0.39364615
20	0xbe2c4c0c	-0.16825885
21	0x3dc8adc9	0.09798772
22	0xbe4a106d	-0.19732828
23	0xbea7d1b0	-0.32777166
24	0xbe207a70	-0.15671706
25	0xbdd12590	-0.102122426
26	0xbe5497f0	-0.20761085
27	0xbe93b9b5	-0.2885262
28	0xbe843e25	-0.25828663
29	0xbe57e634	-0.2108391
30	0xbd52e2d0	-0.051485837
31	0xbe0f2bfd	-0.13981624
32	0xbe984217	-0.29737923
33	0xbe72315b	-0.2365164
34	0xbe0e06ed	-0.1386983
35	0xbdfa9a3c	-0.12236449
36	0xbe84fd63	-0.2597457
37	0x3df35cf8	0.11882967
38	0xbe8df7a7	-0.27728006
39	0xbdf72172	-0.12066926
40	0x3d87308a	0.06601055
41	0xbe29cd56	-0.16582236
42	0xbe93c186	-0.28858584
43	0xbd7b0760	-0.06128633
44	0xbdb84723	-0.08997943
45	0xbe63ab9e	-0.22233436
46	0xbe6cef72	-0.23138216
47	0xbdf135eb	-0.11777862
48	0xbe587b3c	-0.2114076
49	0xbeb4fd04	-0.35349286
50	0xbec50e60	-0.3848753
51	0xbe4969da	-0.19669285
52	0xbe0d75de	-0.13814494
53	0xbe86a5df	-0.26298425
54	0xbd2a8f5f	-0.041640636
55	0x3e0319bf	0.1280279
56	0x3dbe1140	0.09280634
57	0x3d1e6650	0.03867179
58	0xbbf848ab	-0.007577022
59	0xbd4e58a4	-0.050377503
60	0xbee36bae	-0.4441809
61	0xbe2b5207	-0.1673051
62	0xbe95362c	-0.29142892
63	0xbd5fb900	-0.05461979
64	0xbdcda5ba	-0.100413755
65	0xbe25ab1c	-0.16178554
66	0xbeb29077	-0.34875843
67	0xbe4e4f13	-0.20147352
68	0xbeadf6d7	-0.33977386
69	0xbe549a32	-0.20761946
70	0xbe9b1e0f	-0.3029637
71	0xbeaa6968	-0.33283544
72	0xbe02b422	-0.12764028
73	0xbe8c3ec6	-0.27391642
74	0xbe4c495b	-0.19949858
75	0xbdfc9622	-0.12333323
76	0xbe0e379b	-0.138884
77	0xbe6f4e16	-0.23369631
78	0xbea25292	-0.3170362
79	0xbdd87cf3	-0.10570707
80	0xbe4c8d14	-0.19975692

l0/W f4 [81, 9]
0	0x3f00fc34	0.5038483
1	0x3d689bbe	0.056789152
2	0x3dbb73d0	0.09152949
3	0x3e68870b	0.22707765
4	0x3e043d72	0.12914065
5	0x3ed38de8	0.41319203
6	0x3efe7a4e	0.49702686
7	0x3dcbb403	0.09946444
8	0x3f293245	0.6609233
9	0x3d8dda90	0.06926453
10	0x3f9ab32e	1.2085931
11	0x3dd57aa1	0.1042378
12	0xbe4d9e4e	-0.2007992
13	0x3f35f9c7	0.71084255
14	0xbe42dccd	-0.19029541
15	0x3d2d0855	0.042244274
16	0x3f2b8fd9	0.6701637
17	0x3ebc90c3	0.36829194
18	0xbd7342e0	-0.05938995
19	0x3e93e62b	0.28886542
20	0x3e63fb76	0.22263893
21	0xbf2944f9	-0.6612087
22	0x3e4a87a6	0.19778308
23	0x3df2ac7c	0.11849305
24	0xbf26448c	-0.64948344
25	0x3de3702c	0.111053795
26	0xbe8a23d3	-0.26980457
27	0x3ef5aee6	0.47985
28	0x3dc6a245	0.09698919
29	0x3d7cc960	0.061715484
30	0xbe3d91cd	-0.1851265
31	0x3e176eb0	0.14788318
32	0xbec13f92	-0.37743813
33	0xbe895869	-0.26825264
34	0xbd18595d	-0.0371946
35	0xbec35779	-0.38152674
36	0x3eefc1ef	0.46827647
37	0xba81469a	-0.000986296
38	0xbd1359ce	-0.035974316
39	0xbcc47f31	-0.02398643
40	0xbf01e6c5	-0.5074275
41	0xbd3683ff	-0.044559475
42	0x3a1e858e	0.0006047123
43	0xbe006e34	-0.12542039
44	0xbee38d1c	-0.44443595
45	0xbe99e75f	-0.30059335
46	0xbeea63e4	-0.45779335
47	0x3eee5c63	0.4655486
48	0x3f159435	0.5842927
49	0xbe58eccc	-0.21184081
50	0x3db7df42	0.0897813
51	0xbea3f8f1	-0.32025865
52	0xbf541feb	-0.828612
53	0x3d8f34a2	0.06992461
54	0xbdbe32da	-0.09287043
55	0xbf171e5b	-0.59030694
56	0xbf159ddb	-0.58443993
57	0x3e520eec	0.20513505
58	0xbec465ba	-0.3835886
59	0x3da034d1	0.07822574
60	0x3f249f6a	0.64305747
61	0xbe78f4e0	-0.24312162
62	0xbe9f59e4	-0.3112327
63	0xbed6b895	-0.419377
64	0xbea0988c	-0.31366384
65	0xbe8f6f1c	-0.28014457
66	0xbeb000be	-0.34375566
67	0xbe40ad97	-0.1881622
68	0xbd0ed2ce	-0.034869008
69	0xbe9c1726	-0.3048641
70	0x3f2e333d	0.68046933
71	0xbed0e5d4	-0.40800345
72	0x3eb448a3	0.35211667
73	0x3e1173fd	0.14204402
74	0x3e56450f	0.20924781
75	0xbe49ee4c	-0.1971981
76	0x3c95100f	0.018196134
77	0x3d7570cf	0.059922036
78	0xbd9f3442	-0.07773639
79	0xbf56d18e	-0.83913505
80	0x3ea56b80	0.32308578
81	0x3e4b45d2	0.19850853
82	0xbdaca63e	-0.08430146
83	0x3e2d983a	0.16952601
84	0x3efcabbd	0.49349776
85	0xbebcc56c	-0.3686937
86	0xbe2207a8	-0.15823233
87	0x3c93313d	0.017967815
88	0x3cc8a0c3	0.02449072
89	0x3e942ee3	0.28942022
90	0x3de88223	0.113529466
91	0xbed1f58c	-0.4100765
92	0xbed96df5	-0.42466703
93	0xbd3ee7da	-0.04660783
94	0xbc79d25f	-0.01524791
95	0xbdcc170a	-0.09965332
96	0xbf534690	-0.82529545
97	0xbf0b38d5	-0.54383594
98	0xbf403ef3	-0.7509605
99	0x3ef6a741	0.4817448
100	0x3dec908a	0.11551006
101	0xbdcc1995	-0.09965817
102	0x3d5d9b54	0.05410321
103	0x3f355c7d	0.7084425
104	0x3f2500f2	0.6445457
105	0x3ebeda0c	0.37275732
106	0x3d332c40	0.043743372
107	0xbd13a56a	-0.036046423
108	0x3eff5003	0.49865732
109	0x3f0d07b9	0.5508991
110	0x3ed0f1e4	0.40809548
111	0x3e00203d	0.12512298
112	0x3f180b21	0.5939198
113	0xbe0c5c9a	-0.137072
114	0xbe542cca	-0.2072021
115	0x3ed58b5e	0.4170789
116	0x3e8f27a8	0.27959943
117	0x3f5e2306	0.8677219
118	0xbed7448e	-0.4204449
119	0x3e0b8c0c	0.13627642
120	0x3e8d6579	0.2761648
121	0x3ed8519e	0.4224977
122	0x3f0d0b14	0.5509503
123	0x3c79ac16	0.015238782
124	0xbe80a2af	-0.25124118
125	0x3f18bac6	0.59659994
126	0xbe2466db	-0.16054861
127	0x3d99713a	0.074922994
128	0xbf674cae	-0.9035138
129	0x3d40075f	0.04688203
130	0xbf31bae1	-0.6942578
131	0xbd85e0a6	-0.06536989
132	0xbf5075b6	-0.8142961
133	0x3e6aefcf	0.22943042
134	0xbd01bee8	-0.031676203
135	0x3e340ff4	0.1758421
136	0x3f00dbbc	0.5033529
137	0x3ec1e69f	0.37871262
138	0x3ee4207b	0.4455603
139	0x3ee404d9	0.44534948
140	0x3b84d73b	0.004053978
141	0x3e084c1a	0.1331028
142	0xbe438953	-0.19095354
143	0x3e17a95e	0.14810702
144	0x3f54d663	0.8313963
145	0x3e3d1e11	0.184685
146	0x3ed66730	0.418756
147	0x3e9f0561	0.3105879
148	0x3eb07f70	0.34472227
149	0x3f1efda4	0.62105775
150	0x3ee638bd	0.44965163
151	0x3e94658d	0.28983727
152	0x3e61b555	0.22041829
153	0xbe85039b	-0.25979313
154	0x3e77c656	0.24196753
155	0xbecf46ce	-0.40483707
156	0xbeb16d0c	-0.3465351
157	0xbf01c0fb	-0.5068509
158	0xbf0a305f	-0.5398006
159	0x3e843be3	0.2582694
160	0x3b3c17d0	0.0028700717
161	0xbd9236f9	-0.071393915
162	0x3d88a402	0.06671907
163	0xbe834630	-0.25639486
164	0x3d1ed7e2	0.0387801
165	0x3d801b10	0.06255162
166	0xbe0e9b02	-0.13926318
167	0x3f68f26d	0.9099491
168	0x3e1bc23a	0.1521081
169	0xbdd62e60	-0.10458064
170	0x3d927110	0.07150471
171	0x3c6e04e6	0.014527535
172	0x3cb7d492	0.022440229
173	0xbde8508f	-0.1134349
174	0x3e3ae19d	0.18250127
175	0xbeba1d23	-0.36350355
176	0x3ea4d409	0.3219302
177	0xbe926c34	-0.28598177
178	0xbe252651	-0.16127898
179	0x3e8b1542	0.27164656
180	0xbe486c05	-0.19572456
181	0x3d0fb2a6	0.03508248
182	0x3ee92a4a	0.45540076
183	0xbe035806	-0.12826547
184	0xbcd10812	-0.025516544
185	0x3eccf831	0.40033105
186	0x3ed23bb7	0.41061184
187	0x3ea3fcf3	0.32028922
188	0xbe9a0401	-0.3008118
189	0x3ed7995a	0.42109185
190	0x3f513891	0.8172694
191	0x3ee76449	0.451937
192	0x3ecb1894	0.3966719
193	0x3ee45625	0.44596973
194	0x3f45ead6	0.77311456
195	0x3ee3a64c	0.44462812
196	0x3ee157ee	0.44012398
197	0x3eefab8e	0.46810573
198	0x3d686d50	0.056744874
199	0x3eb2e9b3	0.34943923
200	0xbede42e2	-0.43410403
201	0xbe81de9d	-0.25365153
202	0x3c0158d1	0.007894711
203	0x3e68ec04	0.22746283
204	0x3e4696ad	0.19393416
205	0x3ef1ff7b	0.4726523
206	0x3e315598	0.17317808
207	0x3e79f5fe	0.24410245
208	0x3e1d71aa	0.1537539
209	0xbe07d868	-0.13266146
210	0xbe9178f5	-0.28412595
211	0xbf63d7cf	-0.8900117
212	0xbeb3a72d	-0.35088482
213	0xbe2b19c6	-0.1670905
214	0x3c8db9d2	0.01730052
215	0x3ec1cce7	0.3785164
216	0x3bc9288f	0.006138868
217	0xbe17e027	-0.14831601
218	0xbeca5f91	-0.39526036
219	0x3f568e57	0.83810943
220	0xbed5fffe	-0.4179687
221	0xbedece47	-0.43516752
222	0xbe649438	-0.22322166
223	0xbd1abc98	-0.037777513
224	0xbefb3931	-0.4906707
225	0x3d971756	0.07377498
226	0x3ac147dd	0.0014746148
227	0x3f1cea84	0.6129534
228	0xbd819b71	-0.06328476
229	0x3df6c5ca	0.12049444
230	0xbf009d80	-0.50240326
231	0xbccd7617	-0.025080724
232	0xbe600be8	-0.21879542
233	0x3f2cc41a	0.6748673
234	0xbeaec677	-0.34135792
235	0xbca2e45d	-0.019884283
236	0x3b8c9e5e	0.00429134
237	0x3e60d882	0.21957591
238	0x3e913feb	0.28369078
239	0x3e9d367d	0.30705634
240	0x3ee77110	0.45203447
241	0xbef10777	-0.47076008
242	0x3eabd9d3	0.33564624
243	0x3f109fbf	0.56493753
244	0xbe9b367e	-0.30315012
245	0xbe82a744	-0.2551824
246	0x3ee4caf1	0.44686082
247	0xbd55d3f5	-0.05220409
248	0xbea5f825	-0.32415882
249	0x3d176925	0.036965508
250	0x3d988a35	0.07448236
251	0x3e00667d	0.12539096
252	0x3eef89d9	0.46784857
253	0x3e2c8de3	0.16851
254	0x3dec4068	0.11535722
255	0xbdd8397a	-0.10557838
