chainerrl/TicTacToe/result_80000/model.npz (npz, 56575 bytes, 8 tensors)

l3/W f4 [9, 81]
0.13306266 -0.028756285 -0.45846787 0.04205989 -0.011605955 -0.16410053 0.048827272 -0.17172028
0.19009137 -0.016294286 -0.59441215 -0.084730744 -0.3881462 0.046746284 0.075720124 0.062451035
-0.026442043 0.1681397 -0.6191644 0.20290045 -0.103658 0.041761324 -0.015238695 0.117754206
-0.5455291 -0.019502383 -0.10116217 0.21178931 -0.19788922 0.10904614 0.1116882 0.21995482
-0.015675412 0.16203518 -0.28231266 0.029821884 0.27296478 0.343064 0.01686317 -0.0887696
-0.021796843 -0.6401777 -0.34111723 0.29067466 0.1576079 -0.6574916 0.16881381 0.034059625
0.13486704 0.2305315 0.25680357 -0.22676012 -0.02918927 -0.16162784 0.059209444 -0.1784482
-0.017985504 0.21877657 0.105211705 0.115233615 -0.16425782 -0.053948067 0.2369989 -0.13136485
0.06366504 0.12891734 -0.36514255 -0.50282735 -0.019746782 -0.04281306 -0.08603032 -0.20762856
-0.016017728 0.22947118 -0.29059964 -0.089581825 -0.037611946 0.07992156 -0.36733505 -0.1920521
0.021461822 0.047817193 -0.316786 0.028387722 0.423359 0.050523832 0.19634506 -0.013074889
-0.26920062 -0.7238149 0.07301477 0.04291558 -0.1189899 -0.008717556 0.16805755 0.20154823
0.23105712 0.1509888 0.34355244 -0.25384715 -0.12707697 -0.105870865 0.20315687 0.21048343
-0.20038731 0.046065006 -0.45718443 -0.19510426 0.21038271 -0.18263888 0.277831 0.26424083
-0.35767788 -0.17951418 -0.19166744 0.18116082 0.46375945 0.21108845 -0.11336929 -0.011466967
-0.36360937 0.0008698473 -0.1634794 -0.14315422 0.08413939 -0.15944102 0.1041529 0.20349596
-0.20998909 -0.13800435 -0.25171036 -0.16496548 0.20376803 0.053413484 -0.26645005 0.1799808
-0.18282364 -0.052986074 -0.046238296 -0.09231918 0.098521724 -0.1531499 0.20335545 -0.13459632
-0.05705018 0.03203614 -0.3698978 -0.04254834 0.23141629 0.2537642 -0.18750867 0.05309505
0.028084936 -0.37186742 -0.030340923 0.16232674 -0.27661917 0.021787466 -0.41198304 -0.3966307
-0.093674734 -0.1502286 0.38052237 -0.10600257 -0.4536767 0.052923296 -0.024535676 -0.1550454
0.13407397 0.070843555 0.09576647 0.35872045 0.18814175 -0.066012055 -0.4589886 -0.1165288
-0.00831766 0.0036079958 0.023384674 -0.046879414 0.14968367 -0.23315607 -0.6854639 -0.11755612
0.0033856188 -0.0675511 -0.17650902 0.06120783 -0.32910207 0.16351202 -0.43311214 -0.5125381
-0.21897364 -0.061323144 -0.024143586 0.49937686 0.44984436 0.26490244 -0.47084895 -0.13045515
0.10967926 -0.3138564 0.1414204 -0.06190048 -0.12233403 -0.2755863 -0.06457774 0.044311233
-0.0060697393 0.099407375 -0.1351143 -0.2008008 0.23007295 0.32064876 -0.10152492 -0.1452392
0.17326052 -0.44341666 0.109540224 0.3098557 -0.2250292 -0.06616864 -0.34941795 0.110867955
0.083660804 0.070432626 0.1790841 -0.038455125 -0.12357099 -0.03904956 0.13791806 -0.16793923
-0.083223574 -0.09811163 -0.07925044 -0.18547586 0.07404929 -0.076796226 -0.09474462 0.044777263
0.082368195 -0.085182376 0.21212687 0.12961416 0.049474202 -0.39864072 0.13100402 0.08750955
-0.0830552 -0.09825562 -0.20278758 0.16419439 0.013580125 0.073884755 -0.44088393 0.0549142
00000000: 9441 083e 4d92 ebbc 4dbc eabe fe46 2c3d
00000010: e726 3ebc f809 28be 1bff 473d 71d7 2fbe
00000020: 50a7 423e 987b 85bc 652b 18bf 5087 adbd
00000030: 19bb c6be 0879 3f3d 2713 9b3d a8cc 7f3d
00000040: fc9c d8bc d02c 2c3e 8f81 1ebf 23c5 4f3e
00000050: a54a d4bd ec0d 2b3d b8ab 79bc 1e29 f13d
00000060: cca7 0bbf 76c3 9fbc 1d2e cfbd 4cdf 583e
00000070: 79a3 4abe 9553 df3d c8bc e43d d63b 613e
00000080: b969 80bc 8dec 253e 498b 90be 064d f43c
00000090: 0ac2 8b3e 16a6 af3e a124 8a3c d6cc b5bd
000000a0: 4b8f b2bc b0e2 23bf eba6 aebe 4fd3 943e
000000b0: f763 213e 5f51 28bf 87dd 2c3e 1b82 0b3d
000000c0: 961a 0a3e 7310 6c3e c27b 833e ce33 68be
000000d0: 561e efbc c581 25be 9a85 723d 20bb 36be
000000e0: 5656 93bc f706 603e 3c79 d73d 9aff eb3d
000000f0: 3433 28be a6f8 5cbd d7af 723e 8284 06be
00000100: d162 823d e802 043e f7f3 babe 4bb9 00bf
00000110: 01c4 a1bc bf5c 2fbd aa30 b0bd 959c 54be
00000120: 9c37 83bc 7efa 6a3e 7ac9 94be ad76 b7bd
00000130: fc0e 1abd eaad a33d 5713 bcbe 4ea9 44be
00000140: b4d0 af3c f6db 433d c631 a2be 5e8d e83c
00000150: 83c2 d83e 14f2 4e3d ae0e 493e 0f38 56bc
00000160: aad4 89be ef4b 39bf c588 953d 3fc8 2f3d
00000170: fab0 f3bd 14d4 0ebc 4717 2c3e a962 4e3e
00000180: 3d9a 6c3e cf9c 1a3e 1be6 af3e 41f8 81be
00000190: 7720 02be d3d2 d8bd 5b08 503e f888 573e
000001a0: 5532 4dbe a9ae 3c3d 1414 eabe 69c9 47be
000001b0: 916e 573e b005 3bbe dd3f 8e3e 934a 873e
000001c0: 8e21 b7be 91d2 37be 7844 44be 3982 393e
000001d0: e171 ed3e 9227 583e 292e e8bd f2df 3bbc
000001e0: 022b babe 7706 643a 2567 27be 0597 12be
000001f0: 4651 ac3d 8244 23be 1e4e d53d 3f61 503e
00000200: 6107 57be 0351 0dbe 2ee0 80be b6ec 28be
00000210: 91a8 503e 19c8 5a3d 246c 88be e34c 383e
00000220: 1f36 3bbe ed07 59bd 5e64 3dbd d711 bdbd
00000230: c2c5 c93d 54d3 1cbe 693c 503e 9ed3 09be
00000240: 73ad 69bd 5438 033d 3f63 bdbe 2b47 2ebd
00000250: 64f8 6c3e 62ed 813e 4602 40be 327a 593d
00000260: 6112 e63c 6865 bebe 878d f8bc fb38 263e
00000270: 07a1 8dbe a17b b23c 71ef d2be 2e13 cbbe
00000280: 8ad8 bfbd 87d5 19be d4d3 c23e e017 d9bd
00000290: 5048 e8be 19c6 583d 0bff c8bc 39c4 1ebe
000002a0: b04a 093e 6d16 913d 3621 c43d 35aa b73e
000002b0: 3ba8 403e 5431 87bd 8e00 ebbe a7a6 eebd
000002c0: cb46 08bc 2074 6c3b 3791 bf3c a104 40bd
000002d0: ad46 193e 77c0 6ebe 907a 2fbf 43c1 f0bd
000002e0: 42e1 5d3b 3b58 8abd c8be 34be 10b5 7a3d
000002f0: 1180 a8be b26f 273e e0c0 ddbe b235 03bf
00000300: a03a 60be fa2d 7bbd c5c8 c5bc 53ae ff3e
00000310: 0052 e63e 4ba1 873e 1d13 f1be 0996 05be
00000320: 859f e03d c9b1 a0be 82d0 103e 5c8b 7dbd
00000330: 448a fabd a619 8dbe 5641 84bd b27f 353d
00000340: aae4 c6bb 1896 cb3d 675b 0abe ba9e 4dbe
00000350: 3e98 6b3e 132c a43e 4cec cfbd 96b9 14be
00000360: 356b 313e 8207 e3be a056 e03d 68a5 9e3e
00000370: 0e6e 66be 6d83 87bd e9e6 b2be bd0e e33d
00000380: 5b56 ab3d fb3e 903d d361 373e 1f83 1dbd
00000390: ca12 fdbd 6ef2 1fbd 643a 0d3e 43f8 2bbe
000003a0: 1f71 aabd c0ee c8bd 0e4e a2bd 62ed 3dbe
000003b0: 27a7 973d 5747 9dbd 7809 c2bd 5d68 373d
000003c0: a8b0 a83d 1974 aebd c937 593e 93b9 043e
000003d0: 76a5 4a3d a31a ccbe eb25 063e 3538 b33d
000003e0: d818 aabd 3e3a c9bd 8ca7 4fbe 9322 283e
000003f0: 2c7f 5e3c e450 973d 8abb e1be b6ed 603d

l3/b f4 [9]
-0.1538783 -0.3285838 -0.22161055 -0.07086732 0.029993113 -0.05153579 -0.04590692 -0.2883733
-0.19993553
00000000: 4692 1dbe 233c a8be e0ed 62be e322 91bd
00000010: 1eb4 f53c 3117 53bd e508 3cbd aaa5 93be
00000020: e6bb 4cbe

l0/b f4 [81]
0.2570003 -0.32516527 -0.28101233 -0.27942964 -0.063545756 -0.40199357 -0.5431582 -0.15154724
-0.038549356 -0.054496087 -0.42167518 -0.15386078 -0.07431415 -0.18262818 -0.5899336 0.007733671
0.26389223 -0.286605 -0.2561986 -0.020202197 0.03928927 0.38150993 -0.19936453 -0.40690717
-0.33943596 -0.27304962 -0.26549292 -0.10949213 -0.12614569 -0.33104795 -0.32385468 -0.17176789
-0.21074899 -0.22264121 -0.33629382 -0.41894197 0.05867147 -0.7573423 -0.23422089 -0.18967363
-0.19097404 0.011971992 -0.15550482 -0.19407539 -0.35280615 0.18748593 -0.12213875 -0.42735
-0.48393637 -0.22044508 -0.13502099 -0.2748742 -0.45168892 -0.45270702 -0.4449973 -0.33751515
-0.3383057 -0.42234656 0.07167562 -0.058748733 -0.15997511 -0.35341835 0.0021219715 -0.23554826
-0.46441096 0.29430994 -0.23239595 -0.24679773 -0.27937043 -0.733568 -0.099829584 -0.40311778
-0.30572683 -0.1068745 -0.15382826 -0.077391006 -0.371599 -0.08268364 -0.019924864 -0.2947801
-0.29864144
00000000: 8b95 833e 107c a6be d9e0 8fbe 6711 8fbe
00000010: 4724 82bd 1ad2 cdbe 6a0c 0bbf 332f 1bbe
00000020: eee5 1dbd 4a37 5fbd cfe5 d7be ae8d 1dbe
00000030: 0432 98bd e202 3bbe e305 17bf bc6a fd3b
00000040: e21c 873e e4bd 92be 772c 83be 147f a5bc
00000050: c9ed 203d 4555 c33e 3726 4cbe 2356 d0be
00000060: 8dca adbe 29cd 8bbe b0ee 87be 693d e0bd
00000070: 562c 01be 1e7f a9be 48d0 a5be ece3 2fbe
00000080: 95ce 57be 0ffc 63be b42e acbe 907f d6be
00000090: 7f51 703d 2fe1 41bf 9ad7 6fbe ce39 42be
000000a0: b38e 43be 2d26 443c a83c 1fbe b3bb 46be
000000b0: 02a3 b4be 50fc 3f3e e223 fabd 9fcd dabe
000000c0: 82c6 f7be 5bbc 61be f142 0abe 50bc 8cbe
000000d0: c543 e7be 37c9 e7be b0d6 e3be c9ce acbe
000000e0: 6836 adbe cf3d d8be abca 923d 83a2 70bd
000000f0: 84d0 23be 40f3 b4be c610 0b3b 9033 71be
00000100: 46c7 edbe cbaf 963e 34f9 6dbe 8bb8 7cbe
00000110: a409 8fbe 1dcb 3bbf 7473 ccbd 7465 cebe
00000120: 3a88 9cbe 05e1 dabd 2885 1dbe 2d7f 9ebd
00000130: 3942 bebe 0a56 a9bd 7839 a3bc 6bed 96be
00000140: 88e7 98be

l1/W f4 [81, 81]
-0.23056328 -0.19741724 -0.14844516 0.014845303 0.061733603 0.16480556 0.18476172 -0.3853112
-0.30259883 -0.23381862 -0.18345371 -0.09414835 -0.18104525 -0.20446241 -0.20828897 0.2107151
0.03430851 -0.008270969 -0.1161002 0.10209844 -0.107792035 -0.13383882 -0.038878117 0.09849243
0.056904603 -0.106112465 0.31118646 -0.380565 -0.2429267 -0.074954264 -0.12830967 -0.059117515
0.2230695 -0.034712978 0.13772361 -0.39304623 -0.08309877 -0.03057932 -0.1578159 -0.04272919
0.0071107685 0.112356775 -0.104392104 0.09787306 0.1278527 0.027211376 -0.024683427 -0.090326905
0.27411878 0.05000974 -0.062190916 -0.02446017 0.033546932 0.092871785 0.052762244 -0.12810904
0.043623183 0.2561023 0.100611605 -0.24527895 0.16757081 -0.1814373 -0.1568599 -0.059834715
0.24449712 0.0088171195 0.1559231 0.04676195 -0.058642972 -0.18594424 -0.15631002 0.10290084
-0.1998825 0.039761208 0.05808268 -0.42711553 -0.16740245 -0.0007667691 0.048144653 0.05192459
-0.17054339 -0.33073834 -0.5916183 -0.103819415 0.116532 -0.12727076 0.3098039 0.15517078
0.17452638 -0.26352635 -0.089634426 0.23470126 0.3152041 0.303333 0.12980494 -0.047216814
-0.07429382 0.2037485 -0.015535264 0.1818808 -0.13160917 0.16818179 -0.28206593 0.22244623
-0.16757858 0.06299164 0.091815256 0.08841495 -0.14544451 -0.19891083 -0.028506273 0.021823637
-0.14632547 0.051321354 0.15716708 -0.054262817 -0.120159596 -0.25140208 0.37545934 0.13225281
0.06978186 -0.020402355 -0.3128415 -0.09129907 0.15015368 -0.18559442 -0.08030584 -0.059555937
-0.2679487 -0.07997147 -0.017573925 0.25364602 -0.22138228 0.14235489 -0.37693784 0.11568026
-0.07752648 0.08447768 0.32274202 0.09672237 -0.46128336 -0.3820357 0.18550773 -0.13958246
-0.22572573 0.15726638 0.13044743 0.072279915 -0.3175827 0.15565819 -0.02732748 0.1866005
0.18935119 0.18422511 -0.2535541 0.010143878 -0.19794185 -0.14479111 0.20462471 0.14432064
0.022767514 -0.008615476 0.18878189 -0.07939482 0.08434421 -0.066571854 0.37804082 0.21587563
0.15882823 0.1155019 -0.3545766 0.07720867 -0.2210026 -0.022357095 -0.1253737 -0.10923145
-0.15001373 0.20868628 0.28885913 0.19521014 -0.049219776 0.03923622 0.06493822 -0.264809
-0.26056892 -0.098840505 0.036745004 -0.19220918 -0.29523975 -0.10533405 0.15562743 -0.18762884
0.15139206 -0.0197591 -0.0425237 -0.04253189 0.06089032 0.23530155 -0.026589878 0.25815627
-0.1946638 0.0061652046 -0.11793585 -0.016136248 -0.12556417 -0.15000172 0.2605185 -0.22520377
0.14522894 -0.15144183 0.10739487 0.21445061 -0.03916588 -0.054398395 0.075504355 0.025163554
-0.2902206 -0.13051021 0.02975859 -0.31078324 -0.072830215 0.08039108 0.057264216 -0.06356666
-0.07570502 -0.045802474 -0.13635547 -0.057286315 -0.08394374 -0.18291298 0.16052477 0.028939338
0.054048203 0.098803185 -0.09777182 0.02703424 -0.015798405 -0.35540363 -0.05379709 0.035883207
-0.009712349 0.2451882 0.082049854 0.13547868 -0.23594448 0.08307428 0.14753884 0.04566926
-0.2783583 0.40859467 -0.19931605 -0.011893808 0.31824154 -0.11883114 0.21649298 0.020774249
00000000: c818 6cbe bf27 4abe 0202 18be b739 733c
00000010: 60dc 7c3d cac2 283e 2d32 3d3e 8247 c5be
00000020: 3cee 9abe 266e 6fbe 4adb 3bbe dad0 c0bd
00000030: ed63 39be 985e 51be b449 55be b3c5 573e
00000040: 1587 0c3d f582 07bc f1c5 edbd fd18 d13d
00000050: 12c2 dcbd 0b0d 09be a93e 1fbd 66b6 c93d
00000060: cd14 693d 7e51 d9bd d553 9f3e 6ad9 c2be
00000070: c7c1 78be 9f81 99bd 9c63 03be 3525 72bd
00000080: 556c 643e 322f 0ebd 6b07 0d3e 5b3d c9be
00000090: b02f aabd 7b81 fabc 7e9a 21be ce04 2fbd
000000a0: 7301 e93b 4f1b e63d 87cb d5bd ac71 c83d
000000b0: d1eb 023e 64ea de3c e634 cabc 50fd b8bd
000000c0: 4c59 8c3e 03d7 4c3d e7bb 7ebd b260 c8bc
000000d0: 8268 093d 9033 be3d 391d 583d 042f 03be
000000e0: 39ae 323d d71f 833e 750d ce3d 682a 7bbe
000000f0: af97 2b3e b3ca 39be e29f 20be 3f15 75bd
00000100: 745d 7a3e ae75 103c 4eaa 1f3e 7589 3f3d
00000110: 9d33 70bd 2b68 3ebe bc0f 20be adbd d23d
00000120: 00ae 4cbe a6dc 223d 1be8 6d3d e3ae dabe
00000130: 8c6b 2bbe 0101 49ba 5433 453d e1ae 543d
00000140: eda2 2ebe 8956 a9be 4c74 17bf 469f d4bd
00000150: 54a8 ee3d 4453 02be 9e9e 9e3e 17e5 1e3e
00000160: 0bb7 323e edec 86be 4192 b7bd 8755 703e
00000170: 6f62 a13e 774e 9b3e 96eb 043e 6b66 41bd
00000180: 5c27 98bd 72a3 503e 9f87 7ebc f63e 3a3e
00000190: 8ec4 06be d937 2c3e f26a 90be f2c8 633e
000001a0: b899 2bbe c301 813d a309 bc3d e612 b53d
000001b0: 68ef 14be 48af 4bbe fd85 e9bc 7cc7 b23c
000001c0: 58d6 15be 5736 523d 68f0 203e b042 5ebd
000001d0: 3c16 f6bd c6b7 80be 353c c03e 486d 073e
000001e0: cbe9 8e3d d722 a7bc c32c a0be 02fb babd
000001f0: e3c1 193e 770c 3ebe 6377 a4bd edf0 73bd
00000200: 9230 89be 15c8 a3bd 31f7 8fbc e4dd 813e
00000210: 09b2 62be 7bc5 113e fffd c0be c6e9 ec3d
00000220: 34c6 9ebd a202 ad3d 713e a53e 6116 c63d
00000230: 552d ecbe 2f9a c3be bdf5 3d3e b4ee 0ebe
00000240: a524 67be 700a 213e 0394 053e 7e07 943d
00000250: 339a a2be dc64 1f3e e1dd dfbc 3414 3f3e
00000260: 47e5 413e 82a5 3c3e d8d1 81be 8232 263c
00000270: 45b1 4abe 1f44 14be 2489 513e cac8 133e
00000280: f082 ba3c ed27 0dbc 0a50 413e c099 a2bd
00000290: a8bc ac3d d356 88bd 918e c13e 800e 5d3e
000002a0: dea3 223e 438c ec3d 108b b5be 941f 9e3d
000002b0: 814e 62be 3a26 b7bc f761 00be bdb4 dfbd
000002c0: 339d 19be dbb1 553e 58e5 933e 2be5 473e
000002d0: ad9a 49bd 29b6 203d 54fe 843d 0c95 87be
000002e0: 4a69 85be e46c cabd ee81 163d 7cd2 44be
000002f0: aa29 97be 61b9 d7bd cc5c 1f3e c621 40be
00000300: 8506 1b3e d6dd a1bc 552d 2ebd eb35 2ebd
00000310: 2168 793d e4f2 703e 04d3 d9bc 0f2d 843e
00000320: f255 47be 7c05 ca3b 5a88 f1bd 2a30 84bc
00000330: e593 00be 0d9a 19be ae62 853e d19b 66be
00000340: e5b6 143e 9113 1bbe d7f1 db3d f198 5b3e
00000350: 676c 20bd dad0 5ebd 07a2 9a3d cc23 ce3c
00000360: cb97 94be 78a4 05be 49c8 f33c fb1e 9fbe
00000370: 0228 95bd 14a4 a43d e28d 6a3d 3d2f 82bd
00000380: 3c0b 9bbd 609b 3bbd c5a0 0bbe 0ea5 6abd
00000390: b2ea abbd 8a4d 3bbe 9b60 243e 3112 ed3c
000003a0: a661 5d3d 5359 ca3d 983c c8bd e976 dd3c
000003b0: a86b 81bc 77f7 b5be 565a 5cbd 45fa 123d
000003c0: 8b20 1fbc 9e12 7b3e c109 a83d ecba 0a3e
000003d0: 6e9b 71be d922 aa3d 6c14 173e b10f 3b3d
000003e0: fb84 8ebe 5233 d13e 8219 4cbe 3fde 42bc
000003f0: 8ef0 a23e be5d f3bd 56b0 5d3e c22e aa3c

l2/W f4 [81, 81]
-0.13688411 -0.12196242 0.03669355 0.12543301 -0.40772468 0.23536502 0.13811988 -0.1260884
0.020204565 0.015266181 0.0023798128 0.052412886 0.019668285 -0.027345983 -0.01901008 0.040992625
-0.11878085 0.049887367 0.1471447 -0.044447668 0.210669 0.030962346 0.23887363 -0.15037182
-0.023885548 -0.15470225 -0.50325066 -0.013691452 0.13996185 -0.17860457 0.010341724 -0.12538296
-0.18718395 -0.012000456 0.08602464 -0.5008075 0.090048715 0.06903845 -0.37144423 0.36570367
-0.08383039 0.1514039 0.19300063 -0.040518872 -0.20748173 0.2800794 0.11371133 0.089715995
-0.07897377 -0.13913922 0.25749263 -0.119118564 -0.07632142 -0.12569109 -0.059160277 -0.077267714
0.24938412 -0.7033316 0.27921343 -0.3487491 -0.19914424 0.014760218 -0.1060563 -0.05852203
0.09745197 -0.02770446 -0.14015235 -0.44698447 0.16731036 0.035982653 0.22789794 -0.17124003
-0.0992777 -0.1188451 0.020032316 -0.12649299 -0.28458226 -0.08218054 -0.0816813 -0.39725396
0.07661217 0.12247703 -0.39279506 0.13203654 0.13558827 -0.012825788 -0.22226924 -0.056148212
-0.23186119 -0.09157803 0.1467643 0.03400557 -0.02486783 0.09774548 -0.14799382 -0.06608711
-0.16011746 0.081335686 0.051890288 0.1854338 -0.36876398 0.19939488 0.42484108 0.27022648
0.031008886 0.084352925 -0.17544557 0.24625781 -0.21992686 0.022182398 -0.033293772 -0.22905137
0.003283377 0.16430756 0.13441081 -0.004613943 -0.3004528 0.03444142 0.10895062 -0.13011158
-0.08372765 -0.5861708 -0.20485246 -0.41079175 0.105194025 -0.12608853 -0.033583276 0.0025626214
-0.20860988 -0.11618066 0.14563528 -0.25482717 -0.02563252 -0.025970588 0.16210958 0.18888856
0.21786384 -0.10206525 0.092339605 -0.15436865 0.15075861 -0.1311273 -0.04723771 0.25086427
-0.27060887 -0.12573712 -0.04415824 0.08944545 0.25066128 0.0015220636 -0.23872378 -0.05004238
-0.067869395 -0.025585322 -0.19578727 -0.06330411 0.11441599 -0.023828035 -0.048477154 0.020645022
0.32593554 0.26172376 -0.16160874 0.07095406 0.16656974 -0.021122813 0.111969024 0.012381951
-0.22323406 -0.17582911 -0.12634985 0.028793596 0.205054 -0.16889808 -0.0999887 -0.09619817
0.0021560711 -0.35660425 -0.058351845 -0.18501844 0.07213242 -0.17660315 -0.106415816 -0.43316704
0.062380806 -0.07551956 -0.27674624 -0.046876095 -0.09449881 -0.11384104 -0.034432374 0.18810983
0.28003696 -0.11660064 0.054883868 0.049947444 -0.011876861 0.3450778 -0.5444732 0.21252671
0.10222788 -0.37868822 -0.112857945 -0.19520928 -0.15967005 0.23503482 -0.15026842 -0.08942254
0.20362493 -0.28641838 0.07071868 -0.109455 0.057277188 0.039555095 -0.38988337 -0.37440583
-0.09980472 -0.11518613 0.22045167 -0.27504236 -0.34021288 -0.2119921 0.15859808 -0.32519317
-0.40257776 -0.081555896 -0.19054374 -0.25050527 -0.17111976 -0.29944697 -0.252112 -0.142057
-0.22727989 -0.0042084237 -0.2252461 0.032332636 -0.4321701 0.082358114 -0.03464881 0.083999805
-0.07288172 -0.15762995 0.07466044 0.10225714 -0.12519258 -0.053446867 -0.11388579 -0.212366
0.013088154 0.10037987 0.004613126 -0.28976038 -0.09235422 -0.072032124 0.019594884 -0.058650725
00000000: 592b 0cbe 6fc7 f9bd fa4b 163d 8371 003e
00000010: 4ac1 d0be 8703 713e 4c6f 0d3e 511d 01be
00000020: 0b84 a53c 011f 7a3c a2f6 1b3b e5ae 563d
00000030: 621f a13c af04 e0bc 07bb 9bbc e2e7 273d
00000040: 6043 f3bd b256 4c3d 1aad 163e c20e 36bd
00000050: 9db9 573e bfa4 fd3c 4a9b 743e 12fb 19be
00000060: a0ab c3bc 446a 1ebe 09d5 00bf 1d52 60bc
00000070: 2952 0f3e 1ee4 36be 5670 293c 6464 00be
00000080: 26ad 3fbe 909d 44bc b02d b03d ec34 00bf
00000090: 766b b83d 0864 8d3d f02d bebe 833d bb3e
000000a0: 44af abbd a009 1b3e f5a1 453e 1ef7 25bd
000000b0: 1776 54be 9166 8f3e 7ce1 e83d 05bd b73d
000000c0: 00bd a1bd 837a 0ebe 13d6 833e 6ff4 f3bd
000000d0: 684e 9cbd 2ab5 00be 0c52 72bd 893e 9ebd
000000e0: 8d5e 7f3e 8a0d 34bf 10f5 8e3e 3e8f b2be
000000f0: 78ec 4bbe d7d4 713c 0c34 d9bd ccb4 6fbd
00000100: e694 c73d 77f4 e2bc 1984 0fbe 26db e4be
00000110: 6853 2b3e 8c62 133d 145e 693e 8c59 2fbe
00000120: 1b52 cbbd 0f65 f3bd d01a a43c 6187 01be
00000130: c4b4 91be 454e a8bd 8748 a7bd df64 cbbe
00000140: d7e6 9c3d 3dd5 fa3d 6f1c c9be 9634 073e
00000150: a7d7 0a3e 4123 52bc 8c9a 63be abfb 65bd
00000160: 056d 6dbe 438d bbbd 6149 163e 6d49 0b3d
00000170: 9fb7 cbbc c82e c83d b18b 17be ae58 87bd
00000180: d5f5 23be 5393 a63d e98a 543d 5ce2 3d3e
00000190: a2ce bcbe 2c2e 4c3e c584 d93e 205b 8a3e
000001a0: 5906 fe3c 3ac1 ac3d 01a8 33be 022b 7c3e
000001b0: 8234 61be dcb7 b53c 0d5f 08bd 718c 6abe
000001c0: ed2d 573b 3e40 283e fda2 093e 8f30 97bb
000001d0: f3d4 99be 7212 0d3d 8121 df3d f83b 05be
000001e0: 6779 abbd 4a0f 16bf d8c4 51be 4c53 d2be
000001f0: f76f d73d 5a1d 01be 9e8e 09bd a7f1 273b
00000200: d49d 55be 20f0 edbd 6a21 153e b578 82be
00000210: 4afb d1bc 45c0 d4bc 0e00 263e 016c 413e
00000220: b317 5f3e 9607 d1bd 8c1c bd3d d112 1ebe
00000230: 7760 1a3e 3c46 06be 547c 41bd 4871 803e
00000240: 3f8d 8abe 3bc1 00be 45df 34bd 2d2f b73d
00000250: ad56 803e fb7f c73a 0274 74be 3df9 4cbd
00000260: 1cff 8abd 4f98 d1bc 757c 48be 96a5 81bd
00000270: ee52 ea3d 0333 c3bc fb8f 46bd c01f a93c
00000280: 06e1 a63e a800 863e c37c 25be 5d50 913d
00000290: 4291 2a3e c009 adbc 0450 e53d abdd 4a3c
000002a0: 7897 64be 8c0c 34be db61 01be 8ce0 eb3c
000002b0: adf9 513e 9ef3 2cbe e0c6 ccbd 8c03 c5bd
000002c0: df4c 0d3b d594 b6be 5802 6fbd 7975 3dbe
000002d0: 2aba 933d 75d7 34be 89f0 d9bd 12c8 ddbe
000002e0: 0483 7f3d 00aa 9abd afb1 8dbe 2601 40bd
000002f0: 9888 c1bd 7e25 e9bd f608 0dbd dd9f 403e
00000300: 0161 8f3e 51cc eebd e8cd 603d b195 4c3d
00000310: 2a97 42bc 0aae b03e 9862 0bbf 9aa0 593e
00000320: da5c d13d 6ce3 c1be 1122 e7bd f1e4 47be
00000330: 8c80 23be f8ac 703e f7df 19be 2a23 b7bd
00000340: 0e83 503e 6ea5 92be f5d4 903d f129 e0bd
00000350: 7c9b 6a3d 8604 223d cb9e c7be 1fb2 bfbe
00000360: 6b66 ccbd b5e6 ebbd 15be 613e 5ad2 8cbe
00000370: 6230 aebe 7514 59be 8967 223e b87f a6be
00000380: ac1e cebe c706 a7bd e61d 43be 3a42 80be
00000390: 053a 2fbe 1d51 99be d314 81be 6477 11be
000003a0: 0fbc 68be d1e6 89bb eaa6 66be 3a6f 043d
000003b0: 6645 ddbe 5fab a83d e9eb 0dbd 1708 ac3d
000003c0: 0343 95bd bf69 21be 93e7 983d 316c d13d
000003d0: 7c32 00be 1aeb 5abd f43c e9bd 7976 59be
000003e0: b26f 563c f693 cd3d b529 973b 795b 94be
000003f0: 3624 bdbd 9485 93bd 7385 a03c be3b 70bd

l1/b f4 [81]
-0.09449093 -0.22979681 -0.19961095 -0.24792193 -0.40669408 -0.19346371 -0.23407514 -0.15940988
-0.3114735 0.021555955 -0.2414173 -0.06398735 -0.18322223 -0.06981008 -0.14468598 -0.021442112
-0.5024595 -0.072040066 0.039646987 -0.10886313 -0.26714677 -0.16436912 -0.35932934 -0.3688994
-0.36376032 -0.40369597 -0.005591478 -0.2783914 -0.020505497 0.0062687043 -0.3180456 -0.06387298
0.08979408 -0.30655175 -0.08813056 0.11211129 -0.16194282 -0.20578586 -0.7364363 -0.2610264
0.1476308 -0.11808169 -0.27917853 -0.100570716 -0.28390828 0.2286033 -0.16856979 -0.1789455
-0.097800255 -0.42215887 -0.1655256 -0.24436772 -0.2068763 -0.055578135 -0.37920725 -0.05676571
-0.05489283 -0.17443457 -0.0025716138 -0.42854032 -0.066341974 -0.2834326 -0.2214994 -0.495828
0.044376776 0.025056642 -0.47906366 -0.12473221 -0.11326444 -0.13059151 -0.056239255 0.015586434
0.37762538 -0.1369555 -0.35506013 -0.21542832 0.0773848 0.040915813 0.077228524 -0.14621514
-0.054672144
00000000: 7684 c1bd db4f 6bbe d066 4cbe 3fdf 7dbe
00000010: 353a d0be 5a1b 46be 65b1 6fbe 583c 23be
00000020: 7479 9fbe 1d96 b03c 1936 77be cd0b 83bd
00000030: 9c9e 3bbe 96f8 8ebd 9028 14be 5ea7 afbc
00000040: 30a1 00bf be89 93bd e164 223d a2f3 debd
00000050: 76c7 88be 6150 28be 04fa b7be 62e0 bcbe
00000060: cb3e babe 3db1 cebe b838 b7bb 5189 8ebe
00000070: 25fb a7bc b469 cd3b dfd6 a2be d6cf 82bd
00000080: f5e5 b73d 5af4 9cbe cc7d b4bd 9b9a e53d
00000090: 57d4 25be 87b9 52be 1787 3cbf 41a5 85be
000000a0: 872c 173e d0d4 f1bd 7df0 8ebe 05f8 cdbd
000000b0: 6d5c 91be fc16 6a3e 8f9d 2cbe 7d3d 37be
000000c0: 804b c8bd 3525 d8be 8b7f 29be 883b 7abe
000000d0: 61d7 53be e6a5 63bd 7427 c2be 2983 68bd
000000e0: 4ed7 60bd fa9e 32be 8588 28bb a369 dbbe
000000f0: 4dde 87bd 141e 91be bdd0 62be 2bdd fdbe
00000100: 6cc4 353d 9643 cd3c d547 f5be 9a73 ffbd
00000110: 30f7 e7bd c8b9 05be 225b 66bd 3e5e 7f3c
00000120: 1d58 c13e 103e 0cbe 71ca b5be 3e99 5cbe
00000130: ec7b 9e3d 5797 273d fd29 9e3d 6cb9 15be
00000140: e6ef 5fbd

l2/b f4 [81]
-0.04194485 -0.10371046 -0.19358248 0.04900983 0.01871302 -0.32065374 -0.33579502 -0.16851908
-0.13936016 0.16154255 -0.37783694 0.022801124 -0.051867954 -0.10698618 0.100152515 0.23322535
-0.031045593 -0.26887724 -0.19568993 -0.33488074 -0.18484001 0.08193061 -0.1881007 -0.26235193
-0.12445333 -0.07024971 -0.24016246 -0.14809342 -0.21558383 -0.20688519 -0.0007357765 -0.106966026
-0.21861814 -0.18107729 -0.07042209 -0.13738994 -0.1771214 0.15024285 -0.21160333 -0.109302886
0.011816488 -0.15424395 -0.28301674 -0.04828443 -0.08169865 -0.14971106 -0.17316796 -0.07079472
-0.21806148 -0.25658703 -0.28360054 -0.11880149 -0.16578759 -0.2656359 -0.03632502 0.12729144
0.060579825 0.0420048 -0.007799106 -0.067922726 -0.3332731 -0.054624945 -0.2570835 -0.0052228053
-0.048213255 -0.14070667 -0.25673908 -0.1683646 -0.30303502 -0.19503285 -0.25725234 -0.3182843
-0.09893201 -0.18208334 -0.1802928 -0.13243812 -0.12385133 -0.20992026 -0.35625026 -0.043889076
-0.12068114
00000000: 5dce 2bbd 2666 d4bd 7c3a 46be 88be 483d
00000010: 0c4c 993c ba2c a4be 53ed abbe 4490 2cbe
00000020: 6eb4 0ebe 696b 253e d873 c1be 6cc9 ba3c
00000030: 7e73 54bd 921b dbbd c31c cd3d a0d2 6e3e
00000040: 5453 febc 47aa 89be f162 48be 7d75 abbe
00000050: b346 3dbe 3ccb a73d 789d 40be fe52 86be
00000060: 63e1 febd 14df 8fbd 26ed 75be cda5 17be
00000070: 02c2 5cbe b6d9 53be 20e1 40ba 0111 dbbd
00000080: 6fdd 5fbe 536c 39be 7539 90bd f3af 0cbe
00000090: 505f 35be 43d9 193e 8bae 58be 31da dfbd
000000a0: f199 413c 20f2 1dbe 92e7 90be e5c5 45bd
000000b0: 9f51 a7bd db4d 19be f152 31be d2fc 90bd
000000c0: 824b 5fbe 605f 83be 1734 91be 324e f3bd
000000d0: 39c4 29be 6e01 88be 8bc9 14bd b058 023e
000000e0: 8d22 783d 3a0d 2c3d a58f ffbb 121b 8bbd
000000f0: c6a2 aabe 68be 5fbd 73a0 83be 1124 abbb
00000100: 437b 45bd 6915 10be 4e73 83be c567 2cbe
00000110: 6827 9bbe b1b6 47be 94b6 83be 29f6 a2be
00000120: de9c cabd 0e74 3abe ad9e 38be dc9d 07be
00000130: c4a5 fdbd 56f5 56be 6f66 b6be 08c5 33bd
00000140: ac27 f7bd

l0/W f4 [81, 9]
0.4770911 0.050989494 0.10590704 0.20651817 0.056832336 0.3852433 0.52596784 0.016679592
0.6640323 0.05929684 1.2026341 0.08808669 -0.21506968 0.6552458 -0.21812776 -0.004370661
0.5488106 0.3434658 -0.08315327 0.23994683 0.23541154 -0.6743682 0.16743258 0.06835958
-0.67109615 0.051620133 -0.30634302 0.50232154 0.065664425 0.108678915 -0.15102142 0.13555145
-0.35973975 -0.23082939 0.018932996 -0.3278502 0.5012052 -0.0107300915 0.03428373 -0.018921806
-0.5353148 -0.0004158192 -0.027139245 -0.1472444 -0.470316 -0.3025533 -0.46093243 0.44062468
0.60622716 -0.2139638 0.061422184 -0.36614582 -0.8570598 0.038944893 -0.061249766 -0.54236585
-0.5401069 0.23310179 -0.34965378 0.12656082 0.6599052 -0.23208351 -0.3114934 -0.39656496
-0.32195443 -0.26192755 -0.3710236 -0.1810696 -0.05891327 -0.3340985 0.7688769 -0.40905577
0.37535626 0.11167113 0.19835906 -0.21548876 0.012650805 0.0076769977 -0.09540665 -0.9497034
0.317368 0.23304208 -0.07817246 0.2036289 0.544991 -0.39375365 -0.16334292 0.0058768694
0.041487202 0.32259908 0.14473699 -0.40762296 -0.44199854 -0.01674646 0.029923785 -0.0822068
-0.85390735 -0.48434895 -0.6895969 0.48592234 0.10905188 -0.10547939 0.020939505 0.7461368
0.72750896 0.36952344 0.041248053 -0.017981755 0.5137795 0.4974341 0.44302648 0.19153604
0.5873194 -0.11772673 -0.23314425 0.35630864 0.24582964 0.8593086 -0.45142633 0.12851605
0.2333262 0.41166583 0.56700677 0.020184774 -0.27300033 0.65559375 -0.18863454 0.07847109
-0.91107845 0.10009887 -0.6576167 0.015036825 -0.76926136 0.29740417 0.078412175 0.107831955
0.46454334 0.37768897 0.46762598 0.36862043 0.057977527 0.13511527 -0.22413105 0.14141028
0.8780479 0.13560617 0.38915944 0.3094844 0.309304 0.61500794 0.43904138 0.28146556
0.18943864 -0.22660944 0.20549147 -0.45142558 -0.3323969 -0.5674807 -0.54196274 0.25479797
-0.04903873 -0.044637915 -0.015256846 -0.34247813 0.025482293 -0.02661149 -0.18635114 0.91543835
0.11291581 -0.07204869 0.09077944 -0.009661612 0.009090623 -0.14491111 0.18792403 -0.39143404
0.31242874 -0.2618772 -0.1962026 0.2909576 -0.13449684 0.0601196 0.49615934 -0.15905157
-0.08716327 0.33170897 0.45157415 0.33022293 -0.26434016 0.44406623 0.8259651 0.42520767
0.41993997 0.39132372 0.77950525 0.4147116 0.3746949 0.48114666 0.02778655 0.37774304
-0.44164115 -0.3086031 0.031481516 0.2367414 0.1495882 0.48272052 0.17919357 0.27737102
0.18590942 -0.105583765 -0.31103545 -0.8948223 -0.3466586 -0.15502474 0.075726606 0.4496708
-0.016832082 -0.16516483 -0.38649285 0.9652444 -0.4365878 -0.4848452 -0.27202845 -0.03522003
-0.48756883 0.065598175 -0.046944525 0.6059777 -0.11840094 0.09091381 -0.5342284 -0.06396864
-0.19702554 0.70013803 -0.3132472 0.037765853 -0.07634939 0.21172339 0.3003644 0.3417951
0.47669932 -0.52840936 0.28767797 0.53235966 -0.33561102 -0.24653749 0.3952204 -0.07828572
-0.38463688 0.03331531 0.060222358 0.16747949 0.4558615 0.18213688 0.052186634 -0.1432542
00000000: 4945 f43e 5cda 503d cae5 d83d 8079 533e
00000010: 06c9 683d 9c3e c53e d4a5 063f a4a3 883c
00000020: 05fe 293f 3ee1 723d eaef 993f cb66 b43d
00000030: 3a3b 5cbe 30be 273f e25c 5fbe c337 8fbb
00000040: da7e 0c3f c0da af3e 434c aabd 9fb4 753e
00000050: b90f 713e 65a3 2cbf 7273 2b3e 1c00 8c3d
00000060: f5cc 2bbf a26f 533d fed8 9cbe 2598 003f
00000070: 127b 863d 0d93 de3d 5ca5 1abe 00ce 0a3e
00000080: cf2f b8be 8a5e 6cbe 5f19 9b3c fbdb a7be
00000090: fc4e 003f 44cd 2fbc 196d 0c3d e701 9bbc
000000a0: 640a 09bf 4f02 dab9 1f53 debc 3cc7 16be
000000b0: 42cd f0be 44e8 9abe 56ff ebbe 8f99 e13e
000000c0: b431 1b3f 5419 5bbe d495 7b3d 7777 bbbe
000000d0: 4568 5bbf ae84 1f3d 09e1 7abd 7dd8 0abf
000000e0: 7244 0abf 3cb2 6e3e d205 b3be 2999 013e
000000f0: 8cef 283f 4da7 6dbe 107c 9fbe 900a cbbe
00000100: 36d7 a4be 5e1b 86be cef6 bdbe 4f6a 39be
00000110: 0a4f 71bd f50e abbe 1ed5 443f c26f d1be
00000120: b22e c03e d5b3 e43d a31e 4b3e 16a9 5cbe
00000130: 5245 4f3c 538f fb3b 9064 c3bd c31f 73bf
00000140: 0f7e a23e 95a2 6e3e e218 a0bd 1884 503e
00000150: 8884 0b3f 149a c9be 5e43 27be c192 c03b
00000160: 7cee 293d b52b a53e ef35 143e f5b3 d0be
00000170: a24d e2be df2f 89bc ba22 f53c 0a5c a8bd
00000180: ac99 5abf 96fc f7be 6c89 30bf d0ca f83e
00000190: 9856 df3d 9405 d8bd 5389 ab3c d202 3f3f
000001a0: 073e 3a3f 2d32 bd3e b8f3 283d 794e 93bc
000001b0: 0e87 033f afaf fe3e 5ed4 e23e 0622 443e
000001c0: 905a 163f b61a f1bd 5ebd 6ebe 166e b63e
000001d0: c4ba 7b3e a6fb 5b3f 5a21 e7be b699 033e
000001e0: 10ed 6e3e ddc5 d23e 5b27 113f 8a5a a53c
000001f0: b3c6 8bbe fed4 273f 6a29 41be 73b5 a03d
00000200: 703c 69bf a300 cd3d 9159 28bf 045d 763c
00000210: 50ee 44bf 5c45 983e 9096 a03d 00d7 dc3d
00000220: a0d8 ed3e 7360 c13e ac6c ef3e d1bb bc3e
00000230: d879 6d3d a85b 0a3e 9c82 65be dbcd 103e
00000240: bfc7 603f 58dc 0a3e e83f c73e bd74 9e3e
00000250: 185d 9e3e 2971 1d3f 08ca e03e 411c 903e
00000260: 34fc 413e 4e0c 68be 5b6c 523e 4121 e7be
00000270: ed2f aabe 6a46 11bf 12be 0abf e174 823e
00000280: d6dc 48bd 3fd6 36bd daf7 79bc 4b59 afbe
00000290: 3ec0 d03c 5700 dabc d5d2 3ebe 2b5a 6a3f
000002a0: 6740 e73d 438e 93bd 92ea b93d bd4b 1ebc
000002b0: d6f0 143c 9463 14be 286f 403e 0b6a c8be
000002c0: a9f6 9f3e c514 86be 56e9 48be 65f8 943e
000002d0: 8ab9 09be f83f 763d 9908 fe3e 6ade 22be
000002e0: a882 b2bd c2d5 a93e ba34 e73e fb12 a93e
000002f0: 9857 87be a65c e33e 7372 533f d2b4 d93e
00000300: 5f02 d73e 955b c83e a88d 473f 1455 d43e
00000310: 03d8 bf3e db58 f63e 9ea0 e33c 8967 c13e
00000320: ca1e e2be 3a01 9ebe c3f2 003d 566c 723e
00000330: a62d 193e 2527 f73e 857e 373e 9303 8e3e
00000340: 0a5f 3e3e 4d3c d8bd 0a40 9fbe 1313 65bf
00000350: 3c7d b1be cebe 1ebe 8d16 9b3d 403b e63e
00000360: 6fe3 89bc f820 29be 64e2 c5be 421a 773f
00000370: 7088 dfbe a13d f8be 5047 8bbe e142 10bd
00000380: 9fa2 f9be 5658 863d e748 40bd 5b21 1b3f
00000390: 317c f2bd 0531 ba3d 31c3 08bf fe01 83bd
000003a0: 10c1 49be 3f3c 333f f061 a0be 5eb0 1a3d
000003b0: 125d 9cbd 04ce 583e 5dc9 993e c4ff ae3e
000003c0: ef11 f43e d645 07bf 874a 933e b948 083f
000003d0: 35d5 abbe 5374 7cbe 545a ca3e 4354 a0bd
000003e0: 20ef c4be a275 083d b8ab 763d be7f 2b3e
000003f0: ae66 e93e 1782 3a3e a7c1 553d 3bb1 12be
