chainerrl/TicTacToe/result_80000/target_model.npz (npz, 56617 bytes, 8 tensors)

l3/W f4 [9, 81]
00000000: 5adc 053e 4e7c e7bc fbf0 e9be 6481 313d
00000010: c1ed 8ebc f750 2abe 778a 3b3d b15f 2ebe
00000020: 0d80 443e 2e9b 4bbc 683f 18bf e3cc aabd
00000030: cac5 c9be 60ed 3b3d ff49 953d 0c16 8c3d
00000040: 9d5f c2bc e717 2c3e 6286 1dbf 3c3e 513e
00000050: 1813 dbbd 1418 0e3d d8f4 6bbc b8e7 ef3d
00000060: 4c09 0dbf c8c7 c4bc 2f5b d2bd 83ab 593e
00000070: 871b 4dbe 7b16 e33d dd79 e63d 8505 5d3e
00000080: 8e61 87bc 0818 273e b464 8fbe c2b4 f43c
00000090: c522 8d3e 1536 b13e fa31 453c 3c78 c1bd
000000a0: 2341 abbc ec1d 25bf a97d adbe 05e8 933e
000000b0: 16e2 203e 6909 28bf e955 2d3e 54b7 d33c
000000c0: 7ac5 083e d683 6a3e 43d4 843e 7527 66be
000000d0: 6003 e8bc d63f 25be fbee 713d 7a96 39be
000000e0: 061b b6bc 1409 613e e81b d13d 2453 e63d
000000f0: 9982 2dbe 3b9a 5ebd a6f7 713e d89a 05be
00000100: a78d 833d 7561 033e 7938 b9be 8edf ffbe
00000110: 3bf8 afbc 48c9 39bd 5d0f adbd 5ae1 54be
00000120: 3c8b 8fbc 5706 6f3e 3079 95be 58df bbbd
00000130: dd39 20bd 2f5b 9f3d 56cc b9be dfb3 3dbe
00000140: 76aa bd3c 93ce 3a3d f25c a0be 0d27 e93c
00000150: 9168 da3e 226f 4f3d c647 503e 4fe8 4ebc
00000160: 7b77 89be e4e6 38bf 7a15 913d 273c 463d
00000170: a479 edbd ad37 88ba 3b8e 293e 4e19 543e
00000180: bda3 693e a72e 1b3e 932b af3e 34c7 86be
00000190: 334c 00be 448e e4bd 1230 543e 4c69 5d3e
000001a0: 2cc6 47be 0f2b 5f3d 0a00 e9be 7c5f 46be
000001b0: 8404 543e bf43 3ebe 1b10 8c3e e841 873e
000001c0: bfff b3be 03fb 30be ea80 40be 5160 353e
000001d0: 388e ed3e a115 583e 308b ecbd 217b 54bc
000001e0: b4db b6be 0812 2c3b 4cc2 28be 9b3a 14be
000001f0: 8d69 b03d 6ac4 25be c976 da3d 9cad 513e
00000200: ec63 52be bf25 0fbe e279 80be 54bd 28be
00000210: 6798 463e a68f 543d 2e8b 83be 3a90 383e
00000220: c61d 36be fa3c 39bd 1d05 49bd afa7 b6bd
00000230: 45ae c73d d071 1cbe bea4 513e d09d 05be
00000240: ae05 63bd 1207 063d 1371 bebe 8158 37bd
00000250: d393 613e 2b15 863e c472 3dbe 1001 573d
00000260: fadd ba3c caea c1be 071e edbc 7aac 243e
00000270: 5373 8dbe 23be 973c 5dcb d0be 5e79 cfbe
00000280: 3826 d2bd 8208 1dbe 431e c43e f420 e4bd
00000290: 5b1d ebbe 0711 553d 9b39 aabc d108 24be
000002a0: 15f1 093e e6b5 903d 6ee1 c63d 2cd5 b73e
000002b0: 4490 3f3e 04dc 81bd 7929 edbe 3b70 f4bd
000002c0: 63b6 5ebc 36a3 e93b 8aa9 d13c b8c5 3bbd
000002d0: a965 173e 4c9b 6dbe a6aa 2ebf df29 f1bd
000002e0: 5d8e 04bb 99ec 8cbd 1395 33be 4a96 773d
000002f0: 0341 a8be 7572 2b3e 4b60 debe 46d8 02bf
00000300: e734 62be d14e 81bd edcb d7bc 20e4 fa3e
00000310: f8d6 e73e b4f7 873e 3ea2 efbe bc14 08be
00000320: f251 e93d 0f5c a1be 990c 0e3e 6f44 8bbd
00000330: aaa1 f9bd aef7 8dbe d852 83bd ad39 2f3d
00000340: c4a8 cabb 3555 d43d 1fd2 06be d340 4bbe
00000350: d483 6b3e 1a14 a33e 4cc7 ddbd 2126 1abe
00000360: 17f4 313e c810 e6be efbf d43d 40d4 9d3e
00000370: 7706 67be 18a0 8bbd 020a b1be 5acf e73d
00000380: 70f7 a43d e2df 8a3d 1b7d 383e 78d9 21bd
00000390: 7dc7 ffbd 0fde 21bd 0cf1 043e f3bc 2dbe
000003a0: afe0 b2bd 56be bdbd 8a98 a1bd 5db0 3fbe
000003b0: 6e8e 943d 3add 9abd 9f31 c1bd 6207 413d
000003c0: 6fcd ac3d c494 b8bd 1223 563e c3bc 033e
000003d0: 2e2d 443d 37e9 ccbe 0a83 053e 5f20 bb3d
000003e0: 538a a3bd f859 bdbd 875e 50be 3924 2b3e
000003f0: 9439 543b e233 953d df4d dfbe f64a 643d
0.13072339 -0.028257515 -0.45691666 0.043336287 -0.017447354 -0.16632448 0.045786347 -0.17028691
0.19189472 -0.012427134 -0.5947175 -0.0833986 -0.39408714 0.045880675 0.07289504 0.068401426
-0.023727233 0.16805993 -0.61533177 0.20433897 -0.10697001 0.03469093 -0.014401637 0.11714119
-0.5509231 -0.024021044 -0.10271298 0.21256833 -0.20030032 0.11088272 0.11253712 0.21584137
-0.01652601 0.16317761 -0.28006518 0.029871348 0.2756559 0.34611574 0.012035841 -0.09446761
-0.020905083 -0.6449878 -0.33884934 0.28887954 0.15711245 -0.6563936 0.16927303 0.025844254
0.13356581 0.22901854 0.25943193 -0.22475989 -0.028321922 -0.16137633 0.0590658 -0.18123809
-0.022229683 0.2197612 0.10210401 0.112463266 -0.1694435 -0.054346304 0.23629627 -0.1304735
0.064235024 0.12830146 -0.36175898 -0.49975246 -0.02148067 -0.045357972 -0.08450196 -0.2078909
-0.017522447 0.23342262 -0.2919402 -0.09173459 -0.039117683 0.07781064 -0.36288708 -0.18525647
0.023152571 0.04560716 -0.31320912 0.028461004 0.42657903 0.050643094 0.2033988 -0.012628629
-0.2684897 -0.7222731 0.070841745 0.04839721 -0.11595467 -0.0010392569 0.16558163 0.20712778
0.22816367 0.15154515 0.34212932 -0.26323855 -0.12529068 -0.111599475 0.20721462 0.21622199
-0.1950919 0.054484423 -0.45507842 -0.19372362 0.20704848 -0.1858053 0.27356037 0.2641747
-0.35156056 -0.17283253 -0.18799177 0.17712523 0.46397567 0.21102001 -0.115499854 -0.012968809
-0.35714495 0.0026255865 -0.16480368 -0.14475481 0.08613882 -0.16188207 0.10667188 0.20476383
-0.2054593 -0.13979243 -0.2509299 -0.16478473 0.19394074 0.051894806 -0.25692123 0.18023768
-0.17784795 -0.045224167 -0.049077142 -0.08918702 0.09750036 -0.15277791 0.20473 -0.13048482
-0.05542534 0.032721587 -0.37195644 -0.04476214 0.22029047 0.26188025 -0.18500811 0.052491248
0.022810925 -0.37874442 -0.028944982 0.1608142 -0.27627048 0.018523281 -0.40780154 -0.40522283
-0.10261196 -0.15335277 0.38304338 -0.11139098 -0.45920834 0.05201819 -0.020779422 -0.16018988
0.13470872 0.070659444 0.09710966 0.35904825 0.18707377 -0.06340793 -0.46320704 -0.11935469
-0.013593289 0.007130052 0.025593538 -0.045842856 0.14784874 -0.23203772 -0.6822914 -0.117755644
-0.0020226457 -0.06881065 -0.17537336 0.06044606 -0.328621 0.1674288 -0.4343284 -0.5111126
-0.22090493 -0.06313861 -0.026342357 0.4900217 0.45281196 0.2655617 -0.46803468 -0.1328916
0.11392583 -0.31515548 0.13871993 -0.06800162 -0.12189038 -0.27728027 -0.064122856 0.042779613
-0.006184669 0.103678145 -0.13166092 -0.19848947 0.22999507 0.31851274 -0.108290285 -0.15053608
0.17378269 -0.44934678 0.10388171 0.30825996 -0.2256106 -0.06817645 -0.34577948 0.11318846
0.080550075 0.067809835 0.18016474 -0.039514035 -0.12489221 -0.039518412 0.12982577 -0.1696661
-0.08734261 -0.09264819 -0.07890423 -0.18719621 0.07253729 -0.07561727 -0.094332926 0.04712618
0.08437621 -0.0901275 0.20911816 0.12864976 0.04789465 -0.4002168 0.13038269 0.09137034
-0.079853676 -0.09245676 -0.2034856 0.16713037 0.0032382952 0.072852865 -0.43614098 0.05573555

l3/b f4 [9]
00000000: 88da 1ebe ec96 a7be f582 63be 49ca 96bd
00000010: 3b95 e83c 1e4a 16bd 4631 51bd c18f 95be
00000020: ff98 4ebe
-0.1551305 -0.32732332 -0.22217925 -0.073628016 0.028391471 -0.036691777 -0.05107238 -0.29211238
-0.20175551

l0/b f4 [81]
00000000: 2414 843e 4e49 a6be ac56 92be 956f 8ebe
00000010: 5f6e 82bd 8dca cdbe fb6f 0bbf cbb4 1dbe
00000020: e7e7 0bbd d1dd 4dbd 984b d9be 2dde 1dbe
00000030: 455c 91bd 09fd 33be c6fd 16bf e18f 253c
00000040: 3b79 8a3e 5832 91be 74a4 83be 1254 eebc
00000050: efbc 2d3d 2b3a c23e 3849 53be 43b4 cfbe
00000060: e3c0 abbe 0d4b 87be 3580 8abe 8a1a debd
00000070: 9e70 05be 7b38 a8be 1645 a6be 9905 2abe
00000080: e548 57be de18 65be 0241 adbe 87bc d8be
00000090: 15c0 783d 6991 44bf cd98 74be dbad 41be
000000a0: fc75 47be 9b8e c53b f541 22be 26ae 44be
000000b0: 1db9 b6be 8f12 403e 755c 01be 8cc3 d9be
000000c0: 2ef2 f2be ccaa 5ebe 7586 0dbe 28cc 88be
000000d0: 2125 e9be 5255 e6be e0b8 e5be bc46 afbe
000000e0: fc50 abbe 3fa3 d9be b6e7 903d 685a 6cbd
000000f0: 885f 25be 20cd b6be cfe2 883a cf19 6fbe
00000100: 2a95 ecbe e0ff 953e 3a51 6cbe f521 78be
00000110: 43cf 8ebe 659f 3bbf f692 d3bd 43b0 cdbe
00000120: f9bb 9dbe cbac dbbd 2753 1abe 02ae 9fbd
00000130: 2926 b9be c916 a3bd 1b89 9fbc 11e8 98be
00000140: 842a 9abe
0.25796616 -0.32477802 -0.2858175 -0.27819505 -0.06368708 -0.40193596 -0.54467744 -0.15400998
-0.034156706 -0.05026037 -0.42440486 -0.15416785 -0.07097677 -0.17576994 -0.5898098 0.010105104
0.27045617 -0.28358722 -0.25711405 -0.029092822 0.04241651 0.37935004 -0.206334 -0.40567216
-0.33545598 -0.26424447 -0.2705094 -0.10844906 -0.13031241 -0.3285559 -0.32474583 -0.16603698
-0.21023901 -0.22372767 -0.3383866 -0.42331335 0.06073006 -0.7678438 -0.23886414 -0.18913977
-0.19478601 0.006028963 -0.15845473 -0.19207057 -0.35688105 0.1875708 -0.12632926 -0.42532003
-0.47450393 -0.21744841 -0.13820823 -0.2671826 -0.4553614 -0.4498697 -0.4486761 -0.34233654
-0.33460224 -0.4250736 0.07075445 -0.057703406 -0.16149724 -0.35703373 0.0010443571 -0.23349689
-0.46207553 0.2929678 -0.2307786 -0.24231704 -0.27892503 -0.7329009 -0.10330765 -0.4017354
-0.30807474 -0.10726317 -0.15070783 -0.07796861 -0.36161926 -0.0796333 -0.019474557 -0.29864553
-0.30110562

l1/W f4 [81, 81]
00000000: 3291 6bbe 0dd1 49be 844f 19be 5cea 683c
00000010: f0e7 7b3d c93f 273e ae03 3e3e d4da c5be
00000020: c266 9abe 5c95 6fbe 686d 3dbe cc4c c0bd
00000030: d68c 3abe cd28 51be 20cb 55be 85c0 573e
00000040: 4f28 0b3d 3019 dfbb e442 eebd 2943 cf3d
00000050: bc18 ddbd d98c 09be 6434 1fbd 2977 cb3d
00000060: 4a3d 5e3d 1ba0 d7bd 5ffb 9f3e 0788 c2be
00000070: d9e3 76be e12d 97bd dc99 04be 828d 77bd
00000080: 0518 643e 14f2 0dbd 8391 0e3e d16c c9be
00000090: c044 abbd 69b0 01bd 034c 21be 466c 31bd
000000a0: c0f7 f33b aaf7 e23d 185b d4bd 5606 cc3d
000000b0: 8b90 033e f832 df3c 3ee2 bebc a7a0 b8bd
000000c0: e2e1 8b3e a636 4f3d 847b 7fbd e8ad d2bc
000000d0: db4a 0b3d b396 bd3d ad13 573d 01a9 04be
000000e0: 1771 2b3d 1c51 833e 8fd3 cf3d 5c45 7cbe
000000f0: b692 293e d298 39be 4b36 21be 298c 76bd
00000100: 8352 793e bd45 f53b acdb 1d3e 28bc 3c3d
00000110: 9fc5 6abd c98d 3dbe fc14 21be c8a8 d23d
00000120: 9564 4dbe 0bb1 183d d8bb 6a3d 0028 dabe
00000130: 1232 2abe de30 7bba 3329 3d3d 75d8 573d
00000140: d184 2ebe 2c04 a9be 9d23 17bf fd78 d4bd
00000150: 9d17 ee3d 1b90 03be 2f3e 9c3e d0f6 1f3e
00000160: 4e43 373e 15f9 87be fe06 b8bd ceb9 6d3e
00000170: b0b6 a03e 2575 9b3e e5de 013e c941 35bd
00000180: c257 9abd ad93 4e3e 56f6 57bc f3cd 3a3e
00000190: 20a2 06be bd8a 2c3e 3b14 90be 422d 673e
000001a0: ea5a 2abe 7ac3 833d 21ac b93d 65a3 b43d
000001b0: a6ed 13be 1c9f 4abe 5771 febc b53b ca3c
000001c0: 109c 14be 3d9a 4e3d 2b62 243e e707 5fbd
000001d0: f1be fabd b1a8 80be 8c75 c03e 35f4 073e
000001e0: 290d 8a3d a8c5 a7bc 545b a0be fa6b bbbd
000001f0: 5a2f 183e 34a0 3cbe 6c34 9ebd 7370 70bd
00000200: e13a 89be 88d3 a5bd f7b4 9ebc e4d3 823e
00000210: c7e2 62be e0df 113e 973f c0be 04f5 ef3d
00000220: 1b18 9cbd 015a ac3d dbf5 a43e 6de3 c43d
00000230: 6908 ecbe 7374 c5be 1896 3e3e 67f9 0fbe
00000240: 2a5b 63be 0c73 213e 6bb8 073e 326b 903d
00000250: 4c21 a2be 2bf9 203e 11b5 f3bc 6bbb 413e
00000260: 1854 423e 1233 3d3e 2796 84be 3510 213c
00000270: 7544 4cbe 626f 12be 2993 4e3e 441d 113e
00000280: 1341 c73c df37 f3bb 04ef 413e f7d2 a4bd
00000290: d8c0 af3d 534d 89bd caa8 bf3e 28b5 5e3e
000002a0: bb37 223e f498 ef3d 9cee b4be af09 9f3d
000002b0: a42a 62be e71a babc 78c8 ffbd f790 debd
000002c0: 3aac 1abe d89c 553e 18eb 923e 0e29 473e
000002d0: f6d9 40bd b432 253d 1ce9 863d 59d5 87be
000002e0: 9965 86be c3e8 cebd 2541 113d 14d5 43be
000002f0: 20fe 95be 378e dabd 44e4 1e3e 4848 3fbe
00000300: 1493 1a3e 2d69 a0bc c8c8 28bd d977 26bd
00000310: 3883 6c3d 9bd1 6f3e 3fa5 d4bc 4d7c 843e
00000320: 17e5 46be b04d cc3b a42b f1bd 441b 74bc
00000330: afe6 ffbd 2a80 18be db9a 863e 4bc9 67be
00000340: aff4 113e 50cc 19be 06b2 df3d ef4f 5b3e
00000350: 3ed6 1dbd c25c 55bd 6a93 953d 40a6 d63c
00000360: 0355 94be bcd7 02be 7fbd 033d 81cd 9ebe
00000370: 7f79 93bd 0659 ae3d a675 703d af6e 86bd
00000380: c741 9cbd 34c5 3abd 0254 0cbe 9fa4 6abd
00000390: 228c abbd 63d3 3abe 19e7 203e e7fa f73c
000003a0: 8c4e 653d 01b3 ca3d 202e c1bd 23cb de3c
000003b0: 0e03 75bc 9304 b6be b362 63bd 71bd 133d
000003c0: 7518 f9bb 3fe4 783e 4e4c a83d 6e8f 043e
000003d0: 254e 6dbe 7718 ab3d 5050 193e 8398 353d
000003e0: 8797 8ebe df47 d03e 636e 4cbe 3b03 50bc
000003f0: 5dde a13e 686e f0bd 9297 5e3e 26ea bb3c
-0.23004606 -0.19708653 -0.14971739 0.014216032 0.06150049 0.16332926 0.18556091 -0.38643515
-0.30156523 -0.2339682 -0.18498766 -0.09389648 -0.18217787 -0.2042572 -0.20878267 0.21069534
0.03397399 -0.0068084225 -0.11633852 0.10120232 -0.10795733 -0.13432635 -0.038868323 0.09934837
0.05425767 -0.105285846 0.31246468 -0.37994406 -0.24110354 -0.073817976 -0.12949318 -0.060437687
0.22274788 -0.03465469 0.13922696 -0.39340833 -0.083627224 -0.03166238 -0.15751652 -0.04331615
0.0074453056 0.110823944 -0.10368937 0.09962146 0.12848108 0.027245983 -0.02330124 -0.09015017
0.27320772 0.050589226 -0.062373653 -0.02571769 0.034006935 0.09257259 0.052509 -0.12955095
0.041855898 0.2564782 0.101477735 -0.24635834 0.16559872 -0.18124703 -0.15743367 -0.06019226
0.24347882 0.00748512 0.1541583 0.046077877 -0.057317372 -0.18511118 -0.15730661 0.10286099
-0.200579 0.037278216 0.057308048 -0.42608643 -0.16620663 -0.0009582172 0.04618187 0.052696664
-0.17042853 -0.33010995 -0.59038717 -0.10374639 0.116255976 -0.1284794 0.30516192 0.15621495
0.17896768 -0.26557222 -0.08985709 0.2321541 0.3138938 0.30362812 0.12682684 -0.04425219
-0.0753627 0.20173521 -0.01318129 0.18242626 -0.13147783 0.168498 -0.28140435 0.22575858
-0.16636243 0.064337686 0.09066034 0.088202275 -0.14446124 -0.19787258 -0.031059904 0.024686674
-0.14512658 0.05044006 0.16053073 -0.054450896 -0.122434504 -0.251287 0.3758968 0.13276751
0.06740791 -0.020479992 -0.31319678 -0.09151454 0.14861813 -0.18420488 -0.077248424 -0.05870099
-0.26802734 -0.08096987 -0.0193734 0.25552285 -0.22156821 0.14245558 -0.37548515 0.11716655
-0.07621785 0.084156044 0.32218823 0.096136905 -0.46100166 -0.38565406 0.18611944 -0.14059983
-0.22202745 0.15766543 0.13253944 0.07051696 -0.31666028 0.1572005 -0.029749425 0.1891915
0.18977392 0.18476513 -0.25895807 0.009830524 -0.1994799 -0.14300302 0.20173325 0.1417132
0.024323022 -0.007422432 0.18938833 -0.08048051 0.08581704 -0.067042015 0.37433463 0.21748793
0.15841572 0.11699095 -0.35338295 0.07765519 -0.22086579 -0.022717906 -0.12489408 -0.108674936
-0.15104762 0.20860612 0.28694987 0.19449255 -0.047082864 0.040331557 0.06587431 -0.2652996
-0.26249388 -0.101029895 0.035462517 -0.19124252 -0.29295444 -0.106716566 0.15516764 -0.18679917
0.15095168 -0.019581402 -0.041207105 -0.04064164 0.057742327 0.23419802 -0.025957702 0.25876084
-0.19423328 0.006234847 -0.11775902 -0.014899079 -0.12495171 -0.1489264 0.2629002 -0.22635381
0.14253496 -0.15019345 0.10922627 0.21417211 -0.038534395 -0.052090414 0.073035076 0.026202321
-0.2897111 -0.12777609 0.03216314 -0.31016162 -0.07200908 0.085130736 0.05870595 -0.0656408
-0.076297335 -0.045598224 -0.13703921 -0.0572859 -0.083763376 -0.182447 0.15713157 0.030271007
0.05598311 0.098974235 -0.09432626 0.027196473 -0.014954342 -0.35550365 -0.05551405 0.036069337
-0.0076017925 0.24305819 0.08217679 0.12945339 -0.23174341 0.08354276 0.14972043 0.0443349
-0.2784998 0.40679833 -0.19963984 -0.012696083 0.31614962 -0.11739808 0.21737507 0.0229388

l2/W f4 [81, 81]
00000000: 9320 0cbe 65a1 f8bd d6ab 173d b99d ff3d
00000010: e59b d0be ec2f 713e 3ebe 0c3e 60ed 02be
00000020: 1a6d aa3c 44f7 813c 23f2 1038 7a49 583d
00000030: 5379 943c 6ad7 dabc af1b abbc d903 2c3d
00000040: 16d0 f2bd 494e 423d 826e 183e f8cc 32bd
00000050: a910 593e 227d ed3c f462 773e 4bba 1bbe
00000060: ecec c9bc 250b 1fbe 8bbb 00bf 1ad6 54bc
00000070: 8290 113e bbb2 34be 140d 4d3c b104 01be
00000080: 4770 42be 05ce 29bc 09ac ae3d 0200 00bf
00000090: fae1 bd3d fa06 8b3d 7063 bdbe 5bef bb3e
000000a0: aafc adbd 57f7 193e ed55 443e 3abd 30bd
000000b0: 52e6 52be 71f7 8d3e 24d8 ea3d 7f84 b73d
000000c0: 8947 a5bd 56cd 10be a655 853e b253 f3bd
000000d0: 4115 a4bd 809f febd 838b 79bd 1022 a3bd
000000e0: f536 803e 8bc1 33bf 46e9 8f3e 0cec b1be
000000f0: b4e8 49be 480f 713c f2be debd 46ac 65bd
00000100: f268 c63d c998 01bd 55d9 0bbe cdec e4be
00000110: 07a2 2a3e 6acb 153d 446e 643e 1776 2fbe
00000120: 3138 d0bd faa3 eebd f77e aa3c d494 02be
00000130: 115e 93be 7eff a8bd a8ea a7bd 2683 cbbe
00000140: afab 9a3d d5d6 fa3d 335e c8be 09f2 053e
00000150: 77bf 083e dc19 60bc 9d24 63be 58df 60bd
00000160: 1807 6ebe fc2c bbbd bd63 143e f7a4 0c3d
00000170: 9df3 c5bc 47d1 c83d b6db 15be faeb 8cbd
00000180: 9236 24be 6f39 a83d e447 4c3d 02f5 3f3e
00000190: 51be bbbe 06a2 4c3e 6285 d93e 81d5 8a3e
000001a0: bfa1 0a3d 793a ae3d 7201 36be dca2 7b3e
000001b0: d8c8 62be 3fbd c03c a8ee 04bd d143 6cbe
000001c0: 0604 f33a daf4 283e 9c96 093e db4b babb
000001d0: 58f1 98be 3eac 003d afa9 e03d 81bd 03be
000001e0: 3d98 afbd 22cb 15bf ce24 50be 5844 d2be
000001f0: 882a d73d f303 fdbd e698 ffbc ef11 653b
00000200: 1a82 55be d657 f1bd f5fd 133e 0690 81be
00000210: c80b b1bc 99a7 e9bc 9bef 253e f65d 413e
00000220: 609b 5f3e 5bdd d3bd 56dd b93d abf4 1dbe
00000230: 116d 183e bb9e 07be 335d 3abd 40d4 803e
00000240: 63a7 8abe cee5 fbbd 57ef 2dbd 6d05 b83d
00000250: 050f 7d3e 8f68 913a 19b1 74be f03e 4ebd
00000260: d951 89bd bfbf d6bc 3907 47be 2e6f 78bd
00000270: 34d7 ea3d 0961 d7bc 8520 48bd 8b06 be3c
00000280: 977f a73e 0a02 863e ad7c 26be f355 8d3d
00000290: d60c 2d3e 42a9 94bc 272d e43d 0fa7 5b3c
000002a0: 4111 67be 0c66 34be cd04 01be 129e f53c
000002b0: 3d1f 553e 1ed4 2ebe 80db cbbd 39fb c6bd
000002c0: 630c cc3a 9b94 b6be 67d7 72bd bed6 3dbe
000002d0: 7c6b 943d 39ac 36be 551f d9bd eeb8 ddbe
000002e0: dc27 803d 3678 98bd b5a5 8dbe 9875 45bd
000002f0: 204a bdbd e18e eabd 42b8 0abd cca5 3e3e
00000300: 03dd 903e 75ed efbd 6faf 693d 8f30 503d
00000310: 23fd 1cbc 7098 b13e 5a99 0bbf b92e 5d3e
00000320: 15bc ce3d 2fff c2be f1aa e2bd adbc 46be
00000330: 73d0 23be 86e2 703e d6b5 19be e82f b4bd
00000340: f134 513e c095 93be 4382 903d 626e debd
00000350: 4f01 5c3d 66bd 2d3d 854a c7be 7205 c0be
00000360: 1d6a c5bd 4175 e8bd 8e6f 643e b5a4 8dbe
00000370: 7387 adbe e28f 56be a8ca 243e c4d4 a7be
00000380: fdac cdbe 06e7 a2bd bc90 43be 7b3c 7fbe
00000390: ad63 31be 3dee 98be f00f 81be 8ec7 12be
000003a0: a351 66be bdb3 b2ba 6dd3 64be b825 0a3d
000003b0: 3c3d dcbe 84e1 a53d 4a3c 0bbd 4fc5 af3d
000003c0: cd73 93bd 5151 22be 3474 9c3d 4bfa d13d
000003d0: 05eb 00be 7773 58bd 5f93 ecbd b4e7 58be
000003e0: 4f75 713c 195a d23d b40f a63b f2f8 94be
000003f0: bb12 babd bda8 91bd 1e51 9b3c bbda 66bd
-0.13684301 -0.121401586 0.03702911 0.12481255 -0.40743938 0.23553437 0.13744447 -0.12785864
0.020803977 0.015864976 3.4557783e-05 0.052804448 0.018124258 -0.026714046 -0.020887224 0.041995857
-0.118560955 0.04743794 0.14885905 -0.043652505 0.21197762 0.028990332 0.24158841 -0.15207784
-0.024649106 -0.15531595 -0.5028617 -0.012990499 0.14215282 -0.17646305 0.012515325 -0.12599446
-0.18988143 -0.01036406 0.08528907 -0.5000001 0.09271617 0.0678844 -0.36989927 0.3670605
-0.084954575 0.15035759 0.19173403 -0.04314921 -0.20595673 0.27727845 0.11467007 0.089608185
-0.08070285 -0.1414083 0.26041907 -0.11881198 -0.08011866 -0.12432766 -0.060924064 -0.07965481
0.2504193 -0.702172 0.2810766 -0.34750402 -0.19717675 0.014713116 -0.10876264 -0.056072496
0.096879855 -0.031639848 -0.13657124 -0.44711915 0.16663371 0.036570944 0.22307688 -0.17134891
-0.10166968 -0.1165237 0.020812495 -0.12752086 -0.28782704 -0.08251856 -0.08199054 -0.39748496
0.07552277 0.12248007 -0.39134368 0.1308061 0.13354288 -0.01367804 -0.22181936 -0.054900497
-0.23244894 -0.091394395 0.14491172 0.03433701 -0.024164015 0.098055415 -0.14634594 -0.068809465
-0.16036442 0.082140796 0.049873248 0.18745807 -0.36668637 0.19983682 0.42484576 0.27116016
0.03384566 0.085072465 -0.17773989 0.24573845 -0.22146928 0.02352774 -0.032454163 -0.23072745
0.0018540628 0.16499653 0.13436359 -0.005685312 -0.2987163 0.031414263 0.109698646 -0.12865259
-0.08573959 -0.5851308 -0.2032654 -0.41067767 0.10506159 -0.12354269 -0.031200837 0.0034953316
-0.20850411 -0.117843315 0.14452346 -0.25305194 -0.021612063 -0.0285223 0.16204683 0.188835
0.21836615 -0.103449546 0.090754196 -0.15425365 0.14885356 -0.13244145 -0.045499038 0.25161934
-0.2708083 -0.12299691 -0.04246458 0.0898541 0.24712761 0.0011093783 -0.23895682 -0.05035299
-0.06705064 -0.026214479 -0.19436349 -0.060652904 0.11466828 -0.026291387 -0.048859138 0.02319648
0.3271453 0.2617343 -0.16258498 0.06901159 0.16899428 -0.018147115 0.111414246 0.013406529
-0.22565176 -0.17617053 -0.12599488 0.0299826 0.20812698 -0.17073104 -0.09953976 -0.09715886
0.0015567656 -0.35660252 -0.059287455 -0.18538949 0.072470635 -0.17839135 -0.10601679 -0.43305153
0.062576026 -0.074448034 -0.27665487 -0.04820785 -0.09242654 -0.11453033 -0.03386713 0.18617934
0.2829362 -0.11715213 0.057052072 0.05082756 -0.009581837 0.34686613 -0.5453087 0.21599855
0.100944676 -0.38085315 -0.11067761 -0.19407912 -0.15997486 0.23523912 -0.15010771 -0.087982
0.20430352 -0.28825188 0.070560955 -0.108608976 0.053712185 0.042416953 -0.3892404 -0.37504154
-0.0963938 -0.113504894 0.2230818 -0.27664724 -0.33892402 -0.20953324 0.16092932 -0.32779515
-0.40171042 -0.079542205 -0.1909818 -0.24925415 -0.1732318 -0.2986926 -0.25207472 -0.14333937
-0.2249208 -0.0013633888 -0.22346278 0.033727378 -0.43015468 0.08099654 -0.033993043 0.085825555
-0.071998216 -0.15851332 0.076393515 0.10252818 -0.12589653 -0.05284449 -0.11551546 -0.21182138
0.014737441 0.10271091 0.00506779 -0.2909618 -0.09085604 -0.071122624 0.018959578 -0.05636094

l1/b f4 [81]
00000000: 1f1c c8bd 2f2a 6cbe 74ae 4bbe 8d92 80be
00000010: 7ea3 cebe bd6c 47be 492e 6bbe 5953 1fbe
00000020: 94b7 a0be 003b a93c 068e 75be 5f8a 87bd
00000030: 5f18 38be 1cd9 86bd 4c88 15be 706e 98bc
00000040: 06cf 00bf ffdd a0bd 52f2 383d 2d2c dbbd
00000050: 5ed3 89be 5852 28be 032b b6be 2b60 bdbe
00000060: 8da4 b9be 496c cdbe 40f9 dab6 45c5 8fbe
00000070: f7ed 92bc c21d 8d3b cb5c 9ebe cb65 79bd
00000080: ae6a ba3d 6018 9dbe 3b4e b4bd d8fd f73d
00000090: 7c63 28be 9a31 53be c9f3 3bbf 2094 85be
000000a0: 5116 1b3e ad9f fabd 7f97 8fbe 4dde d0bd
000000b0: c5ef 8ebe 9b59 693e 3346 2abe 5d97 3abe
000000c0: 55b7 c0bd 24a7 d6be 2218 2abe 2a34 7bbe
000000d0: 400f 55be 612f 69bd de3a c2be c30f 6bbd
000000e0: 0a1c 62bd 9a48 2fbe 0ebc 26b9 8e0e e0be
000000f0: fc0c 83bd 1342 8fbe 423b 64be f140 fcbe
00000100: 0106 2c3d ee59 a03c bcda f7be 655b ffbd
00000110: 1ac7 f2bd 1a7c 03be 7bae 69bd 8c7a 843c
00000120: fc6f bf3e faeb 03be 4a35 b6be 1a20 5ebe
00000130: 6198 9c3d 8348 193d e81f 973d c815 13be
00000140: 77d6 54bd
-0.09770989 -0.23062967 -0.19890767 -0.2511181 -0.4035911 -0.19475074 -0.22966875 -0.15559138
-0.3139006 0.020658016 -0.23979959 -0.06618189 -0.17978047 -0.06584379 -0.14602774 -0.018607348
-0.5031589 -0.078548424 0.04515297 -0.10701785 -0.26919073 -0.16437662 -0.3557969 -0.36987433
-0.36258355 -0.40121678 -6.525923e-06 -0.28080192 -0.017935736 0.004306526 -0.3093017 -0.060888093
0.09102379 -0.3068266 -0.08803984 0.12108964 -0.164442 -0.2062439 -0.7341886 -0.26089573
0.15145232 -0.12237487 -0.2804527 -0.101986505 -0.27917305 0.22788088 -0.16628341 -0.18221803
-0.09409968 -0.41924393 -0.16610768 -0.24531618 -0.20806599 -0.05692995 -0.37935537 -0.05738808
-0.05520252 -0.17117539 -0.0001590105 -0.43761104 -0.06398961 -0.27980098 -0.2228823 -0.49268296
0.041997913 0.019574132 -0.4840907 -0.12468604 -0.11854382 -0.1284031 -0.057051163 0.016171716
0.37390125 -0.12882987 -0.3558753 -0.21691933 0.076462515 0.03742267 0.073791325 -0.14363778
-0.051962342

l2/b f4 [81]
00000000: 852f 34bd 8cc5 d3bd f0ad 41be e6a2 3b3d
00000010: e4c4 cd3c f397 a1be dc00 a7be ae70 2cbe
00000020: 8349 0fbe ece5 1f3e 31c0 c1be a25d bb3c
00000030: d3f3 4bbd afd7 cdbd fe5e cb3d 8263 6e3e
00000040: bd29 0ebd ac27 8abe 837d 45be 563f aabe
00000050: 9b44 3ebe ca3a a03d 152c 42be 42f9 84be
00000060: 1fe6 f7bd c4aa 8fbd b093 75be 4f1a 19be
00000070: 2eb9 5dbe 5d89 55be 043d 893a 7380 e7bd
00000080: 66b9 5fbe ce91 3dbe b40c 91bd 52d1 09be
00000090: 6045 3abe 02ff 1b3e df11 52be 28ca debd
000000a0: 7e83 753c 30cd 1abe c65f 8fbe 80fe 4dbd
000000b0: de76 a5bd 12a7 1abe 860c 2cbe 9562 9bbd
000000c0: 8952 5fbe 0ee4 84be 65eb 91be 34a5 f7bd
000000d0: dfc3 26be 6018 87be 5a11 0dbd 909c 023e
000000e0: 87f0 753d 7e50 303d c287 3bbc 7d13 8dbd
000000f0: 6b6b a8be fd60 64bd 9bdf 82be ba97 e6bb
00000100: d44a 48bd 8661 0bbe c30a 84be 75d9 2dbe
00000110: 6fce 9dbe 8b25 4dbe 2ea8 85be cab5 a3be
00000120: 1b51 cbbd 4211 3cbe 3968 35be d8a5 08be
00000130: 9e23 f9bd 6ae9 5ebe 9bdc b7be 59ed 24bd
00000140: 1380 f2bd
-0.04399063 -0.103404135 -0.18914008 0.04580965 0.025118299 -0.3156124 -0.32617843 -0.16839859
-0.13992886 0.15615052 -0.37841943 0.022871796 -0.049793076 -0.10050904 0.09930228 0.23280147
-0.034707773 -0.26983392 -0.1928616 -0.33251446 -0.18580858 0.07823713 -0.18962128 -0.2597142
-0.12104439 -0.07014993 -0.2398212 -0.14951442 -0.21652672 -0.20853181 0.0010470455 -0.113037966
-0.21848068 -0.18512651 -0.07082501 -0.13458756 -0.18190527 0.15233997 -0.2051463 -0.10878402
0.014984963 -0.15117335 -0.28002757 -0.05029154 -0.08079313 -0.15102795 -0.16801652 -0.075871624
-0.21808828 -0.25955242 -0.28499904 -0.12092057 -0.16285656 -0.26385784 -0.034440376 0.12755036
0.060043838 0.043045513 -0.011445941 -0.06888483 -0.32894453 -0.055756558 -0.25561222 -0.00703713
-0.048899487 -0.13611421 -0.2578946 -0.16977485 -0.3082156 -0.20033853 -0.26104873 -0.31974632
-0.09927579 -0.18365958 -0.17715539 -0.13344514 -0.121649966 -0.21768728 -0.35910496 -0.040265415
-0.118408345

l0/W f4 [81, 9]
00000000: ca0a f43e fbee 643d 2979 df3d d6e3 513e
00000010: 3815 643d 949b c83e b28b 053f 4dbc 863c
00000020: 9956 283f f6e2 673d aa31 9a3f 0b7c b93d
00000030: b051 54be 57f6 273f dfe1 5cbe cac5 15bc
00000040: 4e58 0b3f 27b4 b03e 6da4 adbd 7952 713e
00000050: b8ba 743e 7a17 2bbf 864f 263e 22cc 8a3d
00000060: c769 2bbf 0dcc 5e3d 4966 9dbe 2b31 003f
00000070: 2968 833d f55d de3d 2b14 1cbe 752e 0d3e
00000080: 48ec b7be 7fea 6abe cbd0 8b3c 2d8b a8be
00000090: 1a76 fe3e 626f 50bc 4c29 1f3d d21b aabc
000000a0: 0762 09bf 2259 8f3b 3df5 9ebc 4990 1abe
000000b0: 9713 f3be b0d0 9abe d329 eabe 0560 de3e
000000c0: c466 1b3f ef42 5fbe dc78 763d 4dea b8be
000000d0: 6d55 5cbf 17e4 363d 473c 69bd 13b5 0abf
000000e0: 9dbc 0abf 4e8f 6a3e c000 b3be 58cc fd3d
000000f0: 13b5 293f 2556 6abe fe82 a1be 8633 cabe
00000100: 945f a2be 0f33 86be a01e c0be 0d50 35be
00000110: 43a6 6ebd 9604 abbe 7890 443f 44d0 d3be
00000120: e035 c23e a23f d83d 6848 4e3e b870 62be
00000130: 55ed 593c e870 033c a0d7 c5bd 9e34 73bf
00000140: 4cc1 a13e f0a9 713e 1e1d 9abd 8873 503e
00000150: b45e 0c3f 2659 cbbe 06b9 24be 0a10 283b
00000160: 9616 123d 850f a53e e5ae 123e e4c0 d3be
00000170: 34a6 e1be d0d0 93bc df86 db3c 3421 98bd
00000180: a5e8 59bf 1a8b f8be 87e5 2fbf 984b f83e
00000190: 057c dd3d 247b d6bd b708 9a3c 4bda 3e3f
000001a0: bcd8 3a3f 76fc bd3e d65d 1f3d f18f 96bc
000001b0: 1cfb 023f ebab 003f d7fe e23e 4045 463e
000001c0: 5d1c 163f 934f f1bd 209e 70be 6c93 b63e
000001d0: 3012 7a3e 7722 5d3f a1a0 e5be caf8 fb3d
000001e0: f150 703e 6a38 d23e ee58 113f 553c 8f3c
000001f0: b32f 8bbe b47f 283f c922 41be 079a a93d
00000200: 2b29 6abf e78c c13d 1fa9 26bf 42b4 573c
00000210: f069 44bf 561c 9a3e baab 9c3d d549 d73d
00000220: fb3b ed3e 417c c23e 6b7a ef3e 8424 bc3e
00000230: dccf 633d 6bc7 0d3e a665 6bbe f913 133e
00000240: 8c68 613f c8a4 0b3e 48f9 c63e f50b 9f3e
00000250: 1555 9c3e e742 1e3f 7879 df3e e5ef 903e
00000260: 53f9 413e a24a 67be 6f99 513e 80e9 e6be
00000270: a6e0 acbe 0ee1 10bf 4d88 0cbf 8778 843e
00000280: 63e5 4ebd a765 28bd 0371 78bc d977 afbe
00000290: e414 b73c 4064 e2bc e638 3ebe 9f49 6a3f
000002a0: c099 ea3d 24af 8abd 4f37 be3d bcbc 1dbc
000002b0: be9e 803c 1fb3 16be ddfe 413e 16d1 c5be
000002c0: 1abe 9f3e c42e 87be f5be 4cbe 917e 943e
000002d0: ebe2 09be 32b0 793d dd66 fc3e c184 23be
000002e0: 9180 adbd d171 a83e 9699 e63e 1f08 aa3e
000002f0: ab37 86be 7fa8 e43e 206b 523f b82c d93e
00000300: d877 d63e 41e1 c73e 29c5 473f 093d d73e
00000310: 5558 bf3e 2418 f73e 2dd8 f33c 70e1 c03e
00000320: 7903 e2be 3470 9cbe 6935 063d b73b 713e
00000330: 0c53 1c3e df30 f63e f77a 343e ad52 8a3e
00000340: ecd9 363e cb2d d0bd a7f1 a0be 273b 65bf
00000350: ea4c b0be 6d5e 16be 9bb0 923d d44c e73e
00000360: 170e 8fbc 9259 29be 0f01 c3be f630 783f
00000370: cf66 e2be cd86 f9be 723e 8cbe 63a4 17bd
00000380: b049 f8be 7d05 853d 59ba 48bd 53fe 1b3f
00000390: dec6 e1bd 1f09 b83d 4ad4 09bf aaf8 8abd
000003a0: 8016 4cbe cbf8 333f 7e03 9fbe 47c0 2a3d
000003b0: a882 a3bd 3853 5a3e aa81 9a3e 26af ae3e
000003c0: d97d f23e 354b 06bf 47b1 903e d223 093f
000003d0: 6138 abbe 61d4 7bbe 1cd4 cc3e 328d 9ebd
000003e0: 120f c5be ef5f ee3c 0bfb 743d 9460 293e
000003f0: 37f5 e53e 824f 393e 8476 593d b105 14be
0.4766448 0.055891972 0.10911781 0.20497069 0.0556843 0.39181197 0.52166283 0.01644721
0.6575714 0.05661293 1.2046406 0.090568624 -0.20734286 0.6561026 -0.21570538 -0.009141395
0.5443162 0.34512445 -0.08478627 0.23566617 0.23899353 -0.668327 0.16241273 0.067772165
-0.6695828 0.054393817 -0.307421 0.50075024 0.06416351 0.10857765 -0.15242068 0.13787253
-0.35922456 -0.22941016 0.017067334 -0.32918683 0.4969948 -0.012721868 0.038857743 -0.020765219
-0.536652 0.004374639 -0.019404048 -0.15094103 -0.47475883 -0.3023734 -0.45735034 0.43432632
0.6070368 -0.21802877 0.060173854 -0.36116257 -0.8606785 0.044651117 -0.05694225 -0.5418255
-0.5419405 0.22906229 -0.3496151 0.12392491 0.6629192 -0.22884424 -0.31545252 -0.39492434
-0.31713545 -0.2621083 -0.37523365 -0.17706318 -0.05826403 -0.33401936 0.7678294 -0.41369832
0.37931728 0.10559012 0.20144808 -0.22113311 0.013301213 0.008022524 -0.09660268 -0.9500216
0.31592786 0.23599982 -0.07525085 0.20356572 0.54832006 -0.39716452 -0.16086206 0.0025644326
0.03566607 0.32238403 0.1432453 -0.413581 -0.44072115 -0.018043905 0.02679771 -0.07428208
-0.8512061 -0.48543626 -0.68709606 0.48495173 0.108146705 -0.10472706 0.018802984 0.7455184
0.7298696 0.37106675 0.03890785 -0.018379183 0.5116441 0.50262326 0.44335052 0.19362354
0.5863703 -0.11782756 -0.2349782 0.3565935 0.24421 0.86380714 -0.44849113 0.12303312
0.23468377 0.41058666 0.5677632 0.017484823 -0.2718483 0.6581986 -0.18860926 0.082813315
-0.9146907 0.09450703 -0.6510181 0.013165535 -0.7672415 0.30099744 0.07649942 0.10512129
0.46334824 0.37985423 0.46773085 0.3674661 0.055618152 0.13845603 -0.22987995 0.14363088
0.8805015 0.13637078 0.38862062 0.3106381 0.30533662 0.61820835 0.4364736 0.28308025
0.18942766 -0.22587064 0.20468687 -0.4510002 -0.33765143 -0.56593406 -0.5489548 0.25873205
-0.05051173 -0.04111257 -0.015163663 -0.34271124 0.022348829 -0.027635694 -0.18576393 0.91518587
0.11455107 -0.06771687 0.09287893 -0.009627517 0.015700694 -0.14716767 0.18944879 -0.38636082
0.31199723 -0.26402867 -0.1999472 0.29002813 -0.13465469 0.06095905 0.49297228 -0.1596861
-0.08471788 0.32899335 0.45039052 0.3320932 -0.26214346 0.44659802 0.8219471 0.4241693
0.4188831 0.39039043 0.7803522 0.42038754 0.3737208 0.48260605 0.029766167 0.37671995
-0.44143274 -0.30554354 0.03276578 0.23557936 0.15266055 0.4808416 0.17625032 0.27016202
0.17856568 -0.10164984 -0.31434366 -0.89543384 -0.3443368 -0.14684458 0.07162591 0.45175803
-0.017462773 -0.16538075 -0.38086745 0.9694971 -0.44219062 -0.48735657 -0.27391392 -0.037022006
-0.4849372 0.064951874 -0.04900584 0.6093494 -0.11024259 0.08986115 -0.5383955 -0.0678571
-0.19930458 0.703015 -0.31057352 0.041687276 -0.07983905 0.21320808 0.3017705 0.34118003
0.4736164 -0.52458507 0.28260252 0.5357028 -0.3344145 -0.24592735 0.40005577 -0.077417746
-0.3848806 0.02909848 0.059809726 0.16540748 0.44913647 0.18096736 0.05309154 -0.14455296
