chainerrl/TicTacToe/result_130000/model.npz (npz, 56622 bytes, 8 tensors)

l3/W f4 [9, 81]
00000000: 561a 063e 663f 79bd 5776 d6be e28a 1d3d
00000010: 4c5e 5abc 4b21 28be 0526 2f3c 589b 4dbe
00000020: 913b 773e cad3 6bbc 644b 2abf 357f d2bd
00000030: 3a6e b7be 3583 f73c bc25 6f3d 0781 843d
00000040: 1645 bbbc f994 3b3e 2197 31bf 0c14 663e
00000050: 4775 26be 1d76 7a3c 6a1f 4b3d 0768 a73c
00000060: 4ed7 00bf 2c8e d138 d644 2dbd a5a5 4e3e
00000070: a321 13be 26a0 0a3e ab4f de3d 1a33 3c3e
00000080: 4617 3e3c 5869 ce3d 3a03 92be 8041 513d
00000090: 7118 503e 8f8d bd3e 1d39 b1bc 6cf8 c0bd
000000a0: a94c 7ebc 47ea 1abf a5b5 a6be bb95 963e
000000b0: 2397 d23d d0a5 2bbf 04f7 3a3e aae2 d4bb
000000c0: 05d5 113e 0be6 473e 7c6a 713e fcde 64be
000000d0: 55e8 16bd 04e5 45be 29fc 9b3d 42c3 8dbe
000000e0: 432d 743c 7a46 7a3e ee87 bd3d 4c9e f83d
000000f0: 14b2 02be 4e2c 8cbc 96bf 8f3e 40a7 06be
00000100: 15eb 8e3d fb94 f03d a0f2 d8be 99d0 f4be
00000110: aee6 7e3a 263a e1bb 844c d0bd 042a 57be
00000120: 2d7b 1fbd 642a 3e3e 2d6f 8ebe 256c fbbd
00000130: 0190 7f3c 9241 963d 9817 b8be 70ea 29be
00000140: cd81 013d 5ea3 143d 7b7b 82be ee2d e63c
00000150: 90ee ef3e 6d7a 8d3d 8055 433e 2b47 80bb
00000160: 63f2 81be d8cf 35bf 6949 dc3d 18f0 b63d
00000170: 025c ffbd 74fb 50bc 6042 1e3e 77d2 4f3e
00000180: d158 6b3e f578 2c3e 3fea a33e 653a 80be
00000190: 8ec0 1bbe cd9c 3ebe a835 273e e5c8 5a3e
000001a0: 73ec 15be 7feb cd3b b44d c1be 4615 01be
000001b0: 3a11 4e3e 41ff 26be ea80 a23e 4d4a 723e
000001c0: c210 dabe af00 34be 25e7 47be a722 0c3e
000001d0: a93c eb3e 0f36 4d3e c41f 0fbe d848 c7bc
000001e0: 53d9 d1be e462 d539 acb5 0abe cdf9 2fbe
000001f0: 55f8 e73d 7678 2ebe 3718 c63d 1155 643e
00000200: 45c6 7cbe d01d efbd 440c 6ebe a1f3 2fbe
00000210: 8877 453e c2f2 9e3d 103d 8cbe 2698 883e
00000220: d901 2ebe 1457 d03a ad89 f0bc ce8d 07bd
00000230: 1e34 9d3d b49d 0cbe fe13 583e 46f5 f6bd
00000240: cefe b6bd bae6 6c3d 1ad8 d4be 03d1 18bd
00000250: 6569 6c3e 5c36 733e 5247 3cbe 4493 203d
00000260: 8ab3 e83b a140 c8be dbe9 7fbb 0f14 113e
00000270: 0721 a6be df5d e9bb 7dec cfbe b1b5 d0be
00000280: 0764 d0bd 7d5f 29be e7ca bf3e b6d8 9ebd
00000290: cd6a edbe f23a dcbc 5c65 eabc a9c2 16be
000002a0: 9443 2b3e 0303 e63d a884 e03d 9f3d b63e
000002b0: 9997 0f3e 448d edbd 2532 f0be 7ac9 b7bd
000002c0: 8545 963d 1d9e 453d 5deb cfbc 297a 5abd
000002d0: aa92 cb3d a090 51be 2a6a 33bf 31dc 0abe
000002e0: 5ed5 a7bc a8b5 53bd 4077 febd 0242 d23d
000002f0: 21d8 97be 54d1 1c3e b514 d1be 8ece 0ebf
00000300: 7b1b 6abe bfca a4bd 7a62 8bbd 3d10 e23e
00000310: 3800 e23e 7ac7 6f3e 32d6 07bf 7d34 4ebe
00000320: 9b58 123e dc8e 85be 1a0d f23d b59e eebc
00000330: 67e9 05be e6b5 8fbe e4b1 3ebd 1978 f63c
00000340: 04d8 82bd 449c 0b3e 2196 93bd 802a 2cbe
00000350: 1669 673e f747 963e 17cb b8bd 3559 0ebe
00000360: 5022 223e d580 fbbe edbf 193e 53d1 a83e
00000370: 9791 53be 8e53 46bd 1950 d5be 3c72 25bc
00000380: abec 203e e1df ba3d 0727 ee3d e366 7ebd
00000390: ac77 45bd a01f 693b e0ee bc3d 08e7 41be
000003a0: a87b 9fbd 5c3b 8dbd 217f b9bd 41af 47be
000003b0: 982b ae3c 4843 afbd c166 c5bd 9689 3f3d
000003c0: 022c 983c e14f 7cbc 325d 0d3e 42f9 353e
000003d0: 4b7d 933d 0d6d cabe 5200 123e f91d 0e3d
000003e0: 788f a0bd cdbb f7bc 1b6c 27be d734 0b3e
000003f0: a973 31bd 66b2 553d 0e96 e1be 620f dd3c
0.13095984 -0.060851477 -0.4188716 0.038462527 -0.013328146 -0.1641895 0.010690217 -0.2007879
0.24143817 -0.014393756 -0.66521287 -0.10278169 -0.35826284 0.030213932 0.058385596 0.064699225
-0.022860091 0.18318547 -0.6937123 0.22468585 -0.16255675 0.015286949 0.049590506 0.020435346
-0.5032853 9.992378e-05 -0.042301975 0.20180376 -0.143683 0.13537654 0.10855039 0.18378869
0.0116022285 0.100786865 -0.28518087 0.051087856 0.20321824 0.37022063 -0.021633679 -0.09422383
-0.015521207 -0.6051373 -0.3256046 0.2941111 0.10282733 -0.67049885 0.18258291 -0.006496747
0.14241417 0.19521348 0.23575777 -0.22350687 -0.036842663 -0.19325644 0.07616455 -0.27688032
0.014903369 0.24440947 0.09254442 0.12139568 -0.12763244 -0.01711097 0.28075856 -0.13149738
0.06978432 0.11747166 -0.42372608 -0.47815397 0.0009723705 -0.006873387 -0.10170844 -0.21012121
-0.03893583 0.18570858 -0.27819195 -0.12276486 0.015598298 0.07336725 -0.359555 -0.16593337
0.03161793 0.03628861 -0.25484833 0.028098073 0.46861696 0.069081165 0.19075584 -0.003914734
-0.2538024 -0.7102027 0.107561894 0.08932513 -0.12468721 -0.012755264 0.15455008 0.2029513
0.229831 0.16843016 0.32014653 -0.25044551 -0.15210173 -0.18614502 0.16329062 0.21365698
-0.1464098 0.006284177 -0.37754595 -0.12605771 0.20123759 -0.16308309 0.3173898 0.23661156
-0.4259091 -0.17578386 -0.19521768 0.13685094 0.45944718 0.20040153 -0.13976961 -0.024326727
-0.40986118 0.00040700205 -0.13545865 -0.17185135 0.113266625 -0.1703814 0.09672587 0.22298075
-0.24685009 -0.11675608 -0.23246866 -0.17182781 0.19283879 0.07761146 -0.27390337 0.2667858
-0.16992892 0.0015895092 -0.029362524 -0.03309422 0.07675956 -0.13732034 0.21101376 -0.12058501
-0.08935319 0.057837225 -0.41571122 -0.037308704 0.2308708 0.23751205 -0.18386582 0.039202943
0.007101481 -0.39111808 -0.00390493 0.14167808 -0.32447073 -0.007121786 -0.40610114 -0.4076362
-0.10175329 -0.16540332 0.3745949 -0.07756178 -0.46370545 -0.026883576 -0.028612785 -0.14722694
0.16724998 0.11231043 0.10962802 0.35593888 0.14022674 -0.1159921 -0.46913257 -0.089739755
0.073374785 0.04824649 -0.025380785 -0.053339157 0.09940083 -0.20465326 -0.7008387 -0.13560559
-0.020487484 -0.051686913 -0.12425089 0.10266496 -0.2965708 0.15314227 -0.4083611 -0.5578393
-0.22862045 -0.08046483 -0.06805892 0.44153014 0.44140792 0.23415938 -0.5306121 -0.2013721
0.14291613 -0.26085556 0.11818905 -0.029128412 -0.13077317 -0.28068465 -0.04655637 0.030086564
-0.06388858 0.1363383 -0.07206369 -0.16813087 0.22598681 0.2935178 -0.09023111 -0.13901217
0.15833402 -0.4912173 0.1501462 0.32972202 -0.20661007 -0.048419528 -0.41662672 -0.010098036
0.15715282 0.09124733 0.116285376 -0.06210984 -0.04820983 0.0035571828 0.09225249 -0.18935788
-0.077872574 -0.068960875 -0.09057451 -0.19500448 0.021261021 -0.08557755 -0.096387394 0.04676207
0.018575672 -0.015399904 0.13805082 0.17770866 0.07201632 -0.39536324 0.14257935 0.034696553
-0.078398645 -0.030240918 -0.16349833 0.13594376 -0.043323193 0.052172087 -0.44059795 0.026984874

l3/b f4 [9]
00000000: 3d6e 1cbe cef6 b5be 2ce6 89be 5939 d2bd
00000010: a3f2 5cbc e4b0 64bc 8648 9cbd f7b4 9fbe
00000020: 553e 61be
-0.15276428 -0.3553986 -0.2693342 -0.102648444 -0.0134855835 -0.01395819 -0.0763102 -0.31192753
-0.21996434

l0/b f4 [81]
00000000: f553 493e 4572 aabe e698 96be 00a6 a1be
00000010: 72a5 a1bd ef3c dabe cbe3 0dbf 052f 23be
00000020: 0e9e 51bd 08ae cbbc 04d9 d6be a516 29be
00000030: adf4 ecbd a2a3 3ebe 61b5 1cbf 3556 d3bc
00000040: c0d8 853e 1045 bdbe 5ff0 8cbe 1f5b 1cbd
00000050: 9ebe 8ebc 3139 b53e 5e4c 4abe c793 dbbe
00000060: 444b b1be 40fe 83be 32a4 8abe c638 b7bd
00000070: 7fc5 1bbe 1ec2 ddbe 53dd a8be 7442 41be
00000080: cdae 79be 40af 8dbe 46a5 b7be bdbb eabe
00000090: 629a 993d 60db 53bf bd17 8dbe 600a 8ebe
000000a0: 64e3 76be 0cce a43c a309 48be 9fb3 31be
000000b0: aeb6 aebe 91a7 d43d ab5e 26be a7d0 d5be
000000c0: 6693 22bf fefb 71be 0500 2fbe 01b9 92be
000000d0: b78b e3be 2813 e3be fc0d debe e287 b4be
000000e0: bef5 bfbe 2602 f4be 7825 ab3d beeb c1bd
000000f0: 46e2 36be e548 e4be 4766 bfbc 9315 7abe
00000100: c613 f8be cc7d 9e3e e018 86be 6667 85be
00000110: 5a39 8fbe 1e91 5bbf 9865 4bbe 6cd1 f3be
00000120: 7502 bcbe f8dc b3bd 7bb8 2cbe 7662 d8bd
00000130: 9d0d e1be b066 b9bd 59eb 7bbd 796a 81be
00000140: 9acf 7abe
0.19660933 -0.33290306 -0.29413527 -0.3157196 -0.07892884 -0.42624614 -0.5542571 -0.15935905
-0.051176123 -0.024863258 -0.41962445 -0.16512544 -0.11570106 -0.18617108 -0.6121426 -0.025797943
0.2614193 -0.36966753 -0.2752714 -0.038172837 -0.017424878 0.35395196 -0.19755694 -0.42886183
-0.34627736 -0.25779915 -0.27078396 -0.089463755 -0.15212058 -0.43312162 -0.32981357 -0.18873006
-0.24383087 -0.27672768 -0.3586828 -0.45846358 0.07500149 -0.82756615 -0.27557173 -0.2774229
-0.2411018 0.020117782 -0.19534926 -0.17353676 -0.3412375 0.10383523 -0.1624705 -0.41760752
-0.6350616 -0.23631284 -0.17089851 -0.28656772 -0.4444253 -0.44350553 -0.43370044 -0.3525992
-0.37492174 -0.4765789 0.08356756 -0.094687924 -0.17859754 -0.44586864 -0.0233642 -0.24422292
-0.48452586 0.3095535 -0.26190853 -0.2605545 -0.27973443 -0.85768306 -0.19862974 -0.47620714
-0.36720625 -0.08782381 -0.16867249 -0.10565655 -0.439557 -0.09052789 -0.061503742 -0.25276545
-0.24493256

l1/W f4 [81, 81]
00000000: 1ca1 75be 0d4d 5cbe 6860 34be a8d0 2c3c
00000010: 86e9 b13d cd63 583e 9843 4e3e 1724 ddbe
00000020: 20aa abbe e3fc 87be 3498 82be cc7e ffbd
00000030: 9318 50be 829a 3cbe 197b 59be fa95 693e
00000040: 0440 ee3c 7e05 3ebc 6b3b 3cbe bcd9 e13d
00000050: 9003 dbbd 205f bbbd 27ec 053b 032d 123e
00000060: c2a8 8e3c 4187 1abe 7cb0 b63e cc9a d4be
00000070: 60b6 6dbe ded6 83bd 3d64 04be 0941 76bd
00000080: da3e 873e 7df8 a1ba baa2 033e 8600 bdbe
00000090: 2b43 1ebd 3c87 98bd 051c 01be 22d3 b1bd
000000a0: f4fe ff3b d4db d93d cd68 0fbe 6e7b 7b3d
000000b0: 7884 be3d de46 563d ff60 013d 1d3e 43bd
000000c0: 3418 8f3e 7f48 d23d 6d51 2dbd 4fbd 14bd
000000d0: a520 853d b272 033e 5105 e33d 8f4d 0fbe
000000e0: f81a 9e3d a2f0 863e e26b c63d 3d9e 68be
000000f0: ac0c 533e 212d 20be e702 17be b5d7 16bd
00000100: c8ab 833e aab9 123d a4ad 263e 94ab bfba
00000110: c211 fe3b aadd 36be 1188 01be 5daf c73d
00000120: 0172 7ebe c1de f63d f7d2 d13d 8e72 d9be
00000130: 5149 22be 24d1 6d3d 81e5 4f3d 5485 083d
00000140: 5a16 30be 34e8 95be 3722 27bf 88b2 8abd
00000150: 7b03 153e d05b 06be 15c1 9f3e e448 103e
00000160: dea7 353e f2b0 82be c182 bebd 0586 8a3e
00000170: dd75 d33e ee46 b93e 352d 033e a1c0 8ebd
00000180: 651a 6abd 6000 333e 1e6a 17bd 4b5c 353e
00000190: a5f2 10be 78c8 383e 67e2 81be e853 9b3e
000001a0: 5df1 2fbe 1c4c a53c daac cb3d c796 ab3d
000001b0: d6de 6cbe fae7 25be 8100 aabd 2827 5a3d
000001c0: 747e aebd eff6 f23d aad4 393e af96 58bd
000001d0: aa33 1abe 287f 8abe 48b2 b73e 1bde 023e
000001e0: 4f97 8a3d d57b e5bb 9f88 a3be 404b d1bc
000001f0: c461 f33d a7b5 39be 2ab7 95bd 0b2b e2bd
00000200: 99c8 a7be 7f0e 0ebe 202f 103d cd34 963e
00000210: aa43 52be 1bf3 3e3e 1fce dbbe 8f04 eb3d
00000220: cacd 8cbd 621f bc3c 0339 d53e 148b f53d
00000230: 5b4d ddbe f08a d7be 7be9 653e 86f1 32be
00000240: 715e 59be 782b 173e 068c 1d3e 846e de3d
00000250: 3a86 a4be fb87 dd3d 3fd5 7c3b 15d8 203e
00000260: 9894 813e 95c2 1c3e 069c 98be 7d1d 8cbb
00000270: 24fc 57be 6b64 4ebe 993a 5a3e 45fd 1d3e
00000280: d94f e5bc 054c f2ba e1b7 483e 5df9 51bd
00000290: 209d 053e 8fcd 68bd fe26 a23e ced0 4d3e
000002a0: 6e14 e63d 82a6 b43d 36c0 cebe 2429 903d
000002b0: 0a38 51be d76d 96bd 6796 32be ad67 a4bd
000002c0: 16ea fdbd acf2 4b3e 682b ba3e 09ea 4a3e
000002d0: b199 84bd 69e4 ec3b dc87 7e3d 244e 8dbe
000002e0: a15d b8be fd9c 88bd 6338 0dbc e649 2fbe
000002f0: afd0 a3be 1d01 e2bd 6c64 0d3e e0f6 2cbe
00000300: 663a 313e a79e ebbb aaf0 5abd ddc0 a6bc
00000310: 9da5 ea3c 503d 5f3e 0267 66bc 5ea4 aa3e
00000320: eda8 87be d0c7 84bc 04b4 aabd 8f86 c9bb
00000330: 4294 c5bd 7d6a 01be fa2c 993e 972a 81be
00000340: 6b9a 123e 7009 52be 21e9 8b3d 8705 1b3e
00000350: 72e6 4abd 9e48 23bd adee 923d 9b1e 9a3d
00000360: 6625 b4be 2201 04be d93c f63c b622 a9be
00000370: 440b 53bd 2d5b a93d d416 a03d 7593 87bd
00000380: 3d8f 99bd 9450 c8bc f3d5 5ebe dbac b2bd
00000390: b183 13be 8497 04be 8be0 243e 100c b33c
000003a0: e4ae 803d abf0 dd3d 9cfc 37be 4c04 1c3d
000003b0: 4401 43bd cb0d acbe 27f3 49bd 9875 253d
000003c0: 6623 cfbc 8b00 6f3e f5a2 f03c df8e 123e
000003d0: f51d 4fbe b677 193d d151 3e3e e217 a73d
000003e0: 1c39 a7be cfa6 f53e ce3a 06be f2be 3fbc
000003f0: 3877 9f3e 3ff6 1abe d4d2 4a3e a913 413c
-0.2398724 -0.21513768 -0.17614901 0.010547794 0.08687119 0.21131821 0.20142972 -0.43191597
-0.33528233 -0.26560125 -0.25506747 -0.124753565 -0.20321874 -0.18418315 -0.21238364 0.22811118
0.02908326 -0.011597989 -0.18382041 0.11027858 -0.10694039 -0.09149003 0.0020434947 0.14274983
0.017414454 -0.15090658 0.35681522 -0.4152435 -0.23214102 -0.06437467 -0.12928863 -0.060120616
0.2641514 -0.001235738 0.12855044 -0.36914462 -0.038638275 -0.07447669 -0.12608345 -0.086828485
0.007812375 0.10637632 -0.14004822 0.06139701 0.0930261 0.052313678 0.031586643 -0.047666658
0.27948153 0.10267734 -0.04231398 -0.03631335 0.06500367 0.12836722 0.110849984 -0.1399443
0.07719988 0.26355463 0.09688546 -0.22716613 0.20610303 -0.15642215 -0.14747201 -0.036826808
0.25716996 0.035821594 0.16277176 -0.0014623278 0.0077535817 -0.17857996 -0.12649561 0.09750245
-0.24848177 0.12054206 0.102453165 -0.4247021 -0.1584828 0.05806078 0.05075598 0.033330277
-0.17196026 -0.2927872 -0.6528658 -0.067723334 0.14552109 -0.13120961 0.31201997 0.14090306
0.17739818 -0.25525624 -0.09302283 0.27055374 0.4130086 0.36186928 0.12810214 -0.06970335
-0.057154078 0.17480612 -0.036966436 0.17710988 -0.14155062 0.18045223 -0.25368044 0.30337453
-0.17181917 0.020177893 0.09945078 0.08378368 -0.2313188 -0.16201773 -0.08300877 0.05326
-0.08520213 0.11863505 0.18147531 -0.052878078 -0.15058771 -0.27050138 0.35878205 0.12780039
0.06767141 -0.0070032873 -0.3194017 -0.025548577 0.11883882 -0.18135701 -0.073103264 -0.11043366
-0.3277023 -0.13872717 0.035201192 0.2933716 -0.20533624 0.18647425 -0.42930695 0.11475479
-0.06875189 0.022964183 0.4164506 0.11989418 -0.4322308 -0.42098188 0.22452347 -0.17474946
-0.21227433 0.14762676 0.15385446 0.10860923 -0.32133657 0.10816952 0.0038579253 0.15707429
0.2530868 0.15308602 -0.29806536 -0.004275976 -0.21092278 -0.20155494 0.21311416 0.15428646
-0.027992176 -0.001848579 0.19601394 -0.051263202 0.1304822 -0.05683666 0.31670374 0.20099184
0.112343654 0.08820821 -0.4038102 0.07039097 -0.20431533 -0.07345169 -0.17440186 -0.08027587
-0.12398164 0.1991679 0.3636124 0.1981584 -0.06474627 0.007229377 0.062141284 -0.2759868
-0.36008933 -0.06670568 -0.008619401 -0.17118034 -0.3199515 -0.110353686 0.13807839 -0.1689105
0.17307433 -0.0071905437 -0.05345217 -0.020355636 0.028643424 0.21800733 -0.014062645 0.33328527
-0.26496068 -0.01620856 -0.083351165 -0.006150074 -0.096474186 -0.12638278 0.29917127 -0.25227806
0.14316718 -0.20511413 0.06831575 0.15138827 -0.049536176 -0.039864175 0.0717443 0.07525369
-0.35184783 -0.12891057 0.030058311 -0.33034295 -0.051524416 0.082693435 0.07816854 -0.06619922
-0.07498024 -0.024452485 -0.21761303 -0.08724376 -0.14405705 -0.12948424 0.16101281 0.021856338
0.06283358 0.108369194 -0.17967457 0.038090035 -0.04760863 -0.33604273 -0.049304154 0.04039535
-0.025285434 0.23340051 0.029374579 0.14312313 -0.20226271 0.03746768 0.18585898 0.08158852
-0.32660758 0.47978827 -0.1310837 -0.01170324 0.31145644 -0.15132998 0.19806987 0.0117844725

l2/W f4 [81, 81]
00000000: 8e66 4abe b5d6 81be b601 263d 695f 0a3e
00000010: ddd3 cebe f71e 783e 8cab f13d 4be5 87bd
00000020: df07 f83d 4b48 8ebc b36c 043d 8426 293a
00000030: b87d 693b e00c b2bd 17f3 2abd 303d 463d
00000040: 90fb 24be 89b8 9db9 7c22 2a3e baf4 93bc
00000050: 077d 813e 6392 8f3d f349 703e beea 33be
00000060: 4b89 42bd 8384 6ebe 59d9 02bf 8996 92bd
00000070: fb4a 2e3e f2fa 59be 7d19 6bbd 37a2 e2bd
00000080: 892b 2dbe b888 3bbd 5540 103e 21b6 13bf
00000090: f0ac 773d 44aa d23d 2107 c7be 53a8 b63e
000000a0: d033 01be 141c ff3d 5236 763e 706d 24bd
000000b0: 3c77 a9be 727a 683e ff33 a13d 20a8 ffbb
000000c0: ecbe 05be c40e 55be 956f 333e 4fcc 18be
000000d0: 4c69 0abe 233c 47be ab37 d9bd 40f6 57bd
000000e0: 3c93 a23e 1682 47bf df3b af3e f6e0 8cbe
000000f0: 145e 42be 2843 bebc 42c9 3dbe b6f0 c2bd
00000100: 514b cc3d 8324 cf3c 501b e4bd 1eb9 10bf
00000110: 888a b83d 34e1 203d a387 623e 7090 fcbd
00000120: b5b6 f6bd 929a aebd a16f 843d dfb8 16be
00000130: 6c20 c5be 97c5 9bbd f7e1 95bd d6ac cabe
00000140: dd13 323d d8fb 1b3d e2db c4be fd81 ed3d
00000150: f2f0 083e 14e2 5d39 ebf4 76be bd9b 72bd
00000160: 6377 63be a3dd c7bd e68c 703e 191a 2b3d
00000170: 84c9 32bd d743 733d 6608 1abe a133 fabd
00000180: f1c2 f5bd d744 7d3d 90e1 953d 7008 113e
00000190: b710 b2be cf60 393e 0425 e43e 4d9f 883e
000001a0: 63bd de3c 6297 863d f966 0fbe 86aa 7d3e
000001b0: df50 3cbe 1cc9 a53d aefe 53bc 0a86 61be
000001c0: c0ca f2bc 2f5f 333e 0576 133e cfe7 00bd
000001d0: 9b33 adbe c0ba b9bc 5a07 553d deb4 e5bd
000001e0: f9b9 00be 83d7 22bf 1455 92be 0797 c9be
000001f0: bffc ff3d a3db 28be 5515 2ebd 555b ddbc
00000200: 1a73 65be 93ae 2abe 99ba 523e d8e8 92be
00000210: ab64 26bd 0a1c 6cbc d73b 563e 66bd 3d3e
00000220: 9ccf 313e 57eb e8bd 2683 5d3d a5e6 2fbe
00000230: e463 353e 2304 21be 6268 ba3c 8fb2 463e
00000240: b261 93be a747 14be 78e9 433d 08c6 0a3d
00000250: c946 8c3e f317 e03c 8de2 74be 0e17 afbc
00000260: 1645 0bbe 4116 16bd f5ec 4cbe 5b3c d9bd
00000270: dbcd c93d 6d36 9cbd 7aaf 32bd e5f1 d83d
00000280: c03a c83e 3b31 a73e 2595 75be d657 f83d
00000290: 0475 023e 7b11 50bc 8645 d23d 805d ef3c
000002a0: 9b8e 39be 649d 62be 3ed7 09be 64cf f5bb
000002b0: b9e2 7d3e 8543 80bd 4a63 90bd 9584 d0bd
000002c0: 2b55 adbc c97c d6be 0630 92bd ad57 51be
000002d0: 6923 b53d 5db1 48be e946 23be 0502 d1be
000002e0: 6b22 2abb 44f9 18be d19d 90be a522 01be
000002f0: a618 01be 0803 d2bd 3ff8 55bd 1ea9 543e
00000300: 3aa5 8b3e 1b47 2abe 2900 623d 53d5 653d
00000310: c595 ecbb a484 b43e 05b5 24bf a8eb 603e
00000320: 757a 8f3d 2e50 c4be a222 b2bd b902 72be
00000330: a57b 2abe 9f36 653e c918 41be 2a52 d2bd
00000340: 4f23 233e b2f8 8dbe e526 d73d 94ba 35be
00000350: 42f1 ac3d 48d2 d53c eaab c6be ca84 b1be
00000360: b1cd b6bd cd90 0cbe 5b6d 8d3e 848a 99be
00000370: 3844 babe f4ff 54be 4f5c 7b3e fb1c c3be
00000380: 3bac e0be 694e b0bd c43b 1ebe 1711 57be
00000390: ce64 ffbd 5930 9fbe c964 62be 50bd 2fbe
000003a0: 3a58 82be 3697 a33a a82d 8bbe 05aa 253d
000003b0: d3e6 d9be 6774 b23c a9dd 56bd 29d2 f03d
000003c0: df3f 19bd cf88 2dbe 631d 993c 5505 613d
000003d0: 6ca6 fbbd 4ed1 03be 5626 0ebe fe78 64be
000003e0: 6a66 ddbc b7c2 4c3e 3390 4f3d da8f c6be
000003f0: aed1 05bd 395f 00be f3c6 063c 22c7 c1bd
-0.19765684 -0.2535912 0.040528975 0.13512959 -0.40396014 0.24230562 0.11800298 -0.06635531
0.12110876 -0.017368456 0.032330226 0.00064525777 0.0035627913 -0.08693862 -0.041735735 0.048398197
-0.16111588 -0.00030082863 0.16614717 -0.01806103 0.252907 0.07010343 0.2346571 -0.17570016
-0.047494214 -0.23292737 -0.51112896 -0.071576186 0.1702079 -0.21287134 -0.057397354 -0.11066096
-0.16911139 -0.045784682 0.1408704 -0.5769978 0.06046766 0.10286382 -0.38872626 0.35675296
-0.12617421 0.12456527 0.24044159 -0.04014343 -0.3309878 0.22702959 0.078712456 -0.0078020245
-0.13061112 -0.20806414 0.17523034 -0.14921688 -0.1351673 -0.19456534 -0.10606321 -0.052725077
0.31752956 -0.7793287 0.34225366 -0.27515382 -0.189812 -0.023225382 -0.18533805 -0.09518568
0.09975303 0.025285965 -0.11138022 -0.56532466 0.09010798 0.03927727 0.22122054 -0.12332237
-0.12046567 -0.08525576 0.06466604 -0.1471896 -0.38501298 -0.07606047 -0.0731849 -0.39584988
0.043475974 0.038081974 -0.38449007 0.11597059 0.13373163 0.00021160423 -0.24116866 -0.059230555
-0.22213511 -0.09759071 0.23491248 0.041772936 -0.04364921 0.05939087 -0.15042266 -0.12216879
-0.12000073 0.06183323 0.07318413 0.14163375 -0.34778377 0.18103336 0.4455949 0.26684037
0.027189916 0.06571843 -0.14004125 0.24772081 -0.18390225 0.08094999 -0.012939138 -0.22023788
-0.029637694 0.17516778 0.1440049 -0.03147107 -0.33828434 -0.022672057 0.052008964 -0.11216138
-0.12570943 -0.63610095 -0.28580534 -0.39373037 0.12499379 -0.16490035 -0.042500813 -0.02702109
-0.22407189 -0.16668157 0.20578994 -0.2869327 -0.04062335 -0.014410982 0.20921265 0.18529281
0.17364353 -0.113730125 0.05408015 -0.17177828 0.17713886 -0.15724234 0.022754852 0.19404052
-0.28785473 -0.14480458 0.047830075 0.033880264 0.27397755 0.02735517 -0.23914547 -0.021373298
-0.13600573 -0.036642317 -0.20012267 -0.10607215 0.09853717 -0.076275684 -0.04362438 0.10593013
0.39107323 0.32654747 -0.23982675 0.121261284 0.1273995 -0.01269948 0.10267167 0.029219389
-0.18120806 -0.22130352 -0.13461015 -0.0075015295 0.24793519 -0.06262878 -0.07050188 -0.10181538
-0.021158775 -0.4189208 -0.07138066 -0.20443602 0.088446446 -0.19598909 -0.15945019 -0.40821853
-0.0025960456 -0.14938837 -0.28245404 -0.12610872 -0.12607059 -0.102544844 -0.0522387 0.20767638
0.27274495 -0.16628687 0.055175934 0.056111645 -0.0072200024 0.35257447 -0.64338714 0.21964896
0.07005779 -0.38342422 -0.08698012 -0.23633851 -0.16648729 0.22384118 -0.18857111 -0.10269578
0.15931438 -0.27728802 0.105054654 -0.17746955 0.08444454 0.026101246 -0.38803035 -0.34671623
-0.08925951 -0.13727112 0.27622494 -0.29988492 -0.36380172 -0.20800763 0.24546932 -0.38108048
-0.438814 -0.086087056 -0.15452486 -0.21002613 -0.12470399 -0.31091574 -0.22108759 -0.1716206
-0.25457937 0.0012480977 -0.2718327 0.040445346 -0.42558917 0.02178402 -0.052457485 0.11758835
-0.037414428 -0.1694672 0.01869077 0.054936726 -0.12287602 -0.12872812 -0.13881811 -0.2231178
-0.027026374 0.19996153 0.05067463 -0.38781625 -0.03267067 -0.12536325 0.008226144 -0.0946181

l1/b f4 [81]
00000000: ca72 fbbd 3b3f 5fbe 2403 38be 13af 80be
00000010: 2aed e1be 3cab 5fbe 1d8f 82be cc2a 1cbe
00000020: 21f3 b9be 781a f9bc 6b2b 8cbe 430d 07be
00000030: 1b4e 68be ec15 dbbd 29b4 c7bd 57ba c8bd
00000040: 7638 febe a3dc 0ebe 7aa7 a03d d28d e0bd
00000050: bc1a 93be 00ee 43be 745d d9be f6dd d9be
00000060: c3f8 cabe 3778 d3be b437 69bc 79c2 a7be
00000070: f6cc 9abd fb3c ea3c 2f06 8dbe 2e14 ddbb
00000080: ea7b a13d 6171 99be 7db8 f1bd eb81 b93d
00000090: 079b 25be 4ff1 03be f296 47bf 70b3 96be
000000a0: ca0b f03d 1e07 33be fffe 8dbe 36fb 2bbe
000000b0: a070 88be 9acf 2c3e bcc8 0cbe 8ae4 54be
000000c0: 4bb9 8bbc 94a5 d9be 8e91 72be fe5e 80be
000000d0: 270e 55be 23eb a9bd 24c4 c8be 1c89 4cbd
000000e0: e5ec 2dbd 5d68 26be 27fe 763c 0c39 e2be
000000f0: 4c24 b8bd bcaf 92be b701 7bbe a326 f7be
00000100: 6b41 843d 511b 57bd c79e 0fbf 797c 18be
00000110: 8cfb 12be 05c3 3cbe 979c 6ebd ee0d 40bd
00000120: 204d ae3e a3c3 e8bd 8b58 e9be c6e5 72be
00000130: 96a4 f13c 6eba cf3b 2c32 ee3d 56a4 77be
00000140: cef2 99bd
-0.12277754 -0.21801464 -0.17969948 -0.2513357 -0.44126254 -0.21842664 -0.25499812 -0.152507
-0.36318305 -0.03040813 -0.27376875 -0.13188653 -0.22686045 -0.10697541 -0.0975116 -0.098011665
-0.4965245 -0.13951354 0.078444436 -0.1096455 -0.28731334 -0.19133759 -0.42454112 -0.42552155
-0.39642915 -0.41302654 -0.014234472 -0.32765558 -0.075586244 0.02859353 -0.2754378 -0.0067467904
0.07884963 -0.29969314 -0.118027665 0.09057983 -0.1617242 -0.1288502 -0.779647 -0.29433775
0.117209986 -0.17483184 -0.2773361 -0.16795048 -0.26648426 0.16876069 -0.13748449 -0.20790306
-0.017056128 -0.4250914 -0.23688337 -0.25072473 -0.2080618 -0.08296802 -0.39212143 -0.049935445
-0.04246225 -0.16250749 0.015075243 -0.44184148 -0.08991298 -0.286497 -0.24512373 -0.48271665
0.0645779 -0.052516285 -0.5610165 -0.14891233 -0.1435377 -0.18433769 -0.058254804 -0.046888284
0.34043217 -0.1136544 -0.45575365 -0.23720464 0.029497426 0.006339363 0.11630663 -0.24183783
-0.075170144

l2/b f4 [81]
00000000: 8411 04be 0bbd f1bd 18a0 43be 6ff0 8dbc
00000010: e4b6 9b3d 994a b1be 7086 cdbe 0a3b 27be
00000020: 8bd2 2abe 198a 283e af8f d3be 9f1b 9d3d
00000030: df3f e7bd f49f 37be d8f6 1cbc f3bf 633e
00000040: 78b1 aabc 44c4 92be 1e1f 80be b69c c2be
00000050: 1863 2dbe 619b cb3d 601a 63be d85f a0be
00000060: 903f 19be dcdd ffbd 3bcf 69be 777a 89be
00000070: 435e 74be 7a72 4cbe 8de5 60bd 1050 1ebe
00000080: b2a2 9abe 21e6 6fbe 3abb 00be fed1 d9bd
00000090: 138e 77be cb89 ea3d de5d 8ebe e88a 09be
000000a0: 93e3 873d acb7 3ebe 0d2d 92be 0ed1 85bd
000000b0: 843f b8bd e1e4 5bbe 0ceb 53be ef2a 04be
000000c0: b7d4 56be a6e2 a8be c343 babe 3b65 2cbe
000000d0: 0408 14be 40af 8bbe c8a6 01bd 5092 073e
000000e0: 0390 cc3d e603 9f3c dc74 373a 6af6 9fbd
000000f0: 732d debe bb09 eebd 7612 90be 3c01 8ebd
00000100: 668d bdbd 044e 21be b1eb a8be f2c9 43be
00000110: 985d aebe 0787 64be 35e9 9abe 7e62 b4be
00000120: 3575 15be 43b3 78be e8d9 49be ce44 0abe
00000130: c601 05be 4237 7abe d112 98be 110e d3bd
00000140: 3ba6 46be
-0.12897307 -0.11803635 -0.1910404 -0.017326562 0.07603243 -0.34627226 -0.4014163 -0.16331115
-0.16681878 0.1645893 -0.4132056 0.07671284 -0.11291479 -0.17932111 -0.0095803365 0.22241192
-0.020836577 -0.28665364 -0.2502374 -0.38010186 -0.16932333 0.099417455 -0.2217803 -0.31323123
-0.14965653 -0.12493488 -0.22832958 -0.26851246 -0.23864083 -0.19965544 -0.054906417 -0.15460229
-0.30202252 -0.23427631 -0.12571421 -0.10635756 -0.24175291 0.11452063 -0.2780599 -0.13431895
0.06635203 -0.18624753 -0.28549996 -0.06534015 -0.0899649 -0.21474029 -0.20695132 -0.12907003
-0.20979582 -0.3298542 -0.36379823 -0.16835491 -0.14456183 -0.27282143 -0.031653196 0.13239408
0.099884056 0.019411039 0.00069983094 -0.07810672 -0.4339405 -0.1162295 -0.28139085 -0.06933829
-0.09255485 -0.15752417 -0.32992318 -0.19120005 -0.3405578 -0.22317134 -0.30256048 -0.35231394
-0.14595492 -0.24287133 -0.19712031 -0.1350281 -0.12988958 -0.24435142 -0.29701856 -0.10305417
-0.1939935

l0/W f4 [81, 9]
00000000: 94e1 fd3e 3d43 1b3d 9879 b33d 4aba 683e
00000010: b72f e43d d96e cf3e 2a88 f83e 3398 903d
00000020: 5858 2f3f b50b 943d c9c2 993f 9183 f73d
00000030: 7011 5bbe 15cb 303f 5e04 32be 961b 8a3c
00000040: 6784 243f a3ac c03e 2d1b 6cbd 0e14 843e
00000050: 318e 4e3e 2fd2 2ebf bac0 4a3e 2305 f03d
00000060: 94ee 2abf 01cf fe3d 42f4 87be 5b0e f43e
00000070: 944a be3d b5e3 6a3d 7964 34be a7a9 003e
00000080: c01e b7be 8b37 87be 94fd ccbb ccb6 bdbe
00000090: ff97 ea3e f0f3 803c bb10 3cbc 39fa bcbc
000000a0: 9791 febe 040b 04bd f651 d0bb 2888 02be
000000b0: 37eb eabe ede3 94be ea0c dcbe fcba e63e
000000c0: d5b6 183f d8a7 69be f58b 8d3d 7c32 acbe
000000d0: 18c3 53bf 301f 9e3d b052 a3bd 30df 14bf
000000e0: 9c88 13bf aa71 533e 33ce c0be 5cb0 843d
000000f0: b7ee 283f 0003 88be 6939 95be 5259 c9be
00000100: 2dfb 94be 1d34 8abe 1119 bbbe 44f8 41be
00000110: d9b7 07bd 6fb1 a2be 2e62 333f 8d30 cabe
00000120: 3a0a be3e a5b6 f83d 2755 563e b86e 32be
00000130: a8b5 853c bdca 5d3d 1649 afbd 57b6 5bbf
00000140: eb8d a43e 687b 543e 1e5c a5bd 57c1 2e3e
00000150: a3f8 003f b43d bebe 7b6c 47be 31db cf3b
00000160: 0477 9e3c 4673 983e c44e e03d 2b13 ddbe
00000170: 5493 ddbe f174 61bd 5083 573c 5ab8 e7bd
00000180: 3194 54bf ce47 03bf 0845 42bf 44d3 ea3e
00000190: 478c 0f3e 0591 75bd 071b 533d 3ef1 3c3f
000001a0: 63b6 263f 0fec c53e d67e 0a3d 456f 6fbd
000001b0: 2ae9 f63e d68e 0e3f 7b22 d73e 2f63 043e
000001c0: 41bb 183f 480a 15be 353d 53be 96d9 c83e
000001d0: 88f6 9a3e 7233 5e3f 64dd d7be 88c6 023e
000001e0: b395 7c3e 9bc1 de3e 84ef 0a3f e1f3 c93c
000001f0: 3847 89be ad0c 1c3f c344 1fbe 58a9 763d
00000200: 2c27 66bf 0f83 6a3d 30fd 33bf a17d 59bd
00000210: d619 50bf f70f 833e 6ab5 50bc 4382 193e
00000220: 6e0c 033f 3c37 ba3e 7c31 e43e 96aa e03e
00000230: 0045 aa3a 8941 0d3e 9a44 39be 23e7 123e
00000240: 7f4a 5c3f 7d70 3f3e 86a8 d33e f979 a33e
00000250: 0649 ab3e 8960 243f 4e30 da3e e4c3 873e
00000260: 21e2 653e 3a44 8dbe 0bf0 773e 753f c9be
00000270: 2b05 a6be 218e 02bf 4144 0abf 08bb 923e
00000280: f453 b9bc 2ad8 6ebd a0cc 573d 8e1c 98be
00000290: e532 933d f5e9 ae3c 96d7 03be cc38 673f
000002a0: 04b8 1b3e e561 cebd 66f7 7e3d 6be4 9e3b
000002b0: a7e1 c13c 9719 0cbe 7372 413e 1a0d b6be
000002c0: dea6 b43e 4dd6 8dbe d41e 32be c65b 8d3e
000002d0: 21b6 2cbe a4c1 863d 6dab ee3e 3ebc 04be
000002e0: f790 0abd 3130 c23e 463d d83e 983a a23e
000002f0: bfed a4be fca7 e13e 71f6 4c3f 78f2 ed3e
00000300: a95c d63e 3d14 e23e f8b0 463f ece9 e03e
00000310: d5c2 c73e f879 f13e 8883 583d 9561 b23e
00000320: 2ee0 dbbe ae26 80be 025c f2b9 77b3 623e
00000330: 4cd9 483e faf4 f03e 768e 293e 8c8e 693e
00000340: a1bd 283e d968 f5bd 19d2 98be 6f41 64bf
00000350: 4db8 a5be f6de 3bbe e939 d73c da83 cd3e
00000360: 5771 01bd 168a 13be 4b9d cbbe 16f2 593f
00000370: 8aeb ddbe 85b9 e2be 133a 6bbe d635 edbc
00000380: 3dd3 fabe 3a8b 6c3d 759e 19bc 4639 1b3f
00000390: 85a0 9abd b4e7 ff3d e675 febe f3f0 ccbc
000003a0: f47a 43be bd37 2d3f 2b49 adbe 502f 4ebc
000003b0: 5837 333c 34df 4c3e abad 943e 739e 9a3e
000003c0: 2d43 ea3e abe5 f9be 7aa6 a03e aa94 133f
000003d0: cc8e a4be a85b 65be 4bca e33e 2ff8 64bd
000003e0: 56fe a4be f9ad 1e3d 6e86 433d 1476 123e
000003f0: 290a e73e 5a13 1e3e f5df 033e c156 e5bd
0.49586165 0.03790592 0.087634265 0.22727314 0.111419134 0.40514258 0.48541385 0.0706028
0.68494177 0.072287954 1.2012569 0.12085641 -0.2139337 0.6905988 -0.17384478 0.016858857
0.6426453 0.3763171 -0.057643104 0.2579655 0.20171429 -0.68289465 0.19800082 0.1171973
-0.6677029 0.124418266 -0.2655354 0.47667202 0.092915684 0.057346065 -0.17616452 0.12564717
-0.35765648 -0.26409563 -0.006255815 -0.37053525 0.4581909 0.015741318 -0.011478598 -0.023068534
-0.4972045 -0.032237068 -0.0063574268 -0.12747252 -0.4588258 -0.29080144 -0.42978603 0.45064533
0.5965398 -0.22817934 0.0691146 -0.33632267 -0.82719564 0.07720792 -0.07974756 -0.5815306
-0.57630324 0.20648828 -0.37657318 0.064789504 0.6598925 -0.2656479 -0.29145363 -0.39325958
-0.29097882 -0.26992884 -0.36542562 -0.18942362 -0.033134315 -0.31775996 0.70071685 -0.39490166
0.37117177 0.12144212 0.2093092 -0.17425048 0.016321972 0.054148424 -0.08558862 -0.85825104
0.32139525 0.20750201 -0.080742106 0.17065941 0.5037939 -0.3715645 -0.19474976 0.0063432683
0.01934386 0.29775447 0.10952523 -0.43178686 -0.43276465 -0.055043165 0.013153866 -0.11314459
-0.8303862 -0.5128144 -0.75886583 0.45864308 0.14018355 -0.059952755 0.051539447 0.73805606
0.6512205 0.3865666 0.033812366 -0.058455724 0.48224765 0.556867 0.42018494 0.1292846
0.59660727 -0.14554703 -0.20628817 0.39228505 0.30266213 0.8679725 -0.42161095 0.12771046
0.2466648 0.43507084 0.5427172 0.024652423 -0.26812148 0.6095684 -0.15553574 0.060220093
-0.8990352 0.057253893 -0.7030821 -0.053098325 -0.8128942 0.25598118 -0.012738565 0.14991097
0.5119084 0.36370265 0.44569004 0.43880147 0.0012990534 0.13794531 -0.18092576 0.14345984
0.8605117 0.18695255 0.4133951 0.31928995 0.3345415 0.642098 0.4261498 0.2651664
0.22449543 -0.27591115 0.24212663 -0.39306226 -0.32425818 -0.5099812 -0.540104 0.2865832
-0.02262304 -0.05831162 0.05268538 -0.29709285 0.07187442 0.021351794 -0.12875208 0.9032104
0.15206915 -0.10077266 0.062247656 0.004849007 0.02366717 -0.13681637 0.18891315 -0.3555687
0.3528356 -0.2770256 -0.17394572 0.2760908 -0.16866352 0.06579903 0.46615162 -0.12962434
-0.033829655 0.37927392 0.42234248 0.31685328 -0.32212636 0.44073474 0.8006354 0.4647405
0.4186757 0.44156066 0.7761378 0.43928468 0.39015833 0.47163367 0.052859813 0.34840074
-0.42944473 -0.2502951 -0.00046226388 0.22138773 0.19614142 0.47061902 0.16558251 0.22808284
0.16478588 -0.11982889 -0.29847792 -0.89162344 -0.32367173 -0.18346772 0.02627273 0.40139657
-0.03160223 -0.14408144 -0.39768443 0.8513502 -0.43343765 -0.44282165 -0.22971372 -0.028956335
-0.48989287 0.057749964 -0.009376158 0.6063427 -0.07550148 0.12495366 -0.49699324 -0.025017237
-0.19089872 0.67663175 -0.33844885 -0.012584522 0.010938488 0.2000702 0.29038748 0.30199012
0.45754376 -0.48808035 0.31377012 0.5764872 -0.32140195 -0.22398245 0.44490275 -0.05590075
-0.32225293 0.038740132 0.047735624 0.14302856 0.4512494 0.1543707 0.12878402 -0.111981876
