chainerrl/TicTacToe/result_130000/target_model.npz (npz, 56592 bytes, 8 tensors)

l3/W f4 [9, 81]
0	0x3e04b82c	0.12960881
1	0xbd7db39f	-0.06193888
2	0xbed5342b	-0.41641364
3	0x3d1c1ac5	0.038111467
4	0xbc4f2b7e	-0.012644647
5	0xbe2765d9	-0.16347446
6	0x3c28ca59	0.01030215
7	0xbe4d49a9	-0.2004763
8	0x3e75d0df	0.24005459
9	0xbc78b8fb	-0.0151808215
10	0xbf2a2065	-0.6645568
11	0xbdd11055	-0.10208193
12	0xbeb8634b	-0.36013255
13	0x3d018e5a	0.031629898
14	0x3d7ca57f	0.061681267
15	0x3d81818a	0.06323536
16	0xbcd92f98	-0.026511952
17	0x3e3e419e	0.18579718
18	0xbf31bf11	-0.6943217
19	0x3e668baf	0.22514223
20	0xbe29dca3	-0.16588072
21	0x3c5f91ba	0.013645584
22	0x3d4ba24b	0.04971532
23	0x3cbb06bc	0.02283036
24	0xbf014d18	-0.5050826
25	0xba086b62	-0.00052039896
26	0xbd27d42c	-0.040973827
27	0x3e4b67fd	0.19863887
28	0xbe147bcf	-0.14500354
29	0x3e09a6fa	0.13442603
30	0x3ddf3e2b	0.109005295
31	0x3e3bf5ab	0.18355434
32	0x3c31355e	0.010815946
33	0x3dd1533d	0.102209546
34	0xbe91d80e	-0.2848515
35	0x3d4cb1f5	0.0499744
36	0x3e4cf5f3	0.20015697
37	0x3ebdab9e	0.37044996
38	0xbca8bc48	-0.020597592
39	0xbdc16548	-0.09443146
40	0xbc8296e8	-0.015941098
41	0xbf1b6580	-0.6070175
42	0xbea6eb9a	-0.32601625
43	0x3e961b68	0.29317784
44	0x3dd830d1	0.10556186
45	0xbf2beee0	-0.6716137
46	0x3e3c5baa	0.18394342
47	0xbbc18932	-0.0059062475
48	0x3e11d023	0.14239554
49	0x3e467551	0.1938069
50	0x3e70a4da	0.23500386
51	0xbe62c723	-0.22146277
52	0xbd2374d7	-0.03990635
53	0xbe46255b	-0.19350187
54	0x3d99f2b3	0.07516994
55	0xbe8dab94	-0.27669966
56	0x3c767c66	0.015044307
57	0x3e79d39a	0.24397126
58	0x3dbe721a	0.09299107
59	0x3df9b8e5	0.12193469
60	0xbe024795	-0.12722619
61	0xbc7b85e8	-0.01535175
62	0x3e8ec838	0.2788713
63	0xbe06d505	-0.13167198
64	0x3d919ff3	0.07110586
65	0x3df25b23	0.11833789
66	0xbed9e3f3	-0.42556724
67	0xbef47847	-0.47748014
68	0x3ab8ac88	0.0014089504
69	0xbbe1f54b	-0.0068956963
70	0xbdceca60	-0.10097194
71	0xbe57d329	-0.21076645
72	0xbd218654	-0.039434746
73	0x3e3e4228	0.18579924
74	0xbe8e0d9d	-0.2774476
75	0xbdf5aefb	-0.119962655
76	0x3c978bf0	0.018499345
77	0x3d94bab4	0.07262173
78	0xbeb82c35	-0.35971227
79	0xbe299582	-0.16560939
80	0x3d0df3c3	0.034656297
81	0x3d1f1c71	0.038845483
82	0xbe83a542	-0.2571202
83	0x3cbce538	0.023058519
84	0x3eec922d	0.46205273
85	0x3d83b828	0.064316094
86	0x3e3f0ede	0.18658015
87	0xbb71a1b1	-0.0036870057
88	0xbe80f74b	-0.2518867
89	0xbf34de2c	-0.7065151
90	0x3dd22dbb	0.10262629
91	0x3db783e1	0.08960701
92	0xbdfcc2ea	-0.123418644
93	0xbc79727a	-0.015225047
94	0x3e1be9d7	0.15225922
95	0x3e4e1641	0.20125677
96	0x3e6f2535	0.23354037
97	0x3e2d7285	0.16938217
98	0x3ea5b305	0.32363144
99	0xbe7e182c	-0.24813908
100	0xbe1c921e	-0.15290114
101	0xbe3cbdce	-0.1843178
102	0x3e1fdee9	0.15612377
103	0x3e5a7948	0.21335328
104	0xbe1782bc	-0.14795965
105	0x3b00c170	0.0019646548
106	0xbec24ba3	-0.3794833
107	0xbe030928	-0.12796462
108	0x3e4aeccc	0.19816893
109	0xbe2db06c	-0.16961831
110	0x3ea39f9f	0.3195772
111	0x3e6f1a1e	0.23349807
112	0xbed82e1d	-0.42222682
113	0xbe32a631	-0.1744621
114	0xbe46eb1d	-0.19425626
115	0x3e0abba3	0.1354814
116	0x3eea689f	0.45782945
117	0x3e50fa05	0.20407875
118	0xbe12accd	-0.14323731
119	0xbcd20fa0	-0.025642216
120	0xbed0562a	-0.40690738
121	0x398c975a	0.00026815647
122	0xbe0f5e11	-0.14000727
123	0xbe2df506	-0.16988
124	0x3de42659	0.11140127
125	0xbe358f4c	-0.17730445
126	0x3dc019de	0.09379934
127	0x3e68598e	0.22690412
128	0xbe7911b3	-0.24323158
129	0xbded669d	-0.115918376
130	0xbe6db1cc	-0.23212355
131	0xbe2bf0d2	-0.16791084
132	0x3e3f70a4	0.18695313
133	0x3d9926ad	0.0747808
134	0xbe8b8792	-0.2725187
135	0x3e886dd5	0.26646295
136	0xbe324809	-0.17410292
137	0xbc1809e7	-0.009279705
138	0xbce99889	-0.028515117
139	0xbd1a3d8a	-0.037656344
140	0x3da1bc79	0.078972764
141	0xbe0c60b9	-0.13708772
142	0x3e584be1	0.21122696
143	0xbdf57e80	-0.119870186
144	0xbdae6985	-0.0851622
145	0x3d69c7f5	0.05707546
146	0xbed3afaa	-0.4134496
147	0xbd0fbc88	-0.035091907
148	0x3e6b8556	0.23000082
149	0x3e73c0ed	0.23804064
150	0xbe3b6618	-0.18300664
151	0x3d2874c3	0.041126978
152	0x3b8c809a	0.0042877914
153	0xbec9aaa6	-0.39388007
154	0xbaa35acd	-0.0012462974
155	0x3e1081ad	0.14111967
156	0xbea4f2d4	-0.32216513
157	0xbc76f825	-0.015073811
158	0xbece8dd0	-0.4034257
159	0xbed3d1eb	-0.41371092
160	0xbdd83175	-0.10556308
161	0xbe288398	-0.16456449
162	0x3ebf9f18	0.37426066
163	0xbd9bc12a	-0.076052025
164	0xbeebf595	-0.46085802
165	0xbcce0a04	-0.02515126
166	0xbcf08280	-0.029359102
167	0xbe13f90e	-0.14450476
168	0x3e2c91b5	0.16852458
169	0x3de451bf	0.11148404
170	0x3de00e5c	0.10940239
171	0x3eb71e60	0.35765362
172	0x3e105db4	0.14098245
173	0xbded7a3c	-0.1159558
174	0xbeee6af9	-0.4656599
175	0xbdb6dc91	-0.089287885
176	0x3d994c88	0.074853
177	0x3d3efaff	0.046626087
178	0xbcd7c26f	-0.02633783
179	0xbd5c3c72	-0.053768583
180	0x3dc70fb3	0.09719791
181	0xbe50d5ce	-0.2039406
182	0xbf33dde1	-0.70260435
183	0xbe09fd33	-0.13475494
184	0xbc957cde	-0.018248018
185	0xbd50ef46	-0.05100944
186	0xbdfe8236	-0.124271795
187	0x3dd680e8	0.10473806
188	0xbe9751ca	-0.29554588
189	0x3e1dcb91	0.15409686
190	0xbecfabaa	-0.40560657
191	0xbf0eab60	-0.5573025
192	0xbe6b0de5	-0.22954519
193	0xbda16652	-0.07880844
194	0xbd870acc	-0.06593856
195	0x3ee36de2	0.4441977
196	0x3ee0b106	0.43885058
197	0x3e6df940	0.23239613
198	0xbf085b94	-0.5326474
199	0xbe4f74df	-0.20259427
200	0x3e11b71f	0.14230011
201	0xbe82dc79	-0.25558832
202	0x3dee3184	0.11630538
203	0xbcd211f4	-0.025643326
204	0xbe061dd2	-0.13097313
205	0xbe9092ae	-0.28236908
206	0xbd437951	-0.04772312
207	0x3cec07c9	0.028812306
208	0xbd81755e	-0.06321214
209	0x3e0bce6a	0.1365296
210	0xbd9349ac	-0.07191786
211	0xbe2a2663	-0.16616206
212	0x3e65862d	0.22414465
213	0x3e95caea	0.29256374
214	0xbdbae460	-0.0912559
215	0xbe0d72e7	-0.13813363
216	0x3e23a450	0.15980649
217	0xbef9bea8	-0.48778272
218	0x3e1df55d	0.1542563
219	0x3ea889dd	0.3291768
220	0xbe53b6eb	-0.20675246
221	0xbd47a3a5	-0.048740048
222	0xbed65f98	-0.41869807
223	0xbc11f247	-0.008907861
224	0x3e23d269	0.15998234
225	0x3db9b9fd	0.090686776
226	0x3decea49	0.11568124
227	0xbd801236	-0.062534735
228	0xbd45511f	-0.048173066
229	0x3b8341d0	0.004005648
230	0x3dbf4093	0.093384884
231	0xbe3dacb2	-0.1852291
232	0xbda007f7	-0.07814019
233	0xbd880cd8	-0.06643075
234	0xbdbc10a9	-0.09182865
235	0xbe471ab1	-0.19443776
236	0x3cab0c53	0.0208799
237	0xbdac6946	-0.08418517
238	0xbdc57688	-0.09641749
239	0x3d3c2097	0.045929518
240	0x3c9b02a1	0.018922152
241	0xbc5e8827	-0.013582266
242	0x3e0d3c2e	0.13792488
243	0x3e35a9d8	0.17740571
244	0x3d93a944	0.07210019
245	0xbec9a747	-0.39385435
246	0x3e12528a	0.14289299
247	0x3d160c79	0.03663299
248	0xbd9fe2a6	-0.07806902
249	0xbce9defb	-0.028548708
250	0xbe275f32	-0.16344908
251	0x3e0c9f82	0.13732722
252	0xbd32ec9a	-0.043682672
253	0x3d711dc3	0.058866274
254	0xbee217fe	-0.4415893
255	0x3cfd7220	0.030938208

l3/b f4 [9]
0	0xbe1e55d3	-0.15462427
1	0xbebd2047	-0.36938688
2	0xbe8959ab	-0.26826224
3	0xbdc945f1	-0.098277934
4	0xbc98c6f5	-0.018649558
5	0xbc241914	-0.010015745
6	0xbd9d9839	-0.0769505
7	0xbe9f170f	-0.3107228
8	0xbe5fd598	-0.21858823

l0/b f4 [81]
0	0x3e43b95c	0.19113678
1	0xbeab6080	-0.3347206
2	0xbe975f2a	-0.29564792
3	0xbea1bc14	-0.31588805
4	0xbd9eb15e	-0.07748674
5	0xbedc41ab	-0.4301885
6	0xbf0d3706	-0.55162084
7	0xbe232e51	-0.15935637
8	0xbd4c3740	-0.049857378
9	0xbce3e678	-0.027819857
10	0xbed5a568	-0.41727757
11	0xbe2a88e0	-0.16653776
12	0xbdf13e3f	-0.117794506
13	0xbe3b611e	-0.18298766
14	0xbf1bf2ac	-0.6091716
15	0xbccb4fba	-0.02481829
16	0x3e87da88	0.26533914
17	0xbebb11f4	-0.36537135
18	0xbe8cd9d3	-0.27509937
19	0xbd1d4751	-0.03839809
20	0xbc817314	-0.015801944
21	0x3eb58985	0.35456482
22	0xbe4d7ef9	-0.20067967
23	0xbed98809	-0.424866
24	0xbeb3a683	-0.35087976
25	0xbe8350c6	-0.25647563
26	0xbe88916e	-0.26673454
27	0xbdc2b3e8	-0.09506971
28	0xbe1a65a5	-0.15077837
29	0xbedec072	-0.435062
30	0xbea63a35	-0.32466283
31	0xbe4072dc	-0.18793815
32	0xbe76940d	-0.24079914
33	0xbe8cf1da	-0.27528268
34	0xbeb5bc80	-0.35495377
35	0xbeecee83	-0.4627572
36	0x3d9c18f5	0.07621948
37	0xbf530ead	-0.8244427
38	0xbe8c1f1b	-0.27367482
39	0xbe8df0f1	-0.27722886
40	0xbe75bf9c	-0.23998874
41	0x3ce28471	0.027651044
42	0xbe4a1d83	-0.1973782
43	0xbe303336	-0.17207035
44	0xbeb0d5ca	-0.34538108
45	0x3dd65d1b	0.10466977
46	0xbe20b280	-0.15693092
47	0xbed377cc	-0.41302335
48	0xbf22a99c	-0.63540053
49	0xbe75a77f	-0.23989676
50	0xbe2d18fc	-0.16904062
51	0xbe920604	-0.28520215
52	0xbee43e0f	-0.44578597
53	0xbee38683	-0.44438562
54	0xbedca8aa	-0.4309743
55	0xbeb36f7b	-0.3504599
56	0xbebe3535	-0.3714997
57	0xbef2cac9	-0.47420338
58	0x3db0a28d	0.08624754
59	0xbdbfa3ab	-0.09357389
60	0xbe36ff14	-0.17870742
61	0xbee40ee1	-0.44542602
62	0xbca5836b	-0.020204267
63	0xbe7dfd9d	-0.24803777
64	0xbef54278	-0.47902274
65	0x3e9c7c1b	0.30563435
66	0xbe84d980	-0.2594719
67	0xbe85b504	-0.26114666
68	0xbe8dffdc	-0.27734268
69	0xbf5c05a4	-0.85946107
70	0xbe4abc5e	-0.19798419
71	0xbef3a4a7	-0.47586557
72	0xbebbc57c	-0.36674106
73	0xbdb90072	-0.09033288
74	0xbe3372ca	-0.17524257
75	0xbdda4163	-0.10657003
76	0xbede8cb4	-0.43466723
77	0xbdb67be6	-0.089103505
78	0xbd79a727	-0.060950425
79	0xbe82fc87	-0.25583288
80	0xbe78b892	-0.24289158

l1/W f4 [81, 81]
0	0xbe75d814	-0.24008209
1	0xbe5c903b	-0.21539395
2	0xbe34a36d	-0.17640467
3	0x3c2ac43b	0.010422762
4	0x3db1b7d0	0.086776376
5	0x3e59382f	0.21212839
6	0x3e4dd6d8	0.20101488
7	0xbedcfc3b	-0.43161187
8	0xbeaba3c8	-0.33523393
9	0xbe87ae7c	-0.2650031
10	0xbe82833a	-0.25490743
11	0xbdff7752	-0.124739304
12	0xbe505c2b	-0.2034766
13	0xbe3ce604	-0.18447119
14	0xbe58bd91	-0.21166064
15	0x3e69e415	0.22840913
16	0x3cedd71b	0.029033234
17	0xbc3e6900	-0.011621714
18	0xbe3d1be1	-0.18467666
19	0x3de1f40d	0.11032877
20	0xbddd0e78	-0.10793775
21	0xbdbcc446	-0.09217124
22	0x3b18625b	0.0023251984
23	0x3e1234a1	0.14277889
24	0x3c973102	0.018455986
25	0xbe1a3ea9	-0.15062965
26	0x3eb6785e	0.35638708
27	0xbed490b7	-0.4151666
28	0xbe6e1005	-0.23248298
29	0xbd842c8b	-0.064538084
30	0xbe036b23	-0.12833838
31	0xbd7485cb	-0.059697907
32	0x3e86ee60	0.2635374
33	0xba0bd21b	-0.00053337374
34	0x3e04a73f	0.12954424
35	0xbebcf642	-0.3690663
36	0xbd1d7b20	-0.0384475
37	0xbd9a4600	-0.07532883
38	0xbe0130ba	-0.12616244
39	0xbdb21b00	-0.08696556
40	0x3bfe8c03	0.0077681555
41	0x3dd96aee	0.10616098
42	0xbe0f66ac	-0.1400401
43	0x3d7953ac	0.06087081
44	0x3dbcb9e7	0.092151456
45	0x3d5671fc	0.052354798
46	0x3d01a2a4	0.031649247
47	0xbd441988	-0.04787591
48	0x3e8ea875	0.27862898
49	0x3dd21004	0.10256961
50	0xbd2f5680	-0.042807102
51	0xbd143b75	-0.036189515
52	0x3d847a80	0.064686775
53	0x3e03e91b	0.12881891
54	0x3de2ee0f	0.11080562
55	0xbe0f8bee	-0.14018223
56	0x3d9d5423	0.076820634
57	0x3e86ed62	0.26352984
58	0x3dc5f5b1	0.096660025
59	0xbe68749b	-0.22700731
60	0x3e5356d3	0.2063859
61	0xbe206b98	-0.15666044
62	0xbe1714d9	-0.14754046
63	0xbd15c834	-0.03656788
64	0x3e84026b	0.25783095
65	0x3d135926	0.03597369
66	0x3e27144c	0.16316336
67	0xba20e0e4	-0.0006137027
68	0x3c06d558	0.008229576
69	0xbe375333	-0.17902832
70	0xbe01ac1e	-0.12663314
71	0x3dc7f7a3	0.0976403
72	0xbe7f12d0	-0.2490952
73	0x3df827d6	0.12116973
74	0x3dd21572	0.102579966
75	0xbed96e33	-0.42466888
76	0xbe228ba9	-0.15873589
77	0x3d6d34a9	0.05791155
78	0x3d4f88f9	0.050667737
79	0x3d04cded	0.03242295
80	0xbe3019d1	-0.17197348
81	0xbe95d2f3	-0.29262504
82	0xbf277d63	-0.654257
83	0xbd8adc88	-0.06780344
84	0x3e15679d	0.14590307
85	0xbe064504	-0.13112265
86	0x3e9fef1e	0.3123712
87	0x3e11ad73	0.14226322
88	0x3e36f371	0.17866303
89	0xbe8354ad	-0.2565054
90	0xbdbc7c73	-0.09203424
91	0x3e8b4750	0.27202845
92	0x3ed3761a	0.41301042
93	0x3eb913cc	0.36147916
94	0x3e036a1d	0.12833448
95	0xbd8f9631	-0.070110686
96	0xbd6cf7df	-0.057853576
97	0x3e338c16	0.17533907
98	0xbd1844e5	-0.037175078
99	0x3e35206c	0.17688149
100	0xbe11ae66	-0.14226684
101	0x3e39a3b8	0.1812886
102	0xbe8294bd	-0.25504103
103	0x3e9ad4d7	0.3024051
104	0xbe306ba9	-0.17228569
105	0x3ca86b5d	0.020559007
106	0x3dcbc131	0.09948958
107	0x3dab29ab	0.08357557
108	0xbe6c5c5e	-0.2308211
109	0xbe263ca6	-0.16234073
110	0xbda834e2	-0.082132116
111	0x3d5c6193	0.05380399
112	0xbdaf654b	-0.08564242
113	0x3df17ece	0.11791764
114	0x3e3a8ea7	0.1821848
115	0xbd5abe66	-0.053404234
116	0xbe1b5f5d	-0.15173097
117	0xbe89dc5c	-0.26925933
118	0x3eb74a3d	0.35798827
119	0x3e040ce9	0.1289555
120	0x3d8c7b9a	0.068595126
121	0xbbdb3c15	-0.006690512
122	0xbea34588	-0.31888986
123	0xbcd46744	-0.025928147
124	0x3df3aa34	0.11897698
125	0xbe38ce7f	-0.18047522
126	0xbd9467e7	-0.0724638
127	0xbde50658	-0.111828506
128	0xbea7f604	-0.32804883
129	0xbe0def3e	-0.13860795
130	0x3d0b1190	0.033952296
131	0x3e9606cf	0.2930207
132	0xbe519ffc	-0.20471185
133	0x3e3eea21	0.18644
134	0xbedb3380	-0.4281273
135	0x3dee064b	0.11622294
136	0xbd8f48a9	-0.06996281
137	0x3cc332c7	0.023827923
138	0x3ed574db	0.41690716
139	0x3df8caf6	0.12148087
140	0xbedcfc86	-0.4316141
141	0xbed79f45	-0.421137
142	0x3e647152	0.22308853
143	0xbe31f92a	-0.17380205
144	0xbe591db4	-0.21202737
145	0x3e196ebf	0.14983653
146	0x3e1e2d3b	0.15446942
147	0x3ddd7577	0.1081342
148	0xbea43279	-0.32069758
149	0x3ddac285	0.10681633
150	0x3ba2a458	0.004963439
151	0x3e215b75	0.15757544
152	0x3e82402e	0.2543959
153	0x3e1bba7c	0.15207857
154	0xbe98c62f	-0.29838702
155	0xbb920da5	-0.004457193
156	0xbe57e1fa	-0.21082297
157	0xbe4e76c2	-0.2016249
158	0x3e5cc6b2	0.21560171
159	0x3e1c6f93	0.15276937
160	0xbce4cc1d	-0.02792936
161	0xbae78373	-0.0017663076
162	0x3e4a4fb0	0.19756961
163	0xbd53e337	-0.05173036
164	0x3e0409c5	0.12894352
165	0xbd6a9d17	-0.05727872
166	0x3ea24884	0.3169595
167	0x3e4f97f7	0.20272814
168	0x3de86e37	0.11349147
169	0x3db1dd4c	0.08684787
170	0xbece009d	-0.40234843
171	0x3d90e8d3	0.07075658
172	0xbe515404	-0.20442206
173	0xbd95261c	-0.072826594
174	0xbe332e8b	-0.17498223
175	0xbda26bdd	-0.079307295
176	0xbdfe3366	-0.12412147
177	0x3e4cdd4d	0.20006295
178	0x3ebad5e7	0.3649132
179	0x3e49fd35	0.19725497
180	0xbd83e8e6	-0.06440906
181	0x3c06ad03	0.00821996
182	0x3d7b8216	0.061403356
183	0xbe8d1717	-0.2755668
184	0xbeb88bcc	-0.36044157
185	0xbd8a449b	-0.06751367
186	0xbc028353	-0.00796588
187	0xbe2feba8	-0.1717974
188	0xbea38fa2	-0.3194552
189	0xbde1c517	-0.1102392
190	0x3e0df9e0	0.13864851
191	0xbe2baabd	-0.1676435
192	0x3e30dc9d	0.17271657
193	0xbbdea99e	-0.0067951223
194	0xbd5ae688	-0.053442508
195	0xbcac056a	-0.020998675
196	0x3cf3545a	0.029703308
197	0x3e5f5edc	0.2181353
198	0xbc6222d5	-0.01380225
199	0x3eaa201b	0.3322762
200	0xbe87e7a0	-0.26543903
201	0xbc82101c	-0.015876822
202	0xbdab9b8b	-0.08379277
203	0xbbbb345d	-0.0057130293
204	0xbdc5fe9f	-0.09667706
205	0xbe00dd54	-0.1258443
206	0x3e99d450	0.30044794
207	0xbe80b4d4	-0.2513796
208	0x3e1391b3	0.14411049
209	0xbe5140be	-0.20434853
210	0x3d8cf8bd	0.068833806
211	0x3e1c396d	0.15256281
212	0xbd4fc812	-0.05072791
213	0xbd2080ad	-0.039185215
214	0x3d91894f	0.07106268
215	0x3d98fe6f	0.07470404
216	0xbeb4577a	-0.3522299
217	0xbe048f51	-0.12945296
218	0x3ce80dfc	0.02832698
219	0xbea92380	-0.33034897
220	0xbd503cad	-0.050839115
221	0x3dac7b71	0.08421982
222	0x3da25807	0.07926946
223	0xbd8823d7	-0.06647461
224	0xbd99892c	-0.074968666
225	0xbcccd1ba	-0.02500235
226	0xbe5f4710	-0.21804452
227	0xbdb1c234	-0.086796194
228	0xbe144682	-0.14480022
229	0xbe04d079	-0.12970151
230	0x3e254788	0.16140568
231	0x3cbedd85	0.023298988
232	0x3d80b805	0.06285099
233	0x3dded0b4	0.10879651
234	0xbe3844dc	-0.17995018
235	0x3d1b29bb	0.037881594
236	0xbd45d528	-0.048298985
237	0xbeabcea0	-0.3355608
238	0xbd50aa05	-0.050943393
239	0x3d223176	0.03959795
240	0xbccfa635	-0.025347808
241	0x3e6faf55	0.23406728
242	0x3cf2d698	0.029643342
243	0x3e12ac3c	0.14323515
244	0xbe51b575	-0.20479377
245	0x3d19538d	0.037433196
246	0x3e3dfc82	0.18553355
247	0x3da7b788	0.08189303
248	0xbea68384	-0.32522213
249	0x3ef64c5b	0.4810513
250	0xbe06f835	-0.13180621
251	0xbc3e8443	-0.011628213
252	0x3e9ee6af	0.31035373
253	0xbe198e91	-0.14995791
254	0x3e4c43d2	0.19947746
255	0x3c34fe65	0.0110469805

l2/W f4 [81, 81]
0	0xbe49d93f	-0.19711779
1	0xbe81c25e	-0.25343603
2	0x3d24ec6f	0.040264543
3	0x3e0a9c7a	0.13536254
4	0xbece9ea7	-0.40355417
5	0x3e77fffd	0.24218746
6	0x3defa347	0.117010646
7	0xbd89355f	-0.06699633
8	0x3df8c536	0.1214699
9	0xbc86a0dd	-0.016434127
10	0x3cfbef13	0.030753648
11	0x3a630b23	0.00086610223
12	0x3b4d51c8	0.0031329263
13	0xbdb132d5	-0.086522736
14	0xbd2b5f7e	-0.041839115
15	0x3d466f6d	0.048446108
16	0xbe2472f1	-0.16059472
17	0xba26fa64	-0.00063697086
18	0x3e299b7f	0.16563223
19	0xbc92dddb	-0.017928055
20	0x3e8189e1	0.25300506
21	0x3d91971c	0.071089
22	0x3e70f018	0.23529088
23	0xbe33d459	-0.17561473
24	0xbd4568f9	-0.048195813
25	0xbe6e45c3	-0.232688
26	0xbf02dfdc	-0.5112283
27	0xbd9311d3	-0.07181134
28	0x3e2e91a6	0.17047748
29	0xbe59a284	-0.21253401
30	0xbd65e07d	-0.05612229
31	0xbde481d6	-0.11157577
32	0xbe2f05d1	-0.17092063
33	0xbd3a1a12	-0.04543502
34	0x3e113c38	0.14183128
35	0xbf13848a	-0.57624114
36	0x3d7bb80d	0.06145482
37	0x3dd2762b	0.10276445
38	0xbec66d53	-0.38755283
39	0x3eb6c7f5	0.3569943
40	0xbe01238e	-0.1261122
41	0x3dfee4b8	0.124459684
42	0x3e76dafe	0.24106976
43	0xbd2d0149	-0.042237554
44	0xbea982b7	-0.3310754
45	0x3e686dd8	0.22698152
46	0x3da07173	0.07834139
47	0xbc0acf6f	-0.008472308
48	0xbe068176	-0.13135323
49	0xbe556052	-0.20837525
50	0x3e32a8f8	0.17447269
51	0xbe18c744	-0.14919764
52	0xbe0b25b9	-0.13588609
53	0xbe466a90	-0.19376588
54	0xbdd80408	-0.10547644
55	0xbd5c830d	-0.053835917
56	0x3ea32991	0.3186765
57	0xbf476d0e	-0.7790078
58	0x3eaf03e5	0.3418266
59	0xbe8c02bc	-0.27345836
60	0xbe4091ae	-0.18805572
61	0xbccb1c24	-0.024793692
62	0xbe3d9728	-0.18514693
63	0xbdc003cc	-0.09375724
64	0x3dc874a2	0.09787871
65	0x3cc30b64	0.023809142
66	0xbde46c1b	-0.11153432
67	0xbf10c694	-0.56553006
68	0x3dba2239	0.09088559
69	0x3d1e98bc	0.038719878
70	0x3e60e346	0.21961698
71	0xbdfb72d9	-0.12277765
72	0xbdf83703	-0.12119868
73	0xbdabc5c8	-0.08387333
74	0x3d853980	0.06505108
75	0xbe18ae68	-0.1491028
76	0xbec5be8a	-0.38621932
77	0xbd987ff8	-0.07446283
78	0xbd9411e4	-0.07229975
79	0xbecb5aa4	-0.3971759
80	0x3d3192e5	0.04335298
81	0x3d1bec39	0.038067076
82	0xbec4beb2	-0.3842674
83	0x3df335c3	0.118754886
84	0x3e0a0fc2	0.13482574
85	0x39a469f7	0.00031359468
86	0xbe752f36	-0.23943791
87	0xbd7692b4	-0.0601985
88	0xbe64a811	-0.22329737
89	0xbdcb636e	-0.09931074
90	0x3e7132bf	0.23554514
91	0x3d2a9e1f	0.041654702
92	0xbd3499b0	-0.04409188
93	0x3d73922a	0.059465565
94	0xbe1b074c	-0.15139502
95	0xbdfa979a	-0.12235947
96	0xbdf78abb	-0.120870076
97	0x3d7c74f9	0.06163499
98	0x3d982818	0.07429522
99	0x3e1183da	0.14210454
100	0xbeb26859	-0.34845236
101	0x3e39e84c	0.1815502
102	0x3ee3b30c	0.4447254
103	0x3e8823b7	0.26589748
104	0x3ce67ec0	0.028136611
105	0x3d862c8a	0.06551464
106	0xbe0faab5	-0.14029963
107	0x3e7f4a60	0.24930716
108	0xbe3d4954	-0.18485004
109	0x3da526a9	0.080640145
110	0xbc633304	-0.013867144
111	0xbe60a8bd	-0.21939369
112	0xbcf217e9	-0.029552417
113	0x3e355579	0.17708386
114	0x3e15188e	0.14560148
115	0xbd00962a	-0.031393208
116	0xbeac5016	-0.3365485
117	0xbcb7e103	-0.022446161
118	0x3d5c786d	0.053825784
119	0xbdea80b4	-0.114503294
120	0xbdff1372	-0.12454881
121	0xbf226812	-0.6344005
122	0xbe91c9f5	-0.28474393
123	0xbec9f818	-0.39447093
124	0x3e01612f	0.12634729
125	0xbe2974ae	-0.16548416
126	0xbd341361	-0.043963794
127	0xbcdae0ee	-0.026718583
128	0xbe65d6de	-0.22445247
129	0xbe2a1451	-0.16609313
130	0x3e530fbd	0.20611472
131	0xbe936a97	-0.2879226
132	0xbd263f74	-0.040587857
133	0xbc751fad	-0.014961165
134	0x3e5627b4	0.20913583
135	0x3e3dd36d	0.18537684
136	0x3e31fc9e	0.17381522
137	0xbde9bb2f	-0.114126556
138	0x3d650b90	0.05591923
139	0xbe318750	-0.17336774
140	0x3e344186	0.1760312
141	0xbe219235	-0.1577843
142	0x3cb79495	0.022409717
143	0x3e453c17	0.19261204
144	0xbe939c1f	-0.28830048
145	0xbe13a9e3	-0.14420275
146	0x3d46e3a6	0.048556946
147	0x3d00f14b	0.031480115
148	0x3e8d6427	0.27615473
149	0x3ce2c11e	0.027679976
150	0xbe757393	-0.2396987
151	0xbc9d7da5	-0.019224951
152	0xbe0adea2	-0.1356149
153	0xbd11addd	-0.0355662
154	0xbe4ea754	-0.20181018
155	0xbdda5722	-0.106611505
156	0x3dcb7575	0.099345125
157	0xbd9afe24	-0.07568005
158	0xbd2f3d07	-0.04278281
159	0x3dd5f588	0.10447222
160	0x3ec79e33	0.38987884
161	0x3ea820bf	0.32837483
162	0xbe76e117	-0.24109302
163	0x3dfa8899	0.12233085
164	0x3e028f3a	0.12749949
165	0xbc3bf24c	-0.011471342
166	0x3dd2ee5a	0.10299368
167	0x3cdef014	0.027214088
168	0xbe37d550	-0.17952466
169	0xbe61bc85	-0.2204457
170	0xbe0977ff	-0.13424681
171	0xbc262c25	-0.010142361
172	0x3e790821	0.24319507
173	0xbd786492	-0.060642786
174	0xbd8e33c5	-0.06943468
175	0xbdd46441	-0.103706844
176	0xbcbb8f56	-0.022895496
177	0xbed6e490	-0.41971254
178	0xbd968a62	-0.07350613
179	0xbe51c85b	-0.20486586
180	0x3db46e78	0.08810133
181	0xbe484f19	-0.19561423
182	0xbe228032	-0.15869215
183	0xbed0ba8b	-0.4076732
184	0xbb8b74b6	-0.0042558564
185	0xbe1a5adc	-0.15073723
186	0xbe90c9a7	-0.2827885
187	0xbe0309d7	-0.12796722
188	0xbe001789	-0.12508978
189	0xbdcf5685	-0.10123924
190	0xbd5a2dac	-0.053266212
191	0x3e546fc5	0.20745762
192	0x3e8b3606	0.27189654
193	0xbe285450	-0.16438413
194	0x3d626525	0.05527224
195	0x3d661414	0.05617149
196	0xbbd2ba82	-0.006430925
197	0x3eb48e61	0.35264876
198	0xbf24a4b6	-0.6431383
199	0x3e5fe8dd	0.21866174
200	0x3d902842	0.070389286
201	0xbec359ae	-0.38154358
202	0xbdb2dc31	-0.087334044
203	0xbe719e2c	-0.23595494
204	0xbe29afe5	-0.16571005
205	0x3e6693a8	0.22517264
206	0xbe42ee43	-0.19036202
207	0xbdd40c86	-0.10353951
208	0x3e2317f8	0.15927112
209	0xbe8d03a6	-0.27541846
210	0x3dd5f893	0.104478024
211	0xbe3576b2	-0.1772106
212	0x3db15e5a	0.08660574
213	0x3cb7e5d8	0.022448465
214	0xbec694ea	-0.38785487
215	0xbeb134d1	-0.34610608
216	0xbdb892fc	-0.0901241
217	0xbe0d953b	-0.13826458
218	0x3e8c94ec	0.27457368
219	0xbe98a194	-0.29810774
220	0xbebaf9af	-0.36518618
221	0xbe57d0c5	-0.21075733
222	0x3e7a5ef9	0.24450292
223	0xbec28ac2	-0.3799649
224	0xbee0fb41	-0.43941692
225	0xbdb251f6	-0.08707039
226	0xbe1e01e2	-0.15430406
227	0xbe56b023	-0.20965628
228	0xbdfbde32	-0.1229824
229	0xbe9f3e3f	-0.31102178
230	0xbe6026fe	-0.21889874
231	0xbe3005de	-0.17189738
232	0xbe8316a7	-0.2560322
233	0x38a08eec	7.656016e-05
234	0xbe8b290e	-0.2717976
235	0x3d16d7b0	0.03682679
236	0xbed9c4b5	-0.42532888
237	0x3cb56ee3	0.022147601
238	0xbd597d65	-0.0530981
239	0x3de9e313	0.11420264
240	0xbd25fbbe	-0.040523283
241	0xbe2d3c4d	-0.16917534
242	0x3c87dfb6	0.016586166
243	0x3d642dd0	0.055707753
244	0xbdfaa96b	-0.12239345
245	0xbe062e93	-0.13103704
246	0xbe0ffc88	-0.14061177
247	0xbe633adf	-0.22190426
248	0xbce808f7	-0.028324587
249	0x3e4dd997	0.20102535
250	0x3d4e57c8	0.050376683
251	0xbec61510	-0.38687944
252	0xbd0e29bc	-0.03470777
253	0xbe035ac9	-0.128276
254	0x3c15f192	0.009151833
255	0xbdbe39ce	-0.09288369

l1/b f4 [81]
0	0xbdf83ca1	-0.12120939
1	0xbe5d0341	-0.21583273
2	0xbe3840ff	-0.17993544
3	0xbe814a25	-0.2525188
4	0xbee031df	-0.4378805
5	0xbe63acd4	-0.22233897
6	0xbe819776	-0.25310868
7	0xbe18ab4e	-0.14909098
8	0xbeb985a3	-0.3623477
9	0xbd0dbee8	-0.03460589
10	0xbe8ce3a7	-0.27517435
11	0xbe0b8a08	-0.13626873
12	0xbe68995e	-0.22714755
13	0xbde17df8	-0.11010355
14	0xbdc22814	-0.094803005
15	0xbdc719c8	-0.09721714
16	0xbefed437	-0.49771282
17	0xbe11dc49	-0.14244188
18	0x3d9e6fef	0.077361934
19	0xbddde911	-0.108354695
20	0xbe95c968	-0.29255223
21	0xbe42b246	-0.19013318
22	0xbed8935a	-0.4229992
23	0xbeda3d35	-0.42624822
24	0xbecafeee	-0.3964762
25	0xbed1b93f	-0.40961644
26	0xbc868012	-0.01641849
27	0xbea892ef	-0.329246
28	0xbd9ce72e	-0.076612815
29	0x3ce15758	0.027507469
30	0xbe8dbe2e	-0.27684158
31	0xba785f7f	-0.0009474679
32	0x3da5345b	0.08066627
33	0xbe99c63e	-0.3003406
34	0xbdefd9de	-0.11711477
35	0x3dbaacce	0.09114991
36	0xbe243de9	-0.16039242
37	0xbe01cc16	-0.12675509
38	0xbf473c4b	-0.77826375
39	0xbe95bad3	-0.29244098
40	0x3de8e40d	0.11371622
41	0xbe32fd77	-0.17479502
42	0xbe8f09bb	-0.2793711
43	0xbe2c6448	-0.1683513
44	0xbe88f0b8	-0.26746154
45	0x3e2a2061	0.16613914
46	0xbe0c2a2b	-0.13687961
47	0xbe54dfab	-0.20788448
48	0xbcab878f	-0.020938663
49	0xbed83655	-0.42228952
50	0xbe78cb26	-0.24296245
51	0xbe80960b	-0.25114474
52	0xbe56e0e8	-0.20984232
53	0xbda1ec90	-0.07906449
54	0xbec7d663	-0.39030752
55	0xbd55104f	-0.052017506
56	0xbd3639e3	-0.0444888
57	0xbe22b7a5	-0.15890367
58	0x3c98d0e3	0.018654292
59	0xbee24ff8	-0.44201636
60	0xbdb9eb0f	-0.09078037
61	0xbe9028e7	-0.28156206
62	0xbe79be5b	-0.24389021
63	0xbef68e37	-0.48155376
64	0x3d844f55	0.06460444
65	0xbd689bbf	-0.056789156
66	0xbf0f4e0e	-0.55978477
67	0xbe166489	-0.14686789
68	0xbe1295c3	-0.14314942
69	0xbe3b4a21	-0.18289997
70	0xbd51df26	-0.0512382
71	0xbd388de3	-0.04505719
72	0x3eab028d	0.33400384
73	0xbde44be9	-0.11147291
74	0xbee9c36f	-0.45656916
75	0xbe744ee8	-0.23858225
76	0x3ce87217	0.028374715
77	0x3b8485fc	0.0040442925
78	0x3df45f5f	0.11932253
79	0xbe769398	-0.2407974
80	0xbda0d79b	-0.078536235

l2/b f4 [81]
0	0xbe05f5cc	-0.13082045
1	0xbde9ce84	-0.11416343
2	0xbe46f1d6	-0.1942819
3	0xbcc565b0	-0.02409634
4	0x3d963c99	0.07335777
5	0xbeb219ff	-0.34785458
6	0xbecce79b	-0.4002045
7	0xbe24dbe3	-0.16099505
8	0xbe25170f	-0.16122077
9	0x3e281f69	0.16418232
10	0xbed35ee9	-0.41283348
11	0x3da1d6d5	0.07902304
12	0xbde2f369	-0.11081583
13	0xbe375dc0	-0.17906857
14	0xbc7c1085	-0.015384798
15	0x3e621af8	0.220806
16	0xbca770ce	-0.020439532
17	0xbe929185	-0.28626648
18	0xbe7d45a8	-0.24733603
19	0xbec2874e	-0.37993854
20	0xbe2b87d0	-0.16751027
21	0x3dc40f28	0.09573203
22	0xbe639968	-0.22226489
23	0xbe9f9701	-0.31169894
24	0xbe182898	-0.14859235
25	0xbdf6f2d6	-0.12058036
26	0xbe6a9cf1	-0.22911431
27	0xbe8b6300	-0.27223969
28	0xbe749755	-0.23885854
29	0xbe4f3e24	-0.20238549
30	0xbd70de09	-0.0588055
31	0xbe1ca6e2	-0.15298036
32	0xbe97d60a	-0.29655486
33	0xbe6bdb30	-0.23032832
34	0xbe01e957	-0.12686668
35	0xbde31f87	-0.11089998
36	0xbe7b25c8	-0.24526131
37	0x3decf153	0.115694664
38	0xbe8c9d5f	-0.27463815
39	0xbe04470d	-0.12917729
40	0x3d88fcd9	0.06688852
41	0xbe3b0461	-0.18263389
42	0xbe918247	-0.28419706
43	0xbd8eb43b	-0.0696797
44	0xbdabb780	-0.08384609
45	0xbe5a1791	-0.21298052
46	0xbe5367f7	-0.20645128
47	0xbe003c57	-0.12523018
48	0xbe55b685	-0.20870407
49	0xbea8e3f8	-0.32986426
50	0xbeb9e3fd	-0.36306754
51	0xbe2e8e0b	-0.17046373
52	0xbe14301f	-0.14471482
53	0xbe8ab41c	-0.27090538
54	0xbd073ced	-0.033017088
55	0x3e0820d3	0.13293771
56	0x3dc7d334	0.09757081
57	0x3ca8b143	0.020592337
58	0xbb29840d	-0.0025866062
59	0xbda120d1	-0.07867587
60	0xbeddb1bb	-0.4329966
61	0xbdf11047	-0.11770683
62	0xbe8e7e4d	-0.27830735
63	0xbd8932e9	-0.066991635
64	0xbdc5f564	-0.09665945
65	0xbe1f26cf	-0.15542148
66	0xbea79aae	-0.327352
67	0xbe46e030	-0.19421458
68	0xbeb1f8d2	-0.34760147
69	0xbe664f11	-0.22491099
70	0xbe9a023a	-0.30079824
71	0xbeb5096e	-0.35358757
72	0xbe1054fc	-0.14094919
73	0xbe759a25	-0.23984583
74	0xbe4b1a98	-0.19834363
75	0xbe081697	-0.13289867
76	0xbe017bc3	-0.12644868
77	0xbe753c36	-0.2394875
78	0xbe96470e	-0.29351085
79	0xbdcce022	-0.100036874
80	0xbe427f93	-0.18993978

l0/W f4 [81, 9]
0	0x3efc5104	0.4928056
1	0x3d2ba8bc	0.041908965
2	0x3dab5986	0.083666846
3	0x3e6a31b1	0.22870518
4	0x3ded4f1d	0.11587355
5	0x3ed1e1d0	0.40992594
6	0x3ef76cbe	0.4832515
7	0x3d8eef1b	0.069791995
8	0x3f2efdd6	0.6835607
9	0x3d960a44	0.07326177
10	0x3f9a103d	1.2036206
11	0x3df45436	0.119301245
12	0xbe59ae42	-0.2125788
13	0x3f2fb551	0.6863604
14	0xbe31251d	-0.17299314
15	0x3ca64046	0.02029432
16	0x3f2472b4	0.64237523
17	0x3ec1bc73	0.37839088
18	0xbd70b26f	-0.058763918
19	0x3e847c9c	0.2587632
20	0x3e4eae2e	0.20183632
21	0xbf2f6e6f	-0.68527883
22	0x3e4a529d	0.19758077
23	0x3ded19e9	0.115772076
24	0xbf2a2c6d	-0.6647404
25	0x3e01140e	0.12605307
26	0xbe86f426	-0.26358145
27	0x3ef35ad5	0.47530237
28	0x3dc30998	0.09523314
29	0x3d6a838d	0.057254363
30	0xbe37947d	-0.17927738
31	0x3e02b955	0.12766011
32	0xbeb6a911	-0.35675862
33	0xbe86f915	-0.2636191
34	0xbba169de	-0.0049259504
35	0xbebf66c6	-0.37383097
36	0x3eeaa094	0.45825636
37	0x3c91ca8e	0.01779678
38	0xbc5a4ce9	-0.013324001
39	0xbcdd9269	-0.027047353
40	0xbeff462a	-0.49858218
41	0xbcef3cea	-0.02920385
42	0xbaa81214	-0.001282277
43	0xbe0127d6	-0.12612852
44	0xbeed0239	-0.46290758
45	0xbe94dcd8	-0.2907474
46	0xbedb1777	-0.4279134
47	0x3ee561a9	0.4480107
48	0x3f180958	0.5938926
49	0xbe69c67a	-0.22829619
50	0x3d8d9b11	0.06914342
51	0xbeac3e9c	-0.33641517
52	0xbf528d08	-0.82246447
53	0x3d9c00b3	0.07617321
54	0xbdabf0ab	-0.08395513
55	0xbf14906d	-0.58032876
56	0xbf142a21	-0.57876784
57	0x3e545de2	0.20738938
58	0xbec1750d	-0.37784615
59	0x3d8c1359	0.06839628
60	0x3f28ec31	0.659854
61	0xbe8658d7	-0.26239654
62	0xbe9725e4	-0.29521096
63	0xbec93d78	-0.3930471
64	0xbe959b14	-0.29219878
65	0xbe8a22ac	-0.26979578
66	0xbebb4e95	-0.3658339
67	0xbe3f44fa	-0.18678656
68	0xbd15e383	-0.036593925
69	0xbea19631	-0.315599
70	0x3f32d5f1	0.698577
71	0xbec9ec82	-0.39438254
72	0x3ebc2492	0.3674665
73	0x3dfb8ed6	0.12283103
74	0x3e588b47	0.2114688
75	0xbe3625c3	-0.17787842
76	0x3c947da7	0.018126322
77	0x3d60b47d	0.054859627
78	0xbdab2fa7	-0.08358698
79	0xbf5c15b2	-0.85970604
80	0x3ea4ea79	0.32210138
81	0x3e52c2bc	0.20582098
82	0xbda12655	-0.078686394
83	0x3e2c665f	0.16835926
84	0x3f00a43e	0.50250614
85	0xbebe48d0	-0.37164927
86	0xbe4561f6	-0.1927565
87	0x3be1a7a7	0.006886441
88	0x3cb57fe5	0.022155711
89	0x3e98821d	0.2978677
90	0x3de170ab	0.11007818
91	0xbede13b2	-0.433744
92	0xbedd1536	-0.43180245
93	0xbd62593d	-0.055260886
94	0x3c438c78	0.011935346
95	0xbde5e9be	-0.112262234
96	0xbf544526	-0.8291801
97	0xbf032dd8	-0.51241827
98	0xbf42cc97	-0.7609343
99	0x3eec2da3	0.46128568
100	0x3e113aed	0.14182635
101	0xbd70d8e2	-0.058800586
102	0x3d58aa54	0.052896813
103	0x3f3cb88b	0.7371909
104	0x3f266caf	0.6500959
105	0x3ec587e8	0.3858025
106	0x3d02e8b9	0.031960223
107	0xbd6eb1c2	-0.05827499
108	0x3ef7a216	0.4836585
109	0x3f0ed966	0.55800474
110	0x3ed72596	0.42020863
111	0x3e05711a	0.13031426
112	0x3f185f65	0.5952056
113	0xbe127750	-0.14303327
114	0xbe526581	-0.20546533
115	0x3ec6f257	0.38856766
116	0x3e9a67ab	0.30157217
117	0x3f5e7f62	0.8691312
118	0xbed827f3	-0.4221798
119	0x3e03ba3b	0.1286401
120	0x3e7e410f	0.24829505
121	0x3ede8eb1	0.4346824
122	0x3f0b6482	0.5445024
123	0x3cafd3ad	0.02146324
124	0xbe8a683e	-0.27032655
125	0x3f1bf607	0.6092228
126	0xbe1f2662	-0.15541986
127	0x3d73d8b7	0.059532847
128	0xbf667c84	-0.90033746
129	0x3d749538	0.05971262
130	0xbf349b96	-0.70549905
131	0xbd5dc4f8	-0.054142922
132	0xbf502d18	-0.8131881
133	0x3e83dcd9	0.2575443
134	0xbc4de05e	-0.0125657
135	0x3e18f136	0.14935765
136	0x3f038a82	0.5138322
137	0x3eb995d4	0.36247122
138	0x3ee4345e	0.44571203
139	0x3ee1851c	0.44046867
140	0x3ae1072c	0.0017168275
141	0x3e0c7f26	0.13720378
142	0xbe392a1d	-0.18082471
143	0x3e103bdc	0.14085335
144	0x3f5c93bb	0.8616292
145	0x3e408188	0.18799412
146	0x3ed1fe34	0.41014254
147	0x3ea3b30d	0.31972542
148	0x3eabaa66	0.3352844
149	0x3f256655	0.6460927
150	0x3ed97791	0.42474034
151	0x3e873d94	0.26414168
152	0x3e62dbfa	0.22154227
153	0xbe8ba25f	-0.27272317
154	0x3e7874eb	0.2426335
155	0xbeca377d	-0.3949546
156	0xbea594ec	-0.3234018
157	0xbf0306dc	-0.5118234
158	0xbf0aee5e	-0.5426997
159	0x3e91f085	0.28503814
160	0xbcb1f95e	-0.021725353
161	0xbd73ebd3	-0.05955107
162	0x3d5a0012	0.053222723
163	0xbe992723	-0.2991267
164	0x3d9200dd	0.07129071
165	0x3ca981d0	0.020691782
166	0xbe037013	-0.12835722
167	0x3f66fcf3	0.9022972
168	0x3e1d039b	0.15333407
169	0xbdc86b58	-0.09786099
170	0x3d748cc8	0.059704572
171	0x3b897ca0	0.0041957647
172	0x3cc0c6ba	0.02353226
173	0xbe0a36ee	-0.13497517
174	0x3e42eb15	0.19034989
175	0xbeb75c9a	-0.35812837
176	0x3eb60864	0.35553277
177	0xbe8f6109	-0.2800372
178	0xbe2d2e8b	-0.16912286
179	0x3e8c565f	0.27409646
180	0xbe2c1008	-0.1680299
181	0x3d81b2b3	0.06332912
182	0x3eefb254	0.4681574
183	0xbe045192	-0.12921742
184	0xbd0691fc	-0.032854065
185	0x3ec31e26	0.3810894
186	0x3ed8ab51	0.42318204
187	0x3e9fc436	0.31204385
188	0xbea51ccd	-0.32248536
189	0x3ee09cb2	0.4386955
190	0x3f4d0355	0.8008321
191	0x3eedb9ad	0.46430722
192	0x3ed5f5f7	0.4178922
193	0x3ee3d315	0.4449698
194	0x3f4810e4	0.78150773
195	0x3edf52ae	0.43617767
196	0x3ec7742d	0.38955823
197	0x3ef13f7b	0.47118744
198	0x3d59191e	0.05300247
199	0x3eb2d305	0.3492662
200	0xbedba436	-0.4289872
201	0xbe809d82	-0.2512017
202	0x3ae1385d	0.0017182935
203	0x3e61b024	0.22039849
204	0x3e47c8d6	0.19510207
205	0x3ef08f35	0.46984258
206	0x3e2b8efc	0.16753763
207	0x3e6d3913	0.23166303
208	0x3e29f436	0.16597065
209	0xbdf32682	-0.11872579
210	0xbe9802ce	-0.2968964
211	0xbf6583c3	-0.8965418
212	0xbea7d881	-0.32782367
213	0xbe37a1d5	-0.17932828
214	0x3cb7e27e	0.022446867
215	0x3ecf4f9a	0.4049042
216	0xbd077461	-0.033069972
217	0xbe1357e3	-0.14388995
218	0xbecadba6	-0.39620703
219	0x3f59b55c	0.8504236
220	0xbedd1d64	-0.43186486
221	0xbee2e8d6	-0.44318265
222	0xbe68e112	-0.22742108
223	0xbcefa364	-0.029252715
224	0xbefa7f5e	-0.48925298
225	0x3d6fe006	0.058563255
226	0xbc37c5fc	-0.011216637
227	0x3f1bb906	0.608292
228	0xbd9a27bf	-0.07527112
229	0x3dfce463	0.12348249
230	0xbeffcc6e	-0.49960655
231	0xbcbbcd70	-0.022925109
232	0xbe425818	-0.18978918
233	0x3f2d9f26	0.67820966
234	0xbeae0ae5	-0.33992687
235	0xbc7b07ef	-0.015321716
236	0x3c1d8213	0.009613532
237	0x3e4c0eb0	0.19927478
238	0x3e9591cc	0.29212797
239	0x3e9b6546	0.30350703
240	0x3eeb0b9b	0.45907292
241	0xbefc01c5	-0.492201
242	0x3ea05dc4	0.31321537
243	0x3f12d812	0.5736095
244	0xbea4de27	-0.3220074
245	0xbe66be0f	-0.22533439
246	0x3ee31b72	0.44356877
247	0xbd50664e	-0.050878815
248	0xbea2ef64	-0.31823266
249	0x3d1b7f62	0.03796328
250	0x3d4f892b	0.050667923
251	0x3e121c5a	0.14268628
252	0x3ee7a3c3	0.45242128
253	0x3e24ce6b	0.16094367
254	0x3e0272fc	0.12739176
255	0xbde14127	-0.10998755
