chainerrl/TicTacToe/result_40000/model.npz (npz, 56607 bytes, 8 tensors)

l3/W f4 [9, 81]
0.13034675 -0.04580559 -0.45909068 0.03408088 -0.14275834 -0.17988995 0.16780916 -0.24126051
0.15590228 -0.07401821 -0.5989024 -0.06540533 -0.40889293 0.04360117 0.086347446 0.09564507
0.023942025 0.1040657 -0.6058162 0.16488008 -0.014388667 0.02071238 -0.0048223753 0.2122569
-0.53586054 -0.025907056 -0.10377462 0.25392073 -0.27723163 0.0668915 0.13228425 0.20359813
-0.061285034 0.15469034 -0.229308 -0.0042035016 0.2615905 0.32058617 0.076378234 -0.08687201
-0.0028689445 -0.6692511 -0.37110454 0.18465903 0.14146288 -0.5963267 0.17887548 0.083417855
0.17835589 0.24467087 0.25660616 -0.20791522 -0.02461902 -0.13218808 0.005645739 -0.09036561
-0.028069248 0.16016248 0.105507374 0.060291417 -0.26153582 -0.07150086 0.18391345 -0.090146914
0.04640573 0.087056935 -0.40226766 -0.5047043 -0.024691515 -0.041637458 -0.18071526 -0.2534313
-0.017549556 0.23010592 -0.34091783 -0.11189259 -0.041290585 0.07986074 -0.32564732 -0.15070474
0.0065676505 0.021885308 -0.29720643 0.10037159 0.413662 0.01550665 0.20944667 -0.07161304
-0.2291247 -0.66288066 0.083220825 0.061412625 -0.10180429 -0.0018332964 0.19171107 0.18084712
0.21472795 0.1922379 0.2492558 -0.26677704 -0.19713844 0.003752435 0.22084929 0.1579039
-0.18168493 0.039480504 -0.46515077 -0.24338491 0.23725681 -0.30437052 0.19654682 0.28168848
-0.28201258 -0.20599571 -0.18450102 0.20296729 0.41259167 0.23109736 -0.24860215 -0.090679966
-0.33182514 -0.021532388 -0.21031865 -0.1784534 0.11777659 -0.13822399 0.040107697 0.31282955
-0.25196797 -0.10010799 -0.26184908 -0.15813194 0.15706967 0.04436739 -0.24027035 0.03687089
-0.19400948 -0.056172308 -0.06726146 -0.13873379 0.17574237 -0.17037444 0.13023926 -0.11439993
-0.06401292 -0.0062658014 -0.31643504 -0.008515655 0.20250458 0.17949939 -0.15497887 -0.00795779
-0.010125391 -0.30983678 -0.01924241 0.19645265 -0.34100023 0.055386197 -0.39903277 -0.40473768
-0.03749817 -0.10985581 0.31343132 -0.13066308 -0.46191955 0.10785272 -0.0051366296 -0.1452234
0.18212277 0.008998858 0.12827392 0.3682146 0.18637788 -0.0107888905 -0.4437053 -0.118673675
0.0003484038 -0.018563844 0.052037105 -0.0874961 0.18882717 -0.19273297 -0.65039456 -0.10422473
0.057253044 -0.045547117 -0.21006039 -0.014403152 -0.3075254 0.17489418 -0.4661741 -0.5217445
-0.15467595 -0.050478373 -0.039332125 0.48381263 0.3666165 0.28384215 -0.40459895 -0.06673572
0.08140817 -0.38865075 0.12990263 -0.06575366 -0.06316102 -0.30538878 -0.07127226 -0.018300291
-0.02411416 0.108700015 -0.14636695 -0.19490175 0.2733495 0.31307644 -0.11793712 -0.17626439
0.14688952 -0.32608187 0.058341935 0.32261518 -0.22820036 -0.041692242 -0.36296707 0.12679166
-0.017534308 0.07556024 0.21841118 0.036358308 -0.18354332 -0.08029331 0.10722985 -0.17385335
-0.049188223 -0.14288732 -0.06097667 -0.22543558 0.11144144 -0.043078743 -0.11397623 0.0995745
0.16885667 -0.08665498 0.28036296 0.056306865 0.026288021 -0.3869954 0.16137822 0.1387359
-0.07115034 -0.09672589 -0.14243913 0.17833333 0.020495374 0.09408303 -0.47143406 0.068341166
00000000: 9e79 053e a49e 3bbd ef0d ebbe 6598 0b3d
00000010: 3e2f 12be 1235 38be 2ad6 2b3e ff0c 77be
00000020: d9a4 1f3e dc96 97bd ab51 19bf 3bf3 85bd
00000030: 6a5a d1be 2497 323d eed6 b03d 90e1 c33d
00000040: 1122 c43c 6620 d53d c516 1bbf 53d6 283e
00000050: 72be 6bbc 02ad a93c 0405 9ebb df59 593e
00000060: 282e 09bf 093b d4bc ca87 d4bd e601 823e
00000070: 4ef1 8dbe 69fe 883d 8675 073e 077c 503e
00000080: 0406 7bbd 2567 1e3e b7cf 6abe 87bd 89bb
00000090: 31ef 853e df23 a43e 316c 9c3d f4e9 b1bd
000000a0: e704 3cbb 0a54 2bbf 6a01 bebe 4217 3d3e
000000b0: a5db 103e dea8 18bf 222b 373e fbd6 aa3d
000000c0: eda2 363e 008b 7a3e e261 833e bae7 54be
000000d0: d4ad c9bc 505c 07be e4ff b83b 9b11 b9bd
000000e0: 7bf1 e5bc a201 243e 4014 d83d 22f4 763d
000000f0: 06e8 85be 0b6f 92bd cf53 3c3e f29e b8bd
00000100: ef13 3e3d e84a b23d 07f6 cdbe 4d34 01bf
00000110: dc45 cabc 0a8c 2abd 6c0d 39be bfc1 81be
00000120: 16c4 8fbc e3a0 6b3e c88c aebe f127 e5bd
00000130: 5120 29bd 078e a33d 3fbb a6be 5852 1abe
00000140: 7235 d73b d148 b33c 712b 98be 9f8f cd3d
00000150: 81cb d33e 9b0f 7e3c 3079 563e dca9 92bd
00000160: aa9f 6abe 8cb2 29bf ae6f aa3d ce8b 7b3d
00000170: c57e d0bd 384b f0ba e84f 443e fd2f 393e
00000180: a5e1 5b3e 03da 443e ea3c 7f3e 0097 88be
00000190: a9de 49be 6aeb 753b 5126 623e 8fb1 213e
000001a0: 9d0b 3abe 4fb6 213d 3e28 eebe e539 79be
000001b0: 73f3 723e 74d6 9bbe 9243 493e 7939 903e
000001c0: f463 90be 8af0 52be d6ed 3cbe a8d6 4f3e
000001d0: 373f d33e c9a4 6c3e 9091 7ebe 6bb6 b9bd
000001e0: fce4 a9be b164 b0bc c65d 57be 7dbc 36be
000001f0: da34 f13d 978a 0dbe f847 243d 322b a03e
00000200: f201 81be 6b05 cdbd 1511 86be 57ed 21be
00000210: dfd6 203e 95ba 353d 6e09 76be ee05 173d
00000220: 6caa 46be ef14 66bd 60c0 89bd 3b10 0ebe
00000230: cff5 333e a376 2ebe 715d 053e 834a eabd
00000240: 3519 83bd 5a51 cdbb c603 a2be 3f85 0bbc
00000250: 5c5d 4f3e b0ce 373e c8b2 1ebe 6461 02bc
00000260: f8e4 25bc eda2 9ebe 42a2 9dbc e22a 493e
00000270: 9597 aebe a3dc 623d 064e ccbe c739 cfbe
00000280: ae97 19bd 15fc e0bd 127a a03e 8bcc 05be
00000290: b880 ecbe e3e1 dc3d 2c51 a8bb 71b5 14be
000002a0: 647e 3a3e f26f 133c 3d5a 033e a086 bc3e
000002b0: d8d9 3e3e e3c3 30bc 572d e3be 2f0b f3bd
000002c0: f7a9 b639 3413 98bc dc24 553d 2831 b3bd
000002d0: e95b 413e cb5b 45be 4280 26bf c673 d5bd
000002e0: 2b82 6a3d 9d8f 3abd 121a 57be 33fb 6bbc
000002f0: f873 9dbe 7617 333e 5fae eebe 0c91 05bf
00000300: 5f63 1ebe 69c2 4ebd b91a 21bd 4ab6 f73e
00000310: 28b5 bb3e c253 913e 9827 cfbe bdac 88bd
00000320: 54b9 a63d 3bfd c6be 3205 053e dba9 86bd
00000330: 915a 81bd eb5b 9cbe 31f7 91bd 7eea 95bc
00000340: 0f8b c5bc 1d9e de3d 38e1 15be 5394 47be
00000350: 77f4 8b3e 8e4b a03e 0489 f1bd a77e 34be
00000360: 356a 163e 34f4 a6be f4f7 6e3d d12d a53e
00000370: 5bad 69be 7cc5 2abd d2d6 b9be acd5 013e
00000380: 1ca4 8fbc 54bf 9a3d 2ea7 5f3e 73ec 143d
00000390: c8f2 3bbe d270 a4bd 539b db3d 9d06 32be
000003a0: 9779 49bd 0e51 12be acc2 79bd 96d8 66be
000003b0: 693b e43d 5673 30bd 5f6c e9bd b7ed cb3d
000003c0: c3e8 2c3e 2b78 b1bd bc8b 8f3e 07a2 663d
000003d0: fa59 d73c 4324 c6be 5540 253e c910 0e3e
000003e0: 45b7 91bd 3918 c6bd 90db 11be 039d 363e
000003f0: eae5 a73c 9bae c03d ce5f f1be 74f6 8b3d

l3/b f4 [9]
-0.13605107 -0.2714633 -0.21118692 -0.07453094 0.09170805 -0.026251946 -0.01905447 -0.16527171
-0.115025595
00000000: f950 0bbe 3dfd 8abe 6241 58be ada3 98bd
00000010: 6ed1 bb3d 520e d7bc 1f18 9cbc fd3c 29be
00000020: 8a92 ebbd

l0/b f4 [81]
0.25063258 -0.2921731 -0.20557195 -0.19386864 -0.10498901 -0.36219683 -0.47319987 -0.15136465
-0.03515018 -0.030077849 -0.3508486 -0.2363697 -0.038174003 -0.15790164 -0.49112085 0.05694465
0.296362 -0.25272083 -0.28085616 0.03074765 0.033053003 0.3812989 -0.18211739 -0.37594637
-0.35569084 -0.21417125 -0.17162709 -0.092776224 -0.15216029 -0.31629482 -0.23244284 -0.17309998
-0.16505541 -0.08526514 -0.24395108 -0.38797772 0.08751308 -0.65914154 -0.19092232 -0.095360056
-0.10811542 0.010761819 -0.120835416 -0.21346097 -0.29706585 0.18050472 -0.12289483 -0.43600962
-0.34047163 -0.19150949 -0.09598101 -0.21130903 -0.37674242 -0.4014121 -0.3949047 -0.3255903
-0.28313467 -0.32947135 0.027727626 -0.0023367975 -0.16842169 -0.2615199 0.038282707 -0.16067001
-0.41954866 0.33516318 -0.119854435 -0.20372137 -0.24603535 -0.55570054 -0.0703377 -0.25248507
-0.21726859 -0.08207826 -0.08064091 0.05587649 -0.34675258 -0.06548887 0.029946001 -0.27009484
-0.28831363
00000000: ea52 803e b697 95be 7481 52be 8085 46be
00000010: 7a04 d7bd dd71 b9be 4147 f2be 56ff 1abe
00000020: a3f9 0fbd d265 f6bc 6da2 b3be e60a 72be
00000030: 585c 1cbd f8b0 21be 3174 fbbe cb3e 693d
00000040: c3bc 973e a064 81be 61cc 8fbe 7fe2 fb3c
00000050: 9662 073d 9c39 c33e fb7c 3abe 0b7c c0be
00000060: 1c1d b6be b54f 5bbe 03bf 2fbe 7601 bebd
00000070: e8cf 1bbe 65f1 a1be 7f05 6ebe 1f41 31be
00000080: 4904 29be 7d9f aebd 50ce 79be 04a5 c6be
00000090: 0f3a b33d 80bd 28bf 2481 43be 224c c3bd
000000a0: 9e6b ddbd 5752 303c 8f78 f7bd 8395 5abe
000000b0: 0419 98be 3bd6 383e 49b0 fbbd a73c dfbe
000000c0: 4c52 aebe 101b 44be b191 c4bd 6561 58be
000000d0: 62e4 c0be e385 cdbe f330 cabe c6b3 a6be
000000e0: 07f7 90be 78b0 a8be 0c25 e33c f524 19bb
000000f0: bc76 2cbe f0e5 85be 54ce 1c3d ae86 24be
00000100: 15cf d6be 829a ab3e 3e76 f5bd 569c 50be
00000110: b1f0 7bbe 6442 0ebf 360d 90bd b945 81be
00000120: a87b 5ebe a618 a8bd 1027 a5bd bfde 643d
00000130: 8e89 b1be 071f 86bd 5151 f53c df49 8abe
00000140: d89d 93be

l1/W f4 [81, 81]
-0.21829578 -0.16537565 -0.10963848 0.02731983 0.021901693 0.13895428 0.1359433 -0.30162704
-0.23680602 -0.24161169 -0.15343288 0.0043746177 -0.14084038 -0.21057925 -0.14020418 0.16621836
0.07518164 0.038012188 -0.037690487 0.09557282 -0.09658484 -0.080651805 -0.032592937 0.07221686
0.07312525 -0.10915668 0.33766067 -0.31273615 -0.23512325 -0.029959543 -0.17411333 -0.039405722
0.19415426 0.007885179 0.10741174 -0.3204541 -0.09959192 -0.02777136 -0.23036808 -0.03565877
0.019133333 0.12650634 -0.05948492 0.13585171 0.19947562 0.0038426602 -0.03221542 -0.04495637
0.26344833 0.002172495 -0.07786881 -0.00041104158 -0.024069699 0.0906609 0.039871857 -0.09187719
0.0153674055 0.20066682 0.08310196 -0.21424116 0.16653192 -0.19448116 -0.118594676 -0.03152285
0.22006096 -0.021357689 0.12289879 0.10011467 -0.13716781 -0.15370329 -0.20909263 0.15768647
-0.16393916 0.006889348 0.051571485 -0.4081992 -0.1691973 0.0076961042 0.056399517 0.07958546
-0.17911217 -0.3179302 -0.4928946 -0.1274112 0.04755914 -0.09670616 0.20704608 0.15104505
0.26178688 -0.20993406 -0.035881773 0.20325178 0.22605594 0.292894 0.17319909 -0.02942524
-0.06948432 0.18233253 -0.0034034853 0.1748091 -0.09105373 0.10894077 -0.36132947 0.16798562
-0.18204422 0.028698461 0.11180604 0.11654039 -0.06796694 -0.17476204 0.0067095286 0.04910345
-0.22573884 0.040674146 0.14560075 -0.11365186 -0.08997356 -0.25466946 0.3904522 0.09029175
-0.01050182 0.018725593 -0.30310774 -0.1408281 0.13667108 -0.11371696 -0.055313937 -0.03958977
-0.16332085 -0.11475921 -0.0927113 0.19262935 -0.24580291 0.09450932 -0.24077655 0.082610935
-0.107328765 0.14355506 0.19569437 0.03485738 -0.424592 -0.306635 0.17419621 -0.14607972
-0.21464327 0.1411085 0.14139047 0.03080101 -0.32644364 0.14251237 0.010710325 0.16563341
0.09498137 0.2367523 -0.19462988 0.0052762683 -0.21534397 -0.13214056 0.19120626 0.096414305
0.11350197 0.010351601 0.12940449 -0.10310584 0.04088057 -0.11504476 0.43642944 0.19810265
0.20068939 0.13039821 -0.28329486 0.07233146 -0.24308026 0.007205732 -0.08252416 -0.22730425
-0.15889902 0.23534876 0.16617903 0.17389975 -0.012152554 0.054550786 0.052044857 -0.23964024
-0.2410586 -0.057557736 0.123066686 -0.22813018 -0.24371827 -0.06442849 0.12147422 -0.19607711
0.15145788 -0.07909783 -0.05861039 -0.01854466 0.09349864 0.31329256 -0.06470979 0.21522582
-0.13608958 -0.0029452716 -0.15572605 0.026594577 -0.14326745 -0.14725779 0.2200995 -0.19911611
0.14673696 -0.10227318 0.19600217 0.21393882 -0.050948173 -0.070217095 0.06977075 -0.014794344
-0.19689642 -0.13617152 0.015763097 -0.28361943 -0.09952619 0.06221094 0.036732737 0.0045844284
-0.13337089 -0.064757705 -0.08550192 -0.038143884 -0.004370083 -0.17961437 0.18723448 -0.011344282
0.03584416 0.07707416 -0.015631083 0.088180706 -0.02921643 -0.37399343 -0.07693678 0.0009771866
0.02205345 0.26053533 0.11304195 0.13737667 -0.16859962 0.17472035 0.08624848 -0.0032963464
-0.21220502 0.37648243 -0.28579423 -0.03539348 0.35032064 -0.082376726 0.23160055 0.039539527
00000000: ee88 5fbe 3c58 29be 248a e0bd d6cd df3c
00000010: 2e6b b33c 084a 0e3e b834 0b3e dc6e 9abe
00000020: 477d 72be 0e69 77be 821d 1dbe f458 8f3b
00000030: 7638 10be 16a2 57be af91 0fbe 2535 2a3e
00000040: d5f8 993d abb2 1b3d 5761 1abd afbb c33d
00000050: 46ce c5bd c62c a5bd 2c80 05bd 6fe6 933d
00000060: b1c2 953d 8a8d dfbd dce1 ac3e f41e a0be
00000070: 26c4 70be b76d f5bc c44a 32be e567 21bd
00000080: 60d0 463e d630 013c b0fa db3d 8f12 a4be
00000090: d9f6 cbbd c380 e3bc 9ce5 6bbe ee0e 12bd
000000a0: 82bd 9c3c e18a 013e 76a6 73bd b61c 0b3e
000000b0: 5643 4c3e 24d5 7b3b 51f4 03bd 2c24 38bd
000000c0: b3e2 863e 6b60 0e3b af79 9fbd 1181 d7b9
000000d0: d12d c5bc 6cac b93d ac50 233d 1c2a bcbd
000000e0: 92c7 7b3c 9a7b 4d3e 5c31 aa3d 0962 5bbe
000000f0: 5887 2a3e 1226 47be c4e1 f2bd 1b1e 01bd
00000100: a957 613e 52f6 aebc 5cb2 fb3d ec08 cd3d
00000110: b875 0cbe 6564 1dbe 611c 56be 9078 213e
00000120: abdf 27be 0ac0 e13b 9f3c 533d 7cff d0be
00000130: 0f42 2dbe 9a2f fc3b 2e03 673d b4fd a23d
00000140: 2e69 37be bfc7 a2be ae5c fcbe 1578 02be
00000150: 5fcd 423d e10d c6bd e303 543e 8eab 1a3e
00000160: ee08 863e f4f8 56be c4f8 12bd 3c21 503e
00000170: 357b 673e 34f6 953e 1a5b 313e 330d f1bc
00000180: cc4d 8ebd 61b5 3a3e 020d 5fbb 2801 333e
00000190: 617a babd 571c df3d 2d00 b9be 6c04 2c3e
000001a0: cd69 3abe 0919 eb3c 91fa e43d baac ee3d
000001b0: 4032 8bbd d2f4 32be 9bdb db3b b320 493d
000001c0: 1528 67be ef99 263d 5d18 153e 4ec2 e8bd
000001d0: 0f44 b8bd 0964 82be 5ae9 c73e e2ea b83d
000001e0: d30f 2cbc 6a66 993c f030 9bbe 3e35 10be
000001f0: 81f3 0b3e 70e4 e8bd de90 62bd e228 22bd
00000200: 953d 27be e006 ebbd 6cdf bdbd a140 453e
00000210: c2b3 7bbe 1a8e c13d 218e 76be ec2f a93d
00000220: 2fcf dbbd 1900 133e 1b64 483e 9dc6 0e3d
00000230: 1f64 d9be 43ff 9cbe 7e60 323e ec95 15be
00000240: 72cb 5bbe bf7e 103e aac8 103e 6652 fc3c
00000250: 9f23 a7be c3ee 113e 5c7a 2f3c ce9b 293e
00000260: 9885 c23d 326f 723e 0e4d 47be 8ce4 ac3b
00000270: 2183 5cbe db4f 07be 93cb 433e dd74 c53d
00000280: b973 e83d c399 293c 9c82 043e 2829 d3bd
00000290: 6272 273d 969c ebbd ae73 df3e 6cdb 4a3e
000002a0: 8581 4d3e 1c87 053e 060c 91be 8422 943d
000002b0: 08ea 78be 101e ec3b 6d02 a9bd 72c2 68be
000002c0: 6db6 22be 44ff 703e d62a 2a3e c712 323e
000002d0: 811b 47bc a570 5f3d fd2c 553d 4064 75be
000002e0: 11d8 76be a9c1 6bbd 630a fc3d f59a 69be
000002f0: 4891 79be 16f3 83bd 7ac7 f83d 70c8 48be
00000300: c617 1b3e 0bfe a1bd 7311 70bd f9ea 97bc
00000310: 377c bf3d e267 a03e 9186 84bd 2864 5c3e
00000320: 115b 0bbe 7505 41bb a676 1fbe dfdc d93c
00000330: b4b4 12be bfca 16be c361 613e 18e5 4bbe
00000340: 3742 163e 9a74 d1bd cbb4 483e c712 5b3e
00000350: 08af 50bd fbcd 8fbd f8e3 8e3d fa63 72bc
00000360: 379f 49be 8c70 0bbe 9c21 813c 9136 91be
00000370: 63d4 cbbd e6d0 7e3d 1175 163d f938 963b
00000380: 6192 08be b09f 84bd a11b afbd c33c 1cbd
00000390: ea32 8fbb d4ec 37be 65ba 3f3e 5edd 39bc
000003a0: 53d1 123d 0fd9 9d3d c20c 80bc 1698 b43d
000003b0: 4b57 efbc 117c bfbe 0891 9dbd f114 803a
000003c0: 70a9 b43c e364 853e 8a82 e73d 78ac 0c3e
000003d0: 61a5 2cbe e4e9 323e 0ba3 b03d 8407 58bb
000003e0: 464c 59be 4ec2 c03e 9f53 92be c1f8 10bd
000003f0: 3a5d b33e 21b5 a8bd b228 6d3e 33f4 213d

l2/W f4 [81, 81]
-0.052456673 0.032905973 0.07497567 0.04081533 -0.36613905 0.3020744 0.07365395 -0.15441772
-0.023266798 0.055920977 0.081423566 0.116443746 0.067606404 -0.05840101 -0.039123148 0.06963918
-0.1457945 0.09301151 0.09731168 -0.07399007 0.17104974 -0.05453535 0.22856268 -0.10925956
0.030631587 -0.062196836 -0.44128793 -0.009857174 0.040148143 -0.083966404 -0.03351764 -0.15311037
-0.092468366 0.029106088 0.08085118 -0.3872012 0.09437345 0.10537742 -0.31493127 0.4023858
-0.048069682 0.16519174 0.17259255 -0.030244635 -0.2068585 0.31625205 0.12719999 0.1900621
-0.05559158 -0.06951464 0.269147 -0.012937444 -0.03939151 -0.05966076 0.061183956 -0.09140787
0.26923403 -0.5868154 0.21428476 -0.28370714 -0.16234036 0.037183937 -0.06445053 -0.0019846696
0.080012105 -0.077134795 -0.10384448 -0.37930122 0.21520732 0.056761526 0.08386727 -0.18248673
-0.040898662 -0.18202198 -0.0002769664 -0.049814884 -0.15281135 -0.057359822 -0.18347849 -0.33111185
0.07765367 0.116206646 -0.37574205 0.07422665 0.08981456 0.023539089 -0.23395962 -0.09517044
-0.17290328 -0.05441997 0.01560112 -0.04683834 -0.027354784 0.084473774 -0.1713954 -0.008433169
-0.1937479 0.07465663 0.010445042 0.22996312 -0.3147612 0.18731956 0.3829404 0.19049856
0.014222214 0.08757238 -0.16564193 0.1375735 -0.2147877 -0.015402775 -0.08072424 -0.10234684
0.04644387 0.1485627 0.052686606 0.018233843 -0.32873768 0.056718666 0.2138231 -0.15697888
-0.04610308 -0.45348096 -0.13283929 -0.4864278 0.038630966 -0.06345041 -0.022492938 -0.057193685
-0.23459533 0.09358271 0.13757195 -0.22799283 -0.037550554 -0.057296354 0.14888255 0.18407679
0.22508533 -0.043750234 0.043241184 -0.17342888 0.1622009 -0.07389233 -0.150479 0.22593316
-0.1825754 -0.13633576 -0.0762058 0.073806114 0.27978754 -0.057812355 -0.1784809 -0.025010364
-0.07776938 0.029793287 -0.16376561 -0.09297923 0.11053014 0.028528683 -0.18349448 0.018639453
0.26100442 0.1976139 -0.067529745 -0.030752083 0.14039864 -0.0720598 0.09796846 0.011236363
-0.17023453 -0.23012482 -0.13291004 0.028584179 0.11839598 -0.25107312 -0.04667361 -0.113461174
-0.015981333 -0.292335 -0.04069974 -0.11282847 0.1293496 -0.16944784 -0.033540588 -0.37745276
0.060339555 0.029652197 -0.22907881 -0.004904009 -0.08625035 -0.08209926 0.02334818 0.13698244
0.22791572 -0.09669746 0.10025648 0.020580327 -0.094742484 0.3637305 -0.3508445 0.16180256
0.08051018 -0.28936368 -0.09486939 -0.20164487 -0.1689815 0.17762133 -0.17418279 -0.06680443
0.24426015 -0.27081415 -0.03777608 -0.013498028 -0.0019418059 -0.026522027 -0.35616565 -0.37207398
-0.12257115 -0.11992858 0.20686239 -0.237623 -0.3743513 -0.21564777 0.11236832 -0.20961663
-0.3742592 -0.13313954 -0.18033221 -0.25455105 -0.20685577 -0.28214473 -0.20661981 -0.05146249
-0.22375278 -0.047508188 -0.09608032 0.038887937 -0.41958168 0.11040039 -0.030702274 0.054653805
-0.06954849 -0.19547205 0.05350148 0.17315736 -0.18714309 -0.022153005 -0.13640977 -0.1982444
0.041956153 0.080588795 -0.0026229888 -0.28500134 -0.07416211 -0.04730418 -0.024986785 -0.07186881
00000000: cfdc 56bd 6ac8 063d d88c 993d fa2d 273d
00000010: 9476 bbbe 7fa9 9a3e e2d7 963d ae1f 1ebe
00000020: 039a bebc 650d 653d 66c1 a63d 0f7a ee3d
00000030: 3a75 8a3d e635 6fbd 983f 20bd fd9e 8e3d
00000040: 274b 15be d27c be3d 594b c73d 1b88 97bd
00000050: aa27 2f3e 7660 5fbd 560c 6a3e 7ac3 dfbd
00000060: 18ef fa3c 1cc2 7ebd 7ef0 e1be fc7f 21bc
00000070: 6172 243d 94f6 abbd cb49 09bd f7c8 1cbe
00000080: 0e60 bdbd e46f ee3c 4e95 a53d 3c3f c6be
00000090: de46 c13d 1ed0 d73d ac3e a1be 8305 ce3e
000000a0: b7e4 44bd 0628 293e 1abc 303e 99c3 f7bc
000000b0: b7d2 53be caeb a13e b740 023e a49f 423e
000000c0: ffb3 63bd b15d 8ebd a3cd 893e 93f7 53bc
000000d0: fe58 21bd d75e 74bd 079c 7a3d 0d34 bbbd
000000e0: 0bd9 893e 8939 16bf 776d 5b3e 1042 91be
000000f0: 8d3c 26be 2f4e 183d a4fe 83bd 3b11 02bb
00000100: 63dd a33d d9f8 9dbd 6aac d4bd c533 c2be
00000110: 4f5f 5c3e c67e 683d 9ac2 ab3d cddd 3abe
00000120: 5b85 27bd f863 3abe cd35 91b9 b10a 4cbd
00000130: 947a 1cbe 22f2 6abd c9e1 3bbe 7e87 a9be
00000140: e308 9f3d c0fd ed3d 4361 c0be 2404 983d
00000150: b2f0 b73d 0cd5 c03c 1c93 6fbe b8e8 c2bd
00000160: 8f0d 31be 79e7 5ebd d79b 7f3c 8fd9 3fbd
00000170: 2417 e0bc 9600 ad3d 4782 2fbe 462b 0abc
00000180: d965 46be 93e5 983d ae21 2b3c 747b 6b3e
00000190: 6128 a1be b3d0 3f3e c410 c43e 0e12 433e
000001a0: 4a04 693c 2659 b33d 0a9e 29be 11e0 0c3e
000001b0: 4ff1 5bbe ec5b 7cbc c052 a5bd 389b d1bd
000001c0: ed3b 3e3d d220 183e e9cd 573d 245f 953c
000001d0: 4e50 a8be d551 683d 71f4 5a3e 12bf 20be
000001e0: 95d6 3cbd a82e e8be 0607 08be 110d f9be
000001f0: 813b 1e3d 4af2 81bd 1c43 b8bc ed43 6abd
00000200: c239 70be 4ba8 bf3d a9df 0c3e f476 69be
00000210: 9cce 19bd 95af 6abd ab74 183e a07e 3c3e
00000220: c57c 663e 7233 33bd ab1d 313d 5797 31be
00000230: fe17 263e dd54 97bd 2b17 1abe 065b 673e
00000240: 0cf5 3abe 9a9b 0bbe c911 9cbd a927 973d
00000250: 5040 8f3e a6cc 6cbd b2c3 36be 89e2 ccbc
00000260: 8d45 9fbd 0d11 f43c 2cb2 27be e56b bebd
00000270: a05d e23d fcb4 e93c fae5 3bbe c4b1 983c
00000280: 5fa2 853e 4c5b 4a3e 094d 8abd cbeb fbbc
00000290: a9c4 0f3e 1794 93bd b0a3 c83d b918 383c
000002a0: f651 2ebe d7a5 6bbe 9219 08be 5e29 ea3c
000002b0: 9779 f23d a88c 80be d42c 3fbd 555e e8bd
000002c0: 49eb 82bc efac 95be c5b4 26bd 9d12 e7bd
000002d0: 3974 043e bc83 2dbe db61 09bd 7d41 c1be
000002e0: 9c26 773d 2ae9 f23c a393 6abe cfb1 a0bb
000002f0: 06a4 b0bd a823 a8bd af44 bf3c 2045 0c3e
00000300: bd62 693e 5109 c6bd 4553 cd3d 1398 a83c
00000310: 5908 c2bd e23a ba3e e4a1 b3be 92af 253e
00000320: 85e2 a43d 7a27 94be e24a c2bd fe7b 4ebe
00000330: 7d09 2dbe 5ee2 353e f95c 32be c3d0 88bd
00000340: 551f 7a3e 27a8 8abe 17bb 1abd d526 5dbc
00000350: 3284 feba b944 d9bc 585b b6be 7b80 bebe
00000360: 9506 fbbd 1e9d f5bd bcd3 533e 7253 73be
00000370: f9aa bfbe c5d2 5cbe 5d21 e63d bea5 56be
00000380: e79e bfbe bb55 08be 02a9 38be 8454 82be
00000390: 00d2 53be 4675 90be 2594 53be 55ca 52bd
000003a0: 731f 65be f297 42bd c2c5 c4bd f548 1f3d
000003b0: 69d3 d6be 9a19 e23d 5683 fbbc abdc 5f3d
000003c0: 706f 8ebd d329 48be 5e24 5b3d 2a50 313e
000003d0: 70a2 3fbe 387a b5bc 01af 0bbe 9400 4bbe
000003e0: 37da 2b3d bd0b a53d 73e6 2bbb b2eb 91be
000003f0: 4ee2 97bd 07c2 41bd 16b1 ccbc f42f 93bd

l1/b f4 [81]
-0.07228064 -0.21394244 -0.2423027 -0.15499726 -0.34646922 -0.11853599 -0.16984743 -0.17770036
-0.32334375 0.041479852 -0.23396602 -0.010715804 -0.1457396 0.0093148025 -0.13126588 0.12657262
-0.47253415 0.01121323 -0.03087839 -0.073347144 -0.19999027 -0.111984044 -0.26001698 -0.2900271
-0.2810754 -0.39724064 0.058601245 -0.23389 0.012028119 -0.041919697 -0.2999535 -0.105947
0.06936623 -0.24679498 -0.06267062 0.09449088 -0.089949615 -0.2178492 -0.6484812 -0.2105886
0.15133269 -0.07325349 -0.23518495 -0.040084004 -0.22633179 0.36968523 -0.19570075 -0.15605442
-0.23177667 -0.35820603 -0.098443344 -0.23734167 -0.13918005 -0.058884192 -0.32908827 -0.09319676
-0.035375196 -0.19346356 -0.028822161 -0.43652913 -0.04913857 -0.30165142 -0.21370845 -0.46847695
0.019667095 0.11383834 -0.39494115 -0.09400799 -0.016176684 -0.12699987 -0.098301895 0.058258533
0.41556022 -0.11596762 -0.19089812 -0.25275803 0.0717126 0.07753832 0.05587689 -0.04496838
-0.040987846
00000000: df07 94bd ba13 5bbe 331e 78be 9ab7 1ebe
00000010: 6a64 b1be ffc2 f2bd 7cec 2dbe 15f7 35be
00000020: 508d a5be c7e6 293d ca94 6fbe 5791 2fbc
00000030: c33c 15be 1d9d 183c 906a 06be 419c 013e
00000040: ffef f1be b2b7 373c adf4 fcbc 0737 96bd
00000050: 40ca 4cbe e457 e5bd f220 85be 6f7e 94be
00000060: 1de9 8fbe 2063 cbbe dc07 703d dc80 6fbe
00000070: 9611 453c fdb3 2bbd 8193 99be befa d8bd
00000080: e20f 8e3d d3b7 7cbe 7459 80bd 6f84 c13d
00000090: 8137 b8bd dc13 5fbe dd02 26bf 8aa4 57be
000000a0: f5f6 1a3e ed05 96bd 53d4 70be 202f 24bd
000000b0: 85c3 67be 6247 bd3e c765 48be bbcc 1fbe
000000c0: dd56 6dbe c866 b7be aa9c c9bd b209 73be
000000d0: 3785 0ebe 8d30 71bd 427e a8be f1dd bebd
000000e0: 95e5 10bd 501b 46be 741c ecbc bf80 dfbe
000000f0: 8645 49bd 0e72 9abe 63d6 5abe 36dc efbe
00000100: e31c a13c 1324 e93d ba35 cabe 4387 c0bd
00000110: f784 84bc 410c 02be 8152 c9bd 80a0 6e3d
00000120: 4fc4 d43e 6e80 edbd cc7a 43be 8069 81be
00000130: 0ede 923d 69cc 9e3d 2adf 643d c430 38bd
00000140: dfe2 27bd

l2/b f4 [81]
0.045553695 -0.058277555 -0.1706388 0.07023945 0.0037676827 -0.28000495 -0.25623152 -0.054257717
-0.14727105 0.16136491 -0.26971465 -0.02333529 -0.06727376 0.00087896717 0.10071544 0.20257056
-0.0075151864 -0.23147756 -0.16320914 -0.31596804 -0.23132478 0.05004202 -0.08301161 -0.25883865
-0.084385864 -0.060310777 -0.22824214 -0.0966616 -0.11215704 -0.18095137 0.046791308 -0.08478112
-0.17147906 -0.16962643 -0.025170673 -0.1486578 -0.089469634 0.13116166 -0.11714887 -0.16294639
-0.0076214843 -0.16403224 -0.2551318 -0.012965296 -0.07023022 -0.078296036 -0.12740555 -0.12122517
-0.24279895 -0.17250273 -0.19702186 -0.11134232 -0.103978515 -0.18964368 0.07348348 0.13018684
0.04722783 0.043641154 -0.0072217267 -0.054913577 -0.22222033 0.0069537815 -0.2137368 -0.011217922
-0.012222619 -0.15601511 -0.1171213 -0.124340616 -0.20490675 -0.16699547 -0.17578988 -0.230841
-0.043612782 -0.078836285 -0.14398207 -0.091303244 -0.08850185 -0.14353572 -0.40993977 0.037063472
-0.04797775
00000000: 8396 3a3d 72b4 6ebd f0bb 2ebe b3d9 8f3d
00000010: 3aeb 763b cf5c 8fbe c730 83be 573d 5ebd
00000020: 39ce 16be d83c 253e 0a18 8abe a629 bfbc
00000030: d3c6 89bd 7d6a 663a e643 ce3d a86e 4f3e
00000040: f441 f6bb 7408 6dbe 4c20 27be 90c6 a1be
00000050: 67e0 6cbe dcf8 4c3d fe01 aabd 8086 84be
00000060: 7fd2 acbd 6f08 77bd 4fb8 69be 84f6 c5bd
00000070: 97b2 e5bd 514b 39be 3ea8 3f3d b9a1 adbd
00000080: 3598 2fbe 8db2 2dbe ba32 cebc c039 18be
00000090: db3b b7bd 3e4f 063e bfeb efbd 6bdb 26be
000000a0: a5bd f9bb 11f8 27be a3a0 82be 656c 54bc
000000b0: ddd4 8fbd ac59 a0bd 9a76 02be e744 f8bd
000000c0: 4aa0 78be 8ea4 30be 19c0 49be 7107 e4bd
000000d0: b0f2 d4bd f431 42be 827e 963d b34f 053e
000000e0: f871 413d 11c1 323d 3ca4 ecbb 0fed 60bd
000000f0: ba8d 63be 8cdc e33b d2dd 5abe 60cb 37bc
00000100: 6141 48bc 6dc2 1fbe 4bdd efbd 4ba6 febd
00000110: 13d3 51be dc00 2bbe 4302 34be 9561 6cbe
00000120: 51a3 32bd eb74 a1bd 0970 13be 32fd babd
00000130: 7540 b5bd 07fb 12be a0e3 d1be decf 173d
00000140: 5184 44bd

l0/W f4 [81, 9]
0.4166228 -0.007951113 0.036459826 0.20898663 0.008282786 0.33959952 0.5255693 -0.015488476
0.6779222 -0.0007038699 1.1355551 0.016833806 -0.19766279 0.55533504 -0.24557301 -0.04208315
0.5433665 0.28134376 -0.039334167 0.2536529 0.23125966 -0.66903746 0.13323902 0.1294835
-0.68226933 0.12213052 -0.29196173 0.5364626 0.04832528 0.10564672 -0.13651632 0.038899966
-0.3003196 -0.25939727 0.011917764 -0.33568475 0.5507503 0.023552747 0.06016245 -0.016324274
-0.54079413 0.032051668 -0.045524064 -0.1486771 -0.5145266 -0.26970506 -0.44214466 0.41565353
0.69473386 -0.19278206 0.057924595 -0.38978618 -0.8338543 0.06917348 -0.05635501 -0.5205571
-0.46375322 0.22587948 -0.28644866 0.15486096 0.67757607 -0.18593292 -0.31147367 -0.35296518
-0.3192948 -0.21206044 -0.37844712 -0.17801045 -0.06708915 -0.33538273 0.80401134 -0.43112448
0.3679958 0.09819195 0.095278434 -0.20740332 -0.018286696 0.004200925 -0.09026451 -1.0584797
0.3326487 0.24384744 -0.110227555 0.1263435 0.56261325 -0.3998325 -0.19465247 0.033418767
0.049243063 0.295761 0.14880207 -0.39192122 -0.51961064 -0.03655607 0.08548859 -0.0147266565
-0.79668015 -0.503794 -0.5805349 0.4543391 0.16475728 -0.114527 0.0011549842 0.8341002
0.760595 0.39186728 0.040582668 -0.074589826 0.5533068 0.5136454 0.40942815 0.15189937
0.5317553 -0.109674655 -0.24138334 0.28918025 0.23118263 0.84781176 -0.49682128 0.10472666
0.21352889 0.37228727 0.5350205 -0.05218015 -0.2961444 0.684574 -0.121980116 0.13309531
-0.93130684 0.14150712 -0.62883747 0.10489018 -0.75535357 0.28961587 0.18150976 0.047542118
0.50841755 0.37621027 0.41808763 0.36668837 0.11803897 0.08305705 -0.20243238 0.17167023
0.9033365 0.10765628 0.35046855 0.32681453 0.29206473 0.6028707 0.39904252 0.27453235
0.16245951 -0.15330982 0.1765183 -0.4803636 -0.30435345 -0.6302077 -0.5620008 0.24732955
-0.07900101 -0.05003298 -0.046101715 -0.37101662 0.02066481 -0.057080943 -0.26287958 0.92544585
0.08454303 -0.068524174 0.06927582 0.058645584 0.033091217 -0.11259506 0.20823944 -0.37078044
0.29141897 -0.24584065 -0.1733196 0.23137516 -0.122432895 0.07782264 0.5545018 -0.20010398
-0.122163475 0.3307234 0.4469123 0.22762674 -0.19507866 0.45145965 0.89852035 0.38891536
0.3842258 0.3333673 0.8119154 0.37948412 0.2968977 0.47500786 -0.037502706 0.38910598
-0.42411396 -0.28734502 0.0009817628 0.26703265 0.07670478 0.53621507 0.19764677 0.37386465
0.14457892 -0.109874375 -0.35907757 -0.9391624 -0.27898568 -0.09449699 0.08871895 0.54973894
-0.0012627998 -0.22088102 -0.36622384 1.1070098 -0.48233303 -0.5799592 -0.27538 -0.024796259
-0.52615726 0.03574664 -0.08091596 0.6308765 -0.032641783 0.104976065 -0.6172205 -0.06372779
-0.14728202 0.7378177 -0.2831495 0.055318747 -0.04639999 0.21089423 0.312815 0.35648924
0.40272927 -0.51114404 0.29000226 0.51204574 -0.37275445 -0.29862848 0.43551815 -0.108185634
-0.42585802 -0.034304507 0.031456783 0.101024024 0.45062953 0.21305197 0.0017909921 -0.13900125
00000000: 954f d53e 6345 02bc e656 153d 9700 563e
00000010: 86b4 073c fddf ad3e b68b 063f 60c3 7dbc
00000020: 4f8c 2d3f e983 38ba df59 913f 0de7 893c
00000030: 1d68 4abe 702a 0e3f 7e77 7bbe 625f 2cbd
00000040: 111a 0b3f 4a0c 903e dd1c 21bd cbde 813e
00000050: 55cf 6c3e 0a46 2bbf cf6f 083e 5397 043e
00000060: 34a9 2ebf 911f fa3d 027c 95be 9d55 093f
00000070: bbf0 453d 4f5d d83d efca 0bbe 9255 1f3d
00000080: 7ec3 99be b8cf 84be ba42 433c dfde abbe
00000090: f9fd 0c3f b1f1 c03c e76c 763d 7cba 85bc
000000a0: 7c71 0abf 9c48 033d 7177 3abd cf3e 18be
000000b0: 04b8 03bf c816 8abe c960 e2be 8ad0 d43e
000000c0: 14da 313f a968 45be 5742 6d3d 0e92 c7be
000000d0: 7a77 55bf d3aa 8d3d 83d4 66bd 3b43 05bf
000000e0: 1071 edbe f34c 673e 66a9 92be df93 1e3e
000000f0: a075 2d3f 3365 3ebe 7a79 9fbe dab7 b4be
00000100: 9c7a a3be 5f26 59be d2c3 c1be 5f48 36be
00000110: 0966 89bd 49b7 abbe b0d3 4d3f 59bc dcbe
00000120: f269 bc3e dc18 c93d 5721 c33d 8961 54be
00000130: fbcd 95bc eaa7 893b 99dc b8bd 437c 87bf
00000140: ee50 aa3e 25b3 793e fcbe e1bd 3160 013e
00000150: 6c07 103f d8b6 ccbe fa52 47be 1ee2 083d
00000160: 18b3 493d fc6d 973e 925f 183e e6a9 c8be
00000170: 3405 05bf d1bb 15bd a414 af3d 1348 71bc
00000180: 3bf3 4bbf a5f8 00bf ef9d 14bf 229f e83e
00000190: 22b6 283e 228d eabd d762 973a 9787 553f
000001a0: 5bb6 423f d4a2 c83e 033a 263d 8dc2 98bd
000001b0: 84a5 0d3f 447e 033f 91a0 d13e 828b 1b3e
000001c0: 1e21 083f 1b9d e0bd 322d 77be 6f0f 943e
000001d0: 24bb 6c3e 310a 593f 5c5f febe ee7a d63d
000001e0: 51a7 5a3e 709c be3e 1af7 083f daba 55bd
000001f0: 3da0 97be 3e40 2f3f b6d0 f9bd 234a 083e
00000200: 206a 6ebf 3ee7 103e 7efb 20bf aad0 d63d
00000210: da5e 41bf 8848 943e b2dd 393e 86bb 423d
00000220: a727 023f a29e c03e 950f d63e 94be bb3e
00000230: 6abe f13d d119 aa3d 6f4a 4fbe 52ca 2f3e
00000240: 1041 673f e57a dc3d 9d70 b33e 3c54 a73e
00000250: 8289 953e bc55 1a3f 4d4f cc3e 818f 8c3e
00000260: c95b 263e 40fd 1cbe 37c1 343e 38f2 f5be
00000270: 37d4 9bbe 4b55 21bf 49df 0fbf f543 7d3e
00000280: 48cb a1bd 62ef 4cbd 27d5 3cbd e4f5 bdbe
00000290: 3f49 a93c b5cd 69bd 2798 86be 05ea 6c3f
000002a0: e524 ad3d 6756 8cbd 7be0 8d3d 5a36 703d
000002b0: a88a 073d 3d98 e6bd b83c 553e efd6 bdbe
000002c0: de34 953e a7bd 7bbe b17a 31be 9ced 6c3e
000002d0: 19be fabd 7a61 9f3d d4f3 0d3f 0fe8 4cbe
000002e0: d830 fabd 9454 a93e b0d1 e43e fc16 693e
000002f0: b3c2 47be b825 e73e 6e05 663f ea1f c73e
00000300: 3eb9 c43e 1eaf aa3e b0d9 4f3f be4b c23e
00000310: fa02 983e 3b34 f33e 709c 19bd e638 c73e
00000320: 7725 d9be e31e 93be 7eae 803a 81b8 883e
00000330: 6517 9d3d 6445 093f ea63 4a3e 306b bf3e
00000340: 7f0c 143e d105 e1bd 04d9 b7be f26c 70bf
00000350: 36d7 8ebe a387 c1bd 48b2 b53d b1bb 0c3f
00000360: 8884 a5ba a22e 62be b181 bbbe 7fb2 8d3f
00000370: 5bf4 f6be 3578 14bf 9bfe 8cbe 8621 cbbc
00000380: 3eb2 06bf 126b 123d 44b7 a5bd 1f81 213f
00000390: 64b3 05bd b1fd d63d 2a02 1ebf b783 82bd
000003a0: 19d1 16be 9fe1 3c3f f9f8 90be e995 623d
000003b0: ea0d 3ebd a8f4 573e 4a29 a03e c285 b63e
000003c0: 8832 ce3e 56da 02bf 2d7b 943e 6e15 033f
000003d0: acd9 bebe d5e5 98be 3cfc de3e 6e90 ddbd
000003e0: 100a dabe e282 0cbd d4d8 003d afe5 ce3d
000003f0: eab8 e63e 4c2a 5a3e b9bf ea3a 5856 0ebe
