chainerrl/TicTacToe/result_40000/target_model.npz (npz, 56578 bytes, 8 tensors)

l3/W f4 [9, 81]
000000 c8 5b 08 3e 06 ed 48 bd b8 18 e9 be 55 38 18 3d
       0.13316262 -0.04905417 -0.4552667 0.037163097
000010 88 33 17 be ed 1e 3a be fd 10 2b 3e 46 e3 76 be
       -0.14765751 -0.1817586 0.167057 -0.24110135
000020 af ce 1e 3e 0d 19 8e bd 91 8d 19 bf ea 01 8d bd
       0.15508531 -0.06938372 -0.5998164 -0.06885131
000030 72 81 d3 be c1 4a 3b 3d b1 72 a6 3d d6 81 d3 3d
       -0.41309696 0.045725588 0.081273444 0.103274986
000040 29 a7 e4 3c 82 fe d5 3d e0 d8 1a bf 33 93 2a 3e
       0.02791174 0.10448934 -0.60487175 0.16657715
000050 82 9b 7a bc 58 43 8d 3c f3 a4 ab bb bd bd 55 3e
       -0.015295865 0.017244026 -0.0052381693 0.2087316
000060 c6 06 09 bf d5 60 cb bc b6 72 d6 bd ff ad 7e 3e
       -0.5352596 -0.024826447 -0.10471098 0.24871062
000070 d7 1a 8e be 52 ab 86 3d 9b 48 05 3e 7d 39 4d 3e
       -0.27754852 0.065756455 0.13015978 0.20041461
000080 a5 bb 81 bd 1a 71 1e 3e 5c 8f 67 be a8 c8 af ba
       -0.063346185 0.15472832 -0.22613281 -0.0013411241
000090 8b 40 84 3e 49 d5 a4 3e cd 3b 99 3d 78 02 b8 bd
       0.25830492 0.32193974 0.07482109 -0.08984846
0000a0 44 c2 a5 bb 0e 3f 2b bf b2 51 bf be 76 3d 3b 3e
       -0.0050585587 -0.6689309 -0.37367016 0.18285164
0000b0 27 6a 09 3e 9f 3e 19 bf 28 19 34 3e f1 d1 a5 3d
       0.134194 -0.5986118 0.17587721 0.08096684
0000c0 2c 68 34 3e 5e 0e 7d 3e c2 8e 83 3e ac f2 54 be
       0.17617863 0.24712512 0.25694853 -0.20795697
0000d0 50 c1 d6 bc e9 01 08 be 45 58 0c 3c 58 31 c3 bd
       -0.026215225 -0.13281979 0.008565967 -0.09530896
0000e0 b7 c5 fd bc b5 22 27 3e f1 a0 cf 3d a4 bd 75 3d
       -0.030978067 0.16321833 0.10138119 0.05999531
0000f0 34 a4 86 be 5a 4f 91 bd 09 4c 3a 3e b8 89 b4 bd
       -0.26297152 -0.07095213 0.18193068 -0.0881533
000100 69 bf 2b 3d c4 75 ab 3d 76 dd ce be 08 16 02 bf
       0.04193059 0.083720714 -0.40403336 -0.50814867
000110 6e c2 ce bc 68 52 1d bd a6 c3 36 be 1f 56 83 be
       -0.025239196 -0.038408667 -0.17848071 -0.25651643
000120 81 96 7e bc 1e 91 6e 3e 8a 60 ad be c5 f1 ec bd
       -0.015538813 0.23297545 -0.33862716 -0.115695514
000130 bb 21 44 bd ac 59 a4 3d 35 a5 a7 be ce d3 1a be
       -0.04788373 0.08024916 -0.3274323 -0.1511986
000140 58 b0 03 bb 1c 50 bc 3c eb 1e 97 be cb 63 d2 3d
       -0.0020094123 0.022987418 -0.29515776 0.1027294
000150 59 ed d4 3e 88 6b 76 3c ff 49 56 3e df 6c 94 bd
       0.41587332 0.015040286 0.20926665 -0.07247328
000160 e2 d1 68 be a7 8c 2a bf 4b ca a5 3d f3 c1 81 3d
       -0.22736314 -0.6662087 0.08095225 0.06335821
000170 75 92 d0 bd 86 18 98 bb 9a a9 44 3e 20 86 3b 3e
       -0.101841845 -0.0046415953 0.19205323 0.18312883
000180 82 ef 5a 3e c3 ac 42 3e 1a 04 80 3e 57 f7 89 be
       0.21380427 0.19011216 0.2500313 -0.26946518
000190 1c 54 48 be 88 cd 17 3b ee 0c 66 3e a0 2a 29 3e
       -0.19563335 0.0023163278 0.2246587 0.16520166
0001a0 d5 8b 38 be 05 b8 1c 3d 10 16 ee be 8b 14 77 be
       -0.18022092 0.038261432 -0.46501207 -0.2412893
0001b0 8b e0 6f 3e c2 c1 9c be 24 41 46 3e dd ac 91 3e
       0.234255 -0.30616575 0.19360787 0.28452197
0001c0 24 7e 90 be 99 23 53 be 91 9c 37 be 3b 53 4f 3e
       -0.28221238 -0.20619048 -0.17930819 0.20246594
0001d0 0e 07 d2 3e e8 c6 68 3e 34 81 80 be b5 b9 bc bd
       0.41021007 0.22732127 -0.25098574 -0.09215108
0001e0 c8 ff a9 be 0d 77 a1 bc 8e 48 57 be fd e6 35 be
       -0.33202958 -0.019710088 -0.21023771 -0.17763896
0001f0 18 f7 ed 3d c3 24 0c be 0a a5 28 3d b0 ed 9e 3e
       0.11619395 -0.13685898 0.04117302 0.31040716
000200 88 23 81 be f3 08 cc bd e1 ed 86 be e9 56 21 be
       -0.2522242 -0.099626444 -0.26353362 -0.1575581
000210 a0 10 20 3e c4 ee 45 3d d7 e3 71 be 87 3b 16 3d
       0.15631342 0.048323408 -0.2362207 0.036677863
000220 60 4c 46 be 6f 91 58 bd 93 e9 88 bd d8 98 0c be
       -0.19365072 -0.05287307 -0.06685176 -0.1373018
000230 51 29 35 3e 46 33 30 be 16 10 05 3e 76 f4 ed bd
       0.17691542 -0.1720706 0.12994418 -0.11618893
000240 d1 cd 7c bd 77 91 06 bc d8 a9 a1 be b7 af 29 bc
       -0.06171972 -0.008213392 -0.31574893 -0.010356835
000250 ab 1a 4b 3e de 76 38 3e 6c 9f 1e be 64 12 09 bc
       0.19834392 0.18014094 -0.15490502 -0.008366201
000260 35 2a 84 bc e8 ff 9f be 29 b8 8b bc 52 7e 49 3e
       -0.016133407 -0.31249928 -0.017055588 0.19677094
000270 a9 5e ae be 5c 1e 6b 3d 8c 11 cc be 46 91 d0 be
       -0.34056595 0.057402 -0.39857137 -0.40735835
000280 0e 9a 1b bd 68 ee e3 bd 4b 51 a0 3e 18 cf 0a be
       -0.037988715 -0.11129457 0.31312022 -0.13555562
000290 1b c0 ed be e1 c6 d8 3d 6d 50 08 bc 5b d3 14 be
       -0.46435627 0.10584808 -0.008319956 -0.1453375
0002a0 ec 86 3c 3e d4 c6 3f 3c e1 5a 07 3e 33 3d bb 3e
       0.18410844 0.011705119 0.13218261 0.3657013
0002b0 bb d2 3f 3e 26 9a f2 bb ce 87 e3 be 86 a8 fa bd
       0.18732731 -0.00740363 -0.44439548 -0.122391745
0002c0 51 b5 ec ba 34 fc af bc e0 72 5d 3d 3c d1 b1 bd
       -0.0018059408 -0.021482565 0.05406463 -0.086824864
0002d0 cc 09 41 3e d5 5b 43 be 8e 05 25 bf 02 5b d9 bd
       0.18851393 -0.19078 -0.644616 -0.106130615
0002e0 85 ff 5a 3d 16 af 2b bd 4e d8 53 be a2 f0 59 bc
       0.05346634 -0.04191502 -0.20687982 -0.013302
0002f0 08 34 9b be be e7 36 3e c4 af ef be c1 bd 04 bf
       -0.30313134 0.1786184 -0.46813786 -0.5185204
000300 2d 0b 1c be 19 a7 47 bd 8f e8 30 bd b8 e3 f6 3e
       -0.15238638 -0.04874334 -0.043190535 0.4822061
000310 38 cb bb 3e fb f2 90 3e 51 18 cf be e6 64 89 bd
       0.3667848 0.2831038 -0.4044824 -0.06708698
000320 2a 42 a9 3d 18 66 c6 be 17 b7 06 3e 6e c3 88 bd
       0.08264573 -0.38749766 0.1315578 -0.066779
000330 92 68 79 bd 57 a9 9b be 4f de 8c bd ed 9a 6e bc
       -0.06089074 -0.30402634 -0.068783395 -0.014563304
000340 75 fa bb bc d4 90 db 3d 1b 7c 16 be 87 37 46 be
       -0.022946576 0.10720983 -0.1469578 -0.1935712
000350 0f 2c 8c 3e 11 00 9f 3e 1b fa ed bd eb 63 34 be
       0.27377364 0.31054738 -0.116199695 -0.1761624
000360 99 72 17 3e d4 bd a6 be cb 72 64 3d 1f 2c a4 3e
       0.1478981 -0.32566702 0.055773538 0.32064912
000370 21 ac 68 be a9 59 27 bd f1 a8 b8 be 2e 67 03 3e
       -0.22721912 -0.04085699 -0.36066392 0.12832329
000380 22 ce 67 bc 6f 5e 91 3d 7c d6 5d 3e e0 9a 10 3d
       -0.014148267 0.0709809 0.2166385 0.03530395
000390 d9 f8 39 be 9c 10 a1 bd 81 9c dc 3d 31 c8 32 be
       -0.18161334 -0.07864496 0.10772038 -0.1745918
0003a0 39 e6 4a bd 66 f0 12 be 12 2d 7d bd 88 82 67 be
       -0.049535964 -0.14349517 -0.06181056 -0.22608387
0003b0 fd b0 e2 3d 49 2f 23 bd bc ff e9 bd 33 51 d2 3d
       0.11068914 -0.039840017 -0.114257306 0.10269394
0003c0 15 45 2c 3e 13 dd b4 bd 42 10 8f 3e 3a 5a 54 3d
       0.16823228 -0.08831229 0.2794209 0.05184386
0003d0 c0 65 cd 3c b9 6b c7 be 9a e4 24 3e c3 2a 0d 3e
       0.025072932 -0.38949373 0.1610283 0.13785844
0003e0 b0 19 9a bd c5 b5 c7 bd b3 73 0f be 65 5f 36 3e
       -0.07524431 -0.09751467 -0.1400898 0.17809828
0003f0 32 eb aa 3c 32 1c c8 3d 4c 11 f2 be fc d8 8a 3d
       0.020864103 0.09771003 -0.4727882 0.06779668

l3/b f4 [9]
000000 8d dd 0d be 1d 9f 8b be 9a 13 5d be 1e e7 9c bd
       -0.13854046 -0.2726983 -0.21589509 -0.076612696
000010 c9 53 b9 3d c9 fb af bc 34 2f 2a bc 51 df 23 be
       0.09049184 -0.021482365 -0.010387231 -0.16003157
000020 4b 34 01 be
       -0.12617604

l0/b f4 [81]
000000 52 5a 7e 3e 4c 24 94 be 0c 63 50 be 3f 05 48 be
       0.24839142 -0.28933942 -0.20350283 -0.19533251
000010 01 96 cf bd 6a e5 b7 be 22 30 f3 be 6c 5f 1c be
       -0.10136033 -0.35917217 -0.4749766 -0.15270776
000020 7a 6b 15 bd 40 fb e9 bc 9f b2 b1 be 43 22 73 be
       -0.03647945 -0.028562188 -0.3470659 -0.23743539
000030 11 6d 18 bd ba ec 26 be 7e 62 f9 be 3c e5 6f 3d
       -0.03721339 -0.16301242 -0.48707956 0.058568224
000040 5f b1 98 3e 74 a2 80 be 0b f2 8e be 8f 9a d2 3c
       0.29822823 -0.25123942 -0.2791904 0.025708465
000050 a0 35 06 3d 07 ef c1 3e 84 48 39 be 0a 2d bf be
       0.032765985 0.37877676 -0.18094069 -0.3733905
000060 51 96 b3 be 4c a3 59 be fb 0a 2e be b5 fe c4 bd
       -0.3507562 -0.21253699 -0.16996376 -0.09618894
000070 69 5f 1a be 5c f3 a0 be c5 aa 68 be c8 7f 2f be
       -0.15075459 -0.31435668 -0.22721393 -0.17138588
000080 f5 22 2b be cf 13 af bd 83 6a 7c be 23 29 c8 be
       -0.16712554 -0.085487 -0.24650006 -0.39093885
000090 f3 5b b7 3d 94 c0 29 bf 20 9f 45 be cd d8 bc bd
       0.08953085 -0.66309476 -0.19298983 -0.09221039
0000a0 f9 02 dc bd ed 74 83 3c f7 58 f8 bd b7 41 58 be
       -0.107427545 0.016046965 -0.12126344 -0.21118818
0000b0 de 07 98 be 93 c1 38 3e a4 be 00 be 92 50 df be
       -0.29693502 0.18042593 -0.12572724 -0.43616158
0000c0 27 8c ad be af b6 3f be 0a 21 b1 bd f3 28 55 be
       -0.3389599 -0.18722032 -0.0864888 -0.20816402
0000d0 fb 67 c1 be 63 b3 ce be 8c 72 c8 be 37 03 a5 be
       -0.37774643 -0.40371236 -0.39149892 -0.32229015
0000e0 cf 38 8f be a5 fb a6 be b2 02 df 3c f3 e4 c2 39
       -0.2797303 -0.32613865 0.027222965 0.00037173144
0000f0 c3 83 28 be bb 54 85 be 59 d1 0d 3d c0 6f 25 be
       -0.16456513 -0.26041207 0.034623478 -0.1615591
000100 fe 03 d6 be ed ed a9 3e 0a 24 fa bd a1 38 4d be
       -0.4179992 0.33189335 -0.12213905 -0.20041133
000110 88 e1 78 be c3 95 0d bf 52 ce 8c bd 0e a6 82 be
       -0.24304783 -0.55306643 -0.0687529 -0.25517315
000120 30 d0 5c be c2 c7 a7 bd 6e bd a2 bd e0 a8 5f 3d
       -0.21563792 -0.08192398 -0.07946287 0.05460441
000130 e6 f4 b0 be 1e 25 86 bd 6a a0 da 3c ce de 8a be
       -0.34561843 -0.06550048 0.02668782 -0.2712311
000140 50 81 93 be
       -0.28809595

l1/W f4 [81, 81]
000000 03 13 60 be d1 97 2a be 0c f4 de bd 0c f8 e6 3c
       -0.21882252 -0.16659476 -0.10886392 0.02819445
000010 d2 c4 b6 3c a5 72 0f 3e 7d 89 09 3e fa a9 9a be
       0.022310648 0.14008577 0.13431354 -0.30207807
000020 5b 18 71 be 1f 87 76 be d4 fb 1b be c4 d6 90 3b
       -0.23544447 -0.24074982 -0.15232784 0.0044201333
000030 45 97 0f be 93 ba 57 be 81 7d 10 be 08 4c 2b 3e
       -0.14022548 -0.21067266 -0.14110376 0.16728222
000040 15 25 9a 3d ac 3a 19 3d 97 4f 1e bd 2d c5 c3 3d
       0.07526604 0.03740947 -0.03865012 0.09559093
000050 ec fa c5 bd e3 ed a4 bd 45 8b 08 bd 05 b5 95 3d
       -0.09667 -0.08053186 -0.033335943 0.07309917
000060 b0 ef 97 3d 92 c5 db bd 1c 82 ac 3e 92 ce 9f be
       0.07418764 -0.10731043 0.33693016 -0.31212288
000070 7d a2 71 be 3e de f0 bc 70 30 32 be e3 23 26 bd
       -0.2359714 -0.029402848 -0.1740129 -0.040561568
000080 36 52 47 3e 2c 14 9d 3b 6a 56 da 3d f7 0a a3 be
       0.19464955 0.0047936644 0.106610134 -0.31844303
000090 0d 01 cc bd 81 81 ea bc 21 8d 6a be ca 64 0e bd
       -0.09961138 -0.028626205 -0.22905399 -0.03476409
0000a0 d2 b3 a0 3c 3d 7c 02 3e c0 83 74 bd 22 40 0c 3e
       0.019616995 0.12742706 -0.05969596 0.1369634
0000b0 ce fa 4b 3e 00 ef 80 3b 2e a2 04 bd 87 c9 3c bd
       0.19919893 0.003934741 -0.03238123 -0.04609063
0000c0 da eb 86 3e e5 a7 1b 3b d6 35 9e bd 20 5e 0d bb
       0.26351815 0.0023751196 -0.07725112 -0.0021570995
0000d0 d7 16 c1 bc 37 ba b5 3d 29 ac 22 3d bb bd bd bd
       -0.023570461 0.08873408 0.039714966 -0.09264704
0000e0 95 67 7c 3c 19 5f 4e 3e 92 13 aa 3d 76 84 5d be
       0.015405555 0.20153464 0.08304514 -0.21632561
0000f0 e0 40 2b 3e 56 53 47 be 8e 3e f0 bd 30 c0 06 bd
       0.16723967 -0.19465384 -0.11730681 -0.032898128
000100 68 53 61 3e f1 16 b3 bc d4 1e fc 3d bd d2 ca 3d
       0.22004473 -0.021861525 0.123105675 0.099034764
000110 fd 77 0d be 89 c5 1c be 0b f5 55 be fe f2 22 3e
       -0.13815303 -0.15309729 -0.20894258 0.15913007
000120 bf 76 27 be d6 46 12 3c af 08 53 3d 01 0e d1 be
       -0.16353892 0.008928021 0.051521953 -0.40830997
000130 74 ea 2c be da 2b 0b 3c 57 5b 6b 3d ea 54 a2 3d
       -0.16886312 0.008494342 0.057460155 0.07926352
000140 4c 29 38 be 86 3d a2 be 18 6b fc be 06 ba 01 be
       -0.17984504 -0.31687564 -0.49300456 -0.12668619
000150 a2 b7 43 3d fc 91 c5 bd 70 72 54 3e 3d f0 1a 3e
       0.047782548 -0.09646985 0.2074678 0.15130706
000160 5d d6 86 3e c9 8d 56 be d6 4b 13 bd 24 89 50 3e
       0.2633542 -0.20952524 -0.035960995 0.20364815
000170 05 5f 67 3e 43 08 96 3e 3a 74 31 3e 1c c5 e8 bc
       0.22594841 0.29303178 0.17329493 -0.028414302
000180 44 0c 8f bd d2 37 3b 3e 50 ec 3a bb d8 57 33 3e
       -0.06984761 0.18283013 -0.00285222 0.17513978
000190 40 98 b8 bd 32 91 e0 3d 62 e7 b8 be 2e d9 2c 3e
       -0.090134144 0.10965194 -0.3611403 0.16879722
0001a0 f5 97 3a be ce 10 e7 3c dc 88 e4 3d af 44 ee 3d
       -0.1822203 0.028206255 0.11158916 0.11634194
0001b0 07 57 8c bd 27 67 32 be 3b 39 e9 3b 28 8f 4c 3d
       -0.06852537 -0.17422162 0.007117418 0.049941212
0001c0 97 4b 66 be e8 f5 24 3d cc 7f 16 3e e7 2f e9 bd
       -0.22489773 0.040273577 0.14697188 -0.1138609
0001d0 2b e0 b7 bd a4 30 82 be 9c 5e c8 3e cf e9 b7 3d
       -0.089783035 -0.25427735 0.3913468 0.08980142
0001e0 b5 09 27 bc 0c b6 9d 3c 32 7a 9a be bf e8 0f be
       -0.010195185 0.019251846 -0.30171353 -0.1405363
0001f0 9f 3b 0c 3e ee c5 e6 bd 84 4b 62 bd 21 e5 22 bd
       0.13694619 -0.11268221 -0.0552478 -0.039769296
000200 15 61 27 be b8 5d eb bd 7b 3c bd bd 02 02 46 3e
       -0.16345628 -0.11492485 -0.09240051 0.19336703
000210 31 22 7a be e5 8b c1 3d d1 d7 75 be 7f 22 aa 3d
       -0.24427105 0.09450511 -0.24008109 0.08307361
000220 2c 11 dc bd 9b c1 13 3e 44 c7 48 3e 1b b2 12 3d
       -0.10745463 0.14429323 0.19607264 0.035814386
000230 ba 07 d9 be 3e ce 9c be 3b 6a 32 3e 55 0c 15 be
       -0.42388707 -0.306261 0.17423336 -0.14555486
000240 d7 24 5b be e9 cc 10 3e df 8f 11 3e 56 90 ff 3c
       -0.21400772 0.14140667 0.14215039 0.031196754
000250 11 06 a7 be ef 1d 12 3e 67 3d 37 3c 7e 24 2b 3e
       -0.32621816 0.14269231 0.011184073 0.1671314
000260 38 31 c1 3d e2 6d 72 3e 18 10 47 be 4b be ab 3b
       0.09433216 0.2367473 -0.19439733 0.0052411905
000270 82 47 5c be 37 de 06 be 64 87 44 3e ee ef c6 3d
       -0.21511653 -0.13170706 0.19192272 0.09713732
000280 2c 0b e9 3d b9 ac 2f 3c 77 e9 03 3e cd 55 d6 bd
       0.11379084 0.010722333 0.12882029 -0.10465584
000290 2c 90 27 3d de e7 eb bd ff ea de 3e 91 fb 4c 3e
       0.040908977 -0.115188345 0.43538663 0.2001784
0002a0 c2 1f 4d 3e 76 98 04 3e b8 38 90 be 08 07 93 3d
       0.20031646 0.12948784 -0.28168273 0.071790755
0002b0 06 62 79 be 4b 2b ee 3b d3 24 aa bd 72 22 68 be
       -0.24353799 0.0072683445 -0.08307805 -0.2266939
0002c0 cd 9b 25 be 5b 0a 71 3e 01 29 29 3e a2 82 2f 3e
       -0.16172715 0.23539107 0.16519548 0.17139676
0002d0 c6 1c 4a bc 83 2c 5b 3d ea ca 55 3d 36 c7 77 be
       -0.012335962 0.053509247 0.052195467 -0.24197087
0002e0 f4 35 79 be c1 72 75 bd 19 fc f6 3d f4 64 67 be
       -0.24336988 -0.05992389 0.120598026 -0.22597104
0002f0 34 65 78 be 68 bd 87 bd 15 2e f7 3d 43 36 46 be
       -0.24257356 -0.06627923 0.12069336 -0.19356637
000300 46 12 19 3e b6 5b a5 bd fc 1a 6e bd f4 ba 9b bc
       0.14948377 -0.08074133 -0.058131203 -0.019010045
000310 c0 b3 bb 3d 0b b9 a0 3e fa bd 82 bd 03 1e 5c 3e
       0.09165144 0.31391177 -0.063838914 0.21495824
000320 ee e4 0a be 81 37 4c bb 30 97 1e be 9f a1 dd 3c
       -0.13563892 -0.0031161013 -0.15487361 0.027054606
000330 20 67 11 be a4 37 15 be 1e ee 62 3e f0 10 4e be
       -0.14199495 -0.14572006 0.22161147 -0.20123649
000340 c1 f9 14 3e 0e 11 cf bd 44 a9 49 3e 92 36 5a 3e
       0.14548399 -0.10110675 0.19693476 0.2130988
000350 5a b3 52 bd b6 cb 91 bd a1 5c 8d 3d b5 52 68 bc
       -0.051440574 -0.07118933 0.06902433 -0.014179875
000360 42 d9 4a be 42 d3 0a be ad 51 83 3c 64 82 90 be
       -0.1980944 -0.13557151 0.016030157 -0.2822448
000370 c0 82 c8 bd 31 09 83 3d d3 f8 14 3d 14 db 3a 3b
       -0.097905636 0.063982375 0.03637011 0.0028511928
000380 e5 bc 07 be 87 15 85 bd 67 c8 af bd 92 af 24 bd
       -0.13255651 -0.06498247 -0.085831456 -0.0402065
000390 5e cf 62 bb b7 9c 39 be da 79 3c 3e 27 a5 05 bc
       -0.0034608464 -0.18126188 0.18405858 -0.008157051
0003a0 b0 73 19 3d 7c 6a 9f 3d e4 3b 81 bc 38 7a b6 3d
       0.037463844 0.07783982 -0.015775628 0.0891003
0003b0 5a fa f0 bc 24 33 bf be f7 8c a0 bd 7c 04 4b 3b
       -0.029416252 -0.37343705 -0.07839387 0.0030978015
0003c0 8d c5 bc 3c da 79 84 3e ee a0 e6 3d 6c c1 0c 3e
       0.023043418 0.25874215 0.11261164 0.1374566
0003d0 ec 07 2d be c1 53 33 3e 26 82 aa 3d 45 54 d9 bb
       -0.16897553 0.17512418 0.08325605 -0.00663236
0003e0 37 65 55 be 68 71 bf 3e 74 6b 93 be 37 b1 0e bd
       -0.20839392 0.3739121 -0.28792918 -0.034836974
0003f0 ae 0b b4 3e 9c 63 ad bd d3 a2 6a 3e d0 6d 1b 3d
       0.3516516 -0.084662646 0.22913675 0.037946522

l2/W f4 [81, 81]
000000 0a e3 56 bd 15 66 08 3d 11 7d 96 3d 6a 7c 29 3d
       -0.052462615 0.033300478 0.07348073 0.041378416
000010 b4 ac bb be f7 c4 9a 3e 0c 4e 98 3d 77 f3 1c be
       -0.366552 0.30228397 0.07436761 -0.1532725
000020 46 8c b4 bc c3 37 6a 3d 5c 6a a6 3d fd 05 f0 3d
       -0.022039544 0.057182085 0.08125755 0.11719892
000030 40 b7 8c 3d ca ca 6f bd 90 91 28 bd 7e 3f 90 3d
       0.0687089 -0.058543004 -0.041154444 0.0704336
000040 41 28 17 be 7e 3b c2 3d cb 60 c6 3d b6 dc 95 bd
       -0.1476145 0.094840035 0.096864305 -0.07317488
000050 d6 67 2c 3e c2 c1 5e bd ed 34 68 3e 92 50 e5 bd
       0.16836485 -0.054384 0.2267644 -0.11197008
000060 8c 10 f1 3c ca b3 84 bd 96 68 e1 be a4 e5 29 bc
       0.029426835 -0.064796045 -0.44025105 -0.010369692
000070 b5 ad 29 3d 7c d8 a5 bd 8a a8 01 bd 0a fe 1d be
       0.041425426 -0.08097932 -0.031654872 -0.1542894
000080 a6 66 b9 bd e7 f0 f0 3c 13 74 a9 3d 7d d1 c4 be
       -0.09052782 0.029411746 0.082740925 -0.38441077
000090 43 e1 c3 3d 1c 91 d4 3d 8b 4a a2 be c2 a6 ce 3e
       0.0956445 0.1037924 -0.31697497 0.403616
0000a0 ad 8c 33 bd 6f ab 28 3e 23 a2 32 3e 83 a9 e1 bc
       -0.04383533 0.16471647 0.17444663 -0.02754665
0000b0 16 74 54 be ae e0 a4 3e 9f 6f 02 3e f3 dc 45 3e
       -0.20747408 0.32202667 0.12737893 0.19322567
0000c0 de 06 68 bd 1f a9 8d bd 2f f1 89 3e 20 bd 7a bc
       -0.056647174 -0.06917023 0.2694182 -0.01530388
0000d0 dc 5e 21 bd c8 23 72 bd 07 c7 78 3d a4 6c b4 bd
       -0.039397106 -0.059116155 0.060736682 -0.08809784
0000e0 b9 24 8a 3e 1f d4 15 bf d7 e3 5a 3e 16 10 92 be
       0.26981142 -0.58526796 0.21375977 -0.28527898
0000f0 e2 fb 23 be cc 89 1a 3d 6b 60 85 bd 98 0f 2d ba
       -0.16014054 0.03772907 -0.06512531 -0.000660175
000100 75 51 a3 3d 5a e4 96 bd 8b bc d4 bd 4c 32 c2 be
       0.07974521 -0.07367773 -0.10387524 -0.37928998
000110 f0 6e 5e 3e e0 ca 6d 3d b4 cb ac 3d a0 f3 39 be
       0.21722007 0.058054805 0.08437291 -0.18159342
000120 88 47 1b bd ea b2 3a be 60 64 03 bb 02 aa 4b bd
       -0.037910014 -0.18232313 -0.0020048842 -0.04972268
000130 ac 89 1b be 95 dc 63 bd fa 9e 3b be 61 eb a9 be
       -0.15189236 -0.055630285 -0.18322363 -0.33187392
000140 d2 bb 9c 3d 8e a2 e9 3d b7 ee c0 be a7 d7 97 3d
       0.076530114 0.11407958 -0.37682125 0.07414179
000150 f8 1e b9 3d 74 89 a6 3c c2 93 70 be 18 01 c6 bd
       0.0903911 0.020329215 -0.23493865 -0.09668177
000160 68 2d 2e be 78 55 5d bd 4f ee 5d 3c 2e f2 3d bd
       -0.17009509 -0.054036587 0.013545587 -0.04637354
000170 0e 5a e8 bc d8 67 aa 3d 0a ad 2e be 13 3f f3 bb
       -0.028363254 0.08320588 -0.17058197 -0.0074232905
000180 5b fd 46 be 01 50 95 3d 47 31 2a 3c 16 14 6e 3e
       -0.19432585 0.0729065 0.010387725 0.2324985
000190 6d e0 a0 be 81 74 42 3e 4c 88 c5 3e b2 ad 45 3e
       -0.31421223 0.18989755 0.3858055 0.19304541
0001a0 79 93 4c 3c dc aa b6 3d dc 6c 27 be dc 6a 10 3e
       0.012486332 0.089193076 -0.1635012 0.14103264
0001b0 a1 2b 59 be a9 81 8e bc b4 b8 a7 bd 82 4c d2 bd
       -0.2120805 -0.017395811 -0.08189526 -0.10268499
0001c0 87 25 46 3d 8d fa 17 3e ee 2c 51 3d 18 ed a1 3c
       0.048375633 0.14841671 0.05106824 0.019766375
0001d0 6c 6d a8 be 14 c7 62 3d 26 09 5e 3e a7 81 21 be
       -0.32895982 0.055365637 0.21683177 -0.15772115
0001e0 64 22 39 bd 0f 9c e8 be 61 1a 06 be d3 fb f8 be
       -0.045198813 -0.45431563 -0.13096 -0.48629627
0001f0 4d 21 28 3d 81 7d 84 bd b2 be b0 bc 18 f3 6d bd
       0.041047383 -0.064692505 -0.021575306 -0.05809316
000200 66 9d 6f be e8 5f c2 3d e9 41 0c 3e a9 a8 69 be
       -0.23399886 0.09490949 0.13697018 -0.22818245
000210 58 24 0d bd 88 62 5f bd 00 3a 18 3e 50 5c 3d 3e
       -0.03445849 -0.054537326 0.14865875 0.18492246
000220 32 68 65 3e 10 92 3b bd c4 ba 3b 3d 88 ff 30 be
       0.22403029 -0.045793593 0.04583241 -0.17284977
000230 7c 3e 28 3e 5e 22 9a bd 33 2a 1c be de 44 67 3e
       0.16430086 -0.07526086 -0.15250473 0.22584864
000240 9f 99 3c be 55 b7 09 be 00 30 9b bd a9 0e 98 3d
       -0.18417977 -0.13448842 -0.07577515 0.07424671
000250 f1 5e 8f 3e 82 bc 67 bd 98 73 36 be c4 2f cb bc
       0.28002122 -0.05657626 -0.17817533 -0.02480305
000260 5f 98 a1 bd d2 ca 07 3d f6 8c 27 be df ac bd bd
       -0.078903906 0.03315241 -0.16362366 -0.09261488
000270 5f a6 e3 3d 8c 15 e5 3c bb 30 3d be 2a 99 8a 3c
       0.11115717 0.027964376 -0.1847562 0.016918737
000280 44 6a 86 3e 72 af 49 3e 9d e3 8c bd 02 13 00 bd
       0.2625295 0.19695833 -0.06879351 -0.031268127
000290 19 c6 14 3e 6a be 94 bd e9 3c c8 3d 92 c3 79 3c
       0.14528693 -0.07262881 0.09777243 0.0152443815
0002a0 5b bf 2f be fb c9 6b be 3a 46 0b be 45 75 08 3d
       -0.1716284 -0.23026268 -0.13601008 0.033314962
0002b0 1c fb f8 3d e1 ed 80 be 79 05 37 bd a9 d5 e3 bd
       0.1215727 -0.25181487 -0.044682954 -0.11124737
0002c0 df 8f 81 bc bf 77 95 be f8 b2 24 bd c4 db e7 bd
       -0.015815673 -0.29192922 -0.04020974 -0.11321214
0002d0 b5 31 04 3e d9 a7 2e be fe 6e 0b bd d4 09 c1 be
       0.12909587 -0.17056216 -0.034041397 -0.3770281
0002e0 8c 39 7b 3d 33 13 e9 3c a3 13 6b be 1f 33 83 bb
       0.061334178 0.028451538 -0.2295671 -0.004003897
0002f0 35 e2 ab bd 93 06 a7 bd 1e 2c d0 3c fc 24 0e 3e
       -0.08392755 -0.08155551 0.025411662 0.13881296
000300 ff b5 69 3e 78 a0 c1 bd 6c ff cd 3d 76 82 bb 3c
       0.22823332 -0.09454435 0.100584835 0.022889357
000310 09 a0 c3 bd dc 10 bc 3e d8 2e b4 be 79 89 2b 3e
       -0.09552009 0.36731613 -0.3519199 0.1675166
000320 82 1e a2 3d a0 a9 94 be 9e ae c1 bd e1 b5 4c be
       0.07915975 -0.29035664 -0.09457134 -0.19991256
000330 a7 1f 2f be 0f e8 37 3e 34 9d 33 be 96 36 85 bd
       -0.17101918 0.17959617 -0.17540437 -0.06504552
000340 45 7c 7b 3e 91 97 8b be 3b 8e 1a bd b2 90 43 bc
       0.24559124 -0.27264073 -0.037733298 -0.0119363535
000350 78 33 6f bb 2f 46 d7 bc 26 50 b5 be a9 e0 be be
       -0.0036499184 -0.026278583 -0.3541271 -0.37280777
000360 c5 d3 fa bd 4a a0 ee bd 42 0b 56 3e e3 a7 70 be
       -0.12247423 -0.116516665 0.20902732 -0.23501544
000370 2a ba be be 30 dd 59 be 2c 7a ed 3d 48 00 58 be
       -0.37251407 -0.21275783 0.11595568 -0.21093857
000380 0c 4d bf be aa 45 07 be db 55 38 be bf 05 81 be
       -0.3736347 -0.13210168 -0.18001501 -0.25199696
000390 6d 31 57 be 09 3c 90 be 33 72 53 be 9f fb 56 bd
       -0.21014948 -0.28170803 -0.20649032 -0.05248606
0003a0 b6 67 60 be 3e 47 38 bd 25 8e be bd 56 d1 25 3d
       -0.21914563 -0.044989817 -0.09304456 0.04048284
0003b0 43 4a d5 be 32 a0 e0 3d e6 fe f2 bc 12 6a 67 3d
       -0.4165822 0.10968055 -0.02966256 0.05649764
0003c0 e1 82 8c bd 35 e9 47 be 23 0e 68 3d a5 13 33 3e
       -0.06860901 -0.19522555 0.056654107 0.17487963
0003d0 b5 48 3e be 2f 11 a5 bc 3f d3 0b be 61 32 4a be
       -0.18582423 -0.020149795 -0.13654803 -0.1974578
0003e0 06 e1 30 3d d6 4d a5 3d 61 e3 67 bb 4f 5d 92 be
       0.04318335 0.08071487 -0.003538333 -0.28586814
0003f0 3c b8 95 bd 34 4d 47 bd f7 f7 c5 bc 28 bf 96 bd
       -0.073105305 -0.04865761 -0.02416609 -0.07360679

l1/b f4 [81]
000000 15 93 94 bd 32 37 58 be bb 4f 79 be 63 03 21 be
       -0.07254616 -0.21114805 -0.24346821 -0.15723948
000010 bb af b2 be 34 2a ed bd a2 eb 2b be 92 ff 3a be
       -0.34899697 -0.11580315 -0.16789106 -0.18261555
000020 13 a5 a3 be fa 6c 33 3d 93 27 71 be 78 e0 70 bc
       -0.3196188 0.0438051 -0.23550253 -0.014701955
000030 7c 09 14 be 7d 17 4a 3c 6b 2e 0a be b8 20 fb 3d
       -0.14456743 0.012334702 -0.1349427 0.122621
000040 e0 97 f2 be 98 4c 40 3c 7d 3c 1a bd cb 25 99 bd
       -0.47381496 0.011737011 -0.037655342 -0.074779116
000050 4f 1f 51 be 05 e3 e9 bd 48 57 86 be 87 66 93 be
       -0.204221 -0.11420254 -0.26238465 -0.2878916
000060 fc 44 92 be 3f 4f c9 be d6 b1 7a 3d 05 a9 72 be
       -0.28568256 -0.39318272 0.061204754 -0.23697288
000070 16 b7 4c 3c d7 0b 2f bd f1 08 97 be 68 0e d8 bd
       0.012494823 -0.0427359 -0.2949901 -0.10549623
000080 a4 47 96 3d 35 63 77 be ba 4d 82 bd ac ce be 3d
       0.07337883 -0.24158938 -0.063624814 0.09316763
000090 af 68 b2 bd 7e e4 5b be bd fe 25 bf aa e7 58 be
       -0.08711373 -0.21473882 -0.64841825 -0.21182123
0000a0 3f 4c 1c 3e 6b 4e a2 bd 02 6d 6f be dc 07 23 bd
       0.1526346 -0.07925113 -0.23381427 -0.039802417
0000b0 c4 3b 64 be 00 d4 bd 3e 96 c5 46 be 5b c4 1f be
       -0.22288424 0.37075806 -0.1941131 -0.15602247
0000c0 62 16 6c be 3e 49 b8 be 55 f1 c3 bd 6e 48 70 be
       -0.23055413 -0.3599338 -0.09567515 -0.2346513
0000d0 5b 13 0e be b5 f9 65 bd ef 32 a6 be 0c 6c c4 bd
       -0.13874571 -0.056146342 -0.32460734 -0.09590921
0000e0 c9 15 08 bd 1b 83 46 be f1 3d 00 bd 2a 22 e0 be
       -0.0332239 -0.1938595 -0.031309072 -0.43776065
0000f0 43 6c 54 bd 1d 7d 99 be 9b 1c 56 be 3b ea f0 be
       -0.05186106 -0.29978266 -0.2090935 -0.47053704
000100 6b e2 8d 3c 09 87 de 3d 40 b1 ca be 98 cf b3 bd
       0.017319879 0.108656 -0.39588356 -0.0877983
000110 4b 8c 90 bc c1 16 02 be 8b 96 cf bd db 55 65 3d
       -0.017645022 -0.12703992 -0.10136136 0.05599008
000120 51 ce d3 3e 36 a8 e9 bd 4b 1a 48 be 8b 4a 7f be
       0.41368344 -0.11409037 -0.1954128 -0.2493078
000130 55 a9 8a 3d af 0b 96 3d 9b 01 5e 3d 6c f6 41 bd
       0.06770579 0.07326447 0.05420075 -0.047354147
000140 da db 30 bd
       -0.043178417

l2/b f4 [81]
000000 98 54 53 3d a0 b2 66 bd 4d 69 28 be c2 45 89 3d
       0.051594347 -0.056322694 -0.16446419 0.06702758
000010 c3 a5 87 3b ca 20 8f be d3 12 81 be 7d 70 64 bd
       0.0041396334 -0.27954704 -0.25209674 -0.05577134
000020 24 10 15 be f4 10 26 3e 9a 94 86 be 99 fb de bc
       -0.14556938 0.16217405 -0.2628525 -0.02721958
000030 27 32 88 bd ab 89 7e 3b fb 50 cc 3d 95 78 4b 3e
       -0.06650191 0.003883938 0.09976383 0.19870217
000040 51 97 ff ba db 32 6f be f6 d3 25 be 79 bb a0 be
       -0.0019500052 -0.23359244 -0.16194138 -0.3139303
000050 31 4e 6e be 4f 82 56 3d 7f a0 ae bd df f0 81 be
       -0.23272015 0.052370366 -0.08526706 -0.25379083
000060 83 58 a5 bd 1c af 80 bd 3c 62 6e be 76 a4 c1 bd
       -0.08073523 -0.062833995 -0.23279661 -0.094551966
000070 18 f9 dd bd 58 e2 3c be e5 8c 3e 3d 3e 0e ab bd
       -0.108385265 -0.18445718 0.046521086 -0.08352326
000080 bb 97 2f be 67 38 30 be c8 dd f8 bc 66 21 17 be
       -0.17147724 -0.17209016 -0.030379191 -0.14758834
000090 57 f6 b5 bd 04 94 07 3e 5d a6 f1 bd a0 96 25 be
       -0.08884876 0.13240057 -0.117993094 -0.1617074
0000a0 a6 ae 33 ba 1b e4 28 be 06 7a 7f be b7 e7 54 bc
       -0.0006854333 -0.16493265 -0.24948892 -0.012994698
0000b0 e2 76 91 bd 9d b8 97 bd 1c 11 07 be 24 b1 fc bd
       -0.07102753 -0.07408259 -0.1319012 -0.123384744
0000c0 53 0a 7a be 17 a6 2d be c7 25 4c be bd 85 e5 bd
       -0.24418001 -0.1695789 -0.19936286 -0.11207149
0000d0 80 0b da bd 52 1f 3e be c2 11 9b 3d 16 b1 07 3e
       -0.10646725 -0.18566635 0.075717464 0.13251147
0000e0 c8 85 45 3d 5a 8a 1b 3d eb 6f 59 bc 70 e9 61 bd
       0.048223287 0.03797374 -0.013271312 -0.055154264
0000f0 a1 15 62 be 49 6b f2 3b 0f 5b 60 be cf 25 92 bc
       -0.22078563 0.0073980433 -0.21909736 -0.017840294
000100 81 4c 79 bc 5e ae 1c be 42 db e3 bd 60 e7 f6 bd
       -0.015215994 -0.15300891 -0.111258045 -0.1205585
000110 32 6d 50 be ac 0a 2a be 28 22 33 be 7b 72 72 be
       -0.20354155 -0.16605633 -0.17493498 -0.23676483
000120 aa c8 21 bd 68 ac a1 bd ca 0a 13 be 4b 95 bd bd
       -0.03949801 -0.07894212 -0.14359584 -0.09256991
000130 8f e3 b6 bd 09 55 13 be c6 d4 d0 be b3 ff 0c 3d
       -0.08930122 -0.14387907 -0.40787333 0.03442354
000140 8f d6 51 bd
       -0.05123001

l0/W f4 [81, 9]
000000 34 5a d3 3e a3 41 0f bc d5 d6 23 3d dd a7 58 3e
       0.41279757 -0.008743676 0.0399998 0.21157785
000010 46 dc 2b 3c 84 d8 ac 3e 05 dc 06 3f b3 ad 90 bc
       0.010489529 0.33758938 0.52679473 -0.017660951
000020 80 31 2d 3f 21 4e eb ba 58 ba 91 3f e9 58 91 3c
       0.67653656 -0.0017952361 1.1384993 0.017742591
000030 00 02 49 be 0c 7b 0e 3f cf f6 7d be 56 11 34 bd
       -0.19629669 0.55656505 -0.24801181 -0.043961845
000040 79 b6 0a 3f 6f c3 8e 3e 06 5a 24 bd be 5f 81 3e
       0.5418468 0.2788348 -0.040124916 0.25268358
000050 99 6e 68 3e 79 3b 2b bf d7 d0 0c 3e 17 43 04 3e
       0.2269844 -0.66887623 0.13751541 0.12916218
000060 59 31 2f bf c4 61 fe 3d 42 4d 96 be ee a2 09 3f
       -0.68434674 0.12420991 -0.29355818 0.53764236
000070 5f ad 44 3d 55 71 da 3d be b6 0c be c3 41 14 3d
       0.048016902 0.106661476 -0.13741586 0.036195528
000080 4a 1c 99 be 21 b7 83 be 33 2b 33 3c 2e 09 ab be
       -0.29904395 -0.25725654 0.010935592 -0.3340544
000090 f9 96 0d 3f e6 5b b1 3c 05 c4 80 3d 23 93 91 bc
       0.5530849 0.021650266 0.06287388 -0.017770356
0000a0 ed c7 0a bf b7 24 04 3d 57 9f 3a bd d7 7f 19 be
       -0.5421131 0.032261577 -0.045562115 -0.14990173
0000b0 bc c5 03 bf 66 24 88 be 18 02 e3 be ce 84 d4 3e
       -0.51473594 -0.2659027 -0.44337535 0.41507572
0000c0 f2 0a 32 3f bb c3 47 be ff ac 7d 3d 85 a2 c7 be
       0.6954795 -0.19508259 0.06193256 -0.3899118
0000d0 01 16 56 bf c2 e9 86 3d 08 8a 59 bd 45 42 05 bf
       -0.83627325 0.065875545 -0.053110152 -0.52054244
0000e0 d4 bc ed be 50 e2 64 3e 7d d7 92 be 96 4a 21 3e
       -0.46433127 0.22351956 -0.2868003 0.15751109
0000f0 a3 5c 2d 3f 43 66 42 be 77 d4 9d be 95 ad b5 be
       0.6771948 -0.18984322 -0.3082616 -0.35483995
000100 bd e7 a4 be 50 af 58 be 37 d6 bf be 30 e0 35 be
       -0.32208052 -0.21160626 -0.3746812 -0.17761302
000110 96 d9 8f bd ee 65 aa be c3 cb 4d 3f d9 e0 db be
       -0.07023923 -0.3328089 0.8038904 -0.42944983
000120 1b 44 bb 3e 96 44 ca 3d a6 b0 c5 3d c6 70 52 be
       0.36575398 0.09876363 0.09652834 -0.20550832
000130 9c d9 8d bc 8f 09 1a 3b d4 77 b4 bd 80 c9 87 bf
       -0.017315678 0.0023504233 -0.08811918 -1.0608368
000140 84 ff a9 3e 10 8b 7a 3e ff 85 e7 bd 7c 0a 02 3e
       0.33202755 0.2446711 -0.113048546 0.12699312
000150 8d c6 10 3f b6 7c cc be a2 37 49 be 13 8f 06 3d
       0.56552964 -0.39938897 -0.19650128 0.03285129
000160 42 a9 3a 3d 2d 6f 98 3e 5d 4d 1d 3e 9a 81 c7 be
       0.045571573 0.2977232 0.15361543 -0.38966066
000170 93 7f 06 bf d8 f4 13 bd 54 ca ac 3d a7 19 82 bc
       -0.5253841 -0.036122173 0.084370285 -0.015881373
000180 1d f3 4c bf 19 fc ff be a6 05 14 bf 50 66 e6 3e
       -0.8005846 -0.49997023 -0.5782112 0.44999933
000190 f8 50 28 3e 3c 98 e2 bd 24 b3 c4 b8 9e 07 56 3f
       0.16437137 -0.11064193 -9.379376e-05 0.8360537
0001a0 a3 cc 41 3f a9 91 c8 3e f9 3b 29 3d 09 94 93 bd
       0.75702876 0.3917363 0.04131696 -0.0720597
0001b0 30 ae 0d 3f a3 4d 04 3f b6 c2 cf 3e 82 bf 17 3e
       0.55343914 0.51680964 0.4057824 0.14819148
0001c0 03 3c 08 3f d9 db de bd 67 5f 75 be b1 b7 93 3e
       0.5321657 -0.10881776 -0.23962174 0.28851083
0001d0 92 22 6c 3e f4 41 58 3f 4f 20 fd be f0 09 da 3d
       0.23060063 0.84475636 -0.49438712 0.10646427
0001e0 6b eb 58 3e 19 e0 bd 3e 7f d2 09 3f b9 e5 4d bd
       0.21183555 0.37085035 0.53836817 -0.05026791
0001f0 cf 77 96 be 27 ec 2e 3f 79 fa f5 bd a1 12 0a 3e
       -0.29388282 0.6832909 -0.120106645 0.13483669
000200 d5 9b 6f bf aa ad 16 3e a9 9e 21 bf d2 14 d9 3d
       -0.93597156 0.14714685 -0.6313272 0.10599674
000210 e8 d6 41 bf 8c 89 96 3e 47 8f 36 3e a1 e6 3f 3d
       -0.75718546 0.29401815 0.17828093 0.046850804
000220 b6 28 02 3f f8 75 c0 3e 16 af d4 3e 1d 2b bd 3e
       0.5084337 0.37590003 0.4153983 0.36946955
000230 b6 e4 f1 3d 97 b3 ac 3d 75 85 52 be 05 f0 2e 3e
       0.11811201 0.084326915 -0.20558722 0.17083748
000240 a3 03 67 3f 39 ef db 3d 85 ff b5 3e 65 e0 a5 3e
       0.90239924 0.107389875 0.35546508 0.32397762
000250 20 e6 94 3e 1f 87 1a 3f e9 d8 ca 3e d8 15 8e 3e
       0.2908182 0.6036243 0.39618614 0.2775104
000260 94 f4 26 3e ab 14 19 be 52 4f 33 3e e3 06 f6 be
       0.16304237 -0.1494929 0.17510727 -0.4805213
000270 8a 32 9b be 77 9f 21 bf 02 db 0f bf 9f 44 7d 3e
       -0.30311996 -0.6313395 -0.56193554 0.24733208
000280 e3 05 a6 bd 94 f4 4e bd 72 3c 32 bd 85 de be be
       -0.081065916 -0.050526217 -0.043514676 -0.37279144
000290 15 fa 8b 3c df 66 64 bd d8 98 86 be 90 29 6d 3f
       0.017087022 -0.055762168 -0.26288486 0.92641544
0002a0 6c 14 ae 3d 69 70 90 bd 35 af 8b 3d 2d 7c 6e 3d
       0.08499989 -0.070526905 0.068205275 0.058223892
0002b0 71 4f 0a 3d bb 7e e3 bd 55 9b 55 3e b6 3b bd be
       0.033767167 -0.11108156 0.20860036 -0.36959618
0002c0 e8 25 95 3e 08 d9 7b be 33 fb 30 be 12 b1 6a 3e
       0.29130483 -0.2459451 -0.17283325 0.2291911
0002d0 8d 77 f8 bd 94 04 9a 3d 69 28 0e 3f 97 7f 48 be
       -0.121321775 0.075204045 0.5553041 -0.19579922
0002e0 0b 3e fb bd 4c d3 a8 3e 1c fa e4 3e e3 13 67 3e
       -0.12267693 0.32973707 0.44722068 0.2256618
0002f0 d7 97 47 be 5a fb e3 3e ed ec 65 3f db 10 c9 3e
       -0.19491516 0.44527704 0.89814645 0.39270672
000300 3b 9a c2 3e ea ae ab 3e 40 2e 50 3f cc d0 c3 3e
       0.38008294 0.33531886 0.8132057 0.38245237
000310 ad 7c 98 3e 67 d5 f2 3e c1 54 1a bd 88 77 c7 3e
       0.2978262 0.47428438 -0.037678484 0.38958383
000320 a5 d8 d9 be 55 2d 91 be fe a1 59 3b 8e ce 87 3e
       -0.425481 -0.28354898 0.0033208127 0.26524776
000330 e1 ea 95 3d 48 51 09 3f aa fb 48 3e 89 86 bf 3e
       0.0732019 0.5363965 0.19627252 0.3740733
000340 00 c2 15 3e b2 29 de bd 24 f5 b7 be 12 5f 71 bf
       0.14624786 -0.108477965 -0.35929215 -0.9428569
000350 f9 03 8e be d8 66 c1 bd a5 a4 bc 3d bc f1 0b 3f
       -0.27737406 -0.09443444 0.09211091 0.5466573
000360 5d 10 a8 bb aa bf 60 be 34 3f bb be 39 43 8e 3f
       -0.005128904 -0.21948114 -0.36571658 1.1114265
000370 1f f1 f6 be 61 84 14 bf 8e c3 8d be 22 ea ec bc
       -0.48230836 -0.58014494 -0.2768826 -0.028920237
000380 b3 02 07 bf ea f1 10 3d d8 da a4 bd a0 db 21 3f
       -0.52738494 0.035386957 -0.08049554 0.63225746
000390 44 cd 06 bd e1 ca d8 3d 61 f4 1d bf 81 55 83 bd
       -0.0329106 0.10585571 -0.6170102 -0.06412793
0003a0 ee fe 15 be 7c 7c 3c 3f 28 94 91 be ff c7 60 3d
       -0.14648029 0.7362745 -0.28433347 0.05487823
0003b0 bb 72 34 bd 11 c8 56 3e 54 0e a2 3e b1 00 b5 3e
       -0.044054728 0.20974757 0.31651556 0.3535209
0003c0 40 4f ce 3e 16 c2 02 bf e7 79 94 3e 59 91 02 3f
       0.40294838 -0.510774 0.28999254 0.5100303
0003d0 ac 73 bf be b3 00 98 be e2 8b de 3e 2e df de bd
       -0.37392938 -0.29688033 0.43466097 -0.10882412
0003e0 b4 cd d8 be 88 50 13 bd 52 2b f8 3c 5d 14 d8 3d
       -0.4234444 -0.035965472 0.030294094 0.10550759
0003f0 a4 e1 e9 3e 9f a4 5a 3e 76 34 c2 b9 50 d8 0e be
       0.45679963 0.2135186 -0.0003704165 -0.13949704
